models/date-06-19-2025-15-29p1-RLbotp2-RLbotDDQNself_play-Falseexp_dir-RLbotepochs-50p1_win_rate-0.02p2_win_rate-0.98is_test-False/model.pth (torch, 117053 bytes, 6 tensors)

0.weight f4 [150, 84]
000000 05 ae 0a 3d 40 ac d7 3d 7a 49 92 3d 49 1b c3 bd
       0.033857364 0.10530901 0.07142921 -0.095266886
000010 9f 2a d9 3d 4e 48 86 bd 43 36 76 bd e7 37 d2 3d
       0.106038325 -0.0655676 -0.06011034 0.10264569
000020 e6 29 37 3d 85 5a da bc bc 0f 87 3d e9 e4 90 bc
       0.04471769 -0.026654491 0.06594798 -0.017687278
000030 c0 e5 fb 3d 5d 14 6c bd be 05 84 bc 0e d9 84 3d
       0.12299681 -0.057636607 -0.01611602 0.064867124
000040 b6 3e 56 bd 0e 4b 5b 3d ee 9b bd 3d 01 24 be 3b
       -0.0523059 0.053538375 0.09258257 0.005802632
000050 60 21 67 3c a9 78 65 bd 8e cf ca 3d 49 a4 ae 3d
       0.014107078 -0.056023274 0.09902869 0.08527429
000060 ff c4 86 bd 82 41 68 bd de 8c 3c 3c 26 b2 18 bd
       -0.06580543 -0.056703098 0.011508195 -0.03727927
000070 23 d1 0a bd 0a 6d 2d 3c 9d 32 46 bd 68 c4 0b bd
       -0.033890855 0.010585079 -0.048388112 -0.034122854
000080 dc f4 a5 3d 6a 04 96 3c d6 35 b0 3c 74 28 de bc
       0.08103344 0.018312652 0.021510046 -0.027118899
000090 d9 52 8a bd 5e 1a 22 bd b7 e8 91 3d 12 da 77 bc
       -0.06754083 -0.039575927 0.07124465 -0.015127676
0000a0 b3 0d d9 ba af 2e 3c 3d 0b 47 ab 3c 4e 36 b1 3d
       -0.0016559869 0.04594296 0.0209079 0.08652936
0000b0 b0 f9 a8 bd f2 cc 99 bc 13 74 b0 3d f3 75 bf 3d
       -0.08250749 -0.018774483 0.086158894 0.09348669
0000c0 a5 fe f3 3d 9a 03 88 3d f2 bf 11 3e 53 8e 9b 3d
       0.11913804 0.06641312 0.14233378 0.075955056
0000d0 26 b3 d4 bd f2 2e 97 bd 7b ad c1 bc a3 bc 74 bd
       -0.10385732 -0.07382001 -0.023642292 -0.05975021
0000e0 c0 7e a8 ba 7d 76 db 3d e9 28 97 3d f5 69 97 3d
       -0.0012855157 0.10715959 0.0738085 0.073932566
0000f0 de c5 b8 bd d9 b5 65 3d ff c6 e4 3d 11 8f fe 3c
       -0.09022115 0.056081627 0.11170768 0.031074079
000100 a2 c9 50 3d a8 b7 85 3c d0 7c dc 3d de 80 82 3d
       0.050973542 0.016322926 0.107659936 0.06372236
000110 ee 1a 00 3d 41 a3 23 bd 7a 63 5f 3d 8a e2 bb 3d
       0.031275682 -0.039950613 0.054538228 0.09174068
000120 2f e6 81 bd 4a 4f 3b bd ce 49 9c bd 5c 32 0a bc
       -0.06342732 -0.045729913 -0.076312646 -0.008434858
000130 e9 dc 03 3e 3f 06 a0 3b 9a d2 03 3d ed c8 cc 3c
       0.1287724 0.004883557 0.032183267 0.024998153
000140 35 16 e6 bd ae cc 8b 3d cc 6e c2 bb 8c 95 f8 bc
       -0.112347044 0.06826149 -0.005933618 -0.030344747
000150 3f 82 ce bd 72 26 dd 3d e9 37 77 3d a5 8c a5 3d
       -0.10083436 0.107983485 0.060356054 0.080834664
000160 df 79 5b 3d 38 9f d9 3d 3a 53 02 3d f5 fe 7e bd
       0.053583022 0.10626072 0.031817652 -0.062254865
000170 83 69 81 bb f5 a3 12 bd ab 60 99 bd 32 43 83 3d
       -0.0039493456 -0.035800893 -0.07489141 0.06409301
000180 6d 1a 92 bd 33 01 bb bd ae 25 50 bd 84 b2 f0 3d
       -0.071339466 -0.09131088 -0.050817184 0.11752799
000190 24 90 c2 3d 90 8f 24 3d 3f 74 66 3c ab 09 4f 3c
       0.09500149 0.040175974 0.014065801 0.012636582
0001a0 27 fd 85 bd 42 61 e2 3d 79 4a 76 3d 4e 09 93 bc
       -0.065424256 0.11053707 0.060129616 -0.017948773
0001b0 a7 22 ee bd 02 2a bd bd cb 9c d6 3c fd 90 7e 3d
       -0.11627703 -0.09236528 0.026197812 0.06214999
0001c0 05 34 72 bc f3 ed e6 3c 24 62 5a bd 6d f8 ef bd
       -0.01478291 0.028189635 -0.05331625 -0.11717305
0001d0 6c 19 3b bd 46 62 ea bd ce 52 99 bd cc 45 ef bc
       -0.04567854 -0.114445254 -0.07486497 -0.029208086
0001e0 aa 56 5a 3d 2b d9 e1 bd 26 70 b3 bb 9b 7a ab 3d
       0.053305306 -0.1102775 -0.0054760156 0.083729945
0001f0 a2 67 ee bd c5 74 43 bd 7e 8e 82 bd 92 26 ca 3d
       -0.1164086 -0.047718782 -0.063748345 0.09870638
000200 5b 45 98 bd 3d 51 cd bd 73 7b d8 bd 5f 28 b9 3d
       -0.074351035 -0.100252606 -0.10570421 0.09040903
000210 87 84 b7 3d 95 32 85 3d 23 ef a5 bd d1 29 03 bd
       0.089608245 0.065037884 -0.08102252 -0.0320223
000220 20 de 9b 3d 5c d7 b8 3c a0 2f 14 bd 55 bb dc bd
       0.07610726 0.022563629 -0.03617823 -0.10777918
000230 d7 fb ad bd fd 4b 64 bd a0 e8 0e 3d 49 c4 2b bd
       -0.084953 -0.05573653 0.034889817 -0.04193524
000240 f8 34 92 3d d3 7c 8e bd b1 71 62 3c 1d 4c a2 3d
       0.07139009 -0.06957402 0.013821051 0.07924674
000250 dd 57 cb 3d 61 9c d4 bd 56 42 16 bd 0a ab d5 3d
       0.09928868 -0.103813894 -0.036684357 0.10433014
000260 89 40 ab bd f3 f3 a3 bd 22 53 3a 3d 01 f7 77 bd
       -0.083619185 -0.08005514 0.045489438 -0.060538296
000270 06 c7 8b bd 41 33 9f 3c 2c 38 15 bd 60 7b 40 3d
       -0.0682507 0.01943362 -0.036430523 0.04699266
000280 e7 db 6f 3d e8 99 50 3d 49 bf cc 3b 0a a4 bb bd
       0.058559325 0.050928026 0.006248389 -0.09162147
000290 cf 9f b9 3d 28 08 78 3c e9 c0 af bd e4 bd ed 3c
       0.09063684 0.015138663 -0.085817166 0.029021211
0002a0 93 fd ad 3d fc 13 cb bc e5 95 54 3d 05 f4 03 bd
       0.08495631 -0.024789803 0.051900763 -0.032215137
0002b0 99 fe 72 3d 5b 0a c5 bd 05 1f df 3d 8b ac 87 3c
       0.059324834 -0.09621116 0.108945884 0.016561767
0002c0 92 18 1a bd 15 02 23 bc d6 19 2f 3d 60 4e 9d bc
       -0.03762109 -0.009949227 0.04274925 -0.019202411
0002d0 35 91 94 bd df ef ca bd 08 b9 51 3d 96 41 10 bd
       -0.072542585 -0.09909033 0.05120185 -0.035218798
0002e0 bd 2a e2 bc 1b 3c c6 3d 00 d9 3d 3d fb 75 bd bd
       -0.02760827 0.09679433 0.046349525 -0.092510186
0002f0 0e b3 b2 bd 37 4b 77 bd c4 45 65 bd 1e d6 27 bc
       -0.08725558 -0.060374465 -0.055974737 -0.010243921
000300 6e 55 37 bd 76 b9 fd bc 1e a0 a6 3d c1 fc 82 bc
       -0.044759206 -0.030972224 0.08136009 -0.015989663
000310 7f d3 8f bd 8b 19 5e bd fd 39 b8 3d 2b c9 8d bd
       -0.070227616 -0.05422358 0.089954354 -0.06923135
000320 8e d8 02 3e 0c ee 94 bc c3 d9 11 bd 7e 5b 85 bd
       0.12777922 -0.018179916 -0.035608064 -0.065115914
000330 08 db a4 3c 6e 77 4e bb f3 2a 80 bd 9b 34 25 3d
       0.020123973 -0.003150429 -0.06258192 0.04033337
000340 5c ff 15 3b e7 a6 ec bd ca 8b a8 3c d0 cc 80 3d
       0.0022887802 -0.115552716 0.02057447 0.06289065
000350 04 89 7c bc be 12 a4 bc 40 59 cc 3d 58 cb 1f 3d
       -0.015413526 -0.020028468 0.099779606 0.039012283
000360 d6 0a 6f bd 01 58 b6 bd 60 07 b3 3c fe 5d 3b 3d
       -0.058359943 -0.08903504 0.021854103 0.045743935
000370 a4 c9 3b 3c 1e 01 4d bd fc 38 f3 3c da b1 a2 bd
       0.011461649 -0.050049894 0.029690258 -0.07944079
000380 77 f1 c2 3d b8 6a c9 bd 69 ee 82 3c f1 cb 70 bd
       0.09518712 -0.09834808 0.015982823 -0.058788244
000390 5c 03 c8 bb f4 c5 02 bc 81 d5 9e bd 24 8f c7 bc
       -0.006103916 -0.007981766 -0.077555664 -0.024360247
0003a0 78 08 96 bc de 86 d7 bd 5d 92 99 3d 71 e1 95 bd
       -0.018314585 -0.10523771 0.0749862 -0.0731839
0003b0 c8 85 b3 3c 85 74 c2 bc db 6c 65 3d f8 86 12 bd
       0.021914378 -0.023737201 0.056012016 -0.035773247
0003c0 7d 5f f8 3d 0c 59 60 bd b3 76 b9 3d 37 6a 26 bd
       0.12127588 -0.05477242 0.09055843 -0.040628638
0003d0 3e 94 8b 3d 23 a5 8c 3d fc 83 2c bd cd b0 00 bc
       0.06815384 0.06867435 -0.042118058 -0.007854653
0003e0 95 a3 6b 3d 34 8b 34 3b fd b6 da 3c 11 28 9c 3d
       0.05752905 0.0027548792 0.026698584 0.076248296
0003f0 58 12 40 bd 94 90 95 bd 7f 7a 5c bb d8 f9 dd 3d
       -0.046892494 -0.07302967 -0.003364235 0.108386695

0.bias f4 [150]
000000 e7 86 bd 3d d0 89 14 bd 30 c6 60 bc 95 3f 5b bd
       0.09254246 -0.03626424 -0.013719127 -0.053527433
000010 99 29 6e bd e7 20 c2 3d 95 ce d7 3d 26 29 65 3d
       -0.05814514 0.09478932 0.10537449 0.055947445
000020 12 6c cf bb f6 0f 53 3d 61 d9 d2 bb d3 eb ff 3b
       -0.0063300217 0.051528893 -0.006434605 0.007810095
000030 d9 1c a0 3d d0 2f d9 3d c8 51 25 bd 0e d4 59 3d
       0.07818002 0.10604823 -0.040361196 0.053180747
000040 96 50 c9 bd b7 f3 aa bd c6 81 8c 3d 1b 36 08 3e
       -0.09829824 -0.08347266 0.0686069 0.1330189
000050 a5 ea aa 3d de c1 1d bb f8 95 eb bd 27 70 4c 3d
       0.08345536 -0.0024071853 -0.11503214 0.049911644
000060 ba 86 98 3d c5 00 97 3d 49 53 be bd 88 e5 92 bd
       0.07447572 0.07373194 -0.09293229 -0.07172686
000070 26 6e c2 ba 7d 7e a5 3d d4 1e ec bc 7f 1a e4 3d
       -0.0014833852 0.08080766 -0.028823294 0.11137866
000080 1f 46 0e 3e b3 3a b3 3d 4e d3 3d bc 1b c4 82 3d
       0.13893937 0.0875143 -0.0115860235 0.063850604
000090 7c 2d 13 3d ba ee b3 3d a0 77 e7 3c d0 0d c3 bd
       0.03593205 0.08785768 0.028255284 -0.09524119
0000a0 00 bd 0f 3e 7b f9 ad 3d d8 b5 01 3e 34 15 b5 3d
       0.14036942 0.0849485 0.12667024 0.08841935
0000b0 b8 2e 94 3d 85 0d da bd 91 f9 b4 bd 42 68 f4 bd
       0.072354734 -0.1064711 -0.088366635 -0.11933948
0000c0 ae 6d 31 bd 77 1c b0 3d 92 02 9b bd 48 ce 39 3e
       -0.04331749 0.08599179 -0.075688496 0.18145096
0000d0 52 80 72 bd d6 5d 66 bd 65 f3 11 3e 7a 1b 64 bc
       -0.059204407 -0.056241833 0.14253004 -0.013922567
0000e0 d5 70 42 3d ff c0 ac 3d d7 6b ca bd 36 04 a3 3d
       0.047470886 0.084352486 -0.0988385 0.079597875
0000f0 3d 53 d2 3d 52 47 0a bd c3 31 2b bd 30 5c cc 3d
       0.10269783 -0.033759423 -0.041795503 0.09978521
000100 c9 f2 ae 3d 1d 4b b4 bc 7c bd b8 3d ab d7 2b 3c
       0.08542401 -0.022008473 0.09020516 0.010488431
000110 1d 53 c0 bc 61 ff 72 bd 59 6f 3c 3d 44 76 98 3c
       -0.023477132 -0.05932558 0.046004627 0.018611081
000120 03 4e db 3c 37 79 ad 3d 52 a9 c8 3c fe 46 0a bd
       0.026770597 0.084703855 0.0244948 -0.03375911
000130 0f 48 45 3d c1 e0 a1 bd 60 63 29 bd d0 55 07 bc
       0.048164424 -0.079041965 -0.041354537 -0.008260205
000140 41 10 66 bd 34 df ee bd d1 a6 47 3c 29 62 dc 3d
       -0.056167845 -0.11663666 0.012185768 0.1076091
000150 3d 46 0e 3c 19 b3 88 3d 17 03 93 bd 4b 2b 84 bd
       0.008683738 0.06674785 -0.07178324 -0.0645357
000160 a1 53 04 3d 6d b7 0e 3e 43 f6 f0 3d ff 75 f3 3d
       0.032306317 0.13937159 0.11765721 0.1188774
000170 32 18 e8 bb 30 fe db bd 4b 39 8d 3c e0 84 6d bd
       -0.0070829624 -0.10741842 0.017239233 -0.057988048
000180 1a 3c d5 bd d2 39 a3 3d 06 99 29 3e 7a cd de bd
       -0.10411854 0.07970013 0.1656228 -0.10879035
000190 2f 5a d6 bc c2 a1 cd 3d ca 40 e4 bc da 9e 23 bd
       -0.02616605 0.100406185 -0.027862925 -0.039946415
0001a0 d5 2b 23 3d ad e4 a9 bd 90 56 23 3d bc b1 81 3a
       0.039836723 -0.082955696 0.039877474 0.0009894888
0001b0 d7 5d 60 3d 6a bd fc 3d ff 34 53 3d 2d e6 b0 3d
       0.054776993 0.12340815 0.051564213 0.086376525
0001c0 09 33 34 3d 38 08 a4 bd 35 98 c7 3d 2b ef 29 bd
       0.043993983 -0.0800938 0.09745828 -0.041487854
0001d0 3c 89 ec 3d e2 94 a5 3d 46 f6 53 bd e6 1d 6b bd
       0.11549613 0.08085038 -0.051748537 -0.05740156
0001e0 d4 e3 4e 3c 75 54 a2 bc 3f c1 04 3e 92 97 a7 3d
       0.012627561 -0.019815663 0.12964343 0.081832066
0001f0 ae b1 c3 bc 19 3b 2e bd f9 17 54 bc 56 5e a6 3d
       -0.023888435 -0.04253683 -0.012945169 0.08123462
000200 df 98 1e 3e 5e c9 b9 3c 3e 5b aa 3d f1 be 61 3c
       0.15488003 0.022679027 0.08318184 0.013778434
000210 5d f2 fc 3d 58 80 d6 bc a0 85 63 bd 0e 8b 88 bc
       0.123509146 -0.026184246 -0.055547357 -0.016667869
000220 fb 60 b3 3d bd c9 96 bc bd 12 22 3e f0 7e 4d 3d
       0.08758732 -0.018406743 0.1582746 0.050169885
000230 f7 4f 91 3d f5 da 16 bc bf a6 d1 3d 30 43 90 bd
       0.0709533 -0.009207477 0.102368824 -0.07044065
000240 f2 d3 ce 3d b8 d2 5e bd 1a 22 dd bb c2 36 be 3d
       0.10099019 -0.054400176 -0.00674845 0.09287788
000250 ce 38 27 bd 8c 68 16 bd
       -0.040825658 -0.036720797

2.weight f4 [100, 150]
000000 4b da 01 3d 8a 10 03 bd 53 37 69 bd e2 fb 45 bd
       0.03170232 -0.031998195 -0.056937527 -0.048335917
000010 a3 b1 86 bb a0 82 c6 3d 93 bc 36 3e fe 3d 17 bd
       -0.0041105314 0.096928835 0.17845373 -0.036924355
000020 9e e8 83 bd 56 ad 12 3c 15 67 88 3d 73 f9 89 3d
       -0.064408526 0.008952459 0.06660286 0.06737032
000030 55 73 f6 3a 8b ba a5 3c 56 6b 73 3d 09 60 a7 3d
       0.0018802682 0.020230552 0.059428535 0.08172614
000040 18 10 8c bc 64 23 73 3d 17 8d cd 3c 28 7c 88 3d
       -0.017097518 0.059359923 0.025091691 0.06664306
000050 89 5f 33 3d c0 9d 0d 3c 0d 1d 67 3d a3 ca e3 3d
       0.04379228 0.008643568 0.05642419 0.11122634
000060 92 55 08 3d bd 81 37 3d a9 6f 0c 3c 1b a1 a0 3c
       0.03328473 0.044801462 0.008571544 0.019608071
000070 f6 d5 25 bd 96 ed 32 bd ae d2 96 3d 74 17 4d 3d
       -0.040487252 -0.04368361 0.07364403 0.050071195
000080 6a 23 ac 3d 21 dc 8b 3d 9f b9 cb bc fb a6 7e 3d
       0.08405192 0.06829096 -0.024868784 0.062170964
000090 3f 7d 3c 3d fd 69 1e bd 78 06 1f 3d dd 43 aa 3d
       0.04601788 -0.038675297 0.03882453 0.08313725
0000a0 f7 ef 44 3d 72 c5 83 3d c3 59 01 3e 68 ad a5 3d
       0.04808041 0.06434144 0.12631898 0.08089715
0000b0 ba 2a b1 3d bd 93 42 bb 6d 75 7e bd 66 17 0e bd
       0.086507276 -0.002969011 -0.062123705 -0.034690283
0000c0 29 71 ba bd f6 74 5e bc 7e e2 a8 bc d3 1b be 3d
       -0.09103615 -0.01357769 -0.020615812 0.09282651
0000d0 0e ba bd bc 9e df 44 3d fc fb ca 3d be 84 41 bd
       -0.023160007 0.04806482 0.099113435 -0.047245733
0000e0 12 cf 24 3c 58 60 be 3c 58 dc 88 bd 69 dd 78 3d
       0.010059135 0.0232393 -0.06682652 0.06075803
0000f0 cc 84 cb 3d 71 14 8a bc 87 89 15 bd 3c a5 69 bc
       0.09937438 -0.01685545 -0.03650811 -0.014260586
000100 16 7d 0b bd 51 73 8c bc 40 5c 99 3c 4f 8d db 3c
       -0.034054838 -0.01714483 0.018720746 0.02680078
000110 54 1e 28 bc 31 69 e9 3b fa 8d c7 3d 0f cd 9e bc
       -0.010261137 0.0071231355 0.09743877 -0.019384889
000120 bf ca b6 3a e4 14 85 3d 7c 70 4d bd 9a 32 20 bb
       0.0013945921 0.06498125 -0.0501561 -0.0024444223
000130 7f f9 f6 b9 f4 9a 4c 3d 6e 3d e8 3c 28 3d fc 3c
       -0.00047106665 0.049952462 0.028349604 0.03079088
000140 09 91 1e 3c 2f d8 76 bd 33 b2 42 bd 6a fd 2e 3c
       0.009678134 -0.060264762 -0.047533225 0.010680536
000150 3f be f6 bc 65 b3 9a 3d 2f eb 97 3d 83 4a ec bc
       -0.030120013 0.07553748 0.074179046 -0.028844124
000160 dc d4 b6 3d e3 05 52 3d da ae 91 3d 2c 9a 93 3c
       0.089273185 0.051275145 0.071134284 0.01801785
000170 de 27 c9 bb b0 98 81 bd 0b b2 88 3d f7 62 8c 3d
       -0.0061387857 -0.06327951 0.06674584 0.068548135
000180 79 a2 7b bc 3c 81 d0 3c d2 7e 1a 3e b3 ca 3b 3d
       -0.015358561 0.025452249 0.1508744 0.045847606
000190 fc 19 ae 3d ab c3 ac bc c5 af 35 3c 06 15 1c bb
       0.0850105 -0.021089396 0.01108927 -0.0023816242
0001a0 25 56 9c 3d 39 9f c7 3d 1e b0 b6 bd 2c f1 7c bd
       0.07633618 0.09747166 -0.089203104 -0.061753437
0001b0 d7 25 ec 3b 4d 1d 8e 3d 0a 2c d6 3d 5c 20 49 3d
       0.0072066593 0.069391824 0.104576185 0.049103126
0001c0 ca 4b d7 bc 8c bb 87 bc aa d0 4b bc 5c b2 4d bd
       -0.026281256 -0.016568922 -0.012439886 -0.050218925
0001d0 11 5b f2 bc e6 36 17 bd 6c 57 36 bd 6d 89 38 39
       -0.02958444 -0.03691759 -0.044516966 0.00017598803
0001e0 77 5b df 3c b2 a0 a3 bd 26 5b cc 3d 6b 27 e3 3c
       0.027265294 -0.079896346 0.09978323 0.027728757
0001f0 45 ed 79 3d 94 36 c4 bd a6 74 48 bc 6a ce 15 3d
       0.061017293 -0.095807225 -0.012234842 0.036573805
000200 3b 52 c0 3c e3 ca a2 bb 10 33 8b 3b 44 40 57 bd
       0.02347671 -0.0049680336 0.0042480305 -0.052551523
000210 f9 2a ea bc b5 68 67 3d b6 7d 86 bd 4f b9 62 bd
       -0.028584944 0.05649634 -0.06566946 -0.055352505
000220 8b 39 8e 3d 76 c4 a5 3d 3d f1 2f bd fb d4 3c 3c
       0.06944569 0.080941126 -0.042954672 0.011525388
000230 c6 e9 ac 3d 8f 15 ab bd 26 15 f7 3c 40 12 ad 36
       0.08443026 -0.08353721 0.030161452 5.1579264e-06
000240 f7 67 c6 3d 69 67 ac bc 79 cd 96 3d 8a c4 27 3b
       0.096877985 -0.021045404 0.073634095 0.0025599324
000250 67 c4 2e 3d 3a e5 aa 3b 44 37 6f 3d d0 c9 a6 bc
       0.042667773 0.005215314 0.058402315 -0.020359904
000260 eb 13 96 3d e7 54 cd bc 1b d2 b5 bd 8c 9d fc bb
       0.07328018 -0.025064899 -0.08877965 -0.0077092107
000270 8d 70 73 3c 84 26 9f 3d ad 61 13 3d 48 e4 63 3b
       0.014858377 0.07771018 0.035981823 0.0034773517
000280 59 2e b0 3d c7 0f e2 bd f2 6a b8 3d 58 38 20 bd
       0.0860259 -0.110381655 0.09004773 -0.039116234
000290 32 a8 ec 3c df 57 ad 3d 3b ab a7 3d ef ac 80 bc
       0.028888796 0.08464026 0.081869565 -0.015707461
0002a0 f1 70 1a bc 64 01 f7 3d f3 cd b2 3d 65 5d d7 3d
       -0.009426341 0.12060812 0.08730688 0.105158605
0002b0 26 cd 7d bd 32 a6 ec bb 6d 40 5a 3c 7f 89 05 bd
       -0.061963223 -0.0072219605 0.013321024 -0.03260183
0002c0 a0 d2 db bc 34 13 97 3d 40 e5 aa 3d 0f a4 a3 3d
       -0.026833832 0.073767096 0.08344507 0.07990276
0002d0 dc 88 3c 3d 42 df 0a 3b 5c bb b0 bd 64 84 e9 3c
       0.046028957 0.00211902 -0.08629486 0.028505512
0002e0 ff 2a 3d bc f3 23 e0 bc 0a 72 c2 3d e9 20 33 3d
       -0.011545896 -0.027360892 0.094944075 0.043732557
0002f0 1e c5 a3 3d e2 f1 0c 3d 1c 04 3a bd f9 91 03 be
       0.079965815 0.034410365 -0.045414075 -0.12848653
000300 1c 36 cc 3d 76 c9 dd 3d fe a0 79 bc e9 30 95 bd
       0.09971258 0.10829441 -0.015236137 -0.072847195
000310 fa 7a 57 3d fb 79 94 bc f2 5d 3a bd ed fb 0b be
       0.052607514 -0.018124571 -0.04549975 -0.13670321
000320 ea 0f 04 3d 47 d7 0f bd 0a 42 e7 ba 2f aa f9 bd
       0.03224174 -0.035117414 -0.0017643583 -0.12190663
000330 41 ea c0 bd 49 ab a0 bd 62 10 e2 bd b4 ee da bd
       -0.094196804 -0.0784517 -0.11038281 -0.1069006
000340 ef 00 66 3d c0 96 a8 3d dd 52 b8 bd f8 13 12 bc
       0.056153234 0.08231878 -0.0900018 -0.008915894
000350 43 3e 12 3c 0f 87 c7 3d 2d cd f5 bc 0f 0c a0 3c
       0.008925977 0.09742557 -0.030005062 0.019537
000360 90 88 b4 bd 8e ad b1 bc bf 58 b1 bc 7a cd b5 bc
       -0.0881511 -0.021689203 -0.021648763 -0.022192705
000370 c0 36 2b 3d fd 51 83 3d 8b da b1 3d 78 0d 85 3d
       0.04180026 0.064121224 0.08684262 0.064967096
000380 17 4e 51 bd 9d ac f2 3d da f2 a6 3c eb 05 84 bd
       -0.051099863 0.118493296 0.020379473 -0.06446441
000390 1d cf 02 3d a3 33 56 bd 6a 49 aa bd e8 bb 89 bc
       0.0319358 -0.05229534 -0.08314784 -0.016813233
0003a0 89 26 75 3d 4b 5c 67 3d b1 ef d8 3d b4 a6 d4 bd
       0.059851203 0.0564845 0.105925925 -0.103833586
0003b0 7a d6 3b bd d9 cf 5b 3d ff 29 0a bd 1c d8 cb bd
       -0.045858838 0.053665016 -0.033731457 -0.09953329
0003c0 af 68 e4 bc e6 76 df 3d 05 1f f4 bd 60 d4 21 bd
       -0.027881948 0.1091135 -0.11919979 -0.039509177
0003d0 41 ed ca bd e9 38 7a bd 00 0d f9 bc c3 eb a2 bd
       -0.09908534 -0.06108943 -0.030401707 -0.07955124
0003e0 21 51 7b bd ba 9d 97 3a 76 9b d8 3c ac f0 e8 bb
       -0.061356667 0.0011567392 0.026441317 -0.0071087684
0003f0 03 cf b9 bd 0e 93 13 bc 83 68 d5 3d a3 a0 39 bd
       -0.090726875 -0.009007229 0.10420325 -0.04531921

2.bias f4 [100]
000000 cf 23 a4 3d 17 14 17 bd f7 79 8a bc 78 c0 46 bd
       0.080146424 -0.036884394 -0.01690386 -0.048523396
000010 d5 5c 6a bd 78 43 ac 3c 09 77 6e bd 1a 16 86 bd
       -0.057217438 0.021028265 -0.05821899 -0.06547184
000020 f1 18 a4 3d ce 43 47 bd 8d f5 bc 3d de d1 e8 bc
       0.0801257 -0.048648648 0.092265226 -0.028420385
000030 49 7a 18 bd b3 d9 83 bd 93 cf 9f 3d 23 f7 9e 3c
       -0.037225995 -0.06438007 0.078032635 0.019404953
000040 f2 43 1d 3d 5e 14 28 bc 8a 92 38 bd d7 6f 02 bd
       0.038394876 -0.010258762 -0.045061626 -0.03184494
000050 78 a8 80 bb bf 63 80 3d b6 62 90 3d bf 02 7c 3d
       -0.003926333 0.06269025 0.070500776 0.061526056
000060 22 cb a8 3c 87 f0 58 3d 65 be 8c bc 32 8d e1 3c
       0.020604674 0.05296376 -0.017180631 0.027533147
000070 23 c4 9b bd 4e 11 c8 3c a9 51 4d bd 3c 4f e8 bc
       -0.076057695 0.024422314 -0.050126705 -0.028358094
000080 1c 36 4f 3d e4 42 4b 3d 48 4a 32 bd f0 83 43 bd
       0.050588712 0.04962434 -0.04352787 -0.047733247
000090 0c 1b a7 3c 92 d7 ad bd 53 c2 03 bd 5a c9 46 bb
       0.02039864 -0.084883824 -0.032167744 -0.0030332417
0000a0 a8 70 87 bd a6 34 9a bc 45 0a fe 3c 4f 44 38 bb
       -0.06613284 -0.018823933 0.031010756 -0.0028116887
0000b0 ab 41 b8 bc 37 39 af bd cb 91 78 bd fd a4 53 3d
       -0.02249225 -0.08555835 -0.060685914 0.051671017
0000c0 9e 6c c3 3c 80 b0 97 3d 13 89 92 3d 67 d8 9f 3c
       0.023855504 0.074067116 0.07155051 0.019512368
0000d0 44 03 99 bb 33 fe b7 3d de f7 3b bc 84 e9 98 bd
       -0.0046695787 0.089840315 -0.01147267 -0.074664146
0000e0 f0 31 be 3c 5c b0 4a bd c8 3d 82 b7 6c 6f ee bc
       0.023217171 -0.049484596 -1.5525977e-05 -0.029105864
0000f0 c2 2b a8 bb 88 38 b2 3d e9 4a 78 bd 8a 30 6e bd
       -0.0051321695 0.08702189 -0.060618315 -0.05815176
000100 4f 82 02 bc 4b a2 36 3c aa ca 62 bc 22 ae 6e 3d
       -0.007965638 0.011147092 -0.013842264 0.058271535
000110 77 9d a2 3d e9 e0 38 3c e0 f4 80 3d b9 b9 32 3c
       0.0794019 0.0112840915 0.06296706 0.010908538
000120 f0 0b 83 bc 5b 33 5e 3d 26 6c 69 bd f6 bf 4d bd
       -0.015996903 0.054248195 -0.056987904 -0.050231896
000130 08 97 33 3d 6e f7 aa bd 6c 28 46 3d a4 70 12 bb
       0.043845206 -0.08347975 0.048378393 -0.002234497
000140 82 06 b1 3d 1b 1e 8b 3d cd 7d ac 3d ac 36 96 bc
       0.086438194 0.067928515 0.08422432 -0.018336616
000150 97 86 2f bd bf 7d d5 bb 75 42 3f 3d 16 9a 49 bd
       -0.042852964 -0.0065152342 0.046694238 -0.049219213
000160 f5 c9 cb 3b 94 f2 5c 3d e6 a7 55 bd b8 0f 39 bd
       0.0062191435 0.053942278 -0.052162074 -0.045181006
000170 5e 77 b6 3c af 52 9c bc ca 59 6c 3d 02 62 3e bc
       0.022273716 -0.019082395 0.057702817 -0.011620047
000180 12 67 8e bd 19 d7 17 bd 10 4d de 3b a9 b8 18 bc
       -0.06953253 -0.037070367 0.006784089 -0.00932137

4.weight f4 [7, 100]
000000 bc 89 84 3d 10 2e 55 bd 87 1b 26 bd ab 0b 18 3d
       0.06471583 -0.05204588 -0.040553596 0.037120502
000010 6c d9 26 bc a1 8f 8c bb f6 c0 c2 bd a7 45 d6 3c
       -0.010183673 -0.004289583 -0.09509461 0.02615626
000020 0b b0 4c 3c ec 64 c5 bc 13 c6 57 3a 9b 02 32 bc
       0.012493144 -0.024095975 0.00082311145 -0.010864879
000030 17 04 3f bd 6a 72 ea 3d e6 0a 13 3c f8 3c 39 3d
       -0.04663476 0.11447604 0.008974766 0.04522416
000040 1f 4e 11 3d 3c ed 2e bd 9a 67 91 3a 3a 66 b0 3d
       0.035474893 -0.042706713 0.0011093498 0.08613248
000050 89 71 0d bd 26 c4 6e 3c 98 f8 2b bd c0 ad 7e 3b
       -0.034532104 0.014573133 -0.041985124 0.0038860887
000060 fa 80 37 ba 05 81 fa bb 8a 98 0a bd 1e 3b fe 3d
       -0.0007000115 -0.007644775 -0.03383688 0.124136195
000070 f0 6f 97 3d bf e6 93 bd 92 4c 42 bd 79 85 2b bc
       0.07394397 -0.07221746 -0.047436304 -0.010468834
000080 a1 95 5a 3d 26 eb ce bb b2 14 9a 3d 53 bd 97 3d
       0.053365353 -0.006314653 0.075234786 0.074091576
000090 68 fc be 3c c0 88 d1 3c 65 94 ad bd f5 a0 d1 bd
       0.023313716 0.025577903 -0.0847557 -0.10235778
0000a0 27 6c 2e bc c6 d7 cb 3d 1a e3 3a 3d f6 76 23 bc
       -0.010645903 0.09953265 0.045626737 -0.009977093
0000b0 ec 72 7a 3d c1 15 8f 3d 92 09 85 3d ff 24 63 3d
       0.061144754 0.06986571 0.06495966 0.055455204
0000c0 e6 e9 de 3d 34 aa 90 3d 28 17 37 bd 3f 4b d0 3d
       0.10884456 0.07063714 -0.044699818 0.10170602
0000d0 c4 bd eb 3c 10 d8 5f bd b1 f1 bf 3d a1 c2 96 bd
       0.02877701 -0.054649413 0.09372271 -0.07361341
0000e0 ea fd 88 3d e0 56 97 bd 63 08 21 bd 56 37 3a bd
       0.06689055 -0.07389617 -0.03931464 -0.04546293
0000f0 ae 3f 89 3d 14 0c eb bc c0 f7 05 bc c0 98 70 bd
       0.06701599 -0.028692283 -0.008176744 -0.058739424
000100 30 eb b4 3c 17 8a 8b 3c d0 4d 9c 3d 00 f7 75 3c
       0.022084802 0.01703362 0.07632029 0.015012503
000110 fc bf 47 3d a8 2f 92 3d b4 47 ad bc c6 e1 9f bd
       0.048767075 0.07137996 -0.021152355 -0.07806735
000120 f0 01 ae 3d 5c db 9b bc 5c a1 a7 bd bf e8 16 3d
       0.08496463 -0.019025497 -0.08185074 0.036843058
000130 3d 34 94 3d a2 25 d9 bc 34 3c 72 bd 04 e9 84 3d
       0.07236526 -0.026507203 -0.059139445 0.06489757
000140 9c 7c 73 bd 69 44 a3 bd cd 91 12 3b 71 f1 03 3d
       -0.05944501 -0.079720326 0.0022364736 0.03221268
000150 1e 22 89 bd 9a a9 b0 3b ae a9 de 3d 76 57 a3 bd
       -0.066959605 0.005391312 0.108722076 -0.07975666
000160 6e 68 e0 3d 70 1b 1b bd 80 6c 4f 3d e1 fe 28 bd
       0.109574184 -0.037867963 0.050640583 -0.041258696
000170 7c 36 37 3d 24 0f f0 3d 45 c2 b7 3d e8 16 9f 3d
       0.044729695 0.11721638 0.08972601 0.07768041
000180 7d a4 06 bd 6c fd 28 3d 00 b6 34 3a 0c e9 1b bb
       -0.032871712 0.041257307 0.0006893575 -0.002379003
000190 87 d6 d5 3d e8 c7 75 bd a8 e3 ad 3d a2 fe ad bd
       0.104413085 -0.0600051 0.084906876 -0.08495833
0001a0 d9 07 87 3d 28 d9 c0 bb da 51 da 3d d3 46 c5 bc
       0.06593294 -0.005885262 0.10660143 -0.024081623
0001b0 44 e3 ea bd 37 55 e6 3c ab 36 bf bd fb 93 c0 bc
       -0.11469129 0.028116805 -0.09336599 -0.023508063
0001c0 1c f5 8d bd a9 a8 16 bd 2b db 7a 3d d5 7a 5b 3b
       -0.069315165 -0.03678194 0.06124417 0.0033489962
0001d0 57 5b e8 bd b8 80 8b 3d 93 80 fa bc 10 77 19 3d
       -0.11345547 0.068116605 -0.030578887 0.037467062
0001e0 77 38 4d bd 46 23 f5 bd 47 a3 0a be 6e 43 09 be
       -0.050102677 -0.119696185 -0.13538848 -0.13404629
0001f0 15 81 a8 3c a5 9b c8 3c e8 64 c8 bd 0e 59 6c 3d
       0.020569364 0.02448828 -0.09784871 0.057702117
000200 67 a4 71 3d 5d d9 1f bd c1 e3 17 bd 15 a1 69 bd
       0.058994677 -0.039025653 -0.037082437 -0.057038385
000210 30 6a 9b bd c3 35 e7 bd ca ed b0 3c b2 23 b6 3d
       -0.07588613 -0.11289551 0.021597762 0.08893527
000220 50 7e a9 bd 12 b4 10 3b 35 59 7c 3d 00 33 a1 3d
       -0.08276045 0.0022079987 0.061608512 0.078710556
000230 5d 64 cb 3d c0 8b c1 bd 51 d7 b0 3c f7 a9 c8 3d
       0.09931252 -0.09450483 0.021587046 0.09798043
000240 fc 34 a8 3d 1a 8a af 3c cf 8d 8c 3d 42 2b 97 bd
       0.08213231 0.021428157 0.06862985 -0.07381298
000250 f7 a3 01 be 36 7a e7 bd 6e 16 e7 bd af 37 c5 bd
       -0.12660204 -0.11302607 -0.11283575 -0.096297614
000260 71 5d 85 3d 99 b5 a9 bd 5d 43 c7 bd 88 2e a5 bd
       0.06511963 -0.0828659 -0.097296454 -0.08065516
000270 0d 5c 30 bd 49 a7 09 be 92 40 d3 3c fc c7 d5 bd
       -0.043056536 -0.1344272 0.025787625 -0.104385346
000280 0c 71 2c 3d dd 70 dc bd d7 3a 2e 3d 3b 37 bc bd
       0.042099997 -0.107637145 0.042536583 -0.09190222
000290 56 23 d9 ba 1d dd e9 bd 2d 56 89 3c 51 15 b3 3d
       -0.0016566317 -0.11419127 0.016764725 0.087443
0002a0 0d e7 67 bd 66 0c 66 bd a7 ab c6 3c e3 e4 48 bd
       -0.05661683 -0.056164168 0.024251772 -0.04904641
0002b0 40 aa 59 bd 9d 1f a9 3d 42 87 23 3d cb 48 b6 3d
       -0.05314088 0.08257983 0.039923914 0.08900603
0002c0 2e 99 f9 3d 8d f3 f8 3c cc 92 9e 3b a0 c5 b1 bd
       0.1218742 0.030389572 0.004839277 -0.08680272
0002d0 48 8f 3e bd 80 3a 40 bd 1d 43 8a bd 18 80 24 bd
       -0.046523362 -0.04693079 -0.06751082 -0.040161222
0002e0 4e 15 36 bd 48 a7 5e 3d e7 45 99 3d 88 7f 2a bc
       -0.04445391 0.05435875 0.07484036 -0.010406382
0002f0 83 8c 1d 3d b1 41 ef bd 8a 82 0e bd 05 13 6b bd
       0.03846408 -0.116824515 -0.03479246 -0.057391185
000300 e1 9a f8 3d b0 8e 6f 3d 9e e5 97 bd 9f e2 6b 3d
       0.12138916 0.058485687 -0.07416843 0.05758917
000310 75 4d a8 3d cf 2d 03 be ca 37 c7 3b 93 26 ae bb
       0.08217899 -0.12810443 0.0060796486 -0.005314657
000320 e9 6a 4b 3d 6d e3 28 3d df c8 2b bd 8d 9d 02 bb
       0.049662504 0.041232515 -0.041939612 -0.0019930333
000330 4d 5c b1 3d 2f f5 38 3c 85 13 94 bd b3 1b 92 bd
       0.08660183 0.011288925 -0.072302856 -0.071341895
000340 ea 09 8b 3d d9 79 4e bd 35 ef a8 bc f9 ab 16 3d
       0.06789 -0.05040917 -0.020621875 0.0367851
000350 34 f4 5d bd 1c 11 9a bd 66 21 da 3d 99 ab 91 bd
       -0.05418797 -0.075227946 0.106509015 -0.07112808
000360 73 5d 31 bd 8d d1 90 bd 73 a3 dd bc 30 e7 18 3d
       -0.04330201 -0.07071219 -0.027055478 0.037329853
000370 2a 69 e6 3c a5 39 bc bc 9a 97 80 3d f4 39 0e bb
       0.028126318 -0.022976706 0.06278916 -0.0021702023
000380 f2 67 2e bd 89 5e ea 3d af 7e b5 bb 89 d0 bc bc
       -0.0425796 0.114438124 -0.0055387835 -0.023048656
000390 60 fe 75 bd 43 fb 8d bd b3 03 8e 3c 0c eb aa bd
       -0.060057044 -0.0693269 0.017335748 -0.08345613
0003a0 d3 05 29 3d 05 8f 3b bb 8f db 6c bd 13 53 51 3d
       0.04126532 -0.0028619182 -0.057826575 0.051104616
0003b0 59 ce 62 3d cd eb 0d 3b 87 83 48 3c 90 01 05 3d
       0.05537257 0.002165544 0.01223839 0.032472193
0003c0 9a b1 30 3c 98 de 3b bd 65 b9 d5 3d 73 7c 5a 3c
       0.010784531 -0.04586658 0.10435752 0.013335335
0003d0 9f be 95 3b 92 f5 fe bc 96 92 c0 bd 89 f1 0f bc
       0.004569843 -0.031122956 -0.09402959 -0.008785614
0003e0 af 15 c6 bc b1 eb 84 3d 75 18 56 3d a5 53 43 bd
       -0.024180261 0.06490267 0.052269418 -0.04768719
0003f0 52 9e 8f bd 5f f2 72 3c bb d0 c0 3c 32 d4 c0 3d
       -0.07012619 0.014828294 0.02353703 0.09415473

4.bias f4 [7]
000000 c3 63 07 bd cc 8a 2c bc c1 91 85 bd bd 9e 6b 3c
       -0.033054125 -0.010531139 -0.06521941 0.014381108
000010 02 e1 9c 3d ea c2 b5 3d f8 ec eb ba
       0.07660104 0.088750675 -0.0017999699
