models/date-06-19-2025-11-20p1-RLbotp2-RLbotself_play-Falseexp_dir-RLbotepochs-50p1_win_rate-0.04p2_win_rate-0.96is_test-False/model.pth (torch, 117053 bytes, 6 tensors)

0.weight f4 [150, 84]
0.004838634 0.022788486 0.07270605 -0.04071698 -0.03596562 -0.097208284 -0.10815546 0.013954105
0.049360245 -0.10784135 0.013211866 -0.07168734 -0.044023942 -0.04143809 0.10160384 0.039963614
0.08485595 -0.06554428 -0.05976094 -0.04864156 -0.07957111 0.07056229 0.059978336 0.10635459
-0.026977826 -0.124341816 -0.067249075 0.02747168 -0.08265263 -0.093350135 -0.043735016 -0.06939871
0.046726502 0.0007414146 -0.08071317 0.09681261 0.102692045 0.018232744 0.053728133 0.05544923
0.123413116 0.00947459 0.0002644878 0.021492077 -0.066146456 -0.006482693 0.049575336 0.055795066
-0.0274002 -0.09771302 -0.07256209 0.10761912 -0.078291714 -0.046177756 0.063413255 -0.017727757
0.08555725 -0.116018645 -0.09607412 -0.0773402 -0.022178698 0.10569819 0.09093768 0.06703596
0.08832191 0.03519428 0.03518101 0.032440584 0.0129597485 -0.012052738 -0.050576657 -0.086729184
0.045731883 -0.041237336 0.016798493 -0.080326214 -0.016313102 -0.05657443 0.09262474 0.009464125
-0.076822974 0.046346992 0.08733839 0.03545578 -0.016216097 0.05042527 -0.016831521 -0.05920742
-0.022858292 -0.0762862 -0.09521875 0.09234222 0.013643457 0.021372363 0.003244522 -0.06358712
-0.09405654 -0.056842197 -0.060330637 -0.10054838 0.01583383 0.068346985 0.026530439 0.036603775
0.04811007 -0.028551463 -0.100471035 0.021972425 -0.0024874858 -0.044500355 0.061869398 -0.03604655
-0.120936215 -0.056547154 -0.03793946 -0.059275966 -0.08097566 -0.11553192 0.027952587 0.03250909
-0.042555984 0.03982335 0.00355423 -0.006992849 -0.0068870387 0.049642615 0.067770906 -0.005804993
0.08521699 0.010764542 -0.10575492 0.027042203 0.1174079 -0.034175925 0.040228568 0.05254838
0.0035218762 -0.1196083 0.035766914 0.014871245 0.030058568 0.05153652 0.033412762 0.09686702
-0.05679497 -0.07611755 -0.045106895 0.04256167 0.10134433 -0.08312984 0.027849821 0.08204441
0.04762006 0.06476153 0.051733173 -0.004453657 -0.073562674 0.048376534 0.012689065 0.092128366
-0.02468656 -0.018393403 -0.03971028 0.091964476 0.020394549 0.10020953 -0.07753945 -0.07222986
-0.02121227 -0.002147943 -0.04071875 0.093229525 0.0885452 0.053042978 0.054773223 0.069505334
-0.0749003 0.009730672 0.025394317 -0.068470605 0.025878562 0.035841685 0.018225031 0.011948723
0.095768824 0.030955859 -0.089622475 0.08378358 0.091629215 0.051850893 -0.07441854 -0.095634714
0.064330444 0.008583783 0.0855029 -0.010873459 -0.029156815 -0.05954782 -0.1006269 -0.063482665
-0.006996981 0.08690658 -0.08991637 -0.020325547 -0.01001941 0.09378137 0.09110183 0.11779813
0.02775637 -0.0578233 -0.083584845 -0.011535767 0.06946136 -0.039683487 -0.04066131 -0.0807117
0.000984835 0.0030907409 -0.10394083 -0.06764126 -0.097248405 0.11363849 -0.094699845 -0.096100025
0.011670806 -0.082303286 -0.045282807 0.03877734 0.05600446 0.079581566 0.019340558 -0.030957485
0.022886848 0.0020610706 0.0305643 -0.080970645 0.08162634 -0.0404925 0.108886965 -0.085818894
0.020074943 0.08626569 0.04330783 0.10051398 0.08790416 0.099243574 -0.012366127 0.108693525
-0.0005211371 -0.05913706 -0.07071635 -0.00464659 -0.0696734 0.08891994 0.06747046 -0.019265821
00000000: 678d 9e3b ebae ba3c e9e6 943d d9c6 26bd
00000010: b050 13bd 2315 c7bd 9c80 ddbd c29f 643c
00000020: f82d 4a3d eddb dcbd 9576 583c d0d0 92bd
00000030: 7352 34bd fdba 29bd ad15 d03d e3b0 233d
00000040: f5c8 ad3d 143c 86bd e3c7 74bd 5f3c 47bd
00000050: 2ef6 a2bd f682 903d d8ab 753d 6fd0 d93d
00000060: 9a00 ddbc eca6 febd e2b9 89bd 4a0c e13c
00000070: c845 a9bd 5b2e bfbd 7d23 33bd e920 8ebd
00000080: 4a64 3f3d 7e5b 423a f24c a5bd b145 c63d
00000090: 3550 d23d d65c 953c 0812 5c3d bb1e 633d
000000a0: 04c0 fc3d 503b 1b3c f4aa 8a39 2710 b03c
000000b0: cb77 87bd c56c d4bb 820f 4b3d 5e89 643d
000000c0: 6276 e0bc c41d c8bd 6f9b 94bd 6a67 dc3d
000000d0: 6857 a0bd e324 3dbd cfde 813d cd39 91bc
000000e0: a438 af3d 2f9b edbd 82c2 c4bd 8a64 9ebd
000000f0: 1ab0 b5bc 4b78 d83d 893d ba3d 264a 893d
00000100: 1ee2 b43d e127 103d f619 103d 6be0 043d
00000110: 2055 543c d978 45bc 7829 4fbd 129f b1bd
00000120: 5b51 3b3d 7be8 28bd fe9c 893c 1282 a4bd
00000130: 0ea3 85bc 97ba 67bd 0ab2 bd3d 6b0f 1b3c
00000140: 5d55 9dbd 58d6 3d3d 78de b23d 143a 113d
00000150: 9fd7 84bc ba8a 4e3d 42e2 89bc 7b83 72bd
00000160: 5041 bbbc f03b 9cbd 0c02 c3bd eb1d bd3d
00000170: ce88 5f3c 1815 af3c 0ca2 543b f739 82bd
00000180: b7a0 c0bd 5dd3 68bd 421d 77bd 4fec cdbd
00000190: f3b5 813c 81f9 8b3d 5d56 d93c d7ed 153d
000001a0: 110f 453d c2e4 e9bc c2c3 cdbd 84ff b33c
000001b0: 1605 23bb 0146 36bd c46a 7d3d 8ca5 13bd
000001c0: 68ad f7bd fd9d 67bd 6866 1bbd 5bcb 72bd
000001d0: 91d6 a5bd 009c ecbd d3fc e43c 4028 053d
000001e0: 2f4f 2ebd cf1d 233d 16ee 683b 4524 e5bb
000001f0: abac e1bb 0e56 4b3d 79cb 8a3d d037 bebb
00000200: 3f86 ae3d c35d 303c 0996 d8bd 9c87 dd3c
00000210: 8e73 f03d 0efc 0bbd b6c6 243d f83c 573d
00000220: 47cf 663b 32f5 f4bd 5480 123d 86a6 733c
00000230: 633d f63c f517 533d d2db 083d 3762 c63d
00000240: d8a1 68bd 85e3 9bbd 02c2 38bd 2555 2e3d
00000250: 9e8d cf3d fa3f aabd 4f25 e43c e606 a83d
00000260: 410d 433d b1a1 843d 2ae6 533d fcef 91bb
00000270: 07a8 96bd 7926 463d cce5 4f3c ccad bc3d
00000280: 783b cabc c3ad 96bc 3fa7 22bd df57 bc3d
00000290: 7812 a73c a73a cd3d 01cd 9ebd 40ed 93bd
000002a0: 5bc5 adbc 81c4 0cbb b4c8 26bd 1fef be3d
000002b0: 3057 b53d 9843 593d e359 603d d058 8e3d
000002c0: 5465 99bd 666d 1f3c be07 d03c 513a 8cbd
000002d0: 47ff d33c bbce 123d a94c 953c 94c4 433c
000002e0: 7222 c43d 2497 fd3c fd8b b7bd ba96 ab3d
000002f0: 19a8 bb3d 9a61 543d bf68 98bd 22dc c3bd
00000300: aebf 833d ffa2 0c3c 251c af3d 9826 32bc
00000310: 46da eebc 6ae8 73bd 7a15 cebd 3303 82bd
00000320: ee46 e5bb 14fc b13d 1326 b8bd c381 a6bc
00000330: 7428 24bc 7210 c03d 9993 ba3d 2540 f13d
00000340: 5461 e33c 20d8 6cbd 882e abbd 8300 3dbc
00000350: c241 8e3d 278b 22bd 798c 26bd 2d4c a5bd
00000360: 9415 813a 078e 4a3b eede d4bd 8087 8abd
00000370: 2c2a c7bd 4cbb e83d fef1 c1bd 17d0 c4bd
00000380: e936 3f3c a08e a8bd 777a 39bd fdd4 1e3d
00000390: ef64 653d a9fb a23d 1770 9e3c 8d9a fdbc
000003a0: 337d bb3c 0713 073b fc61 fa3c f0d3 a5bd
000003b0: b62b a73d 77db 25bd 2100 df3d d1c1 afbd
000003c0: 3574 a43c 11ac b03d 8d63 313d 46da cd3d
000003d0: 1907 b43d 3740 cb3d 4c9b 4abc b69a de3d
000003e0: eb9c 08ba b439 72bd bcd3 90bd 6c42 98bb
000003f0: edb0 8ebd a81b b63d f42d 8a3d 5bd3 9dbc

0.bias f4 [150]
0.061093975 0.05677928 0.11535022 -0.104345016 0.007979257 -0.0098584145 -0.028090855 0.09315501
0.075022236 -0.044576142 0.036975287 0.0524162 -0.09602944 0.04306722 -0.082568705 -0.08025082
0.011472257 0.04322741 -0.022828834 -0.049145404 -0.08422251 0.012044708 -0.033348367 0.08084459
-0.05539621 -0.12193824 0.035469435 -0.05505988 0.010630057 -0.054062285 0.10943847 -0.066638134
0.0941109 0.036861107 -0.093553506 -0.039104205 0.114172 0.075679936 -0.07594938 -0.0644048
-0.0172366 -0.0595314 0.09690485 -0.0971953 0.07159892 -0.010624569 -0.006133047 -0.033625394
-0.0032218443 0.018046267 0.048508685 0.09370439 -0.052367043 0.038891878 0.11437012 -0.10605846
0.1055224 -0.024230741 0.036622982 -0.045730624 -0.047178764 -0.07235175 0.066805355 0.0767059
0.049416132 -0.10749917 -0.083867945 -0.0042378353 -0.014520192 0.012753104 -0.03180048 -0.043487206
-0.053189468 -0.107585505 0.015372946 0.086680196 -0.068470046 0.12021393 0.014268665 -0.0698191
0.11032511 0.1136915 0.047118295 -0.008920346 0.08589851 -0.09814967 -0.061299264 0.026783222
0.12573515 0.042724814 -0.06833273 -0.09771732 -0.013865126 0.09778856 0.074632406 -0.029611647
0.077922575 0.057149936 -0.07110892 0.041352298 0.047146913 -0.04671915 -0.08252407 -0.023616396
0.13555796 0.099594444 0.13075562 0.058759253 0.06551294 -0.028277567 0.076352045 -0.09323794
0.009315303 0.007947081 -0.027845504 -0.08200657 -0.10013914 0.067291304 0.024676604 -0.03555994
-0.060471576 -0.080201015 0.06593111 -0.02461242 0.074392304 -0.10266355 0.0031378185 -0.04342327
-0.11220577 0.05984511 -0.069597155 -0.078597255 -0.08722703 0.09933925 -0.114221856 -0.086480364
0.093842246 0.06495125 0.04276929 -0.018184915 0.037293877 0.117376186 0.018847415 0.013684837
0.0759684 -0.080986075 0.050837178 -0.039600663 -0.08048558 0.08460417
00000000: ad3d 7a3d 6491 683d bc3c ec3d d7b2 d5bd
00000010: 6ebb 023c 3085 21bc cb1e e6bc 0ec8 be3d
00000020: 42a5 993d 7995 36bd 6673 173d 5fb2 563d
00000030: 15ab c4bd 4167 303d c819 a9bd 8b5a a4bd
00000040: 22f6 3b3c 3a0f 313d 8903 bbbc b14c 49bd
00000050: da7c acbd 2b57 453c 4c98 08bd d991 a53d
00000060: 23e7 62bd c2ba f9bd 6648 113d 7886 61bd
00000070: b129 2e3c 6a70 5dbd 4721 e03d 9379 88bd
00000080: 37bd c03d acfb 163d fb98 bfbd bb2b 20bd
00000090: 02d3 e93d 15fe 9a3d 598b 9bbd aae6 83bd
000000a0: c533 8dbc 33d7 73bd 0d76 c63d 540e c7bd
000000b0: 74a2 923d ac12 2ebc baf7 c8bb c8ba 09bd
000000c0: 9425 53bb c4d5 933c 0bb1 463d 16e8 bf3d
000000d0: d37e 56bd 174d 1f3d e23a ea3d 2e35 d9bd
000000e0: 211c d83d 8c7f c6bc fb01 163d 0950 3bbd
000000f0: 853e 41bd 282d 94bd 3fd1 883d fc17 9d3d
00000100: 9268 4a3d 8628 dcbd f5c2 abbd 8add 8abb
00000110: 19e6 6dbc 65f2 503c 3841 02bd a41f 32bd
00000120: 33dd 59bd ca55 dcbd cfde 7b3c 6385 b13d
00000130: 063a 8cbd b932 f63d 1ec7 693c 51fd 8ebd
00000140: 22f2 e13d 17d7 e83d 1dff 403d a526 12bc
00000150: 8feb af3d b202 c9bd f014 7bbd 7d68 db3c
00000160: b7c0 003e 3700 2f3d 08f2 8bbd 0520 c8bd
00000170: 8e2a 63bc 5e45 c83d e0d8 983d 2094 f2bc
00000180: df95 9f3d 0d16 6a3d 8ea1 91bd 0761 293d
00000190: 1f1d 413d 945c 3fbd 6102 a9bd 2c77 c1bc
000001a0: b5cf 0a3e 2cf8 cb3d cde4 053e 8bad 703d
000001b0: a62b 863d 5ba6 e7bc 765e 9c3d 88f3 bebd
000001c0: 369f 183c 7934 023c 411c e4bc 10f3 a7bd
000001d0: c015 cdbd 06d0 893d 9726 ca3c 4da7 11bd
000001e0: 0bb1 77bd 6e40 a4bd e406 873d fc9f c9bc
000001f0: fe5a 983d 4441 d2bd dca3 4d3b 99dc 31bd
00000200: 24cc e5bd 2520 753d f488 8ebd 99f7 a0bd
00000210: 16a4 b2bd 6072 cb3d 26ed e9bd 9e1c b1bd
00000220: 5d30 c03d 2905 853d da2e 2f3d 88f8 94bc
00000230: 77c1 183d ed62 f03d e565 9a3c 5e36 603c
00000240: 5295 9b3d 07dc a5bd a53a 503d 4e34 22bd
00000250: a0d5 a4bd f344 ad3d

2.weight f4 [100, 150]
-0.097236745 0.049040306 -0.075104274 -0.044315495 -0.07225231 -0.0015501344 0.053401247 -0.06216324
0.018854441 -0.05096503 0.0009597845 -0.043370876 -0.07615027 -0.03397156 0.033395834 -0.028848436
-0.027149785 -0.028071975 0.04756066 -0.071434125 -0.061929118 0.060745638 0.08601396 0.052466366
0.0019365514 -0.023300929 0.046944603 -0.0022527133 0.031127699 -0.027327336 0.018595168 0.008244999
0.040080775 0.009367034 -0.012858513 -0.065760456 -0.018605577 -0.036077697 -0.019899433 -0.03856025
-0.05882141 -0.04725404 -0.014130108 0.07830514 0.057193447 -0.013005456 -0.07388933 0.025075985
0.060335137 -0.01855499 -0.06462091 0.014027624 -0.06632461 -0.04548915 -0.052732322 0.060581926
0.01997527 -0.073095374 0.034413386 0.007147326 -0.09029672 -0.041967474 -0.08434304 -0.082881205
-0.009138768 0.047954146 -0.08326514 0.0055641513 0.0077033974 -0.07054404 -0.03171319 0.014048975
0.06956345 0.00807195 -0.08497368 -0.009787897 0.0360446 0.0051250015 -0.048399758 0.059677586
-0.055179596 -0.03897778 0.06658848 -0.030074537 -0.04054907 -0.018517742 0.074419 -0.030336795
-0.06586686 -0.086353 0.011716812 -0.06123266 -0.060226448 -0.047207393 0.005496326 -0.013832366
0.031827714 -0.07047755 0.03383322 -0.05506551 -0.01538731 0.061833553 -0.02396374 0.06773889
0.06290192 -0.056034278 0.037490975 -0.09083254 -0.014715397 -0.057617273 -0.013918151 0.055905167
0.03371543 -0.014882349 -0.035216656 -0.08332712 0.0056054713 -0.06803511 0.028867314 -0.048271887
-0.015014117 -0.03789771 -0.09990245 0.0030348604 0.07297881 0.01148179 -0.06554144 -0.051585935
0.039694514 0.046216592 0.0014224894 -0.0773449 0.037550006 0.056942847 0.07303906 -0.03766221
-0.05495191 -0.01603374 -0.058791704 -0.0764128 0.054986667 -0.041300695 0.03906467 -0.046806306
0.015539471 -0.041689232 -0.0754663 0.024514146 -0.048146423 -0.09002339 -0.021813357 -0.069212705
0.0565025 -0.025299078 -0.08669811 0.06129627 0.048604146 -0.045716703 0.03076449 -0.052097492
-0.08573468 -0.059799604 -0.0571704 -0.06757439 -0.046747066 0.06898378 0.01434481 0.007291467
-0.06265401 -0.042717732 -0.064930275 0.06537867 -0.054683752 -0.017397232 -0.07628132 -0.008751571
0.060807865 -0.0060156 -0.07381027 -0.005938676 0.0342639 -0.015995136 0.037685614 -0.046078518
-0.0091485735 -0.021009838 -0.033622496 0.06572499 -0.026425319 -0.0654181 -0.07367043 0.030066188
0.06729437 0.063078806 -0.0836902 0.03704756 -0.013338581 0.08116412 -0.08825224 -0.007243361
0.028959181 -0.018036151 0.015783338 -0.046464458 -0.04800828 -0.051306095 -0.057309773 0.021817343
-0.08950372 0.05687831 -0.02762711 -0.0351054 -0.07093078 -0.061569933 -0.0070978333 0.04445084
0.034837134 -0.01231048 -0.044927217 0.00024382294 0.02302452 0.0009928601 0.035630915 -0.042233836
0.060131416 0.045224 0.013937627 -0.022570232 -0.019660989 0.06685705 -0.02837295 0.04451219
-0.036057655 0.021400403 0.028520118 -0.041998874 -0.002456157 -0.061183095 -0.029685063 0.057481494
0.014118436 -0.069634445 -0.06846649 -0.05048548 -0.051485967 -0.023598818 0.0073360456 -0.07521868
-0.0034318941 -0.027264541 -0.073697224 0.034579765 -0.06768504 0.012429169 0.042854875 -0.030969433
00000000: 0f24 c7bd 7dde 483d 45d0 99bd 2a84 35bd
00000010: 05f9 93bd e12d cbba 44bb 5a3d e29e 7ebd
00000020: a174 9a3c b5c0 50bd 0c9a 7b3a a9a5 31bd
00000030: acf4 9bbd c325 0bbd 12ca 083d 8e53 ecbc
00000040: 3a69 debc 33f7 e5bc f7ce 423d 0e4c 92bd
00000050: 63a9 7dbd 6bd0 783d 1628 b03d f9e6 563d
00000060: e2d3 fd3a 97e1 bebc fc48 403d 42a2 13bb
00000070: 84ff fe3c 94dd dfbc e554 983c 0816 073c
00000080: bd2b 243d 3078 193c 83ac 52bc 6bad 86bd
00000090: b96a 98bc 35c6 13bd 2304 a3bc 5af1 1dbd
000000a0: b8ee 70bd 748d 41bd f881 67bc 725e a03d
000000b0: ad43 6a3d d614 55bc 4a53 97bd 276c cd3c
000000c0: fa21 773d a200 98bc f857 84bd 1fd4 653c
000000d0: 32d5 87bd d552 3abd d9fd 57bd c124 783d
000000e0: 2da3 a33c 07b3 95bd 0df5 0c3d 1e34 ea3b
000000f0: 7ded b8bd 16e6 2bbd 0bbc acbd 9fbd a9bd
00000100: c5ba 15bc 916b 443d ea86 aabd 7c53 b63b
00000110: c86c fc3b 6579 90bd b1e5 01bd ac2d 663c
00000120: 4877 8e3d 3640 043c ae06 aebd 6a5d 20bc
00000130: 81a3 133d a1ef a73b d33e 46bd 7c70 743d
00000140: 0004 62bd 2aa7 1fbd 8a5f 883d e05e f6bc
00000150: c816 26bd 85b2 97bc fd68 983d df84 f8bc
00000160: 34e5 86bd d7d9 b0bd dff7 3f3c 19cf 7abd
00000170: 02b0 76bd 8a5c 41bd 861a b43b 26a1 62bc
00000180: c75d 023d 8956 90bd b494 0a3d 5f8c 61bd
00000190: 0e1b 7cbc 2e45 7d3d 9b4f c4bc b0ba 8a3d
000001a0: b9d2 803d 3384 65bd 2390 193d 6906 babd
000001b0: d918 71bc 1700 6cbd f508 64bc d1fc 643d
000001c0: 3119 0a3d 19d5 73bc 573f 10bd 69a7 aabd
000001d0: 1aae b73b fe55 8bbd 257b ec3c beb8 45bd
000001e0: c5fd 75bc a13a 1bbd a899 ccbd 82e4 463b
000001f0: ea75 953d 1e1e 3c3c 973a 86bd c64b 53bd
00000200: b796 223d 9c4d 3d3d d372 ba3a 0167 9ebd
00000210: 09ce 193d e73c 693d 8195 953d b143 1abd
00000220: 4115 61bd 3159 83bc 92cf 70bd 507e 9cbd
00000230: b339 613d eb2a 29bd 4702 203d f8b7 3fbd
00000240: 4499 7e3c 54c2 2abd 138e 9abd e4d1 c83c
00000250: 2f35 45bd 2f5e b8bd edb1 b2bc 64bf 8dbd
00000260: 2a6f 673d 0340 cfbc c78e b1bd cc11 7b3d
00000270: 2415 473d 7041 3bbd d005 fc3c 2e64 55bd
00000280: aa95 afbd 6ef0 74bd 822b 6abd 7164 8abd
00000290: da79 3fbd 5e47 8d3d 7e06 6b3c 42ed ee3b
000002a0: bf50 80bd caf8 2ebd 2afa 84bd 41e5 853d
000002b0: 12fc 5fbd a484 8ebc 6139 9cbd c062 0fbc
000002c0: ab11 793d 831e c5bb d729 97bd 3a99 c2bb
000002d0: 4e58 0c3d 3b08 83bc 3b5c 1a3d d4bc 3cbd
000002e0: e6e3 15bc d31c acbc beb7 09bd d39a 863d
000002f0: e979 d8bc edf9 85bd 86e0 96bd 5e4d f63c
00000300: a1d1 893d 762f 813d c465 abbd 2fbf 173d
00000310: 108a 5abc 6039 a63d 97bd b4bd b759 edbb
00000320: ce3b ed3c 8dc0 93bc 0f4c 813c 8451 3ebd
00000330: 55a4 44bd 5726 52bd a7bd 6abd 49ba b23c
00000340: ba4d b7bd 3bf9 683d 4052 e2bc aeca 0fbd
00000350: 2844 91bd c130 7cbd f194 e8bb 1612 363d
00000360: 62b1 0e3d e5b1 49bc 9a05 38bd b9aa 7f39
00000370: eb9d bc3c db22 823a b9f1 113d 63fd 2cbd
00000380: 5c4c 763d cd3c 393d a55a 643c 35e5 b8bc
00000390: 1510 a1bc 59ec 883d 646e e8bc 6a52 363d
000003a0: 31b1 13bd e64f af3c 06a3 e93c 0307 2cbd
000003b0: 7af7 20bb 209b 7abd 172e f3bc b771 6b3d
000003c0: 0351 673c 819c 8ebd 2938 8cbd ddc9 4ebd
000003d0: f3e2 52bd 4f52 c1bc 3663 f03b 400c 9abd
000003e0: a1e9 60bb e359 dfbc 92ee 96bd 83a3 0d3d
000003f0: 749e 8abd b7a3 4b3c 9888 2f3d 9cb3 fdbc

2.bias f4 [100]
0.037887555 -0.073054925 0.090599395 0.017692428 -0.000833875 0.072881065 0.018684682 0.07707395
0.077290095 -0.03160314 -0.09087642 -0.057694033 0.07508756 0.04641324 0.00468274 0.008944683
0.0034944927 -0.06614941 0.076591164 0.06838481 -0.042336177 -0.069509104 0.024507457 0.010583842
-0.08566625 -0.02389021 0.04696097 0.058824845 0.055914085 0.05553007 -0.027950116 0.021034779
-0.066212095 -0.06999023 0.03991045 -0.075349614 0.06276039 -0.084977336 0.028400151 0.05832305
0.035026602 -0.03365058 0.05979849 -0.064123996 -0.0742347 0.012973303 -0.07323306 0.07721743
-0.017599076 -0.040477358 0.06663545 0.04124136 -0.07254305 -0.07484228 0.06064767 0.0065182713
0.0057182214 -0.07292787 0.08817192 0.028339345 -0.008964077 -0.021041796 -0.03830671 -0.05486741
0.036776092 -0.04744583 -0.052537307 0.038829826 0.023038203 0.018155845 -0.05801107 -0.07181537
-0.07266044 0.07163516 -0.035056196 -0.014214999 0.025384381 0.07807029 -0.057229742 0.054381073
-0.03791784 -0.03092191 -0.028154183 -0.037517995 -0.035443284 -0.05792991 -0.03618681 0.089385025
0.025048917 -0.07731487 0.01837034 -0.02969042 0.0658236 0.0065687066 -0.011350553 0.025069932
0.026706055 0.053125583 0.03530421 0.07518121
00000000: fb2f 1b3d d29d 95bd 2d8c b93d b6ef 903c
00000010: 6798 5aba ab42 953d 9e10 993c f2d8 9d3d
00000020: 454a 9e3d 4b72 01bd 6b1d babd 9450 6cbd
00000030: 82c7 993d cf1b 3e3d ac71 993b b88c 123c
00000040: dc03 653b 5879 87bd d4db 9c3d 560d 8c3d
00000050: b368 2dbd ca5a 8ebd ddc3 c83c da67 2d3c
00000060: c971 afbd 67b5 c3bc 255a 403d 52f2 703d
00000070: 2b06 653d 8073 633d a4f7 e4bc 2151 ac3c
00000080: 359a 87bd 0a57 8fbd 2479 233d e650 9abd
00000090: 8588 803d 9908 aebd 6fa7 e83c 27e4 6e3d
000000a0: 0e78 0f3d 31d5 09bd 43ef 743d 7153 83bd
000000b0: 5d08 98bd fa8d 543c 37fb 95bd 2c24 9e3d
000000c0: f02b 90bc 96cb 25bd 2b78 883d b3ec 283d
000000d0: 7391 94bd e946 99bd b169 783d 3997 d53b
000000e0: eb5f bb3b 355b 95bd 7b93 b43d ea27 e83c
000000f0: 10de 12bc d85f acbc 7fe7 1cbd a6bc 60bd
00000100: 87a2 163d 8f56 42bd 5c31 57bd 060c 1f3d
00000110: 9dba bc3c 91bb 943c 049d 6dbd f013 93bd
00000120: ffce 94bd 74b5 923d 1697 0fbd 07e6 68bc
00000130: e8f2 cf3c 51e3 9f3d bc69 6abd b0be 5e3d
00000140: bd4f 1bbd f24f fdbc 9aa3 e6bc 78ac 19bd
00000150: fa2c 11bd ea47 6dbd 9f38 14bd 7f0f b73d
00000160: 6333 cd3c 4257 9ebd 657d 963c 5339 f3bc
00000170: 86ce 863d 4e3e d73b abf7 39bc 755f cd3c
00000180: a8c6 da3c 369a 593d 269b 103d 9bf8 993d

4.weight f4 [7, 100]
0.016014107 -0.063868634 -0.058356848 0.07571442 0.10713036 -0.0051310137 -0.044462822 -0.035406895
0.08314764 -0.052279975 0.017033054 0.05180762 0.024501745 0.089664124 0.057921983 -0.0745407
0.09039761 0.03780404 -0.07292819 0.036593005 -0.046181753 0.028288985 -1.0411829e-05 0.10264026
0.0027837635 0.088469476 0.025581267 0.060395252 -0.07727635 -0.057192612 0.023295883 0.096985586
-0.06013615 0.040353846 0.079083875 0.025848227 0.004692545 -0.06223357 -0.005964916 -0.093792334
-0.0069680987 -0.064103544 0.07403367 -0.07624839 -0.04811597 0.03308138 -0.0023842454 0.11995186
0.07369539 0.092597775 -0.011872058 -0.07077287 -0.022905994 0.009323864 -0.015685525 0.00902562
0.08327403 -0.026776506 0.04538323 -0.023386298 0.042449735 -0.06261297 0.0527809 0.039696813
-0.0566718 -0.12000413 0.07499516 -0.07126627 0.06155583 0.049526453 -0.085652485 -0.028186882
0.08958723 -0.063520774 -0.0945688 0.075257294 -0.007845849 0.02784302 0.032750797 0.044375695
-0.080285825 -0.072055265 -0.0008201766 -0.056680553 -0.038672235 -0.088121675 -0.10720294 0.044219077
-0.014778877 -0.042891104 -0.02182476 -0.06649553 0.003435045 0.036751162 -0.05930121 -0.052192345
-0.085810006 -0.0053791204 0.039580014 0.0134843495 0.032662608 -0.042824257 -0.083111644 0.03228052
-0.0016299012 -0.052139133 -0.052038074 0.022040507 -0.0043298323 -0.060058594 -0.0064538456 -0.020687653
0.08849259 0.021224309 0.044744384 0.085382774 0.05360234 -0.0422519 -0.056255646 0.07786753
-0.012429115 -0.0015379072 0.090862885 0.014668624 0.061652996 0.08655749 0.041826542 0.06582807
0.05534461 0.015743459 0.021821298 0.06748924 0.09016676 -0.03535507 0.07083074 -0.007931474
0.014623469 0.045612093 0.09633829 0.014250834 0.078475654 -0.029153727 -0.028451905 -0.06999967
-0.07882365 0.083755136 0.048667908 0.0065018157 0.009763873 -0.012132571 0.08965288 0.020423215
0.062563494 -0.077657886 -0.029501954 -0.050706677 -0.09399377 0.00531832 -0.024416093 0.011271185
0.05587594 -0.07158339 -0.053018667 0.05387963 -0.025102193 0.09771996 -0.09674386 -0.050711684
0.0035058558 -0.009425438 0.029191518 -0.058467627 -0.015715847 -0.0018234041 0.08772423 0.014067555
0.018859042 0.078866534 0.035430383 0.056467205 -0.006794274 0.084356 0.06735458 -0.03141395
-0.076277 0.07003175 0.028349612 -0.06362076 0.001430428 -0.06763642 0.11634957 -0.06512574
-0.061630834 0.037233517 0.0027888834 -0.022103464 0.04784316 -0.04306954 -0.05688166 0.019822793
-0.06340994 -0.006786947 0.08067007 0.0351869 -0.033734955 -0.0257261 0.0321299 0.07433404
0.092254125 -0.028393172 -0.062189598 0.001793623 -0.052073866 0.06139311 0.0039197095 -0.05661085
-0.06854484 0.0145760765 0.016961884 0.024774957 -0.0111524165 0.0069799065 0.047595147 0.101163134
0.08659438 -0.06533169 -0.09595619 0.044578142 -0.017302373 -0.059905883 -0.09544891 0.09002394
-0.016972398 0.014371911 0.08012014 -0.07411738 0.09607877 0.019194866 -0.0848503 0.06992174
0.069039814 0.048859432 -0.08844031 -0.06362404 -0.0457299 0.039951418 -0.08383906 0.08602109
-0.116053656 -0.069953345 0.088807516 -0.11235874 -0.056741524 0.0646797 -0.010382323 -0.056509163
00000000: 0430 833c 8fcd 82bd 9707 6fbd 2910 9b3d
00000010: 2a67 db3d 1022 a8bb a61e 36bd d206 11bd
00000020: 4f49 aa3d 8723 56bd e788 8b3c 3a34 543d
00000030: e2b7 c83c d3a1 b73d 9a3f 6d3d cba8 98bd
00000040: 6222 b93d 69d8 1a3d 605b 95bd 8ce2 153d
00000050: 1429 3dbd 4dbe e73c 77ae 2eb7 0e35 d23d
00000060: cd6f 363b 7c2f b53d ce8f d13c 0361 773d
00000070: 1043 9ebd cd42 6abd 02d7 be3c 61a0 c63d
00000080: 5351 76bd 134a 253d baf6 a13d a9bf d33c
00000090: ecc3 993b a1e8 7ebd 5875 c3bb 3216 c0bd
000000a0: a654 e4bb b848 83bd f79e 973d 1e28 9cbd
000000b0: 4015 45bd 5780 073d 0041 1cbb 52a9 f53d
000000c0: 9ced 963d e7a3 bd3d 0583 42bc 5ef1 90bd
000000d0: 5aa5 bbbc 1fc3 183c ee7e 80bc 32e0 133c
000000e0: 938b aa3d 675a dbbc c4e3 393d 9f94 bfbc
000000f0: c6df 2d3d 3b3b 80bd c930 583d 2099 223d
00000100: b020 68bd bac4 f5bd 1097 993d 0df4 91bd
00000110: f721 7c3d 40dc 4a3d 926a afbd 2de8 e6bc
00000120: 8279 b73d 2e17 82bd 49ad c1bd 7f20 9a3d
00000130: e08b 00bc 0c17 e43c b325 063d 4ac3 353d
00000140: e56c a4bd b691 93bd 1f01 57ba de29 68bd
00000150: c766 1ebd 2379 b4bd 378d dbbd 101f 353d
00000160: 1a23 72bc 95ae 2fbd d7c9 b2bc cf2e 88bd
00000170: 7e1e 613b 6388 163d d3e5 72bd a4c7 55bd
00000180: 28bd afbd 5543 b0bb a71e 223d 76ed 5c3c
00000190: 3ac9 053d 7d68 2fbd 7036 aabd 9438 043d
000001a0: 69a2 d5ba d88f 55bd e025 55bd 4b8e b43c
000001b0: 44e1 8dbb 0000 76bd c87a d3bb 2779 a9bc
000001c0: 9a3b b53d 9ade ad3c e345 373d 2add ae3d
000001d0: 218e 5b3d 5410 2dbd 526c 66bd 0379 9f3d
000001e0: 7da3 4bbc 9a93 c9ba 5216 ba3d ab54 703c
000001f0: da87 7c3d 0e45 b13d 4f52 2b3d ded0 863d
00000200: 08b1 623d 6df8 803c 94c2 b23c cc37 8a3d
00000210: 5aa9 b83d 7ad0 10bd b50f 913d 03f3 01bc
00000220: 4697 6f3c bfd3 3a3d 024d c53d 547c 693c
00000230: d8b7 a03d ccd3 eebc f813 e9bc fd5b 8fbd
00000240: 4b6e a1bd d087 ab3d 0058 473d 2f0d d53b
00000250: a7f8 1f3c b1c7 46bc ee9b b73d 964e a73c
00000260: 4a21 803d 190b 9fbd 15ae f1bc ceb1 4fbd
00000270: ce7f c0bd 4d45 ae3b 4204 c8bc c7aa 383c
00000280: 2bde 643d 509a 92bd 1a2a 59bd e3b0 5c3d
00000290: 1da3 cdbc 6721 c83d a521 c6bd 0eb7 4fbd
000002a0: 80c2 653b 276d 1abc 0d23 ef3c c07b 6fbd
000002b0: 85be 80bc 4aff eeba c3a8 b33d 9a7b 663c
000002c0: 477e 9a3c c784 a13d 731f 113d 284a 673d
000002d0: 80a2 debb d7c2 ac3d 33f1 893d eaab 00bd
000002e0: 1e37 9cbd ce6c 8f3d 723d e83c 9a4b 82bd
000002f0: 337d bb3a f784 8abd af48 ee3d a560 85bd
00000300: 9d70 7cbd 2c82 183d b3c5 363b 5312 b5bc
00000310: 30f7 433d b069 30bd befc 68bd 6963 a23c
00000320: 12dd 81bd 0a65 debb 5a36 a53d 2420 103d
00000330: aa2d 0abd 8bbf d2bc a49a 033d 723c 983d
00000340: bbef bc3d cc98 e8bc 85ba 7ebd 0018 eb3a
00000350: 684b 55bd 5777 7b3d e870 803b c7e0 67bd
00000360: 3d61 8cbd 7fd0 6e3c a6f3 8a3c daf4 ca3c
00000370: a0b8 36bc b3b7 e43b 21f3 423d 9e2e cf3d
00000380: 6558 b13d 9fcc 85bd ae84 c4bd 9297 363d
00000390: b5bd 8dbc df5f 75bd b87a c3bd 795e b83d
000003a0: b309 8bbc 2a78 6b3c 0716 a43d daca 97bd
000003b0: f2c4 c43d 8d3e 9d3c fec5 adbd 2133 8f3d
000003c0: bf64 8d3d d420 483d 3120 b5bd 524d 82bd
000003d0: 474f 3bbd 19a4 233d d0b3 abbd d32b b03d
000003e0: 8aad edbd b343 8fbd b7e0 b53d 571c e6bd
000003f0: cd69 68bd ca76 843d 9e1a 2abc 2776 67bd

4.bias f4 [7]
-0.06158875 -0.09560834 -0.039379936 0.019895745 -0.025262924 0.026540793 0.020910481
00000000: 7c44 7cbd 4ece c3bd db4c 21bd 67fc a23c
00000010: 31f4 cebc 146c d93c 754c ab3c
