models/date-06-19-2025-10-42p1-RLbotp2-RLbotself_play-Falseexp_dir-RLbotepochs-50p1_win_rate-0.0p2_win_rate-1.0is_test-False/model.pth (torch, 117053 bytes, 6 tensors)

0.weight f4 [150, 84]
0.07495223 0.011605708 0.08337326 0.053839892 -0.04483851 0.051651616 -0.025554968 0.05759048
-0.10577798 -0.100278005 -0.1239957 0.045163464 -0.02813313 0.03936186 0.07687642 -0.091835245
-0.016914831 -0.06143598 0.013454193 0.14698392 0.04994203 0.011685561 -0.10883983 0.102090366
0.031804644 -0.103839286 0.02185772 0.063796945 -0.040785383 0.06267582 -0.062773004 -0.082518816
-0.095597215 0.08193524 0.065637894 0.048784863 -0.06903941 0.03846558 0.032319494 -0.059166763
-0.029727103 0.018576985 -0.0023801795 0.10922 -0.077337325 0.031101258 -0.090751454 -0.030329982
-0.06365809 0.07328632 -0.0075914357 0.023954643 0.02988248 0.008751133 -0.030203706 -0.086596385
0.013370515 -0.01908722 -0.12549376 0.00088334177 0.046834365 -0.09894899 -0.064395845 -0.10157485
-0.065215416 0.04504586 -0.033497084 0.06863294 -0.030496085 0.036799043 -0.10623016 0.062415145
0.058373734 0.066400856 0.016242499 0.09547505 -0.0071788738 -0.040322 0.10552643 0.078574434
0.10636527 -0.060136463 -0.106136575 0.078200236 0.062715724 0.07854559 0.027342621 0.07094999
0.04541855 0.03126962 0.08230811 0.05190328 -0.0112739075 -0.025273561 -0.05519814 0.076954514
0.104318984 -0.11209642 0.0671741 -0.11486547 0.037715226 -0.07232868 -0.07795316 -0.002382924
-0.032424215 0.01104259 0.059299022 -0.06600261 -0.01329538 0.021863654 0.03439487 -0.04298137
0.07665659 0.0886961 -0.11500544 -0.02691469 0.05357709 -0.11298 -0.07054805 0.10211244
-0.052032467 -0.057433173 0.11297493 -0.10128013 0.025053356 0.09562633 -0.040550355 -0.10622754
-0.01088153 0.021887474 -0.043849293 0.038421474 0.016502768 -0.08846637 0.09866466 -0.08763993
-0.023747394 -0.029938458 0.06177873 0.09392961 0.070427835 -0.037291404 0.05811571 -0.063932605
0.07089341 -0.021609824 -0.10076058 0.11277619 -0.06166267 0.046133667 -0.043460805 -0.07515061
0.09372333 0.083926514 0.08943172 0.035916828 0.04619487 -0.0054065255 0.08446254 -0.008300145
0.065148756 0.07085312 -0.1273548 -0.040095747 -0.042095378 0.025137348 0.07343119 -0.056701932
-0.036331505 -0.08034347 0.0009921717 -0.031105606 -0.045643646 0.07484217 -0.01998932 -0.07855228
0.02807439 0.007858449 0.0016221821 0.018266039 -0.06781681 -0.08964704 -0.005903893 0.1209266
-0.0057200915 -0.10069375 0.096042626 -0.0029794688 -0.061840635 -0.009944588 -0.040235512 -0.094708614
-0.062319256 0.088200346 -0.06806463 -0.096560374 0.058398947 -0.034930993 -0.047246076 0.009036086
-0.08318757 0.106874354 0.08142345 -0.06874503 -0.008693718 0.022734465 -0.10555667 0.038517572
-0.009392622 0.022302637 -0.056607064 -0.038417842 -0.015956972 -0.11612751 -0.037199717 -0.037626006
0.029927423 -0.01864496 -0.06524069 0.05464378 0.060484212 -0.087549224 0.011339627 0.017926151
0.08276677 -0.07758152 0.0460393 -0.04499683 -0.05980766 0.06839439 0.08505738 -0.10289821
0.0021717336 0.014814469 0.10119081 -0.065021954 -0.008466601 0.030031363 -0.016131464 -0.008488001
0.09559846 0.072731316 0.035037152 -0.030122533 0.048551057 -0.0987781 -0.095373586 0.0070554535
-0.026080336 0.09763461 -0.110025905 -0.021194763 -0.07464639 0.0950528 0.015508541 0.10846805
00000000: 8e80 993d de25 3e3c 9abf aa3d 3887 5c3d
00000010: 96a8 37bd a590 533d a758 d1bc ffe3 6b3d
00000020: 20a2 d8bd 8e5e cdbd 75f1 fdbd 53fd 383d
00000030: 7377 e6bc e739 213d 6271 9d3d 1e14 bcbd
00000040: f990 8abc 4ba4 7bbd fa6e 5c3c f482 163e
00000050: 0490 4c3d cc74 3f3c 6be7 debd c114 d13d
00000060: 9645 023d b1a9 d4bd f60e b33c f9a7 823d
00000070: 930e 27bd 2e5c 803d 228f 80bd a0ff a8bd
00000080: 79c8 c3bd aacd a73d 296d 863d a3d2 473d
00000090: 8964 8dbd 168e 1d3d 7261 043d d958 72bd
000000a0: 4186 f3bc c32e 983c c9fc 1bbb bcae df3d
000000b0: 0863 9ebd 11c8 fe3c e6db b9bd 9576 f8bc
000000c0: 2c5f 82bd 2317 963d 94c1 f8bb 873c c43c
000000d0: 1acc f43c ea60 0f3c c36d f7bc 7259 b1bd
000000e0: 0110 5b3c cd5c 9cbc 7081 00be 1090 673a
000000f0: 64d5 3f3d c5a5 cabd f8e1 83bd 7a06 d0bd
00000100: a98f 85bd 0282 383d 3d34 09bd 6d8f 8c3d
00000110: edd2 f9bc 98ba 163d 338f d9bd 06a7 7f3d
00000120: 4c19 6f3d 2cfd 873d fd0e 853c 6c88 c33d
00000130: c23c ebbb ae28 25bd 3e1e d83d a2eb a03d
00000140: 09d6 d93d a751 76bd 225e d9bd 7227 a03d
00000150: 1a71 803d 83dc a03d a2fd df3c 3a4e 913d
00000160: cd08 3a3d 9314 003d 2891 a83d 8998 543d
00000170: 32b6 38bc 800a cfbc 7217 62bd 549a 9d3d
00000180: 31a5 d53d cf92 e5bd 9392 893d 963e ebbd
00000190: 487b 1a3d 0f21 94bd e8a5 9fbd d52a 1cbb
000001a0: 41cf 04bd fbeb 343c 88e3 723d 602c 87bd
000001b0: ded4 59bc 681b b33c a3e1 0c3d 3c0d 30bd
000001c0: 21fe 9c3d 4da6 b53d f987 ebbd 327c dcbc
000001d0: a773 5b3d 0f62 e7bd 7f7b 90bd 5420 d13d
000001e0: ff1f 55bd 0c3f 6bbd 665f e73d f56b cfbd
000001f0: b23c cd3c bdd7 c33d 2118 26bd d38d d9bd
00000200: 7248 32bc 5c4d b33c 519b 33bd d65f 1d3d
00000210: d030 873c db2d b5bd b210 ca3d 907c b3bd
00000220: e589 c2bc 7f41 f5bc b20b 7d3d 2b5e c03d
00000230: 783c 903d dfbe 18bd bd0a 6e3d 19ef 82bd
00000240: 9030 913d 1607 b1bc 905b cebd 34f7 e63d
00000250: ff91 7cbd a8f6 3c3d f503 32bd 90e8 99bd
00000260: 04f2 bf3d aae1 ab3d fa27 b73d 861d 133d
00000270: d536 3d3d 3929 b1bb b2fa ac3d 55fd 07bc
00000280: b66c 853d 711b 913d 4c69 02be 703b 24bd
00000290: 346c 2cbd d7ec cd3c 1763 963d 4940 68bd
000002a0: 58d0 14bd 1e8b a4bd c20b 823a 2fd1 febc
000002b0: d5f4 3abd da46 993d a4c0 a3bc 05e0 a0bd
000002c0: 43fc e53c b9c0 003c 669f d43a a9a2 953c
000002d0: 8ae3 8abd de98 b7bd 7275 c1bb 5ea8 f73d
000002e0: 9b6f bbbb 8638 cebd ffb1 c43d 3143 43bb
000002f0: 9b4c 7dbd a0ee 22bc fecd 24bd 97f6 c1bd
00000300: 7a42 7fbd 62a2 b43d 7865 8bbd 72c1 c5bd
00000310: bc33 6f3d cd13 0fbd 1a85 41bd 170c 143c
00000320: 3f5e aabd f1e0 da3d 56c1 a63d 32ca 8cbd
00000330: 1970 0ebc a13d ba3c 182e d8bd 9ac4 1d3d
00000340: 83e3 19bc 05b4 b63c cfdc 67bd 075c 1dbd
00000350: 32b8 82bc 43d4 edbd bb5e 18bd ba1d 1abd
00000360: 5b2a f53c 51bd 98bc e99c 85bd 28d2 5f3d
00000370: 4bbe 773d 024d b3bd d8c9 393c ddd9 923c
00000380: a081 a93d 0fe3 9ebd b493 3c3d 994e 38bd
00000390: e0f8 74bd 5c12 8c3d 9032 ae3d 4cbc d2bd
000003a0: a553 0e3b 63b8 723c 213d cf3d 3b2a 85bd
000003b0: 80b7 0abc 5504 f63c 2226 84bc 4211 0bbc
000003c0: 20c9 c33d 28f4 943d 1e83 0f3d 88c3 f6bc
000003d0: 79dd 463d 2c4c cabd 3a53 c3bd 6f31 e73b
000003e0: 6ea6 d5bc a8f4 c73d 4355 e1bd a4a0 adbc
000003f0: 35e0 98bd 0bab c23d 8917 7e3c 7f24 de3d

0.bias f4 [150]
0.07638125 0.07564607 -0.033244036 -0.010096842 -0.0055199964 0.10281972 0.11294481 0.031418864
-0.026688185 0.11543375 0.04343166 0.07568162 -0.078626856 0.087188005 -0.0805586 -0.077829346
-0.11080844 -0.032856554 0.08254664 -0.07775887 0.002183403 0.03266706 -0.0576595 -0.09282138
0.08217932 0.0951303 -0.016701773 0.071082585 0.021833682 0.041930262 0.10641021 -0.092766576
0.03904867 0.08762703 -0.043259837 -0.044775672 0.035921786 0.055458255 -0.12809855 -0.054222062
0.03714091 0.0688082 -0.00027031277 0.0766406 0.06640969 0.04177468 -0.09007195 -0.025214277
-0.074576005 0.040443137 0.02135781 -0.08849048 -0.0005494011 -0.04922148 0.049966753 0.060675837
0.052553486 0.12119271 0.06380014 -0.045919336 -0.040664893 -0.0013129504 0.051491257 -0.09732511
-0.04188763 -0.06650714 -0.07898961 -0.043346416 -0.065629706 -0.037375025 -0.029212298 0.0031956567
0.06813605 -0.09686874 -0.007499147 0.009889453 -0.03343519 -0.09553701 0.03157687 0.10415141
0.03723564 -0.07665295 -0.04723097 0.068357155 0.061641786 -0.052287415 -0.09883115 -0.08375984
-0.08756532 -0.077791266 0.07830744 0.07249089 0.06690976 0.033600055 -0.037310947 0.040780123
0.030518534 -0.031940978 0.07867855 0.11320484 -0.040744036 -0.033995464 0.0074725244 -0.026460933
0.07449708 0.08657386 -0.056081682 0.08506701 0.016663477 -0.060782403 0.06947305 -0.0013431078
-0.020266932 0.08877545 -0.076113954 0.08434697 -0.12771921 0.07455022 -0.037933487 -0.053250983
-0.0071678245 0.07144734 0.06457786 0.059382122 -0.020040972 -0.046689074 0.022434467 0.07596967
-0.07246861 -0.04155828 -0.028099796 -0.12045148 -0.072143495 0.050042547 0.01898161 -0.111557014
-0.09622869 0.064605534 -0.08021753 0.0705327 0.06068679 0.08767942 0.01207566 -0.079098076
-0.014411687 -0.08374975 -0.093621925 0.084170796 0.07079174 -0.04386346
00000000: c66d 9c3d 54ec 9a3d e62a 08bd 3a6d 25bc
00000010: 16e1 b4bb 2593 d23d 9c4f e73d 11b1 003d
00000020: 2ea1 dabc 8868 ec3d 65e5 313d f7fe 9a3d
00000030: 1e07 a1bd a08f b23d e8fb a4bd fe64 9fbd
00000040: 89ef e2bd 9894 06bd 360e a93d 0b40 9fbd
00000050: 6c17 0f3b e5cd 053d 5e2c 6cbd 2319 bebd
00000060: a24d a83d add3 c23d 28d2 88bc bf93 913d
00000070: 8ddc b23c 11bf 2b3d 99ed d93d 67fc bdbd
00000080: 80f1 1f3d cd75 b33d 3a31 31bd b266 37bd
00000090: b922 133d 3228 633d 442c 03be f417 5ebd
000000a0: 1121 183d 50eb 8c3d c4b8 8db9 bff5 9c3d
000000b0: ce01 883d ed1b 2b3d a477 b8bd 2c8e cebc
000000c0: 4ebb 98bd b4a7 253d 93f6 ae3c 7f3a b5bd
000000d0: af05 10ba 769c 49bd f0a9 4c3d 3a87 783d
000000e0: 5342 573d e233 f83d a6a9 823d ea15 3cbd
000000f0: 3b90 26bd 4e17 acba 7fe8 523d 6352 c7bd
00000100: 5d92 2bbd e534 88bd 4ec5 a1bd 038c 31bd
00000110: de68 86bd 8e16 19bd a14e efbc 396e 513b
00000120: ea8a 8b3d 1e63 c6bd 68bb f5bb 5f07 223c
00000130: 56f3 08bd e8a8 c3bd bf56 013d 564d d53d
00000140: 6684 183d 39fc 9cbd 4375 41bd d6fe 8b3d
00000150: 197c 7c3d 542b 56bd fc67 cabd 478a abbd
00000160: 7255 b3bd 0751 9fbd a75f a03d 1b76 943d
00000170: fc07 893d 36a0 093d 5dd3 18bd 0f09 273d
00000180: 0102 fa3c 8bd4 02bd 3822 a13d f0d7 e73d
00000190: 38e3 26bd d43e 0bbd 14dc f43b 99c4 d8bc
000001a0: ed91 983d a34d b13d e8b5 65bd 9d37 ae3d
000001b0: d881 883c f8f6 78bd e347 8e3d 380b b0ba
000001c0: d606 a6bc e7cf b53d a2e1 9bbd 1bbe ac3d
000001d0: d3c8 02be c9ad 983d 2560 1bbd b41d 5abd
000001e0: 12e0 eabb fc52 923d 6641 843d ab3a 733d
000001f0: f72c a4bc 0b3d 3fbd 7dc8 b73c fd95 9b3d
00000200: 6c6a 94bd 0439 2abd 8b31 e6bc 44af f6bd
00000210: f8bf 93bd 6af9 4c3d 527f 9b3c 0178 e4bd
00000220: 8c13 c5bd e84f 843d 1749 a4bd 7373 903d
00000230: b692 783d 4591 b33d fdd8 453c 2cfe a1bd
00000240: ff1e 6cbc fd84 abbd dabc bfbd bd61 ac3d
00000250: 43fb 903d 2caa 33bd

2.weight f4 [100, 150]
-0.0861521 0.043203205 0.046282556 -0.059453525 -0.039851557 -0.05440009 -0.038334463 -0.074933946
0.060313888 -0.06759678 -0.068824336 0.003797346 -0.04918208 -0.0011971669 -0.0028971324 -0.016752088
-0.02752338 -0.004610292 -0.0352844 0.05575583 0.019007618 0.021935737 -0.05295439 -0.017448034
0.027241383 0.06635973 -0.09050001 -0.037966665 -0.03503435 -0.086082 -0.006968185 0.011574171
0.036937557 -0.038924657 0.04629635 0.008384268 -0.013323269 -0.017028954 -0.0858108 0.03576864
0.07807405 0.08444272 -0.08128862 -0.006448651 0.060515385 -0.09819657 -0.0464059 0.04465059
-0.04885682 0.031008314 0.02169536 0.042111635 0.090956 0.0044736434 0.06908693 0.016212502
0.06442523 0.023604326 -0.09416732 -0.058304094 -0.023997733 -0.0044695917 0.023661295 0.00793196
-0.02161732 -0.0054048058 -0.024993865 0.042174067 0.05824861 0.033406056 0.0048217224 -0.076005176
-0.014812028 0.02492127 0.009231716 -0.0028879053 -0.028906971 0.048025094 -0.043662786 -0.0042874264
-0.06710345 -0.08646808 -0.028936151 0.036695648 0.071772106 -0.045653902 -0.028450267 -0.045622297
0.093307056 0.06742056 -0.05515478 -0.07035305 0.028672462 -0.054339025 -0.040333923 0.039892238
0.008870774 -0.11150687 -0.032175258 0.053711697 0.0434907 -0.011498785 -0.061640482 -0.014117563
0.044544302 0.07512118 0.056410134 0.042595625 0.03568379 -0.07263917 -0.008616561 0.08472554
0.035516143 0.04254682 -0.04216683 0.018603195 -0.025538795 -0.022919258 0.08138062 -0.063159466
-0.07045458 -0.018483173 0.02376054 -0.09662667 0.0050863675 0.013067455 -0.07037194 -0.027302498
-0.06152021 0.030881478 -0.0679466 -0.008163584 -0.053516135 0.036981355 -0.07230424 -0.057359047
0.051394057 0.04310014 0.03974644 -0.023991793 -0.046180416 -0.04586907 0.027923305 0.059668988
-0.0025745262 -0.05235414 0.068996064 -0.009974464 -0.10404403 0.028417766 0.008737071 -0.044030316
-0.028150655 0.053698868 0.06834833 -0.021832773 0.012929901 0.013601787 -0.06139226 0.072239906
0.028923783 0.02309503 -0.012915737 0.02906061 -0.003587925 -0.069435515 0.009232459 0.01905772
-0.041216716 0.013255785 -0.013948854 -0.05725228 0.0148168765 0.021048263 0.03591617 -0.058302417
0.07492767 -0.07218545 0.057156447 0.07155396 0.05253223 0.003440161 0.07329725 0.031629734
-0.03621155 0.010210152 -0.06486594 0.016689938 0.078109674 -0.07217548 -0.02804535 0.028547583
0.042217705 0.018111916 0.022694621 0.0027228263 -0.03701995 0.01404107 0.040846813 -0.00938872
0.029960997 -0.058574054 0.064235665 0.053853244 -0.019945705 -0.039095853 0.010805244 0.016237313
0.023643784 0.025828457 0.06021554 -0.052616194 -0.013014096 -0.008138624 -0.07529367 -0.047142003
0.06310506 0.03751956 -0.048659112 -0.015914327 0.008177817 0.0011688864 -0.042304184 0.0068641882
0.031320702 -0.011019508 0.050276846 0.030760212 0.047613755 0.05069598 -0.0456432 -0.021817248
-0.024535293 -0.094234556 0.0005407102 0.03148452 0.009203948 0.0023690413 -0.005457172 0.032637328
-0.039371528 0.07240175 -0.089106545 -0.019251902 0.06542526 0.019750744 0.025568375 -0.06290895
-0.04273072 -0.0598941 -0.055528168 -0.035718378 -0.0018908267 -0.018384527 0.07083182 0.032181382
00000000: 8370 b0bd d8f5 303d c792 3d3d 8a85 73bd
00000010: 633b 23bd a1d2 5ebd 9904 1dbd f876 99bd
00000020: b20b 773d 2e70 8abd c6f3 8cbd e5dc 783b
00000030: 2673 49bd 41ea 9cba d1dd 3dbb ad3b 89bc
00000040: b678 e1bc ef11 97bb 6086 10bd 3a60 643d
00000050: ddb5 9b3c 93b2 b33c b4e6 58bd 2eef 8ebc
00000060: 5229 df3c 9ce7 873d 1258 b9bd ef82 1bbd
00000070: 2e80 0fbd c24b b0bd 5f55 e4bb 97a1 3d3c
00000080: d64b 173d 766f 1fbd 3ea1 3d3d 2b5e 093c
00000090: d749 5abc 4e80 8bbc 93bd afbd 2382 123d
000000a0: 4ae5 9f3d 4ef0 ac3d a67a a6bd 354f d3bb
000000b0: fbde 773d 491b c9bd 1d14 3ebd 89e3 363d
000000c0: 171e 48bd 2605 fe3c 78ba b13c 407d 2c3d
000000d0: 2447 ba3d a497 923b 737d 8d3d 15d0 843c
000000e0: 60f1 833d dc5d c13c ccda c0bd 46d0 6ebd
000000f0: e596 c4bc a775 92bb 55d5 c13c 0df5 013c
00000100: ce16 b1bc cc1a b1bb efbf ccbc b7be 2c3d
00000110: 1896 6e3d cad4 083d 8aff 9d3b 9aa8 9bbd
00000120: 26ae 72bc b127 cc3c a040 173c 0343 3dbb
00000130: 50ce ecbc f6b5 443d c0d7 32bd 8a7d 8cbb
00000140: 896d 89bd 2d16 b1bd 820b edbc 2d4e 163d
00000150: 41fd 923d 96ff 3abd 8910 e9bc 72de 3abd
00000160: c517 bf3d ca13 8a3d fbe9 61bd 4315 90bd
00000170: 83e2 ea3c 9992 5ebd 2f35 25bd 0b66 233d
00000180: b956 113c b75d e4bd 34ca 03bd cc00 5c3d
00000190: 4e23 323d 6665 3cbc bb7a 7cbd 5a4d 67bc
000001a0: 1674 363d 22d9 993d 500e 673d c078 2e3d
000001b0: 2a29 123d d8c3 94bd 7a2c 0dbc 9584 ad3d
000001c0: 6079 113d 9345 2e3d 20b7 2cbd ba65 983c
000001d0: bc36 d1bc 2bc1 bbbc e2aa a63d c059 81bd
000001e0: 7e4a 90bd 066a 97bc 77a5 c23c 34e4 c5bd
000001f0: 8bab a63b e118 563c 2a1f 90bd 7da9 dfbc
00000200: 9efc 7bbd 27fb fc3c 9627 8bbd 8ec0 05bc
00000210: bc33 5bbd c379 173d 3f14 94bd 52f1 6abd
00000220: 9382 523d c689 303d 2acd 223d 708a c4bc
00000230: ad27 3dbd 35e1 3bbd 6abf e43c 7867 743d
00000240: 62b9 28bb 4b71 56bd cf4d 8d3d ef6b 23bc
00000250: 0915 d5bd 60cc e83c ef25 0f3c 2259 34bd
00000260: 349c e6bc 58f3 5b3d 36fa 8b3d a5da b2bc
00000270: efd7 533c 08da 5e3c 7376 7bbd 84f2 933d
00000280: 92f1 ec3c ca31 bd3c 879c 53bc 8410 ee3c
00000290: 6523 6bbb 3534 8ebd bd43 173c f01e 9c3c
000002a0: dcd2 28bd cb2e 593c bc89 64bc 5e81 6abd
000002b0: 7cc2 723c 686d ac3c d51c 133d 84ce 6ebd
000002c0: ae73 993d f7d5 93bd e11c 6a3d e28a 923d
000002d0: 092c 573d 5374 613b de1c 963d 2e8e 013d
000002e0: 9052 14bd 7b48 273c 6fd8 84bd 56b9 883c
000002f0: f7f7 9f3d bdd0 93bd 5dbf e5bc 9fdc e93c
00000300: 79ec 2c3d 715f 943c 12ea b93c 7271 323b
00000310: 3ba2 17bd 840c 663c fd4e 273d 25d3 19bc
00000320: c470 f53c 59eb 6fbd fd8d 833d 3895 5c3d
00000330: 2d65 a3bc f922 20bd 7a08 313c 1d04 853c
00000340: 9cb0 c13c 3396 d33c 92a4 763d 1484 57bd
00000350: 1339 55bc dd57 05bc 9133 9abd f917 41bd
00000360: 3a3d 813d 1cae 193d c74e 47bd c35e 82bc
00000370: 40fc 053c 5235 993a 2747 2dbd fcec e03b
00000380: 234a 003d 2b8b 34bc 18ef 4d3d d7fc fb3c
00000390: a406 433d 97a6 4f3d 5df4 3abd 16ba b2bc
000003a0: 3dfe c8bc 0cfe c0bd 73be 0d3a e9f5 003d
000003b0: 28cc 163c eb41 1b3b 14d2 b2bb b8ae 053d
000003c0: 0a44 21bd 5e47 943d 7e7d b6bd 2ab6 9dbc
000003d0: aefd 853d 50cc a13c c574 d13c 68d6 80bd
000003e0: 6806 2fbd 8453 75bd 8171 63bd 6f4d 12bd
000003f0: 9ed5 f7ba 269b 96bc 4610 913d a0d0 033d

2.bias f4 [100]
-0.010776087 0.06300687 0.014367625 -0.018871233 -0.07795782 -0.066465184 -0.053481784 -0.04196922
0.08274433 -0.07762621 -0.011100289 -0.05359216 0.06093993 -0.059429727 0.057564337 -0.032954626
0.05544606 -0.014365778 0.016585814 -0.025970612 -0.05345705 -0.067925975 -0.016619667 0.054467235
0.042034373 0.05710173 -0.012183229 -0.017639905 0.056260586 0.025909973 0.044664096 -0.070089035
-0.028453583 0.031023275 -0.07784123 -0.073108405 -0.034271937 -0.080464736 -0.016809857 -0.03572262
-0.0057969145 0.017896181 0.07668091 0.03410878 0.012969927 0.060068946 0.07509871 0.038538255
0.01581382 0.055012643 -0.08519478 0.06864527 -0.02593986 -0.030741137 -0.02140031 0.012253351
-0.05001595 -0.07860016 -0.0016128807 -0.00815263 -0.042396996 -0.0038368162 -0.06519636 -0.0124607375
0.06665216 -0.059054084 -0.06642367 -0.06259033 -0.05374845 0.022532372 0.049871154 -0.044891033
-0.067071274 0.05670796 0.047216482 0.07116276 -0.089593835 0.021263134 0.04001132 0.013198873
-0.029206442 -0.07329299 -0.021170387 -0.046242014 -0.0008454446 0.009656348 -0.07575358 0.010240927
0.029383382 -0.071812674 0.031666316 -0.032772686 -0.07481642 0.048562467 0.08162981 -0.038661115
-0.030573282 0.02903086 0.071938805 0.01359031
00000000: 2f8e 30bc bf09 813d 3066 6b3c d897 9abc
00000010: 59a8 9fbd e61e 88bd b70f 5bbd ebe7 2bbd
00000020: dc75 a93d 7efa 9ebd fddd 35bc 7483 5bbd
00000030: 269c 793d 966c 73bd 95c8 6b3d 6efb 06bd
00000040: 681b 633d 715e 6bbc f9de 873c 52c0 d4bc
00000050: c8f5 5abd c61c 8bbd f825 88bc 0919 5f3d
00000060: 3c2c 2c3d 81e3 693d 2b9c 47bc 9081 90bc
00000070: 8071 663d 2741 d43c b3f1 363d d78a 8fbd
00000080: 7d17 e9bc 8624 fe3c 396b 9fbd dcb9 95bd
00000090: bb60 0cbd b2ca a4bd d3b4 89bc e251 12bd
000000a0: 0bf4 bdbb 039b 923c e20a 9d3d a6b5 0b3d
000000b0: d17f 543c db0a 763d 5acd 993d 4ada 1d3d
000000c0: fc8b 813c f054 613d 9a7a aebd e495 8c3d
000000d0: d47f d4bc d6d4 fbbc b44f afbc 47c2 483c
000000e0: 86dd 4cbd 1ff9 a0bd 4c67 d3ba 9c92 05bc
000000f0: 79a8 2dbd 1873 7bbb ab85 85bd 1f28 4cbc
00000100: ed80 883d b2e2 71bd 2209 88bd 5c2f 80bd
00000110: 5627 5cbd cf95 b83c b245 4c3d a9df 37bd
00000120: aa5c 89bd 9b46 683d 1266 413d c8bd 913d
00000130: f97c b7bd 0630 ae3c e9e2 233d 1640 583c
00000140: 5942 efbc a31a 96bd 856d adbc 4468 3dbd
00000150: d4a0 5dba a935 1e3c b124 9bbd 90c9 273c
00000160: 6bb5 f03c 8612 93bd 8ab4 013d a73c 06bd
00000170: 5a39 99bd 70e9 463d 882d a73d 1e5b 1ebd
00000180: d274 fabc 20d2 ed3c a754 933d e4a9 5e3c

4.weight f4 [7, 100]
-0.048669174 0.04056357 0.019440157 -0.09640158 0.09847766 -0.05314398 -0.074113175 0.007304681
0.09023007 0.09259603 0.0231652 0.029757043 0.08220645 0.004520777 -0.025807818 -0.005572121
0.012476115 0.022405684 -0.006759577 0.050311103 -0.026890218 -0.07567864 0.06477561 0.013435754
0.074654005 -0.08248064 0.062550776 -0.024495916 0.085278645 -0.019452015 0.020389367 0.02975908
-0.03738795 -0.10983362 0.089460805 -0.021773202 0.042439174 -0.001952827 0.026478404 -0.018542454
0.05351118 0.011630583 0.060747057 -0.038554646 -0.0959103 -0.019592667 -0.025046656 -0.006296585
-0.016903 0.052403044 -0.029092124 -0.0023587784 0.036386948 0.033809043 0.023059933 0.106356725
-0.051938232 -0.020265685 -0.051523685 0.006232337 -0.076970436 -0.049953926 -0.03665133 -0.09028513
-0.047210567 -0.09547377 0.022233272 -0.072643474 0.0026377074 0.07615117 0.0894772 0.0007464228
0.046237614 -0.045633923 -0.077664405 0.07089126 0.019158047 -0.02705549 0.019095086 0.05672138
-0.050869644 -0.025622724 0.014794064 -0.005538601 -0.06665348 0.05848876 0.029036988 -0.018864244
0.034823813 -0.040611207 -0.043501306 0.02889887 -0.09152686 0.066011354 0.0036403588 -0.026815517
-0.079930045 -0.08138035 0.07361167 0.018038169 -0.046769936 0.080071814 0.039274387 -0.030110272
0.041120555 0.04289773 -0.056141797 0.050700255 0.05528877 0.013572499 0.081655204 -0.096993394
-0.011621724 -0.021876102 -0.024530632 -0.09768767 0.08759867 -0.004292158 0.028160442 0.054767627
-0.020305766 -0.085494876 0.007322207 -0.0036194741 0.015328696 -0.0014758082 0.001982364 -0.07617866
-0.019347174 0.06515776 -0.013244373 -0.028710132 -0.10164061 0.016539326 -0.01895816 0.023274234
-0.06054894 -0.088030055 -0.016833175 -0.013840456 -0.03934598 -0.018221268 0.08131407 0.057644773
0.023865009 -0.0018515431 0.06556328 -0.0895358 -0.077181704 -0.038733326 -0.0005953916 0.009280404
0.07157627 0.022251043 0.08707998 -0.062561296 -0.0032458443 -0.007103311 0.05407724 0.03294292
0.017436195 -0.04849005 0.041793045 -0.07668607 -0.06738662 -0.056819335 -0.078785494 -0.03936782
-0.07936855 0.03244259 0.05103016 0.048384547 -0.043649513 0.033416335 0.09024513 -0.01564915
0.03046596 -0.019728947 -0.05941092 0.026313895 0.037679322 -0.056553636 0.088603556 0.014122379
-0.018625684 -0.0624966 0.05002565 -0.008697555 0.0420653 0.076863654 0.055363514 0.027469503
0.026809596 0.00050196506 -0.085562825 0.058176447 0.05830911 -0.06876115 0.032224454 -0.0059156893
0.060926404 -0.07867655 -0.016037423 -0.011914793 -0.06836438 0.003113187 -0.04018485 -0.03173292
-0.06349378 0.03972439 0.03216925 -0.06515829 0.0906256 0.051120225 0.09569803 -0.017992927
-0.07448023 -0.055610377 0.09579354 0.069677815 0.08456631 -0.051369336 0.032087076 -0.041360248
-0.07979924 0.028254816 -0.03049163 0.0027892273 -0.017207863 0.07963273 0.070332035 -0.08633887
0.004463615 -0.032759473 -0.016785864 -0.017789362 -0.085037276 0.033670496 0.08294357 0.02195791
-0.03134612 -0.006407871 0.06363864 0.06431506 0.01936297 0.108788915 -0.09488172 -0.07599317
0.09493537 0.041490752 0.0697413 0.013336739 0.03098168 0.016622819 -0.05778182 0.01776503
00000000: 5459 47bd fc25 263d f740 9f3c 316e c5bd
00000010: a8ae c93d 81ad 59bd a6c8 97bd 1b5c ef3b
00000020: 8bca b83d fda2 bd3d f2c4 bd3c 0bc5 f33c
00000030: db5b a83d 0723 943b eb6a d3bc 5796 b6bb
00000040: 9e68 4c3c 208c b73c 717f ddbb 0413 4e3d
00000050: e048 dcbc 67fd 9abd 13a9 843d a321 5c3c
00000060: 33e4 983d 9ceb a8bd 9f1a 803d a9ab c8bc
00000070: 92a6 ae3d d559 9fbc 9a07 a73c 50c9 f33c
00000080: 1b24 19bd 73f0 e0bd 3a37 b73d b75d b2bc
00000090: b3d4 2d3d 00f6 ffba 3de9 d83c 58e6 97bc
000000a0: 8a2e 5b3d 338e 3e3c e8d1 783d 7aeb 1dbd
000000b0: 9f6c c4bd cd80 a0bc a52e cdbc 9553 cebb
000000c0: 2978 8abc 93a4 563d 9b52 eebc bc95 1abb
000000d0: 7b0a 153d 5a7b 0a3d 2fe8 bc3c 8ed1 d93d
000000e0: 2fbd 54bd 3904 a6bc 800a 53bd a238 cc3b
000000f0: ada2 9dbd 7d9c 4cbd b41f 16bd 69e7 b8bd
00000100: de5f 41bd c087 c3bd 8d22 b63c 1ac6 94bd
00000110: 63dd 2c3b 25f5 9b3d d23f b73d 96ab 433a
00000120: a763 3d3d a3ea 3abd 840e 9fbd 702f 913d
00000130: 56f1 9c3c 7aa3 ddbc 4c6d 9c3c ae54 683d
00000140: b05c 50bd bfe6 d1bc cd62 723c 277d b5bb
00000150: 9f81 88bd e991 6f3d fade ed3c 3089 9abc
00000160: 6aa3 0e3d f057 26bd 6d2e 32bd 53bd ec3c
00000170: 6f72 bbbd f630 873d 1693 6e3b 37ac dbbc
00000180: 5db2 a3bd beaa a6bd b7c1 963d c8c4 933c
00000190: d591 3fbd b1fc a33d 2ede 203d d1a9 f6bc
000001a0: 076e 283d 88b5 2f3d f1f4 65bd 12ab 4f3d
000001b0: 7a76 623d 305f 5e3c d83a a73d 79a4 c6bd
000001c0: 0b69 3ebc 8335 b3bc 77f4 c8bc 7910 c8bd
000001d0: ee66 b33d 3ba5 8cbb bab0 e63c 0554 603d
000001e0: 4758 a6bc f017 afbd 20ef ef3b b334 6dbb
000001f0: 3625 7b3c e86f c1ba 8dea 013b 8f03 9cbd
00000200: f77d 9ebc 6f71 853d edfe 58bc 8331 ebbc
00000210: f428 d0bd 7b7d 873c 254e 9bbc 9ba9 be3c
00000220: 2a02 78bd 1a49 b4bd bae5 89bc 14c3 62bc
00000230: 4029 21bd c544 95bc fe87 a63d ed1c 6c3d
00000240: 8d80 c33c 7aaf f2ba 0a46 863d 8c5e b7bd
00000250: 7111 9ebd d6a6 1ebd 0e14 1cba d60c 183c
00000260: 9496 923d d247 b63c fd56 b23d 2320 80bd
00000270: 3bb8 54bb e4c2 e8bb 1980 5d3d 28ef 063d
00000280: 5ad6 8e3c 819d 46bd 2f2f 2b3d 960d 9dbd
00000290: ff01 8abd 64bb 68bd 4a5a a1bd 2740 21bd
000002a0: fa8b a2bd 85e2 043d 0005 513d e02e 463d
000002b0: d5c9 32bd 91df 083d 70d2 b83d a532 80bc
000002c0: c093 f93c 9a9e a1bc dd58 73bd 3d90 d73c
000002d0: a255 1a3d c9a4 67bd c875 b53d 8d61 673c
000002e0: e494 98bc 6ffc 7fbd b2e7 4c3d 3180 0ebc
000002f0: aa4c 2c3d b16a 9d3d dac4 623d b907 e13c
00000300: cc9f db3c 4e96 033a 903b afbd 6d4a 6e3d
00000310: 89d5 6e3d a5d2 8cbd cafd 033d 66d8 c1bb
00000320: f78d 793d 2c21 a1bd ea60 83bc 4436 43bc
00000330: a002 8cbd 9c06 4c3b df98 24bd 61fa 01bd
00000340: 0709 82bd 0bb6 223d e7c3 033d b671 85bd
00000350: ea99 b93d 7163 513d 54fd c33d e765 93bc
00000360: 1789 98bd b5c7 63bd 672f c43d 3eb3 8e3d
00000370: 1a31 ad3d a768 52bd bd6d 033d 5d69 29bd
00000380: c96d a3bd a576 e73c 95c9 f9bc 78cb 363b
00000390: 81f7 8cbc 7c16 a33d 3e0a 903d 6fd2 b0bd
000003a0: 8443 923b cc2e 06bd 8282 89bc ffba 91bc
000003b0: 0628 aebd 13ea 093d 52de a93d 13e1 b33c
000003c0: ca64 00bd 1ef9 d1bb fa54 823d 9db7 833d
000003d0: 179f 9e3c b9cc de3d 5951 c2bd 4fa2 9bbd
000003e0: 7a6d c23d 35f2 293d 87d4 8e3d 5682 5a3c
000003f0: 4bcd fd3c 942c 883c a1ac 6cbd f887 913c

4.bias f4 [7]
-0.052063078 0.020674191 0.016684443 0.0903438 0.088486396 0.006209129 -0.042684782
00000000: 1840 55bd ec5c a93c d0ad 883c 2c06 b93d
00000010: 5b38 b53d f375 cb3b 3dd6 2ebd
