models/date-06-19-2025-10-53p1-RLbotp2-RLbotself_play-Falseexp_dir-RLbotepochs-50p1_win_rate-0.0p2_win_rate-1.0is_test-False/model.pth (torch, 117053 bytes, 6 tensors)

0.weight f4 [150, 84]
000000 fb f6 1d bd 11 d4 c4 bd 36 b8 bd 3c 7d f5 56 bc
       -0.038565617 -0.09610761 0.023159128 -0.013120052
000010 fc ae a9 bd 2a 60 4d bd 57 51 28 bd ff 2d ac bd
       -0.08285329 -0.050140537 -0.041093197 -0.084072106
000020 09 12 f4 bc c5 75 b5 3d 1d 7e a5 3d 56 b5 f1 bd
       -0.029793756 0.088603534 0.08080695 -0.11802165
000030 77 e4 16 3d df 8e e6 3c da 5d 9e bd ef d0 34 3a
       0.036838975 0.028144298 -0.077327445 0.00068975886
000040 cf 90 da 3d 89 ad 5f 3c dd 35 c5 bc 5f 81 d0 bd
       0.10672151 0.013652214 -0.024073536 -0.101809256
000050 22 1b 43 3d 16 07 11 3d 6d cb 00 bd 95 06 50 bc
       0.047633298 0.03540715 -0.031444002 -0.012696882
000060 60 22 af bc 1d 95 af bd c8 12 df 3c 3e ea 80 bd
       -0.021378696 -0.08573363 0.027230635 -0.06294678
000070 c5 e0 99 3d 7e 54 ac 3d 4a 85 b8 3d d0 38 e5 bd
       0.075135745 0.08414553 0.09009798 -0.11192477
000080 7f 98 48 bc 1c 7f e3 bb f1 2e 1e 3d 1f b8 9e 3d
       -0.012243389 -0.006942643 0.038618986 0.07749962
000090 cc b8 a9 bd 8a e6 6b 3d 96 79 95 39 ee bc de 3d
       -0.082872 0.057592906 0.00028510083 0.10875879
0000a0 5b 4a 81 3d 17 97 ce 3c ea fb 6b 3d d8 92 78 3d
       0.0631301 0.02521853 0.05761329 0.060686916
0000b0 b6 d9 37 bd 1a 12 c6 3d 91 69 1b bd 3e aa 56 bd
       -0.04488536 0.09671421 -0.037942473 -0.05240845
0000c0 00 34 3b 3c c0 d3 87 bd 4b 4a a3 3d 7e b4 ca bd
       0.011425972 -0.06632185 0.07973155 -0.098977074
0000d0 87 c1 9c bd ed d8 65 3d 0f ca 46 3d f3 74 1d bb
       -0.076541 0.05611508 0.04853254 -0.0024026006
0000e0 af 8b 84 3d 69 73 37 bd cb af 8d bd a3 44 ad bd
       0.06471955 -0.044787798 -0.069182955 -0.08460357
0000f0 99 e3 e4 bd 34 07 c6 bc 89 e5 51 bd 3a 0d 02 bd
       -0.11176223 -0.024173357 -0.051244292 -0.031750895
000100 2f 63 a8 bc e1 25 b5 bd 5e ed 99 3c af d9 4b 3d
       -0.020555107 -0.088451155 0.018789943 0.049768146
000110 b5 b2 b1 bd 49 f5 62 3d 11 6b bc 3c 98 f0 2f bd
       -0.08676664 0.055409703 0.023000272 -0.042954057
000120 8a bb f6 3c e7 40 db 3d ac 71 35 bd 77 2d 03 3d
       0.030118722 0.107057385 -0.04429786 0.03202578
000130 68 6b 47 bd 49 d8 f6 bc 1b b0 60 bd c0 4c 96 bd
       -0.048686415 -0.03013243 -0.054855447 -0.07338858
000140 c2 b1 5b bd e8 19 b6 3d d8 3b cc 3d 9c 81 13 3c
       -0.05363632 0.0889166 0.09972352 0.009003069
000150 ff 07 b6 bc 4e 7d 11 bc 4f a5 60 3c e5 f6 98 3c
       -0.02222061 -0.008879973 0.013711288 0.018672416
000160 3e 9c 8c bb 56 a4 6e 3c 26 f0 b3 bd d5 dc 69 bd
       -0.0042910865 0.014565548 -0.08786039 -0.057095367
000170 32 83 23 bd ef a4 b7 3d 84 00 49 3b 5b 51 11 3d
       -0.03992004 0.089670055 0.0030670473 0.035477977
000180 fb 60 fe 3b 6b c0 d8 bd 1b 40 ef bc 06 86 d9 bd
       0.007763026 -0.10583576 -0.029205373 -0.10621266
000190 f7 2e 52 bd 36 1f 30 bd 0e 82 bb 3c de 07 88 3d
       -0.05131432 -0.042998515 0.022889163 0.066421255
0001a0 a7 b2 f4 3c cd ba 6e 3c 26 26 03 3b 7f 9b ef 3d
       0.029870344 0.014570904 0.0020011752 0.116995804
0001b0 a3 83 9c bc 9c 68 38 3b fb 22 49 bd 1f b6 aa 3d
       -0.019105738 0.0028138524 -0.049105626 0.08335518
0001c0 2c fb 3f bc 1a 1c ca bc 07 79 99 3c 86 a4 1b bc
       -0.011717599 -0.024671603 0.018734468 -0.009499675
0001d0 64 30 3b bd f3 e9 b4 ba 37 9d 47 bb ba 3b d8 3b
       -0.045700446 -0.0013802632 -0.0030458698 0.006598917
0001e0 bf 1c ca 3d 87 0b b7 3c 1c a6 22 3d b8 40 02 bb
       0.09868764 0.022344364 0.039709195 -0.0019875
0001f0 4b 27 57 3d 75 82 07 bc 1a 82 be 3d 84 1b e3 bc
       0.052527707 -0.0082708495 0.09302159 -0.027723081
000200 fb 70 ba 3d fe 9d 6c bd 1c 2d 3d 3d 76 c0 2a 3c
       0.091035806 -0.05776786 0.046185598 0.010421863
000210 9a d6 93 bd dc 10 d9 3c ff 9f e6 3c 72 ff 02 bd
       -0.072186664 0.026497297 0.028152464 -0.031981893
000220 c6 a7 31 3d 3e 9e fb 3c e5 91 cd bd 81 48 fc bc
       0.04337289 0.030715104 -0.10037593 -0.030796291
000230 b7 b6 aa bd f3 b8 bf bd b2 cc 02 3d 06 26 7b 3c
       -0.08335631 -0.09361448 0.031933494 0.01532889
000240 59 c6 f5 bc c3 0a 5b bc ba 9d 31 bd 81 04 f4 3d
       -0.030001806 -0.013369265 -0.04336331 0.119149216
000250 b3 66 c9 bd 34 a5 da bc ee c6 d0 3d e0 99 5e 3d
       -0.098340414 -0.026690103 0.10194193 0.054345965
000260 77 ee c4 3d 88 78 bf bd c0 45 9f bc 57 e4 78 3d
       0.09615796 -0.093491614 -0.01944244 0.060764637
000270 2d b6 58 ba 78 1a 01 bd 32 c0 4f bb a4 fb 3c 3d
       -0.00082668924 -0.031519383 -0.003170025 0.04613842
000280 ed d3 9e bd 58 55 37 3b c3 82 ca bd 66 e6 17 bc
       -0.077552654 0.0027974453 -0.09888222 -0.00927124
000290 02 99 88 bd 4f 45 be 3c 4e 39 44 3d ad 13 d1 bd
       -0.06669809 0.023226408 0.047906213 -0.10208831
0002a0 6b 65 c3 bd 38 e0 c5 bd 7e 06 02 3d 07 a6 af 3d
       -0.09540828 -0.09661907 0.031744473 0.08576589
0002b0 64 a9 ae bd 95 f4 bd bd d7 4e f1 3c 1a 64 ef bc
       -0.085284024 -0.09275166 0.02945654 -0.029222537
0002c0 f3 63 9a 3d 0a d3 7a bd e7 8b cb bd 95 5d de bd
       0.07538595 -0.06123642 -0.09938794 -0.10857693
0002d0 38 a9 ce bd e5 7f ad bd 99 ed 5a bd ec 31 e1 bc
       -0.1009087 -0.084716596 -0.053449247 -0.027489625
0002e0 01 55 61 3c c8 6b b5 3c 93 90 79 3b b8 03 6b 3d
       0.013753177 0.02214612 0.0038080558 0.057376593
0002f0 36 76 88 3d a2 07 b0 bd f3 5c 26 3d 88 e5 b5 bd
       0.06663172 -0.08595206 0.040615987 -0.0888167
000300 e8 9a ff bc 26 df a3 3d db 91 76 bd cc c0 7c bd
       -0.031201795 0.080015466 -0.060197692 -0.061707303
000310 12 e9 69 bc d4 33 72 3d e5 b1 33 3d 94 8a bd bd
       -0.01427676 0.05913146 0.043870825 -0.09254947
000320 16 3e 45 3d 29 7c 04 3d fe 08 4e 3d 46 d5 90 bd
       0.048154913 0.03234497 0.050301544 -0.07071929
000330 1c b7 ac 3d 84 99 82 bc 19 73 d7 3c 9a 98 34 3c
       0.08433363 -0.015942343 0.0263 0.011022711
000340 37 d0 bc bd b6 49 c1 bd 8f d9 ab bd 6c 18 16 3c
       -0.09219401 -0.09437887 -0.083911054 0.009161096
000350 6e 07 8c bb 7e 65 87 3d 44 eb 9d bd 1a 32 6a bc
       -0.0042733466 0.06611155 -0.07710889 -0.014294172
000360 12 b9 e4 bc b3 39 07 bd 5a 85 f6 3c d1 3b 4f bd
       -0.02792028 -0.03301401 0.030092884 -0.050594155
000370 2a 35 57 bc ac 67 42 bd 0e 65 00 bd b4 99 7e bc
       -0.013135234 -0.04746215 -0.031346373 -0.015539575
000380 4a 96 65 bd 11 32 72 bd f6 3f 72 3d e2 84 a2 3d
       -0.05605153 -0.05912978 0.05914303 0.07935502
000390 f7 ce cf bd eb 68 af 3d b6 b5 0a bc 1d 13 b4 3d
       -0.10146897 0.085649334 -0.008466175 0.08792708
0003a0 cf ab 8a bd 55 27 e0 bd 01 9e ec bc 96 8d bf 3c
       -0.06771051 -0.10945002 -0.028883936 0.023382943
0003b0 e8 df 84 bd d7 d6 1b bd ec 03 73 3d a7 65 27 3d
       -0.06488019 -0.038046684 0.059329912 0.040868428
0003c0 0f 2f 24 bd 30 d3 ac 3d d9 8e 4f bd 06 8a 30 3c
       -0.04008394 0.08438718 -0.05067334 0.010775095
0003d0 5f ff 75 3d 79 a9 26 3d 7c 28 c7 3c 8f 58 8d bc
       0.060057994 0.040688965 0.024311297 -0.017254142
0003e0 60 16 88 3d 0d 07 47 bc 07 56 da bd 49 7d 8f 3c
       0.06644893 -0.012147677 -0.1066094 0.017515795
0003f0 0b 4d 45 3d ce 03 e7 bc 5b 05 22 bd 2c c6 97 3d
       0.048169177 -0.028200056 -0.03955589 0.07410845

0.bias f4 [150]
000000 8c fc 33 3d f6 f6 6f 3d 9a 60 ef bd 0a c6 c8 3c
       0.04394202 0.05858513 -0.11688347 0.024508495
000010 82 33 b4 3d 2a cc 72 bb fc 25 5c bd 8d 09 c8 bc
       0.08798887 -0.003704796 -0.053747162 -0.024418617
000020 78 a6 84 bd 23 1c 89 bd 48 8f 1a 3d f0 0c 82 3d
       -0.06477064 -0.0669482 0.0377343 0.06350124
000030 ff 36 37 3d 37 06 ab bd 84 53 9d 3d 98 ad a3 3d
       0.044730183 -0.08350795 0.07681945 0.07992095
000040 c0 bd 64 bd 99 74 44 3d 43 6f 8c bd 84 89 e9 bc
       -0.055845022 0.04796276 -0.06857159 -0.028507955
000050 04 4f cf bd 29 26 62 bc bf 2a 08 bd e6 75 8c bd
       -0.10122493 -0.013803043 -0.03324389 -0.06858425
000060 05 97 7d bd 2b 7c e7 3c dd 2f d6 3d a1 82 2f 3c
       -0.0619116 0.02825745 0.10458348 0.010712297
000070 07 e3 d7 bd 45 17 53 bc e2 1d ac bd ad ce a8 3d
       -0.10541349 -0.012883966 -0.08404137 0.08242545
000080 1b fa 7e 3d 44 d1 f0 bb 1c c0 7d bb f3 7c 33 3d
       0.062250238 -0.007349165 -0.0038719242 0.043820333
000090 d7 57 83 3c fc fc ad 3d 86 25 36 3d 72 17 f1 bd
       0.016033096 0.084955186 0.04446938 -0.1177205
0000a0 39 38 8d 3d ca b6 b4 3c 5f ca a3 bd e1 16 84 bd
       0.06895489 0.022059817 -0.079975836 -0.06449676
0000b0 7b ff e3 bd f9 b6 53 3b ed 41 a5 3d 37 e0 a6 ba
       -0.111327134 0.0032305105 0.08069215 -0.0012731616
0000c0 77 aa 62 bd e8 6b 1c 3d 95 15 91 3c f6 e0 a1 3d
       -0.05533835 0.038188845 0.017710486 0.07904236
0000d0 c6 39 aa bd db 41 90 ba c4 e5 89 3b 10 38 97 3d
       -0.08311801 -0.0011005955 0.0042082984 0.0738374
0000e0 8b 39 3c bd a4 c3 97 3c 53 1a fb bc 9b 15 d6 3d
       -0.045953315 0.018525906 -0.0306522 0.1045334
0000f0 9c 1a 7d 3d 82 93 bf bd a6 f3 dc 3c 0e df f2 3c
       0.061792955 -0.09354307 0.02697165 0.029647376
000100 7a 57 59 bd 77 0b 1b bd 58 a6 31 3d 74 f9 ec 3c
       -0.05306194 -0.03785273 0.04337153 0.028927542
000110 8e a7 84 3d 68 52 30 bd 27 ea da 3d e7 d5 5a bc
       0.06477271 -0.04304734 0.10689192 -0.013356662
000120 f5 e5 c1 bc 69 6f be bd 1b 7f d8 bb 90 32 ee bd
       -0.023669222 -0.092985936 -0.006606949 -0.11630738
000130 b2 b8 aa 3c 79 06 2f 3d 12 6a a1 bc 49 74 8a bd
       0.020840023 0.042730782 -0.019703899 -0.06760461
000140 0f 30 06 bd 68 89 9b bd 43 ea 80 bd 45 a3 22 bc
       -0.032760676 -0.075945675 -0.06294682 -0.009926622
000150 03 c9 9c 3d 78 97 46 3d 12 ff 83 3d ff 2c 42 3d
       0.076555274 0.048484296 0.06445135 0.047406193
000160 e5 07 0a bd b8 af 08 3d db 99 21 bd 17 61 0e bc
       -0.033698935 0.033370703 -0.03945337 -0.00869014
000170 5f cf b7 bd 6b 7c 18 bd a6 47 c6 bd fd ad 0e 3d
       -0.089751 -0.03722803 -0.096816346 0.034833897
000180 4a 4e 45 3c b2 d3 5c 3d c4 0a f7 bc ca 03 16 3d
       0.012042591 0.053912826 -0.0301565 0.036624707
000190 42 cc b3 bd 61 2a 95 3d ba 5e 99 bd 9d 28 4e bb
       -0.087791935 0.07283474 -0.07488771 -0.0031457313
0001a0 80 49 f2 bd 66 90 da bd b4 19 d5 bd 99 91 a9 bd
       -0.11830425 -0.10672073 -0.10405293 -0.08279724
0001b0 9d 73 9a bd 9f 00 71 3c a0 3a 01 3c 1f fa 80 bd
       -0.07541583 0.014709621 0.007887512 -0.06297707
0001c0 b9 c9 1a bd dc 47 9d bd 4f 31 cc ba d8 aa 92 3d
       -0.037790034 -0.07679722 -0.001557866 0.07161492
0001d0 c9 da 91 3d d2 86 86 bd 53 a5 b2 bd e4 f3 4b 3d
       0.07121808 -0.06568684 -0.08722939 0.04979314
0001e0 f2 b7 8d 3d e8 1f e5 bd 4d e2 aa bd 8f ee f7 bc
       0.069198504 -0.11187726 -0.08343945 -0.03026512
0001f0 b5 e5 c4 bd 00 f1 3c bd f8 a6 96 3d 0d db 36 3d
       -0.09614126 -0.046128273 0.073560655 0.044642497
000200 c5 e0 cd bc 44 93 29 3d 7b 24 c7 3d c1 16 d3 bd
       -0.025131593 0.04140021 0.09723755 -0.10307074
000210 0b 32 43 bd f6 77 69 3d e7 f6 15 bc 54 45 f4 bd
       -0.047655147 0.05699917 -0.009153104 -0.11927286
000220 3d 8d 74 bd 87 1c ae bd 38 ac b8 bc 9c 3d b4 b8
       -0.059705008 -0.08501535 -0.022543058 -8.5945445e-05
000230 8b 1a cc 3c 2d 49 a7 3d 2c 68 de 3d 35 65 0b 3d
       0.024915 0.08168254 0.10859713 0.034032065
000240 8e d0 8a bc 10 8c 6e bd 2e 90 2b 3d ea 1c ca bd
       -0.01694515 -0.058239043 0.041885547 -0.09868796
000250 36 f5 91 bd fb 91 03 3d
       -0.071268484 0.03212164

2.weight f4 [100, 150]
000000 e3 e0 4f 3c 41 8a 8c bc c1 a8 6b 3d 5b b8 3c bd
       0.0126878945 -0.017155768 0.057533983 -0.046074253
000010 19 d3 82 bc d7 d5 50 bd cc 4d a7 bc e0 2b 9a 3d
       -0.0159698 -0.050985184 -0.020422839 0.075279
000020 99 4c 46 3d c3 38 2f bd d3 ba 77 ba de 05 80 3d
       0.048412893 -0.04277874 -0.0009450141 0.06251119
000030 a8 f9 f0 3c 70 da 4e bd c6 22 e1 bc 1f ef 9b bd
       0.02941592 -0.050501287 -0.027482402 -0.07613968
000040 5c 65 74 3d a6 9f 86 3d 3d 27 8a bd eb 81 84 3d
       0.059666976 0.06573419 -0.06745765 0.064700924
000050 57 3e d4 3c 4c 41 c8 3c bd cf 4c 3c 62 d7 4a bd
       0.025908632 0.024445198 0.012500701 -0.04952181
000060 f6 3b 64 3d 59 c0 09 bd 55 53 33 3d b8 14 8d bd
       0.055721246 -0.033630703 0.043780643 -0.068887174
000070 5b c6 92 3b 47 96 97 3d 75 62 31 bd ef 83 f3 bc
       0.004479212 0.0740171 -0.043306787 -0.029725997
000080 2f 09 3a 3d d3 01 ba bc 8a f7 c0 bd b1 01 c4 bc
       0.045418914 -0.022705948 -0.09422214 -0.023926588
000090 ee 3b d4 bc 96 29 76 bd ea da a0 bd e2 90 08 bd
       -0.025907483 -0.060098253 -0.078542545 -0.033341296
0000a0 6a d3 0a 3d c2 84 33 bb 43 4f 76 bd a0 bc 6f 3d
       0.033893026 -0.0027392362 -0.060134184 0.058529496
0000b0 64 3c 3c 3d 16 b6 06 3c 2a fb 61 bd 13 db 86 3d
       0.04595603 0.008222124 -0.05517117 0.06584754
0000c0 64 c0 0e 3d e9 a4 c1 bd ec 6e ce 3b de 7f 23 3d
       0.034851447 -0.09455282 0.006299844 0.039916866
0000d0 f9 49 6f 3d 21 f4 46 bd db 67 ee bc 09 cb 2d 3c
       0.058420155 -0.048572663 -0.029102257 0.010607489
0000e0 4f bb 91 bb a1 be 1d 3d 20 56 2d bd cc f2 12 3d
       -0.0044473778 0.038511876 -0.042318463 0.03587608
0000f0 be 54 bf bc a2 95 50 3d fc 29 23 3c 96 60 ed 3c
       -0.023355838 0.05092395 0.00995874 0.02897672
000100 a5 43 ed 3c 7b 5c 71 3d ed 61 a9 3c 4c 6f 60 3d
       0.02896292 0.058926087 0.020676577 0.05479364
000110 7b c2 84 bd a5 f8 1d bd 5d e5 52 bd 68 7d e4 bc
       -0.06482407 -0.038567204 -0.05148827 -0.02789183
000120 2e 00 e3 3c 66 b9 52 bd c7 c6 53 3d 36 71 06 bc
       0.027710047 -0.05144634 0.05170324 -0.0082057025
000130 90 6d 81 bd e8 d1 15 3c 77 9f cb bb f9 b3 53 3d
       -0.063197255 0.009144284 -0.006214078 0.051685307
000140 f0 a6 74 3c 11 6c 9a 3c e5 b8 03 bd c7 f0 72 3d
       0.014932379 0.018850358 -0.03215875 0.059311654
000150 9d 83 d6 3c 1d 75 ea bb a5 36 23 bd 7d e5 66 3d
       0.026185805 -0.0071550743 -0.039847035 0.0563712
000160 37 77 12 3d 37 9f 4c 3d bc ca d3 bd 53 f5 0d bd
       0.035758223 0.049956527 -0.10341403 -0.034657788
000170 4b bf 5d 3c 6b b2 c3 3c 15 48 9b bd 74 34 91 3d
       0.013534377 0.023888787 -0.07582108 0.07090083
000180 ba ff 40 bd 71 9f 1d bc f8 21 13 bc 0a aa 4f bb
       -0.04711888 -0.009620533 -0.008980267 -0.0031687045
000190 8f 63 4c bd 72 f1 68 bb e8 1a ed 3c 14 7c a1 bd
       -0.049899634 -0.0035544303 0.028943494 -0.07884994
0001a0 1e 66 e4 3c 94 19 89 3d 48 c9 a7 bc e5 5d 90 3d
       0.027880725 0.06694332 -0.02048172 0.07049159
0001b0 87 8a f9 bc dc 48 53 3d 7f f6 b8 3c 92 36 6a bd
       -0.030461563 0.051583156 0.022578476 -0.05718095
0001c0 e1 8b 11 bd 00 68 38 bc ca 71 f6 3c 82 5a 76 3d
       -0.03553379 -0.011255264 0.030083556 0.06014491
0001d0 2d a9 c5 3c 8d 07 1b bd f3 28 86 bd 23 d7 e1 bc
       0.02412852 -0.037848998 -0.06550779 -0.027568405
0001e0 3b 7c 42 bc 2d 4c 83 bd 75 e7 64 bd cb 13 87 bd
       -0.011870439 -0.06411014 -0.055884797 -0.06595572
0001f0 cb cb 43 3c ef a5 51 bd 85 8d 70 3d 9d ad 42 3d
       0.0119504435 -0.051183637 0.058728714 0.04752885
000200 4c 3c 14 3d 03 8c 4c bd 7f 2e 6c 3d 69 5f b3 3c
       0.036190316 -0.049938213 0.05766153 0.021896081
000210 bd 38 a3 bd 77 1b ac bc 4d eb 99 3d db 4a 68 3d
       -0.07969806 -0.02100919 0.07515583 0.056712013
000220 c3 3a 6b bc 55 43 13 3c 1b fc 8e 3d a1 5f 8f bd
       -0.014357272 0.008988221 0.06981679 -0.07000662
000230 2b 97 7a 3d 78 a6 a7 bd 05 17 43 bd 64 3f 42 bd
       0.06117932 -0.08186048 -0.047629375 -0.047423735
000240 0d 93 37 bd bc 9b 0c 3d bb 21 55 bd 36 2b 55 3c
       -0.044817973 0.034328207 -0.05203412 0.013010791
000250 94 a5 2f bc 58 2c a1 bd 5c 5d 9b 3c 80 a9 d6 bc
       -0.010720629 -0.07869786 0.018965416 -0.02620387
000260 58 6d 90 3d 72 50 51 3d f8 f1 44 bd 14 87 89 3c
       0.07052106 0.05110211 -0.048082322 0.016788043
000270 76 33 e1 3c 80 52 72 bc 20 a0 f2 3c 73 e0 48 3c
       0.027490359 -0.014790177 0.02961737 0.012260544
000280 c6 a7 e2 bc 8c 14 ac bc 32 aa 63 3d 16 c6 18 3d
       -0.027667891 -0.021005891 0.055582233 0.037298284
000290 37 5c 5e bd de c8 b1 bc 5a 0b b7 3d 5c 79 98 3d
       -0.05428716 -0.021702226 0.08937712 0.074450225
0002a0 1d f4 93 3d f8 3f 69 3d cc 47 80 bd ee b1 69 bd
       0.07224295 0.05694577 -0.06263694 -0.057054453
0002b0 a4 d6 2b bd 40 f1 c9 bc 87 15 0e bc ae 58 ae 3c
       -0.041952744 -0.02465117 -0.008672125 0.02128252
0002c0 0d 3e 0b 3d 09 3e 55 3d c0 61 cf bc b6 aa dd bd
       0.033994723 0.052061114 -0.025315166 -0.10823576
0002d0 f0 d5 0f bc 4a bf 63 ba f7 a4 3a bd 6b 61 85 bd
       -0.008779034 -0.0008687867 -0.04556748 -0.06512722
0002e0 3b ec 3f 3c e9 69 83 3d 5b c3 4d 3d 33 51 48 bb
       0.011714037 0.06416685 0.050235134 -0.0030565977
0002f0 10 e4 08 3d 3e 24 c4 3c 01 5f 49 3d ff cd 09 3d
       0.033420622 0.023943063 0.04916287 0.03364372
000300 2e cf 57 3b 46 5f 3c bc b3 63 29 bc ad 17 fc 3b
       0.0032929885 -0.011497324 -0.010338712 0.007693252
000310 8f fe 77 3d 4e 55 0d 3d 85 a9 34 bc 08 88 a7 3c
       0.0605455 0.03450518 -0.011026745 0.020450607
000320 66 b6 74 3c 3d ac 81 bd f5 2e 4b bd c6 c6 29 3d
       0.014936065 -0.0633168 -0.04960533 0.04144933
000330 f7 14 09 bd 81 f2 3a bc 3e 02 43 3d bf 9e 01 3d
       -0.03346726 -0.0114103565 0.04760956 0.031645533
000340 87 21 c6 bd d2 d5 77 3b 3f 78 22 3d ae fa 60 3b
       -0.096743636 0.0037816656 0.039665457 0.0034329104
000350 f6 08 72 3d 2e 1a 54 3d 9f 31 b2 bd 72 9c 5e 3d
       0.059090577 0.05178278 -0.08700871 0.054348417
000360 53 f0 13 3d 83 a4 0a 3d 0d a6 75 bc 35 db 58 3c
       0.036117863 0.033848297 -0.014993203 0.013235857
000370 fe e2 48 bd 9a aa f1 bc 7d 21 5d 3a 1d 2f 7b bd
       -0.0490446 -0.029500294 0.0008435471 -0.061324228
000380 29 1a 21 3d 23 94 1b bc bc dd 57 3b e6 46 88 bb
       0.03933159 -0.009495768 0.003293856 -0.0041588424
000390 9c f9 a0 bd e4 dd cc 3b 8a f0 74 bd db c4 0e 3d
       -0.07860109 0.0062520374 -0.05979971 0.034855705
0003a0 a0 4a 94 bd 00 89 01 3c 64 1e 82 bd b1 81 88 bd
       -0.07240796 0.0079061985 -0.06353453 -0.06665362
0003b0 74 53 7f 3d da a6 d1 bd 59 f9 93 bb fe 6c d9 bc
       0.062335446 -0.102369025 -0.0045158085 -0.02654123
0003c0 41 df bc bb 93 9e cd bd 8b e2 ac bd 59 cd 2b 3d
       -0.0057639186 -0.10040011 -0.08441647 0.04194388
0003d0 ea 07 1b 3d 6c 34 8c bd 8c 05 5e 3d 22 8a 6f bd
       0.037849344 -0.06845936 0.05420451 -0.058481343
0003e0 78 57 0e 3c 79 d1 3a 3d 74 66 11 3a f8 eb cb bc
       0.008687846 0.045609925 0.0005546578 -0.024892792
0003f0 70 a0 98 3d 09 8f 55 3d 48 e7 55 bd 63 5c b5 bc
       0.07452476 0.052138362 -0.05222252 -0.02213878

2.bias f4 [100]
000000 26 e4 91 bd 82 a1 a4 3c 93 ec 10 3d b0 67 e4 bc
       -0.07123594 0.020096544 0.035381865 -0.027881473
000010 53 5e a5 bd b4 87 1e bd 01 b0 d9 bb cf 13 e3 bc
       -0.080746315 -0.038703635 -0.0066432958 -0.027719406
000020 1f 97 6b bd b8 28 23 3d b7 16 8f bc fc 21 84 3d
       -0.057517167 0.039833754 -0.017466886 0.064517945
000030 cf 39 24 bc 98 33 39 bb c5 0d 44 bc 04 ed 11 3d
       -0.010023548 -0.0028259512 -0.011966174 0.035626426
000040 2b a3 67 3c d1 ad cb bb 97 48 b2 bb 49 3a 53 bd
       0.014138023 -0.006215789 -0.0054407823 -0.051569257
000050 a9 8a 84 3d c9 d4 36 3d b6 1a a2 3c ff 3a 82 bb
       0.0647176 0.04463652 0.019788127 -0.003974318
000060 5f 77 f7 3c f2 53 31 3c 18 b1 86 bc 1e b9 81 bd
       0.030208288 0.010823237 -0.016441867 -0.063341364
000070 d5 f8 a5 bd 13 90 a2 3c e4 22 33 3d e5 4b 42 3d
       -0.081041016 0.01984409 0.043734446 0.04743566
000080 00 96 49 3d 1d 2a 58 bb 46 1e aa 3d 28 e5 62 bc
       0.049215317 -0.0032984086 0.083065554 -0.01384858
000090 34 cb 9a 3b 5a af 88 bd a1 f3 38 bd c1 66 d3 bb
       0.0047239307 -0.06674071 -0.045154218 -0.006451458
0000a0 e6 08 a8 bd 1e 22 ff 3c 2c ad 25 3d de a0 15 3d
       -0.08204822 0.031144198 0.040448353 0.036530368
0000b0 51 dd 38 3d 72 b3 13 3d 9d 7f a3 bd 9e a8 7a bd
       0.04513294 0.036059804 -0.07983325 -0.061195962
0000c0 b8 cc 48 bd c7 ea dc bc 31 dc 9d bd b1 c5 86 3d
       -0.04902336 -0.02696742 -0.07708014 0.065806754
0000d0 38 d8 bb bd e6 95 0f bd 07 86 dd 3c 6c e5 42 3d
       -0.091721 -0.035055064 0.027041448 0.047582075
0000e0 dd 89 0f bd 42 3e 90 3d fb 9b 24 bc b5 30 72 bc
       -0.035043586 0.07043125 -0.010046954 -0.0147821205
0000f0 eb ed 10 3d 53 50 fd 3c b8 73 ac 3d 39 7f 10 bd
       0.035383146 0.03092209 0.08420509 -0.03527758
000100 88 12 c7 bd a8 76 30 bc af a0 b7 3c 98 99 46 bd
       -0.097203314 -0.010770477 0.022415487 -0.048486322
000110 2d 04 da bc ce a7 1d 3d 0f 2e c5 3c d8 a8 9d bc
       -0.02661332 0.03849011 0.024069814 -0.01924555
000120 85 b7 3e 3d c4 43 8d bd 3a c3 24 bb 71 c3 24 3d
       0.046561737 -0.06897691 -0.0025140778 0.04022545
000130 71 33 60 bd 8e 21 c3 bc e1 fb af bc 41 1b 87 bd
       -0.05473656 -0.023819711 -0.02148241 -0.06596995
000140 3d 8f 3c 3d cc d1 29 3d 55 8e 43 bb 51 02 fc bc
       0.04603504 0.041459844 -0.0029839475 -0.030762823
000150 86 81 c5 3c af 46 9d bc 1e 93 9d bc 17 a2 bc bb
       0.024109613 -0.019198744 -0.01923519 -0.0057566273
000160 e8 84 24 3d 48 e5 9e bc 92 01 91 3c 94 d7 9c bd
       0.04016581 -0.01939644 0.017700944 -0.07658306
000170 c2 fc 90 bc 28 d0 80 bd a7 a2 86 bc 2f f6 98 3d
       -0.01769865 -0.06289703 -0.01643498 0.07468831
000180 d1 52 b3 3c 27 b8 81 3c 29 a2 fc 3c 28 52 69 bc
       0.021890076 0.015834881 0.030839043 -0.014240779

4.weight f4 [7, 100]
000000 ca a7 af bc 3b da 82 bd b8 1b b0 3d c3 9c f8 bc
       -0.021442313 -0.063892804 0.08599037 -0.030348187
000010 93 67 ac 3c 4f b1 f2 bc 08 5b 1a 3d ae 02 85 bd
       0.021045482 -0.029625563 0.03768447 -0.06494652
000020 85 fd 9e 3d b6 2d 52 bc 18 10 7f 3d 0f 84 a7 3c
       0.07763199 -0.012828281 0.062271208 0.020448713
000030 93 4f 3c 3d 51 c7 67 3d 46 77 27 bd fb 5d 4b bd
       0.045974325 0.056586567 -0.040885232 -0.049650174
000040 ac a2 a1 3c 22 a9 5b bd 33 6d 71 3d cd d9 0b 3d
       0.019730888 -0.053628094 0.05894203 0.034143258
000050 1d ea 1f bd 91 3f aa 3b ad 1c 5a bb 70 cc 29 bd
       -0.039041627 0.005195566 -0.0033281252 -0.041454732
000060 8d b1 1b 3d 88 a2 67 3c 92 59 8a 3d 8a 17 7d 3c
       0.038011122 0.014137872 0.067553654 0.015447507
000070 97 cd 08 3d 8a 48 13 3d 96 fc bf bb ab f2 93 3d
       0.03339919 0.03595785 -0.005858968 0.072240196
000080 26 5c 86 bd 8c fa 1a bd 81 2c bf bd 7a 3b 70 3d
       -0.06560545 -0.037836596 -0.0933466 0.05865047
000090 53 03 2d bd cd d8 9a bc 97 b7 af bc 81 13 b0 bc
       -0.0422395 -0.018902207 -0.021449847 -0.021493675
0000a0 52 59 2b bc 22 b7 94 3c 4d 76 28 3d c8 07 85 bc
       -0.010458307 0.01815373 0.041128445 -0.016239062
0000b0 36 4f db 3c 8e 06 28 bd 13 fd b6 3d 82 f5 7e 3d
       0.02677117 -0.041021876 0.08934989 0.062245853
0000c0 3c 9c 4b 3d e3 02 7c bd 90 a9 91 3d 40 e5 c4 bc
       0.049709544 -0.06152619 0.071124196 -0.024035096
0000d0 4e cd 21 3d 33 ae 74 3b 29 f6 ba bd d6 ee 16 3c
       0.039502434 0.0037335276 -0.091289826 0.009212216
0000e0 ba 39 9a 3d 6a bf 2a bd 70 d5 bf bd c4 12 64 bd
       0.07530542 -0.041686453 -0.09366882 -0.05568196
0000f0 23 6c 9a bd 6a da 7b 3d 46 04 04 be 04 82 b4 bd
       -0.07540157 0.061487593 -0.12892255 -0.08813861
000100 87 e0 c9 bc 55 36 af 3d d6 be 40 3d 85 7f b4 bd
       -0.024643196 0.08555285 0.047056995 -0.08813385
000110 3a 88 ad bd 44 b0 b0 bd 5f ee 2e 3d db 08 87 bd
       -0.08473249 -0.0862737 0.042707797 -0.06593486
000120 83 db 0e 3d 62 53 e4 bc ae 03 77 3c df d7 2d bd
       0.03487731 -0.027871791 0.015076561 -0.0424422
000130 bd e0 5a 3d 62 97 25 bb f4 fe 40 3d 8c 81 8d bd
       0.053436983 -0.0025267233 0.047118142 -0.06909475
000140 09 2a 26 bd 9c 94 af bd 40 b6 7a bd 53 08 90 3d
       -0.04056743 -0.08573267 -0.061208963 0.07032838
000150 38 2c 95 bd d3 9c 25 3d 6c 09 ee 3c 4d e0 c7 3a
       -0.07283825 0.040432762 0.029057227 0.0015249342
000160 5f 6b 7f 3c 70 77 86 3d ec 12 92 3d 78 18 bc bc
       0.015589564 0.0656575 0.07132515 -0.022960886
000170 66 83 91 3d 7d fb a5 bd 48 4e 29 bd 61 35 00 3c
       0.071051404 -0.08104608 -0.04133442 0.0078252265
000180 38 e8 46 bd cd 77 d7 3c a5 ea 9e 3c aa 92 99 3d
       -0.048561305 0.026302243 0.019398997 0.07498677
000190 16 fc b5 3c 5a 98 57 bc fa c8 5e bd 3a 60 05 bd
       0.02221493 -0.013158882 -0.054390885 -0.032562472
0001a0 ad 11 9d 3d 1a 58 1a bd af 9b 08 bd c3 35 ee bc
       0.07669387 -0.037681676 -0.033351596 -0.02907837
0001b0 68 a9 01 3d 4e 47 27 bd f5 f6 c6 3d 4a 99 9a 3c
       0.0316557 -0.040839486 0.09715072 0.018871922
0001c0 02 1c 34 bd 33 00 a3 bd 04 1d ac 3d c7 2e 9e 3d
       -0.043972023 -0.079590224 0.08403972 0.07723766
0001d0 81 2c 79 bd d7 a5 1b 3d 24 bd 7e 3c 4d 08 e0 3b
       -0.060833458 0.037999954 0.015548024 0.006836927
0001e0 f0 b2 08 bd 27 a5 5f 3d 31 e8 b0 3d b3 6a 4a bd
       -0.033373773 0.05460086 0.08638037 -0.049418163
0001f0 cf 9c 8f bc b6 1a 7a bd b0 f5 7c bd ab 04 c4 3d
       -0.017530827 -0.06106063 -0.061757743 0.09571203
000200 52 f3 9d bd 38 21 e3 bc 7a fc 56 bc 38 13 69 bb
       -0.07712425 -0.0277258 -0.013121719 -0.0035564434
000210 80 11 0f 3c af 6f d3 bd 1e d1 54 3d 72 e3 a4 bd
       0.0087322 -0.10324036 0.051957242 -0.08051194
000220 f3 36 4e 3c 28 15 81 3d 95 6c 2f 3d a4 d2 20 bd
       0.012586343 0.06302863 0.04282816 -0.039263383
000230 5b 03 3d bd ae 56 20 3d 5c 32 16 3d d7 c2 44 bd
       -0.04614578 0.039145164 0.03666912 -0.048037376
000240 84 96 12 bd 24 f1 a0 bc 8d da 43 3c c5 2e 5b bb
       -0.035788074 -0.019646235 0.011953962 -0.0033444625
000250 02 bb 35 3c 91 42 7a bc c3 64 4a bd 2d 49 a6 3c
       0.011091949 -0.01527466 -0.0494125 0.020298565
000260 b2 34 98 bd 0d 8c 14 bc 9d c5 41 3b b2 49 39 3d
       -0.07431926 -0.009066594 0.002956725 0.045236297
000270 8a 94 ed bc 42 08 a8 3c 75 0c 68 3d 85 d5 4e bc
       -0.029001493 0.02051175 0.056652505 -0.012624149
000280 e7 d8 0b 3d a7 38 d4 3c bb 16 b2 bd a6 43 a5 3d
       0.0341424 0.02590592 -0.08695742 0.080695435
000290 89 2c 62 bd e6 69 c1 3d a6 83 36 3c 51 43 c0 3c
       -0.055218253 0.09444027 0.011139786 0.023469599
0002a0 fe 33 4e bd 40 f5 39 bd 08 d4 aa 3d 5e 5e 8a 3a
       -0.050342552 -0.045399904 0.08341223 0.0010556688
0002b0 00 f4 54 3d 5f 22 bd bc eb 90 f1 3b 0c 73 71 bd
       0.05199051 -0.023087678 0.007372012 -0.058947608
0002c0 b6 e6 b4 bc 49 81 c0 bd 80 af 5b 3c be 54 b4 bd
       -0.022082668 -0.09399659 0.013408542 -0.08805226
0002d0 74 db 64 bd 77 d5 8e 3d 41 ff 32 3c b3 2c e9 3c
       -0.05587335 0.06974309 0.010925115 0.028463697
0002e0 7c 71 01 3c bb d5 f3 3c 21 5b a7 bd 10 b8 79 bd
       0.007900592 0.029765 -0.08171678 -0.06096655
0002f0 fe 7b eb 3b 1d ad 65 3d 68 b7 68 bd 17 cd a7 3d
       0.007186412 0.056073297 -0.056815535 0.08193415
000300 2a 7c 4d 3d de b3 65 bd 01 d8 00 bd fa 07 81 3d
       0.05016724 -0.056079738 -0.031455997 0.063003495
000310 82 9e ba bd 6c 01 93 3d e8 c1 50 3c fa 8a 68 3d
       -0.09112264 0.071780056 0.012741543 0.056773163
000320 bb 89 86 3d 4d 4c f4 bb 5d 86 ac 3d f3 f7 aa bc
       0.06569239 -0.007455385 0.08424065 -0.020870185
000330 26 b4 f7 3a f9 0b 4f bc 12 0f 53 3d 2a 29 2b bd
       0.0018898293 -0.012637132 0.051528044 -0.041787304
000340 41 c9 23 3a 25 4c be bd b3 60 45 3d 91 cf 5a bc
       0.0006247946 -0.09291867 0.048187923 -0.013355152
000350 3e af ac bd 36 6e b1 bd cc ac a8 bc f7 63 c9 3b
       -0.08431862 -0.08663599 -0.020590208 0.00614595
000360 95 ba 77 3d 68 68 3e bd 84 03 7a 3c 00 a4 4b 3c
       0.060480673 -0.04648629 0.015259627 0.012429237
000370 6c b5 61 3c 9e 41 95 bc be 6c 83 3d a4 68 3c bd
       0.0137761645 -0.018219765 0.06417225 -0.04599823
000380 1b ca d4 3c 24 b9 0c 3d c8 c9 2f 3d 8d 60 2b bd
       0.025975278 0.03435625 0.042917043 -0.041840125
000390 4d 5b d1 3c e0 7d e1 3c f3 d4 ac 3c 9b 92 f2 3c
       0.02555623 0.027525842 0.021097636 0.029610923
0003a0 01 9e 8d bc 24 90 3d bc 63 66 2b bb 86 b6 a2 bc
       -0.017287256 -0.01157001 -0.0026153557 -0.019862425
0003b0 fb d6 ba bd 59 b6 f0 bc 8f 91 ad bd 23 88 38 bd
       -0.091230355 -0.029383825 -0.08475029 -0.045051705
0003c0 24 e6 87 ba d1 e4 91 bd ba fb 89 bd 4a 56 e4 3c
       -0.001036827 -0.071237214 -0.06737466 0.027873177
0003d0 fc 92 ea bc b4 51 f7 bc cd 21 7e bd 8a ab 8a 3d
       -0.02863454 -0.030190326 -0.062043954 0.06771
0003e0 a8 57 c0 bb 2b ae 6c bc 00 5f 36 bb de a3 b9 bd
       -0.0058698244 -0.014445822 -0.002782762 -0.09064458
0003f0 82 b0 d8 bc ea 86 66 bc d1 31 c1 bd c8 e7 2a bd
       -0.026451353 -0.014070252 -0.0943333 -0.04172495

4.bias f4 [7]
000000 d5 77 6b 3d 50 3e 49 3c db 61 32 3d 3f 08 dd 3c
       0.057487328 0.012282923 0.043550353 0.026981471
000010 5a 21 ab bc ff e2 85 3d db 66 48 3d
       -0.020889927 0.06537437 0.048926216
