models/date-06-19-2025-10-43p1-RLbotp2-RLbotself_play-Falseexp_dir-RLbotepochs-50p1_win_rate-0.0p2_win_rate-1.0is_test-False/model.pth (torch, 117053 bytes, 6 tensors)

0.weight f4 [150, 84]
0	0x3d813edc	0.063108176
1	0x3dad4e3e	0.08462189
2	0x3d90a979	0.07063574
3	0x3d610ff6	0.054946862
4	0xbc6a5a7b	-0.014303799
5	0xbda705b7	-0.08155387
6	0x3cc2e3ec	0.023790322
7	0xbda9c652	-0.0828978
8	0x3dc72391	0.09723581
9	0xbd89b437	-0.067238264
10	0xbd14387f	-0.03618669
11	0xbdbd96bb	-0.09257265
12	0x3d261386	0.040545963
13	0xbd915dba	-0.07097955
14	0x3ccd112b	0.0250326
15	0x3d6850c8	0.056717664
16	0xbd82cd90	-0.06386864
17	0x3d961814	0.07328811
18	0xbd84cba6	-0.06484155
19	0x3c04a74d	0.008096528
20	0xbd5de4e6	-0.054173373
21	0xbdaa4886	-0.08314614
22	0xbd135379	-0.035968278
23	0xbd8c0db3	-0.068385504
24	0x3c696113	0.014244336
25	0x3d2f0292	0.04272706
26	0x3da86b79	0.08223624
27	0x3d64e9c2	0.05588699
28	0xbd49eeaf	-0.049299892
29	0x3db91343	0.09036877
30	0x3d135a60	0.03597486
31	0x3ca8d5b5	0.020609716
32	0xbd7f063c	-0.062261805
33	0x3d2da008	0.042388946
34	0xbd10d85e	-0.035362594
35	0xbd94207f	-0.07232761
36	0xbb75f4aa	-0.0037529864
37	0xbda83301	-0.08212853
38	0x3cfef587	0.031122936
39	0x3dc116f1	0.09428204
40	0xbdf112e7	-0.117711835
41	0xbd28b977	-0.041192498
42	0xbd91ea8f	-0.071248166
43	0xbdded73f	-0.10880899
44	0x3de1ac85	0.110192336
45	0xbdb2b972	-0.08726777
46	0x3d7b0f68	0.06129399
47	0x3d44b6c7	0.048025873
48	0xbd8db8b6	-0.069199964
49	0xbcae1f35	-0.021255115
50	0x3dc44ec6	0.09585337
51	0xbd198c74	-0.037487462
52	0xbdd64287	-0.10461908
53	0x3d9fb713	0.077985905
54	0x3d9961f8	0.07489389
55	0xbd4b7a05	-0.049676914
56	0x3c9c5efb	0.019088259
57	0xbdd49c8c	-0.103814214
58	0x3dde92fa	0.10867877
59	0x3b372cd8	0.0027950313
60	0x3d8b2f24	0.06796101
61	0xbab355f4	-0.0013682232
62	0x3d1ea138	0.03872797
63	0xbd84a38b	-0.06476506
64	0x3d8a3044	0.06747487
65	0x3de8ab0b	0.11360749
66	0x3d7b0806	0.06128695
67	0x3d366cbf	0.044537302
68	0xbd98e739	-0.07465977
69	0x3d6789d8	0.056527942
70	0xbdcfc579	-0.10145087
71	0x3ce87edb	0.028380802
72	0xbdbe03f9	-0.092781015
73	0x3d9704b5	0.07373945
74	0xbd24b080	-0.040207386
75	0xbc8e19b7	-0.017346246
76	0xbda3b1a8	-0.079928696
77	0x3cb41a28	0.021985129
78	0xbd1777c4	-0.03697945
79	0x3d17957c	0.037007794
80	0xbc806892	-0.015674863
81	0x3ad19de2	0.0015992487
82	0x3dcef865	0.10105971
83	0x3db2fc4d	0.08739529
84	0xbda6898f	-0.08131706
85	0xbdb24b98	-0.087058246
86	0x3d3fdc40	0.046840906
87	0xbd592543	-0.05301405
88	0x3cddc013	0.027069127
89	0x3d11beec	0.035582468
90	0xbc5b1d67	-0.013373709
91	0xbc116cf9	-0.008876079
92	0x3c68011c	0.014160421
93	0xbc0147e3	-0.007890674
94	0x3bcf60e9	0.0063286913
95	0xbd7a977e	-0.06117963
96	0x3d53f6d4	0.051749066
97	0x3da834ce	0.08213197
98	0xbd7feb23	-0.062480103
99	0xbd7c8d7d	-0.06165837
100	0x3d769ff1	0.060211126
101	0xbd9ae7e1	-0.07563759
102	0x3dc4abc8	0.09603077
103	0x3da0c19d	0.07849429
104	0x3d2855fc	0.041097626
105	0x3d90d6de	0.07072233
106	0x3d794e40	0.06086564
107	0x3d7cb186	0.061692737
108	0xbd88aea5	-0.06673936
109	0xbd0d84a3	-0.03455032
110	0x3db48913	0.08815207
111	0x3d47412d	0.04864614
112	0xbc67f305	-0.014157061
113	0x3de1994b	0.110155664
114	0xbd939730	-0.07206571
115	0x3caa61f5	0.020798663
116	0x3d7123b9	0.05887196
117	0x3db28377	0.08716481
118	0xbddc346d	-0.10752187
119	0xbd643ba7	-0.05572095
120	0x3da32ac5	0.07967142
121	0x3d5ea700	0.054358482
122	0xbd1887d9	-0.03723893
123	0x3df5c657	0.12000721
124	0x3cad5a0b	0.0211611
125	0x3d8d921a	0.06912632
126	0xbcfac7b6	-0.030612808
127	0x3ac22aae	0.0014813745
128	0xbd4f0bf7	-0.05054852
129	0xbd9371bc	-0.071994275
130	0xbc596894	-0.013269562
131	0x3dbe63c3	0.09296372
132	0xbcadfb8a	-0.021238107
133	0x3de14f89	0.11001498
134	0xbd8c928f	-0.06863891
135	0xbdd456e5	-0.10368136
136	0xbda43662	-0.08018185
137	0xbddbf507	-0.10740095
138	0xbdb6f755	-0.089338936
139	0xbcdb82fc	-0.026795857
140	0x3de466b5	0.11152402
141	0xbc777a2a	-0.01510481
142	0xbde8f43b	-0.11374708
143	0x3d60a69d	0.054846395
144	0xbd96fbcd	-0.07372246
145	0x3da50569	0.080576725
146	0x3d7168b2	0.058937736
147	0x3c21d766	0.009878015
148	0xbd0354c7	-0.03206327
149	0xbd680d90	-0.05665356
150	0xbd0141de	-0.031556956
151	0xbdddd5e6	-0.108318135
152	0x3da07d78	0.07836431
153	0xbd612f0d	-0.05497651
154	0x3d25d362	0.040484793
155	0x3c6ee7aa	0.0145816
156	0x3d065087	0.03279164
157	0x3d63e64b	0.055639546
158	0x3d521eb8	0.051298827
159	0xbc038c87	-0.00802911
160	0xbb87a096	-0.0041390164
161	0xbdad2e6f	-0.08456122
162	0xbd373d10	-0.044735968
163	0x3ccd1b66	0.025037479
164	0xbdd408ad	-0.10353217
165	0x3dd9086a	0.10597308
166	0x3c12c579	0.008958214
167	0xbd175c73	-0.0369534
168	0xbd1ca688	-0.038244754
169	0x3d8d4598	0.068980396
170	0x3d69ed1d	0.057110894
171	0xbd5dc818	-0.054145902
172	0x3ddba477	0.107247286
173	0xbcca56c4	-0.024699576
174	0xbd0998e9	-0.033593092
175	0x3db0b4d4	0.0862824
176	0x3c6e3076	0.014537921
177	0xbd2bc24d	-0.041933347
178	0x3d0458ef	0.032311376
179	0x3c856e60	0.016287982
180	0xbdd29c41	-0.10283709
181	0xbd7d31d5	-0.0618151
182	0x3d44890f	0.04798227
183	0xbdc31062	-0.09524609
184	0x3d2e2fe9	0.04252616
185	0xbdb1d6f0	-0.08683574
186	0x3c4c7ee4	0.012481425
187	0xbd8146c9	-0.06312329
188	0x3d912179	0.070864625
189	0xbdf2710a	-0.11837967
190	0xbdd341b3	-0.103152655
191	0x3a994561	0.001169365
192	0x3cd34286	0.025788557
193	0x3b9678c4	0.004592033
194	0xbd3ff67b	-0.04686592
195	0xbd8a085e	-0.06739877
196	0xbd08f408	-0.03343585
197	0x3db1a13f	0.086733334
198	0xbcc49b2c	-0.023999773
199	0x3d302cd7	0.043011513
200	0xbcd066ae	-0.025439586
201	0xbdd25e9d	-0.10271952
202	0x3d7f7ecb	0.06237678
203	0xbca442cd	-0.020051384
204	0xbb07aecc	-0.0020703552
205	0x3da130bb	0.07870623
206	0x3d5a37ef	0.053276
207	0x3d51c5d1	0.051214043
208	0x3db9f368	0.09079629
209	0x3da756ba	0.08170839
210	0xbd050b80	-0.03248167
211	0xbd149982	-0.03627921
212	0xbd45491e	-0.048165433
213	0xbda674e5	-0.081277646
214	0xbd103d6b	-0.035214823
215	0x3d99935b	0.07498809
216	0x3d19b8c3	0.037529718
217	0xbd1bffe3	-0.03808583
218	0x3d090dc0	0.03346038
219	0x3bd1e928	0.006405968
220	0xbd9d89be	-0.07692288
221	0x3cc09482	0.023508314
222	0x3d90ea0b	0.0707589
223	0xbd88faf8	-0.066884935
224	0xbd423361	-0.04741228
225	0x3d8d0973	0.06886568
226	0xbcf0b8d5	-0.02938501
227	0xbc1c8a82	-0.009554507
228	0x3d02e72a	0.031958736
229	0xbdad220f	-0.08453762
230	0xbdbee397	-0.09320753
231	0xbde62cfe	-0.1123905
232	0xbe024a0a	-0.12723556
233	0x3d63c636	0.05560895
234	0xbd93f691	-0.07224763
235	0xbbe450c0	-0.006967634
236	0xbcfa0bc1	-0.030523183
237	0x3bfd1439	0.007723358
238	0x3cd3d38c	0.02585771
239	0xbd267246	-0.040636323
240	0x3d86bdfc	0.065792054
241	0x3dc67ca9	0.09691746
242	0x394e102f	0.0001965172
243	0x3ce78939	0.028263675
244	0xbcf7947f	-0.030222176
245	0xbd3c2924	-0.045937672
246	0xbda53c91	-0.08068193
247	0xbbe3ae1c	-0.0069482457
248	0x3d0750e8	0.033036143
249	0xbdd468d4	-0.10371557
250	0xbc2a1be6	-0.010382628
251	0xbdfcb102	-0.12338449
252	0x3d946a85	0.072468795
253	0x3d7f348e	0.06230598
254	0x3dd31847	0.10307365
255	0xbdd6ab40	-0.10481882

0.bias f4 [150]
0	0xbcd1f378	-0.02562879
1	0xbd1e57d3	-0.038657974
2	0xbd2c3b1c	-0.04204856
3	0xbca54cff	-0.020178316
4	0xbd5924db	-0.053013664
5	0x3d0671db	0.032823425
6	0xbda201aa	-0.07910474
7	0xbd7ceacf	-0.06174737
8	0xbc83406d	-0.016021932
9	0x3d4ff620	0.050771832
10	0xbdf08db3	-0.11745777
11	0x3d3d55c8	0.046224385
12	0xbdf90931	-0.12159956
13	0x3db9f384	0.0907965
14	0x3d891a5b	0.0669448
15	0x3dec3d69	0.115351506
16	0x3d4b3334	0.049609378
17	0x3d0d3543	0.034474622
18	0xbd458e83	-0.048231613
19	0xbd63df5d	-0.055632938
20	0x3d1cd66f	0.038290437
21	0xbd01e8bb	-0.03171609
22	0x3a7f595a	0.00097407924
23	0x3cfdccab	0.030981382
24	0xbd9a8206	-0.07544331
25	0xbd809d8d	-0.062800504
26	0x3c3c7d58	0.011504494
27	0xbca0ec35	-0.019643882
28	0xbd7a64a7	-0.061131146
29	0x3d9e3ed6	0.07726829
30	0xbdcfb1a6	-0.101413056
31	0x3d43b6f9	0.04778192
32	0x3c49130f	0.01227261
33	0xbd563250	-0.052294075
34	0xbcd64ec2	-0.026160602
35	0x3d3bf500	0.045887947
36	0xbc31ff0a	-0.010864029
37	0xbc115f25	-0.008872782
38	0x3d4b2c27	0.049602654
39	0x3c674d59	0.014117562
40	0xbdc8d8c9	-0.098069735
41	0xbdccd935	-0.100023665
42	0xbd568f7b	-0.052382927
43	0xbcd9ee1d	-0.0266028
44	0x3cbceb9f	0.023061572
45	0x3d3e4f34	0.046462253
46	0xbc9a86b2	-0.018863056
47	0x3ccb1bd8	0.02479355
48	0x3dbbe1d6	0.09173934
49	0x3cf0dea8	0.029403046
50	0xbc78a81d	-0.0151768
51	0xbda4a9c6	-0.08040194
52	0x3c9a6549	0.018847125
53	0xbda53b6c	-0.080679744
54	0x3cd6e9df	0.026234565
55	0xbda8637f	-0.082221024
56	0x3afa473d	0.0019094717
57	0xbcf999a7	-0.030468775
58	0x3c4af81f	0.012388258
59	0xbd47c99b	-0.04877625
60	0x3d6b5883	0.05745746
61	0x3cb96e74	0.022635676
62	0x3d6de9ff	0.058084484
63	0x3d8ef969	0.06981165
64	0xbd9d5130	-0.07681501
65	0x3d1051ae	0.035234146
66	0x3ddfdeab	0.109311424
67	0xbcee56e8	-0.029094175
68	0xbd94557e	-0.07242869
69	0xbdba9a15	-0.0911142
70	0x3d7b79ac	0.061395332
71	0xbb8c26bb	-0.004277078
72	0xbd6c1498	-0.057636827
73	0xbd483b3d	-0.04888462
74	0xbd8d47aa	-0.068984345
75	0xbd565331	-0.05232543
76	0x3d2d44a3	0.042301785
77	0xbd861963	-0.06547811
78	0x3c79ca52	0.015245991
79	0x3d3ca775	0.046058137
80	0x3cf5dfe1	0.03001398
81	0xbc8e4246	-0.017365586
82	0xbc9f81e9	-0.019471126
83	0x3c5cbb73	0.013472426
84	0x3cee2a30	0.029072851
85	0x3dc56cc2	0.096398845
86	0x3d8ed83c	0.06974837
87	0xbd52e3b4	-0.051486686
88	0x3c3426e5	0.010995601
89	0xbdb2a5a2	-0.08722998
90	0xbd2e8dfe	-0.042615883
91	0xbbfaff13	-0.0076598017
92	0x3d06124b	0.03273229
93	0x3dc00847	0.09376579
94	0x3dbf13ea	0.0932997
95	0x3d8e4920	0.06947541
96	0x3ddbad7f	0.10726451
97	0x3dded086	0.108796164
98	0xbdb72b15	-0.08943764
99	0xbdb70143	-0.089357875
100	0x3d4e963b	0.05043624
101	0xbd390c4c	-0.045177743
102	0xbddc1294	-0.10745731
103	0x3d8f835b	0.07007476
104	0x3cba25ba	0.022723068
105	0x3ddfaad1	0.109212525
106	0xbd4a13a9	-0.049335156
107	0xbdc381f2	-0.095462695
108	0x3d576888	0.052589923
109	0xbdbe79ee	-0.093006
110	0xbbb20a3c	-0.005433349
111	0xbdc19e16	-0.094539806
112	0x3cdbf66a	0.026850898
113	0xbc3b9d81	-0.011451126
114	0xbbeeffbe	-0.0072936704
115	0x3dbc238d	0.09186468
116	0xbe00b3df	-0.12568615
117	0xbd97ed4c	-0.07418308
118	0x3d88a054	0.06671205
119	0xbd3104ba	-0.0432174
120	0x3d65f634	0.056143
121	0x3c10330e	0.008801235
122	0x3d7f2119	0.062287424
123	0xbcb84058	-0.022491619
124	0xbceabf9a	-0.028655816
125	0xbd1ff2e3	-0.039049994
126	0x3d997773	0.07493486
127	0xbd80bb0a	-0.06285675
128	0xbc8384dd	-0.016054565
129	0x3d119e00	0.03555107
130	0x3d802995	0.06257931
131	0x3c98bb71	0.018644067
132	0x3d2292c1	0.039690737
133	0x3dc34713	0.09535041
134	0xbce19307	-0.027535928
135	0xbda9e25d	-0.082951285
136	0xbda30ac8	-0.07961041
137	0x3ddc190c	0.10746965
138	0x3d2ae55b	0.041722637
139	0x3d828088	0.06372172
140	0x3daf6cf8	0.08565706
141	0x3db2527d	0.0870714
142	0xbd04db80	-0.032435894
143	0x3dc60154	0.09668222
144	0xbda10bf4	-0.07863608
145	0xbdfa7b8a	-0.122305945
146	0xbbb24f6a	-0.005441596
147	0xbcb60b91	-0.022222312
148	0xbc61cefd	-0.01378226
149	0xbdc0045e	-0.09375833

2.weight f4 [100, 150]
0	0xbc05b00d	-0.00815965
1	0xbbcfd159	-0.006342095
2	0xbd0228ad	-0.031777073
3	0xbd820279	-0.06348128
4	0xbdc25ae1	-0.0948999
5	0x3ca39dba	0.01997267
6	0xbda1efbe	-0.07907055
7	0xbcb02711	-0.021503003
8	0x3ba0e637	0.0049102562
9	0x3d979130	0.07400739
10	0x3b9def7d	0.004819809
11	0x3c271baf	0.010199471
12	0x3d86d2e7	0.06583195
13	0x3cf0a642	0.029376153
14	0x3d3fb421	0.046802644
15	0xbd824ea4	-0.06362656
16	0xbd999840	-0.074997425
17	0x3ce710db	0.02820628
18	0xbd28544e	-0.041096024
19	0x3d229a3b	0.039697867
20	0x3c832eb4	0.01601348
21	0xbda7a85b	-0.08186408
22	0x3d5759bf	0.052575823
23	0x3d24fa95	0.040278036
24	0xbbc45c6e	-0.005992464
25	0x3c6934f7	0.014233819
26	0x3d7a40d3	0.061096977
27	0xbd0e8dad	-0.03480308
28	0xbc36e7b0	-0.011163637
29	0xbd300616	-0.042974554
30	0xbc0d7d4d	-0.008635831
31	0x3d194ed2	0.037428685
32	0xbd123f8d	-0.035705138
33	0xbd15145c	-0.03639637
34	0x3d97d368	0.074133694
35	0xbd058e75	-0.03260656
36	0x3d5002c2	0.05078388
37	0x3d5bdf3c	0.05367969
38	0x3cb72b86	0.02235962
39	0xbda475a1	-0.080302484
40	0xbcec33f0	-0.02883336
41	0x3d669be4	0.056301013
42	0xbbc19857	-0.005908053
43	0xbd28e671	-0.04123539
44	0xbd80d619	-0.06290836
45	0xbda52b14	-0.08064857
46	0xbda2c1cb	-0.07947119
47	0xbd35c2dc	-0.044375286
48	0xbd85fed4	-0.06542745
49	0x3d9d25ed	0.076732494
50	0xbd8eadbe	-0.069667324
51	0xbd40d7ed	-0.047080923
52	0x3d95460e	0.072887525
53	0xbc85f7c2	-0.016353492
54	0x3bf6117b	0.007509408
55	0xbcf7c7dd	-0.03024667
56	0x3d1171e9	0.035509024
57	0xbd5ce14d	-0.0539258
58	0x3d764c2b	0.060131233
59	0xbb7d47f5	-0.0038647626
60	0x3d68e280	0.056856632
61	0xbda6269e	-0.081128344
62	0x3cb48681	0.022036793
63	0x3d56e637	0.052465644
64	0x3d075154	0.033036545
65	0xbc8850c0	-0.016640067
66	0xbd400f91	-0.046889845
67	0xbc884122	-0.01663262
68	0xbc5a3e5c	-0.013320532
69	0xbda1a0de	-0.07892011
70	0xbdc42a8d	-0.095784284
71	0x3c2b6385	0.010460739
72	0xbbd18bc0	-0.0063948333
73	0x3d0a610b	0.033783954
74	0xbd390faf	-0.045180973
75	0xbca92058	-0.020645306
76	0x3c944150	0.01809755
77	0xbd381f46	-0.0449517
78	0xbd82d586	-0.063883826
79	0x3d6d97d7	0.058006134
80	0x3aff91e0	0.001949843
81	0x3d826874	0.06367579
82	0xbba01477	-0.004885252
83	0xbd9ed6c8	-0.0775581
84	0x3cf16709	0.029468076
85	0xbd9fabf1	-0.07796467
86	0x3c8eadc9	0.017416852
87	0x3d316d66	0.04331722
88	0x3d117c80	0.035519123
89	0xbd8930b8	-0.066987455
90	0x3d40ccba	0.047070242
91	0x3d688f77	0.056777444
92	0xbcff58e1	-0.03117031
93	0x3cf8080d	0.030277276
94	0x3d57eb93	0.052714895
95	0xbd20c477	-0.039249863
96	0xbd5e3c55	-0.054256756
97	0xbbf10cd2	-0.0073562646
98	0xbdacc7a1	-0.08436514
99	0x3d4480f6	0.04797455
100	0xbcf1877c	-0.02948355
101	0x3cb91faf	0.022598116
102	0x3cfa684f	0.030567316
103	0x3bff9e01	0.007800818
104	0xbd8ffc67	-0.07030564
105	0x3d263e4e	0.040586762
106	0xbd0b9d62	-0.03408564
107	0xbd83f740	-0.064436436
108	0x3cf2d1f8	0.029641137
109	0xbd25089c	-0.040291414
110	0x3d09b726	0.03362193
111	0xbcc524d4	-0.024065413
112	0xbd95113d	-0.072786786
113	0x3d6c7862	0.057731993
114	0xbd73bb04	-0.059504524
115	0x3d533629	0.051565323
116	0x3cdf87e1	0.027286472
117	0x3d6ceb31	0.057841484
118	0xbd137c38	-0.036007136
119	0xbcae3ef7	-0.021270258
120	0xbc4985ae	-0.012299938
121	0xbb5f9fd8	-0.0034122374
122	0xbd38c2f0	-0.045107782
123	0x3c9f8d5b	0.019476583
124	0x3c842b9b	0.016134074
125	0x3c1eb556	0.009686789
126	0xbcf35909	-0.029705541
127	0x3cb9fd42	0.02270377
128	0xbd6e8ca2	-0.058239587
129	0x3d5f1926	0.054467343
130	0xbc070265	-0.008240317
131	0xbc9d1b9b	-0.019178202
132	0x3d88570a	0.066572264
133	0xbce2fcdc	-0.027708463
134	0x3cf17e8e	0.029479291
135	0xbda86cfb	-0.082239114
136	0xbd2188d9	-0.03943715
137	0xbbd0ba9a	-0.006369901
138	0xbd5dd889	-0.054161582
139	0xbd713588	-0.058888942
140	0xbcd09f5e	-0.025466617
141	0xbd7377a7	-0.05944028
142	0x3d493311	0.049120966
143	0x3d22ff50	0.039794266
144	0xbd0c74ff	-0.034291264
145	0x3cc18576	0.02362321
146	0xbdad5ec2	-0.08465339
147	0xbcb0eb8f	-0.021596698
148	0x3d06a893	0.03287561
149	0xbd4aa762	-0.049476035
150	0x3d73bf09	0.059508357
151	0x3d81a405	0.06330112
152	0x3ced82bd	0.028993005
153	0xbdbec02e	-0.09313999
154	0xbcdaa062	-0.026687805
155	0xbb88e6ed	-0.004177919
156	0xbc2025c9	-0.009774634
157	0xbdaa99c8	-0.08330113
158	0x3d3504d3	0.044194054
159	0xbd8ace1e	-0.06777595
160	0x3d82af8d	0.0638114
161	0xbd3cfb20	-0.04613793
162	0x3d8f4488	0.06995493
163	0xbd94543d	-0.0724263
164	0xbd926ed2	-0.071500435
165	0xbd84252e	-0.06452404
166	0x3c88e587	0.01671101
167	0xbd6155ed	-0.055013586
168	0xbd83252f	-0.064035766
169	0xbd939e11	-0.07207883
170	0xbb53c486	-0.0032313182
171	0x3c0a9cbc	0.00846022
172	0xbcc9e967	-0.024647428
173	0xbc1811da	-0.0092816
174	0x3d91843f	0.07105302
175	0x3cd2029d	0.025636012
176	0xbc8c0461	-0.017091932
177	0xbd94d5c3	-0.07267334
178	0xbd11745e	-0.035511367
179	0x3d455b81	0.048182968
180	0xbd0191f5	-0.031633336
181	0xbd89fb42	-0.06737377
182	0xbd319514	-0.043355063
183	0xbdbefe55	-0.09325854
184	0x3d32adcf	0.043622788
185	0x3d286ced	0.041119505
186	0xbd6ca562	-0.05777491
187	0x3d3d75b4	0.04625483
188	0xbd80954c	-0.06278476
189	0xbd706d04	-0.058697715
190	0x3ce95b68	0.028485969
191	0x3d6c95e2	0.057760127
192	0xbd6f7ce8	-0.05846873
193	0x3c9a3821	0.018825592
194	0xbd5d71ce	-0.05406361
195	0xbd8ca0fc	-0.06866643
196	0x3d721db6	0.059110366
197	0xbd89cfac	-0.067290634
198	0xbd402fbe	-0.04692053
199	0xbd56c9ec	-0.05243866
200	0x3c6f1ac7	0.014593787
201	0x3d2bb6ea	0.041922487
202	0x3d9081fc	0.070560426
203	0x3cf3ac8f	0.029745368
204	0x3c5fc8ad	0.013658685
205	0xbd250469	-0.04028741
206	0x3d2f6e37	0.04282972
207	0xbd383085	-0.044968147
208	0x3d86bf18	0.06579417
209	0xbbc19f39	-0.0059088734
210	0xbd99ea3f	-0.07515382
211	0xbd315c57	-0.043300953
212	0xbbdc581d	-0.006724371
213	0xbc1f3d18	-0.009719156
214	0x3d258bca	0.040416516
215	0xbc0323f5	-0.008004178
216	0xbd6a5571	-0.05721039
217	0xbd721fac	-0.059112236
218	0xbbaa6105	-0.005199554
219	0xbd0ca771	-0.034339372
220	0xbc2b7b4b	-0.010466407
221	0x3d990f39	0.074736066
222	0x3d94eb05	0.07271389
223	0x3b970a3a	0.0046093734
224	0xbd8c1fc1	-0.06841994
225	0xbd79d87f	-0.060997482
226	0xbd81d851	-0.06340087
227	0xbd9c9714	-0.07646003
228	0xbd2b5b71	-0.041835252
229	0xbd6f8639	-0.058477614
230	0xba98962d	-0.0011641436
231	0x3c199c49	0.00937564
232	0x3d208ffd	0.039199818
233	0x3ca70f61	0.020393075
234	0xbc8aa42e	-0.01692399
235	0xbbece862	-0.0072298506
236	0xbcb129ba	-0.021626342
237	0xbca67127	-0.020317627
238	0xbccd01cf	-0.025025276
239	0x3d74dc9c	0.059780702
240	0x3d0af049	0.03392056
241	0xbd51e0c6	-0.05123975
242	0x3d31033d	0.04321598
243	0xbd67a79b	-0.056556325
244	0xbc3e91a7	-0.011631406
245	0xbd426364	-0.047458068
246	0xbc6ae1b7	-0.014336041
247	0x3d58ac1b	0.052898508
248	0x3d767fe6	0.060180567
249	0xbc5ff781	-0.013669849
250	0xbd951161	-0.072787054
251	0xbd2ed88c	-0.042686984
252	0xbd8af610	-0.06785214
253	0xbd0863a2	-0.033298142
254	0x3c43fd42	0.011962237
255	0xbd36558d	-0.04451518

2.bias f4 [100]
0	0xbdae9433	-0.085243605
1	0xbcec0d72	-0.028815005
2	0xbdb19009	-0.08670051
3	0x3d3ee850	0.04660827
4	0x3c563b97	0.013075731
5	0xbd809c34	-0.062797934
6	0xbc37c769	-0.011216977
7	0x3c3efa30	0.011656329
8	0xbc4b31a3	-0.012401971
9	0x3c5bab73	0.013407576
10	0x3d7a20ff	0.061066624
11	0xbdb04310	-0.08606541
12	0x3d24fb0a	0.040278472
13	0xbb48ac27	-0.003062019
14	0xbda7a27f	-0.081852905
15	0x3d38c3bc	0.04510854
16	0xbd9c8873	-0.07643213
17	0x3d54f5c3	0.05199219
18	0xbd92a3f1	-0.071601756
19	0xbc9ebaf4	-0.019376256
20	0x3da78639	0.08179898
21	0xbd0daff1	-0.03459162
22	0xbd6b9ea6	-0.057524346
23	0xbd598d3a	-0.0531132
24	0x3bdeed97	0.0068032253
25	0x3b9ed1c6	0.0048467843
26	0xbcdefb50	-0.027219445
27	0xbc72c992	-0.014818566
28	0xbc6c2978	-0.014414184
29	0xbd679c89	-0.056545768
30	0xbcdce44f	-0.026964335
31	0x3d4202aa	0.047365822
32	0xbcf81d69	-0.030287461
33	0xbd756a5d	-0.05991589
34	0x3c7f5098	0.01558318
35	0x3d4b94ae	0.04970234
36	0xbc659fdb	-0.014015163
37	0x3be04128	0.0068437047
38	0xbca00134	-0.019531824
39	0x3ca374cd	0.019953156
40	0x3ca78267	0.020447923
41	0xbb8d59a4	-0.0043136645
42	0x3d8f48bb	0.06996294
43	0xbba4835d	-0.0050205425
44	0x3d2be2b9	0.041964266
45	0x3d245b83	0.040126335
46	0xbdacd8a4	-0.084397584
47	0xbd4d3291	-0.050097052
48	0xbcb00514	-0.021486796
49	0xbd8037cd	-0.06260643
50	0x3d1d4de4	0.03840436
51	0xbc14592b	-0.009054462
52	0xbd86cac7	-0.065816455
53	0x3c7896f8	0.0151727125
54	0x3c896961	0.016773881
55	0x3d752c6d	0.05985682
56	0x3c0fb8a1	0.008772046
57	0xba035492	-0.00050098554
58	0x3c41199e	0.011785893
59	0xbd2a438b	-0.04156832
60	0x3bfac8ce	0.0076533323
61	0xbd97f8ce	-0.074205026
62	0x3d098c0c	0.033580825
63	0xbc348fdc	-0.011020627
64	0xbd909bb4	-0.07060948
65	0x3d239489	0.039936576
66	0xbd8edfd0	-0.069762826
67	0x3d076ebd	0.033064593
68	0x3c8c0fd3	0.01709739
69	0x3d2062d8	0.039156765
70	0xbd768d60	-0.06019342
71	0xbd8a80ec	-0.06762871
72	0xbd591ad4	-0.0530041
73	0x3c3f3d95	0.011672397
74	0xbc844120	-0.016144335
75	0x3d068c62	0.032848723
76	0x3d49df4f	0.04928523
77	0xbd780d98	-0.06055984
78	0x3d2a3432	0.041553684
79	0x3b38b31a	0.0028182925
80	0x3da6409d	0.08117793
81	0xbcbc42f7	-0.02298115
82	0xbce8e32c	-0.028428636
83	0xbc0c1966	-0.008550977
84	0xbd347d10	-0.04406458
85	0x3d14c137	0.036317077
86	0x3daa9b50	0.08330405
87	0xbdaf12a1	-0.08548475
88	0x3c130781	0.008973957
89	0x3bbb170f	0.005709536
90	0xbcd13636	-0.025538545
91	0x3d0cbec1	0.034361605
92	0xbd11c1ed	-0.035585333
93	0x3bcf121c	0.0063192975
94	0xbd31c330	-0.043399036
95	0x3daf7f03	0.085691474
96	0xbd8e3f99	-0.06945724
97	0xbdb04995	-0.08607785
98	0xbd750a92	-0.059824534
99	0xbd041ca1	-0.032253865

4.weight f4 [7, 100]
0	0x3d670bad	0.05640762
1	0x3cf47805	0.029842386
2	0x3bc7e933	0.0061007976
3	0xbd93c92b	-0.07216104
4	0x3d9debb4	0.077109724
5	0x3d7fbfdd	0.062438834
6	0x3d64a9e0	0.055826068
7	0xbd8e4cdc	-0.069482535
8	0xbbb4a351	-0.005512633
9	0xbd2227d8	-0.03958878
10	0x3dbb82d3	0.09155812
11	0xbc71725a	-0.014736736
12	0x3bf11106	0.0073567657
13	0xb9606b73	-0.00021402333
14	0x3b0f6467	0.0021879913
15	0x3d6913ba	0.05690358
16	0x3b92ce4d	0.0044801594
17	0xbd834f5e	-0.064116225
18	0x3b3a0733	0.0028385639
19	0xbdb3b053	-0.087738656
20	0x3d6fc9ff	0.058542248
21	0x3db9f27f	0.090794556
22	0xbd9ac553	-0.07557168
23	0x3ccdd407	0.025125517
24	0xbccbf82b	-0.02489861
25	0x3ccafc52	0.024778519
26	0xbd2a662d	-0.04160135
27	0x3d3bb580	0.04582739
28	0xbdb3ce87	-0.08779626
29	0x3d8daaaf	0.06917321
30	0x3d97c8a8	0.07411319
31	0x3d9a6497	0.07538717
32	0x3d51764e	0.051138215
33	0x3ca413cd	0.020028973
34	0xbcacb98f	-0.021084575
35	0xbd9147db	-0.070937835
36	0x3d246c26	0.0401422
37	0xbdab6284	-0.083684
38	0x3c3ab3a6	0.011395371
39	0xbd8464dd	-0.06464551
40	0x3d96d301	0.073644646
41	0x3d1cf8a7	0.03832307
42	0xbcb141b5	-0.021637777
43	0xbcf9368a	-0.030421514
44	0xbc0e3d30	-0.00868158
45	0x3c11ac39	0.008891159
46	0xbd827b42	-0.06371166
47	0x3c406588	0.011742957
48	0xbc9f3ad3	-0.01943723
49	0xbbb87b4d	-0.005629933
50	0xbd730153	-0.059327435
51	0xbd89c0f4	-0.06726256
52	0xbd92d0ca	-0.071687296
53	0x3dc10042	0.09423877
54	0xbc43c3b2	-0.011948513
55	0x3d8c0f8d	0.068389036
56	0x3d2844f1	0.041081373
57	0x3d9ca7a5	0.07649163
58	0x3d9e29da	0.07722826
59	0xbb710e4c	-0.0036782203
60	0x3db8a3e1	0.090156324
61	0xbd089f1d	-0.033354867
62	0x3d905206	0.07046895
63	0xbcab035a	-0.020875622
64	0xbca1e8fa	-0.019764412
65	0xbdab0d32	-0.08352126
66	0xbdc7e005	-0.09759525
67	0xbd928da7	-0.07155924
68	0x3d366f36	0.044539653
69	0xbbbf34a0	-0.005835131
70	0x3dc9da73	0.09856119
71	0x3db4fba0	0.08837056
72	0xbd0d927d	-0.03456353
73	0x3d8c05d0	0.06837046
74	0xbda4f610	-0.08054745
75	0xbc6c6e16	-0.014430543
76	0x3d881faf	0.06646668
77	0xbc6432df	-0.013928144
78	0xbd9c222a	-0.07623704
79	0x3d453dd7	0.04815468
80	0x3d5446be	0.051825278
81	0x39c6c92d	0.0003791539
82	0x3d90a0a3	0.07061889
83	0xbd788a30	-0.06067866
84	0x3b34599f	0.0027519239
85	0xbc41937a	-0.011814946
86	0x3dbe2517	0.09284418
87	0x3d8f0bbe	0.069846615
88	0x3d880edc	0.06643459
89	0xbba80d1a	-0.005128515
90	0x3d4bf540	0.049794436
91	0xbd6f3ba2	-0.05840648
92	0xbd9714bc	-0.07377002
93	0x3d733e65	0.059385676
94	0xba1cf74e	-0.0005987779
95	0x3dc4e3b1	0.09613741
96	0xbd62aa3a	-0.055338122
97	0xbd54b82b	-0.05193345
98	0xbd3f9f61	-0.046782855
99	0x3caff07a	0.021476973
100	0x3d65d740	0.05611348
101	0xbcfd904b	-0.030952593
102	0xbceec8a1	-0.029148402
103	0xbcc910b4	-0.024544097
104	0xbdb2573a	-0.087080434
105	0xbd1b2f43	-0.03788687
106	0xbd80d88b	-0.06291302
107	0x3da52412	0.080635205
108	0xbd92fed6	-0.07177512
109	0x3c1ab6a9	0.009442964
110	0xbd7b0ef4	-0.061293557
111	0x3cb1b610	0.02169326
112	0xbc8a80b2	-0.01690707
113	0x3d25cd7c	0.04047917
114	0xbd497957	-0.049187984
115	0xbc8bc1ce	-0.017060187
116	0xbced980d	-0.029003168
117	0x3d1597db	0.036521774
118	0x3cac0973	0.0210006
119	0x3d992a8a	0.07478817
120	0x3d7b7b14	0.061396673
121	0xbc3c5bcd	-0.011496496
122	0x3d75f483	0.060047638
123	0xbc237168	-0.009975769
124	0x3cd5ea30	0.026112646
125	0x3d82e3d6	0.063911125
126	0xbcb73b1a	-0.022367049
127	0xbd2ff4f8	-0.04295823
128	0xbb2e3ff7	-0.002658842
129	0x3dbf4e50	0.09341109
130	0xbc7f099a	-0.015566254
131	0xbda26bcd	-0.079307176
132	0x3d2e1b1c	0.042506322
133	0xbd228070	-0.03967327
134	0xbd5a52c8	-0.053301603
135	0xbd9adf73	-0.07562151
136	0x3b91d32b	0.004450222
137	0xbdcf90a2	-0.101350084
138	0xbb8a75c7	-0.004225466
139	0x3c9b81d6	0.018982809
140	0xbc1a7163	-0.009426448
141	0xbbb00f1e	-0.005372896
142	0xbd49b34c	-0.049243256
143	0x3cc52edc	0.024070196
144	0xbd5a18da	-0.053246357
145	0x3d6c29a1	0.057656888
146	0x3db01368	0.085974514
147	0x3c75f533	0.015012073
148	0xbd40d0c7	-0.047074106
149	0xbdaf291c	-0.08552763
150	0x3db1a61f	0.08674263
151	0x3d85dc91	0.0653621
152	0x3d809dd2	0.06280102
153	0x3da2879b	0.07936021
154	0xbd43e5ef	-0.047826704
155	0xbd59aea1	-0.053145055
156	0x3d88b873	0.06675806
157	0x3cca8538	0.024721727
158	0xbda8835d	-0.082281806
159	0x3d92467e	0.071423516
160	0x3d3a0baf	0.0454213
161	0xbb7e187b	-0.0038771916
162	0x3da6c21b	0.081424914
163	0x3dadced1	0.08486713
164	0x3dc570fb	0.0964069
165	0xbced8c8a	-0.028997678
166	0x3d79c967	0.060983088
167	0x3cda1058	0.026619121
168	0xbdcd29ad	-0.10017715
169	0xbd194793	-0.037421774
170	0x3d284134	0.041077808
171	0xbda4d162	-0.08047749
172	0x3d29c6bb	0.04144929
173	0x3c1da5e7	0.009622074
174	0x3cd04209	0.025422113
175	0xbd646eec	-0.055769846
176	0xbca2e37a	-0.01988386
177	0x3d3795aa	0.044820465
178	0x3d22a646	0.039709352
179	0x3dafc784	0.085829765
180	0xbd8ba4c8	-0.06818539
181	0x3db4fa84	0.088368446
182	0xbceef6fc	-0.029170506
183	0xbd5fd339	-0.054644797
184	0xbce75c0b	-0.028242132
185	0xbd753301	-0.059863094
186	0x3dba0723	0.090833925
187	0x3dac424f	0.08411085
188	0xbc46a1db	-0.01212355
189	0xbd3d683d	-0.046241987
190	0xbd9bc258	-0.076054275
191	0x3da3c933	0.0799736
192	0xbd875c87	-0.06609445
193	0x3d48c0a6	0.04901185
194	0xbdbcc17b	-0.09216591
195	0xbceaac7f	-0.028646706
196	0xbcd335f3	-0.02578256
197	0x3d33f36a	0.04393331
198	0xbb96e400	-0.0046048164
199	0x3d932933	0.071855925
200	0x3c8fc05a	0.017547775
201	0xbdb241e9	-0.087039776
202	0xbc650a73	-0.013979542
203	0xbd8bedc6	-0.06832461
204	0xba72c24d	-0.00092605205
205	0x3d8fa306	0.07013516
206	0x3bb3afb3	0.0054835915
207	0x3d4b5488	0.049641162
208	0xbda2be5e	-0.07946466
209	0xbd587cea	-0.052853502
210	0x3da078da	0.078355506
211	0xbcd0afec	-0.025474511
212	0xbd8aae01	-0.0677147
213	0xbd10e738	-0.035376757
214	0xbd510220	-0.051027417
215	0x3d87d113	0.066316746
216	0x3c3e97b3	0.011632848
217	0xbb8413ba	-0.004030672
218	0xbd99f560	-0.07517505
219	0xbc999f4b	-0.018752715
220	0x3a1c71e3	0.0005967898
221	0x3d096b1d	0.033549417
222	0x3c9f1162	0.019417468
223	0xbc966e46	-0.01836313
224	0xbdb9893b	-0.09059378
225	0x3d94270f	0.07234012
226	0x3db8f696	0.090314075
227	0xb93f26cc	-0.00018229632
228	0x3c914c54	0.017736591
229	0xbd80152b	-0.062540375
230	0xbd592f39	-0.05302355
231	0xbd0ee3e6	-0.03488531
232	0x3d8fd332	0.07022704
233	0x3d60759e	0.05479967
234	0x3d9d1336	0.0766968
235	0xbd85496d	-0.065081455
236	0xbc5838ba	-0.013197118
237	0xbde1dad9	-0.1102807
238	0x3d56d590	0.052449763
239	0x3d320a26	0.04346671
240	0x3c83ec6e	0.01610395
241	0x3cd15cde	0.025556978
242	0x3c45bb98	0.012068652
243	0x3c5e8fe8	0.013584115
244	0x3c56ada8	0.013102926
245	0x3cd82d87	0.026388897
246	0x3dc7529a	0.09732552
247	0x3cc482d1	0.02398816
248	0x3c987f00	0.018615246
249	0xbcf45653	-0.029826319
250	0x3c638cbe	0.013888536
251	0xbd7e10b0	-0.062027633
252	0x3cfd5228	0.030922964
253	0x3d840f17	0.06448191
254	0xbdad0204	-0.0844765
255	0x3dcd8d01	0.1003666

4.bias f4 [7]
0	0xbd1e0df8	-0.03858754
1	0xbc9e477c	-0.019321196
2	0x3cf2777f	0.029597996
3	0xbc15976f	-0.009130343
4	0xbce47c32	-0.027891252
5	0x3c81e5de	0.01585668
6	0xbcfa0380	-0.030519247
