models/date-06-19-2025-15-24p1-RLbotp2-RLbotDDQNself_play-Falseexp_dir-RLbotepochs-50p1_win_rate-0.18p2_win_rate-0.82is_test-False/model.pth (torch, 117053 bytes, 6 tensors)

0.weight f4 [150, 84]
0	0xbcb147e5	-0.021640727
1	0xb9b5f608	-0.00034706318
2	0x3c766be0	0.015040368
3	0x3dba5818	0.09098834
4	0xbd0ad5c3	-0.033895265
5	0xbdbca913	-0.09211936
6	0xbd5e9f96	-0.05435141
7	0x3d8d2392	0.0689155
8	0x3dccba5f	0.09996485
9	0x3c46396c	0.012098651
10	0x3caca975	0.021076897
11	0xbcfa4473	-0.030550217
12	0x3cda7f5b	0.026672056
13	0x3dab8885	0.083756484
14	0x3d0f7053	0.03501923
15	0x3d5a8a71	0.053354684
16	0x3d8f3ab8	0.069936216
17	0x3cf25a36	0.029584032
18	0x3d8d6e44	0.06905797
19	0x3d7df527	0.062001374
20	0x3bc06976	0.005871947
21	0xbe4a89c4	-0.19779116
22	0xbdf344d8	-0.11878365
23	0xbd31209a	-0.043243982
24	0xbdc8a16c	-0.09796414
25	0xbb8bbee0	-0.0042646974
26	0x3d918288	0.07104975
27	0xbd21eb34	-0.039530948
28	0x3db05c87	0.08611398
29	0x3d8869cd	0.06660805
30	0x3b470992	0.0030370695
31	0x3da506d7	0.08057945
32	0xbe42b44d	-0.19014092
33	0xbd427d5c	-0.047482833
34	0x3da8d60a	0.0824395
35	0x3d3e39a4	0.04644169
36	0xbd3816d7	-0.044943657
37	0xbdabaa97	-0.08382147
38	0x3db47cbb	0.08812853
39	0xbe06a703	-0.13149647
40	0xbd459276	-0.04823538
41	0x391afa1b	0.00014779756
42	0x3dc257fa	0.094894364
43	0xbd501b91	-0.05080754
44	0x3dd5a969	0.10432703
45	0xbdde69b2	-0.108600035
46	0x3deee46e	0.11664663
47	0xbcaf3f0d	-0.02139237
48	0xbdc66778	-0.09687704
49	0xbd8670ca	-0.065644816
50	0x3da670bc	0.08126971
51	0x3e0d08e5	0.13772924
52	0xbdfc9299	-0.12332649
53	0x3d966923	0.07344272
54	0xbca0ecdc	-0.019644193
55	0x3e2faa32	0.17154768
56	0x3db03997	0.086047344
57	0x3d5c037f	0.05371427
58	0x3dc8c730	0.09803617
59	0xbd7217b1	-0.059104625
60	0x3d33fe33	0.043943595
61	0xbdbc236b	-0.09186443
62	0xbd4c1b73	-0.049830865
63	0xbcd0719d	-0.0254448
64	0xbddbecdc	-0.10738537
65	0xbb2a6c6d	-0.0026004568
66	0x3d83c9c3	0.06434967
67	0xbd0fbd07	-0.03509238
68	0xbe0d59cf	-0.1380379
69	0xbdf41c3e	-0.11919449
70	0xbdcbe9a2	-0.09956671
71	0xbd4edf57	-0.050505962
72	0x3e1ebe64	0.15502316
73	0xbd88b580	-0.066752434
74	0x3d492823	0.049110543
75	0xbd695c46	-0.056972764
76	0xbcfca864	-0.030842014
77	0xbbcaa598	-0.006184291
78	0x3d2645e6	0.040594004
79	0xbd25298f	-0.040322836
80	0xbd8c6eaf	-0.06857049
81	0x3dbd7de9	0.09252531
82	0xbc2188ac	-0.009859245
83	0x3ddc1e8e	0.10748015
84	0x3dd033c2	0.10166122
85	0xbd107076	-0.0352635
86	0x3d53777a	0.051627614
87	0x3d54beac	0.05193965
88	0x3d48a2dc	0.04898344
89	0xbc90fe8b	-0.0176995
90	0x3d1dbd66	0.038510703
91	0x3ddac7ed	0.10682664
92	0x3dc569c9	0.096393175
93	0xbd765486	-0.0601392
94	0x3ddec2b5	0.10876981
95	0xbe055175	-0.13019355
96	0xbd9dbe3b	-0.07702299
97	0xbe0cf071	-0.13763596
98	0xbdfe90ce	-0.12429963
99	0xbbfa9ba1	-0.007647947
100	0x3e2b22af	0.1671245
101	0x3e29f046	0.16595563
102	0xb92974aa	-0.00016160557
103	0x3d52b30f	0.051440295
104	0x3da482a9	0.08032734
105	0xbdeaa6e1	-0.11457611
106	0x3dbf6294	0.09344974
107	0xbdc29b74	-0.095023066
108	0x3c319af6	0.010840168
109	0xbe69e19a	-0.22839966
110	0xbe172319	-0.14759482
111	0x3ca1121d	0.019661957
112	0x3e1f8c27	0.15580808
113	0x3d51cee2	0.05122269
114	0x3c9cdef3	0.01914928
115	0xbd71c94c	-0.059029862
116	0xbc09c9c2	-0.008409919
117	0xbd560aab	-0.052256268
118	0x3e111f39	0.14172067
119	0x3b5ecfda	0.00339984
120	0xba3f25f3	-0.00072917267
121	0xbd901b4d	-0.07036457
122	0x3aacc11d	0.0013180111
123	0xbe63778f	-0.22213577
124	0xbda14cec	-0.07876
125	0xbd86ef45	-0.06588606
126	0xbdc54bb3	-0.09633579
127	0xbd9a26b5	-0.07526914
128	0x3cefe6de	0.02928489
129	0xbe52dbe5	-0.20591696
130	0x3d174295	0.036928732
131	0x3da5650c	0.08075914
132	0x3d8724e0	0.0659883
133	0xbd5d607c	-0.054047093
134	0xbda07ade	-0.07835935
135	0x3e15fcc6	0.14647207
136	0xbd87324c	-0.0660139
137	0x3de28dc2	0.110621944
138	0x3d4cfc39	0.050045226
139	0x3d5ac2f7	0.05340859
140	0x3c1a2a74	0.009409536
141	0xbd005b1a	-0.03133688
142	0xbd7143b9	-0.058902476
143	0x3d89fd46	0.06737761
144	0x3e167f8b	0.14697091
145	0x3dc15225	0.09439496
146	0xbdd969c5	-0.10615877
147	0xbdb635fa	-0.08897014
148	0x3dcf85c8	0.101329386
149	0x3d47b4bc	0.048756346
150	0xbc90c66e	-0.017672744
151	0x3d5a634f	0.053317364
152	0xbc31df8c	-0.01085652
153	0xbe3130d2	-0.1730378
154	0xbdab5df9	-0.08367533
155	0xbdcd2caa	-0.100182846
156	0x3d6f8645	0.05847766
157	0xbdc1f73a	-0.09470983
158	0xbd20ace7	-0.039227393
159	0x3e4f5593	0.20247488
160	0xbe053253	-0.13007478
161	0x3d5807f5	0.052741963
162	0x3dea2d1b	0.114343844
163	0xbe4f13ac	-0.20222348
164	0x3c087888	0.008329518
165	0xbca16ac6	-0.019704234
166	0xbcca6851	-0.024707945
167	0x3d065966	0.0328001
168	0x3d6c84e8	0.057743937
169	0xbc1de29f	-0.00963655
170	0xbe0888ed	-0.13333483
171	0x3dc96721	0.098341234
172	0xbcd4b30a	-0.025964279
173	0x3ca2600c	0.01982119
174	0xbdb72f16	-0.08944528
175	0x3da7d639	0.081951566
176	0xbd257ce0	-0.040402293
177	0x3d2b00c4	0.041748777
178	0xbdf88b31	-0.12135924
179	0xbddbaf79	-0.10726828
180	0xbd5881ce	-0.052858166
181	0xbe23e1bb	-0.16004078
182	0xbdae6ca5	-0.08516816
183	0x3dc3bbc1	0.095572956
184	0x3bc0d7e8	0.005885113
185	0xbc5b02da	-0.013367379
186	0x3d843d2e	0.064569816
187	0x3d16dea4	0.03683342
188	0x3d72eee5	0.05930986
189	0xbd8bf9e9	-0.06834776
190	0x3e3d7df1	0.18505074
191	0xbdc10279	-0.094243
192	0xbe04d89f	-0.1297326
193	0x3cf6de58	0.030135319
194	0xbda4088c	-0.08009443
195	0xbb8a7a49	-0.0042260033
196	0x3ce8dc2e	0.028425302
197	0x3dbb52f7	0.09146684
198	0xbd8f2bde	-0.06990789
199	0xbe191bc9	-0.14952005
200	0x3d50f98e	0.051019244
201	0xbdcf03dc	-0.10108158
202	0x3de177d2	0.11009182
203	0x3dbdea38	0.09273189
204	0xbdc0582d	-0.09391818
205	0xbd915aa3	-0.07097366
206	0xbd38077f	-0.044929024
207	0xbe61bdc7	-0.2204505
208	0x3d628b3a	0.055308558
209	0x3d27a4f9	0.040928815
210	0xbda120f2	-0.07867612
211	0x3d93e637	0.07221644
212	0xbd10f9e3	-0.03539456
213	0xbe42080c	-0.18948382
214	0xbc9093f1	-0.017648669
215	0x3d824ff9	0.0636291
216	0x3d2e66a8	0.04257837
217	0x3dd290c7	0.1028152
218	0x3c950361	0.018190088
219	0x3cd7c1c0	0.026337504
220	0xbe41fbfe	-0.18943784
221	0x3d14dc3d	0.036342848
222	0xbb0de109	-0.0021649024
223	0x3d116d79	0.035504792
224	0x3d8e2135	0.069399275
225	0x3d959341	0.07303477
226	0xbc35296a	-0.011057237
227	0x3cc2d592	0.023783479
228	0x3da8e6da	0.082471564
229	0x3da972db	0.0827386
230	0xbdae2e21	-0.08504892
231	0xbc8478f1	-0.01617095
232	0x3d31fe72	0.04345555
233	0x3deb8ccd	0.11501465
234	0xbd596cda	-0.053082325
235	0x3db4fec5	0.08837656
236	0xbdf527e7	-0.119705014
237	0x3c83d81f	0.016094266
238	0xbd73fed0	-0.05956918
239	0xbd39e189	-0.045381103
240	0xbdc98a37	-0.098408155
241	0xbcf16567	-0.029467298
242	0xbe079660	-0.13240957
243	0xbc7baaca	-0.0153605435
244	0xbe5b349e	-0.2140679
245	0xbd83fbf0	-0.06444538
246	0xbd0f5d55	-0.035001118
247	0xbe192595	-0.14955743
248	0x3e045a58	0.12925088
249	0xbd725be4	-0.059169665
250	0x3d9a4a6e	0.075337276
251	0xbe2bd91b	-0.16782038
252	0xbd123671	-0.03569645
253	0xbce67098	-0.02812986
254	0x3df9b9b2	0.12193622
255	0x3e36b669	0.17843021

0.bias f4 [150]
0	0xbd8e8e92	-0.06960787
1	0x3b7b136b	0.0038311135
2	0xbd7c58d8	-0.061608166
3	0x3d35b17a	0.044358708
4	0x3ba9363a	0.005163935
5	0xbd9a35c7	-0.075297885
6	0xbd45bf25	-0.048277993
7	0x3db261e1	0.08710075
8	0xbd876de6	-0.06612758
9	0x3d243be8	0.040096194
10	0xb9b4fc53	-0.00034520272
11	0x3c6e169a	0.014531756
12	0x3d8f9c76	0.070122644
13	0x3e18a318	0.14905965
14	0xbccf121a	-0.025277186
15	0xbcfa90ba	-0.03058659
16	0x3ca19aee	0.019727197
17	0x3e06ce2d	0.13164587
18	0x3dec7416	0.11545579
19	0x3da2342a	0.07920106
20	0x3d997992	0.07493891
21	0xbd161fd7	-0.03665146
22	0x3c6c4c2d	0.014422459
23	0x3d04f4c0	0.032459974
24	0x3dc2bbbd	0.095084645
25	0x3d6a75e3	0.05724133
26	0xbd4427e5	-0.04788961
27	0x3d172f96	0.036910616
28	0x3da716e0	0.0815866
29	0x3dc187a4	0.094496995
30	0x3dc108f3	0.09425535
31	0x3d61a0f4	0.055085137
32	0x3da558bd	0.08073566
33	0xbd513db2	-0.051084228
34	0xbd79f2d0	-0.06102258
35	0x3e2d67d2	0.16934136
36	0x3d3e4c23	0.04645933
37	0x3ccaecd1	0.024771126
38	0x3d3822de	0.044955127
39	0x3d9225a4	0.07136086
40	0xbcae0d05	-0.021246443
41	0xbd9b96c5	-0.075971164
42	0xbd2ceadb	-0.042216163
43	0x3d3150c1	0.043289904
44	0x3dc17632	0.09446372
45	0x3e3ff4b1	0.18745686
46	0x3e0d861e	0.13820693
47	0xbbbfcdfe	-0.0058534136
48	0x3de4d874	0.11174098
49	0x3e0d3c1a	0.13792458
50	0x3e0970c8	0.13421929
51	0xbdb88f96	-0.09011762
52	0xbca562b7	-0.020188672
53	0x3db27097	0.08712881
54	0xbc66cfa0	-0.014087588
55	0xba92b664	-0.0011193273
56	0x3d1e1e62	0.038603194
57	0x3b9e9296	0.0048392517
58	0xbd43c02c	-0.04779069
59	0x3dac9db5	0.08428518
60	0xbde62960	-0.112383604
61	0x3d828c49	0.063744135
62	0xbdaf425a	-0.085575774
63	0x3c952f66	0.018211078
64	0x3ddd5430	0.10807073
65	0x3d8566a5	0.065137185
66	0x3dab426a	0.08362277
67	0xbaa35ada	-0.0012462989
68	0xbcda3bae	-0.026639786
69	0x3da8c4c0	0.08240652
70	0xbde661bc	-0.1124911
71	0x3d2d511a	0.042313673
72	0xbb4ffd48	-0.003173666
73	0x3d140fd6	0.036147915
74	0xbd6e9f92	-0.058257647
75	0xbcdfce9b	-0.027320197
76	0x3dc9a65f	0.09846186
77	0x3dce1bd4	0.100639015
78	0x3def3fac	0.11682066
79	0xbdf81d39	-0.12114949
80	0x3c8daf4a	0.017295498
81	0x3d7288e7	0.05921259
82	0xbd495c0b	-0.049160045
83	0xbe1ef98a	-0.15524879
84	0x3d9816bb	0.074262105
85	0xbc9432af	-0.018090574
86	0x3dfcb3b0	0.1233896
87	0xbde0190c	-0.10942277
88	0x3d4fe706	0.05075743
89	0x3e0db74c	0.13839453
90	0x3d3a1fe3	0.045440566
91	0x3d0b0740	0.03394246
92	0x3d5ee994	0.054421976
93	0x3e424d45	0.18974788
94	0xbe016672	-0.12636736
95	0x3ded8e74	0.115994364
96	0x3d64f119	0.05589399
97	0x3d0ccec2	0.034376867
98	0x3d11f01d	0.03562938
99	0xbd7c41ac	-0.061586067
100	0xbb9ce78b	-0.0047883443
101	0xbcd095b9	-0.025462018
102	0x3d95e667	0.073193364
103	0x3d3e5140	0.046464205
104	0x3bbbea9e	0.0057347557
105	0x3cf1885a	0.029483963
106	0x3d63c87c	0.05561112
107	0x3e28b4a3	0.16475157
108	0xbd98bc65	-0.074578084
109	0xbdc75c5a	-0.097344115
110	0xbd62ff22	-0.055419095
111	0xbd347eea	-0.044066347
112	0x3ce6f67f	0.02819371
113	0x3d8467b3	0.064650916
114	0x3d1546a8	0.036444336
115	0x3d93ae1c	0.07210943
116	0xba2515fa	-0.0006297525
117	0xbd013fe0	-0.031555057
118	0x3cd0d689	0.025492923
119	0xbe156689	-0.14589895
120	0xbd31cbbd	-0.04340719
121	0x3dddd61a	0.10831852
122	0x3dd75f2b	0.10516199
123	0x3dcb7e4d	0.09936199
124	0x3d46a3ce	0.04849606
125	0x3dd63d6f	0.10460936
126	0xbd0e60ba	-0.034760214
127	0xbd86fb50	-0.06590903
128	0x3dcfd2e2	0.101476446
129	0xbcd9ccd1	-0.026586922
130	0x3d882b13	0.06648841
131	0xbc45a3c9	-0.012062975
132	0xbdcdbc3c	-0.100456685
133	0xbc92ea2c	-0.017933927
134	0x3d20ecc6	0.039288305
135	0x3d27b869	0.04094735
136	0x3dd78883	0.105240844
137	0x3d1128c0	0.035439253
138	0x3da5530e	0.08072482
139	0xbc6ceec3	-0.014461222
140	0x3d9d2974	0.07673922
141	0xbcec76b1	-0.02886519
142	0xbd84cb6b	-0.064841114
143	0xbd3f2d0f	-0.04667383
144	0xbd835cb0	-0.06414163
145	0x3d4bc37f	0.049746986
146	0x3d951ab3	0.07280483
147	0x3d85a0fe	0.065248474
148	0x3da8c6ee	0.08241068
149	0x3cb6cce4	0.022314496

2.weight f4 [100, 150]
0	0xbcbb410b	-0.022858163
1	0x3d229b0f	0.039698657
2	0x3cf2ed5d	0.0296542
3	0x3c7ff84c	0.015623163
4	0x3d634105	0.05548193
5	0x3c9bec8d	0.019033695
6	0xbd39265d	-0.0452026
7	0x3cd1fa9e	0.025632199
8	0x3d81eb6f	0.063437335
9	0xbd771d8b	-0.06033091
10	0xbdb2cfdf	-0.087310545
11	0x3d34a656	0.044103943
12	0xbd447a00	-0.04796791
13	0xbcebaebe	-0.028769847
14	0xbd4c54b9	-0.049885485
15	0xbc6dc8fb	-0.0145132495
16	0xbd81eb79	-0.06343741
17	0x3d88f83e	0.066879734
18	0x3d319c9f	0.043362256
19	0x3d9d3bd2	0.076774254
20	0x3cada284	0.021195658
21	0xbd979ec2	-0.074033275
22	0xbd1f4fde	-0.038894527
23	0x3cebb5f1	0.02877328
24	0xbd8dfcfc	-0.069330186
25	0xbda1c046	-0.078980014
26	0xbd302eef	-0.04301351
27	0x3ca76e46	0.020438325
28	0x3ceffa46	0.029294144
29	0x3af67707	0.0018803783
30	0x3d01346e	0.03154414
31	0x3d803109	0.06259353
32	0xbd72fd48	-0.05932358
33	0xbd171af2	-0.03689093
34	0xbd70db88	-0.05880311
35	0xb97ec721	-0.00024297509
36	0x3c0cb0c3	0.008587065
37	0x3d7c773f	0.06163716
38	0xbb8b9e61	-0.0042608236
39	0xbd99e230	-0.07513845
40	0xbce0732f	-0.027398674
41	0x3d7e2e0a	0.062055625
42	0x3c56bbbe	0.013106285
43	0xbda60924	-0.08107212
44	0xbd057cb2	-0.03258962
45	0x3d829843	0.06376698
46	0xbcd1ccb3	-0.025610304
47	0xbd894c7e	-0.06704043
48	0xbd69170e	-0.056906752
49	0xbd0a697d	-0.033792008
50	0xbc489448	-0.012242384
51	0xbda6d65b	-0.08146354
52	0x3d729eea	0.059233584
53	0xbd2f54ec	-0.042805597
54	0x3d8fb859	0.070175834
55	0x3ceb4ab6	0.028722148
56	0xbd5b53ee	-0.05354684
57	0xbd1bb4fe	-0.038014404
58	0x3db05dc2	0.08611633
59	0xbd818b37	-0.06325381
60	0xbd0ce751	-0.034400288
61	0xbb15f4c5	-0.002288149
62	0x3d65f09f	0.056137677
63	0x3ca307b8	0.019901142
64	0x3d2ca377	0.04214808
65	0xbd039018	-0.03211984
66	0x3cc8a885	0.024494419
67	0x3d3ffd4c	0.046872422
68	0x3c6ea5aa	0.014565865
69	0xbd0b2949	-0.03397492
70	0xbd8e93da	-0.06961794
71	0xbcbee394	-0.023301877
72	0x3b6089ef	0.0034261902
73	0x3d2d5f5e	0.042327277
74	0xbd471f64	-0.04861392
75	0x3d7c406c	0.061584875
76	0x3d9baecc	0.07601699
77	0x3d456e4c	0.04820089
78	0xbd397ce0	-0.045285106
79	0xbd2bd08a	-0.041946925
80	0x3cd471a4	0.025933094
81	0x3a8d6bb7	0.0010789548
82	0xbbcbda09	-0.00622106
83	0xbd2181ba	-0.039430358
84	0xbcd608f3	-0.026127314
85	0xbcf48fb7	-0.029853685
86	0xbd5b240f	-0.053501185
87	0xbc706356	-0.014672121
88	0x3ce9772f	0.028499214
89	0xbc942602	-0.01808453
90	0xbd345ce7	-0.04403391
91	0x3c092139	0.008369737
92	0xbd5722d3	-0.052523445
93	0x3b944813	0.0045251935
94	0x3d58c9cc	0.052926823
95	0xbdc611b2	-0.09671344
96	0x3d33870b	0.04382996
97	0x3bc14a68	0.0058987625
98	0xbd925672	-0.071453944
99	0xbca82b9b	-0.020528605
100	0xbd8309ef	-0.06398379
101	0xbd3f1451	-0.046650235
102	0x3d7754b5	0.060383517
103	0xbd92948e	-0.07157241
104	0xbcf0a9ae	-0.029377785
105	0x3d89de76	0.06731884
106	0x3d13ca6e	0.036081724
107	0x3da4601d	0.08026145
108	0xbd89e020	-0.067322016
109	0xbd46a898	-0.048500627
110	0x3c1a8d4a	0.0094331
111	0x3d37deac	0.04489009
112	0xbd5f0695	-0.054449636
113	0xbd0376be	-0.032095663
114	0xbc4068bf	-0.011743723
115	0x3c99fd62	0.01879758
116	0x3d1cc49a	0.03827343
117	0xbd459c26	-0.048244618
118	0xbd38f07f	-0.04515123
119	0xbd60db21	-0.054896478
120	0xbcc20c12	-0.023687396
121	0xbd9fc09d	-0.0780041
122	0xbc8ad440	-0.016946912
123	0xbd9c8c6a	-0.07643969
124	0xbd07cc63	-0.033153903
125	0xbc2ba15d	-0.010475484
126	0xbcdea27a	-0.027177084
127	0xbcf8a00f	-0.03034976
128	0xbd762672	-0.060095258
129	0x3c9ad7b4	0.018901683
130	0xbb201937	-0.0024429092
131	0x3c38bec6	0.011275953
132	0xbd7156b3	-0.058920573
133	0xbbbfbd26	-0.0058514057
134	0xbd8ebeea	-0.06970008
135	0xbda74544	-0.08167508
136	0x3d2ffac9	0.042963777
137	0xbb137563	-0.0022500388
138	0xbd287873	-0.041130494
139	0x3ccaca01	0.024754526
140	0x3da045d8	0.07825822
141	0x3d2b53da	0.041828014
142	0xbca9329e	-0.020654019
143	0xbd1c8474	-0.038212255
144	0x3d40f032	0.047104068
145	0xbcdfbe26	-0.02731235
146	0x3d501ea0	0.050810456
147	0x3d97fee2	0.07421662
148	0xbceac4c4	-0.028658278
149	0x3d10dc46	0.03536632
150	0xbbbf5118	-0.0058385246
151	0x39c709dc	0.00037963584
152	0x3dbb9b24	0.0916045
153	0xbe902d5f	-0.28159615
154	0xbe223330	-0.15839839
155	0x3dd18af2	0.1023158
156	0xbdf59706	-0.11991696
157	0x3ca1c6a2	0.019748036
158	0xbc29aeac	-0.010356586
159	0xbd79be80	-0.06097269
160	0xbe3ed273	-0.18634968
161	0x3e35ed6d	0.17766352
162	0xbda9b405	-0.08286289
163	0xbe78d45d	-0.2429976
164	0x3e57e90c	0.21084994
165	0x3d8750a6	0.06607179
166	0x3c275bc7	0.0102147525
167	0xbe9e1b71	-0.3088031
168	0x3c650484	0.013978127
169	0x3de5c69f	0.112195246
170	0x3daab4fa	0.083353
171	0x3e48a0bd	0.19592567
172	0x3d9b9e8a	0.07598598
173	0xbd2bfd77	-0.04198977
174	0xbeae06bf	-0.33989522
175	0xbc866ab3	-0.0164083
176	0x3dcf14ec	0.101114124
177	0x3e485f0b	0.19567506
178	0x3de0b012	0.10971083
179	0xbe50eeae	-0.20403549
180	0xbd2d0ae2	-0.042246707
181	0xbea4b360	-0.32168102
182	0xbd851e8b	-0.06499966
183	0xbe2a243a	-0.16615382
184	0xbcd235d9	-0.025660442
185	0x3be42828	0.006962795
186	0x3ddefaca	0.10887678
187	0xbdb79a6a	-0.08964999
188	0xbbcea22b	-0.006305953
189	0xbe2db11b	-0.16962092
190	0xbe550095	-0.20801003
191	0x3d81ae2f	0.06332051
192	0x3c5449e0	0.012957066
193	0x3e0004a3	0.12501769
194	0xbdfd7170	-0.12375152
195	0xbdf2ce5d	-0.11855767
196	0xbe2e9f4d	-0.17052956
197	0xbcf9922c	-0.030465208
198	0xbcc383dc	-0.023866586
199	0x3e0eff02	0.13964465
200	0xbda63f6f	-0.08117568
201	0x3e327fd4	0.17431575
202	0x3e052258	0.13001382
203	0x3dab2840	0.083572865
204	0xbe331c64	-0.17491299
205	0xbe35f494	-0.1776908
206	0x3e75ec60	0.24015951
207	0xbdff7f0f	-0.124754064
208	0x3db45164	0.088045865
209	0x3c59f08a	0.013301978
210	0x3d0e4401	0.034732822
211	0xbd439877	-0.047752824
212	0x3d5dce4b	0.054151814
213	0xbd294619	-0.041326616
214	0x3c93173e	0.017955419
215	0x3e15ba92	0.14621952
216	0x3c59c9b6	0.013292721
217	0xbe4b6344	-0.19862086
218	0xbc99bbb3	-0.01876626
219	0x3e0d1b3e	0.13779923
220	0xba5924ef	-0.00082833966
221	0x3be80a1b	0.007081283
222	0x3defa519	0.11701412
223	0xbe78d258	-0.2429899
224	0x3d15696b	0.036477488
225	0x3e6fac86	0.23405656
226	0x3d614edb	0.055006843
227	0x3ddf4683	0.10902121
228	0xbe6c1d18	-0.23057973
229	0x3dc17083	0.09445288
230	0xbe045c5e	-0.1292586
231	0xbe98d2b9	-0.2984827
232	0xbd9a74db	-0.0754182
233	0x3e2657fc	0.16244501
234	0x3c484404	0.012223247
235	0xbde45307	-0.11148649
236	0x3dbcd642	0.09220554
237	0x3e8f6999	0.28010252
238	0xbe4c5bc4	-0.19956881
239	0xbdd29692	-0.10282625
240	0x3d6c33ba	0.057666518
241	0x3e18c583	0.14919095
242	0xbb5b3257	-0.0033446753
243	0xbe0fdf7b	-0.14050095
244	0x3e81c227	0.2534344
245	0xbe541740	-0.20711994
246	0xbda3673d	-0.079786755
247	0xbe3423f4	-0.1759184
248	0xbde727fe	-0.11286925
249	0x3cd6adb9	0.026205884
250	0x3dae3b11	0.0850736
251	0x3d443fcc	0.047912404
252	0xbe35ad22	-0.17741826
253	0xbd8c53fe	-0.06851958
254	0xbe63b3b0	-0.22236514
255	0xbe97ec63	-0.29672536

2.bias f4 [100]
0	0xbcdb7ec6	-0.026793849
1	0x3d2e63aa	0.042575516
2	0xbd92eb3e	-0.07173775
3	0x3dd851c3	0.1056247
4	0x3df6e207	0.1205483
5	0xbc875e59	-0.01652448
6	0x3e1aabe2	0.1510463
7	0x3d674df1	0.056470815
8	0x3da58c3b	0.080833875
9	0xbcc31b47	-0.023816718
10	0x3d6cc786	0.057807468
11	0x3d4db1f8	0.050218552
12	0xbb96c0da	-0.0046006264
13	0xbd1787b0	-0.036994636
14	0x3d22bab4	0.039728835
15	0x3d4c6bcf	0.0499075
16	0x3d9c1693	0.07621493
17	0x3e1296fa	0.14315405
18	0x3ddcaece	0.10775529
19	0x3d139d7d	0.036038864
20	0x3d829e03	0.063777946
21	0xbd2a75d1	-0.041616265
22	0xbafc58f8	-0.0019252589
23	0xbd89dc84	-0.06731513
24	0x3dde7228	0.10861617
25	0x3df835fd	0.121196724
26	0x3c10e766	0.008844232
27	0x3c538d8b	0.012912164
28	0x3dad505a	0.084625915
29	0x3d89d57c	0.06730172
30	0x3d358514	0.044316366
31	0xbcb25688	-0.021769777
32	0x3d1d1635	0.038351256
33	0xbb032b8f	-0.0020014977
34	0xbd083d65	-0.033261675
35	0xbdf5e505	-0.12006573
36	0x3d356e21	0.04429448
37	0x3d98687b	0.07441803
38	0x3dcc8674	0.099865824
39	0xbd4be39b	-0.04977761
40	0x3bff22ee	0.0077861464
41	0x3d142309	0.036166225
42	0x3db1f074	0.08688441
43	0xbd8aede2	-0.06783654
44	0x3d8ff6a8	0.07029468
45	0xbd6f95cc	-0.058492467
46	0x3d35605e	0.044281356
47	0xbd5dd365	-0.05415668
48	0xbd190267	-0.037355807
49	0xbd889fce	-0.06671105
50	0xbd096384	-0.03354217
51	0xbd5d9b03	-0.05410291
52	0xbc278f73	-0.010227072
53	0xbdb51941	-0.088427074
54	0x3d9cc2ca	0.076543406
55	0xbcee7ff0	-0.02911374
56	0x3d45a2ca	0.04825095
57	0xbd9fc11d	-0.07800505
58	0xbce2ef38	-0.027701959
59	0xbd237ddc	-0.03991495
60	0x3dd787a6	0.1052392
61	0xbcdef3f8	-0.027215943
62	0x3d51fdcf	0.05126744
63	0xbd8805b9	-0.066417165
64	0x3d100c1c	0.0351678
65	0xbdae5f76	-0.085143015
66	0x3d96aa05	0.073566474
67	0xba8be524	-0.0010673148
68	0xbd0de0e7	-0.03463831
69	0x3d78f97d	0.060784806
70	0x3d4a61b8	0.049409598
71	0xbd07b9bc	-0.033136114
72	0xbccead29	-0.025229054
73	0x3ba38361	0.004990027
74	0x3dbc5319	0.09195537
75	0x3dfe546d	0.12418447
76	0x3d9ee018	0.07757586
77	0x3cac1e23	0.021010464
78	0x3d4adf6e	0.049529485
79	0x3d453841	0.04814935
80	0x3dca7196	0.09884946
81	0x3d24a922	0.04020036
82	0xbb941a89	-0.004519765
83	0xbd15f904	-0.036614433
84	0xbdacf810	-0.08445752
85	0x3d9d1e32	0.07671775
86	0x3cba663f	0.022753833
87	0x3d914487	0.07093149
88	0xbcdf46c1	-0.027255418
89	0x3c295994	0.0103362985
90	0x3db204b4	0.08692303
91	0x3df4f71d	0.119611956
92	0x3d9b2e9e	0.07577251
93	0x3db45079	0.088044114
94	0x3d11e853	0.035621952
95	0xbbcaeb89	-0.0061926288
96	0x3d515817	0.0511094
97	0xbd3d36e1	-0.046194915
98	0xbd203dca	-0.039121427
99	0x3d4e2ab6	0.0503337

4.weight f4 [7, 100]
0	0x3d37ddb9	0.044889186
1	0x3d29bca8	0.041439682
2	0x3d9e5ad8	0.07732171
3	0x3dcc9cd1	0.09990848
4	0x3dbc7b2e	0.09203182
5	0x3d81a6ed	0.06330667
6	0x3b872216	0.0041239364
7	0xbd08af62	-0.033370383
8	0xbda831f8	-0.08212656
9	0x3dcedecf	0.10101091
10	0x3cb22f25	0.021750996
11	0xbd815c3c	-0.063164204
12	0xbe37200a	-0.17883316
13	0xbcc6cde8	-0.024268106
14	0x3d27ba96	0.040949427
15	0x3e09d149	0.13458742
16	0x3d8d847b	0.06910034
17	0xbd9a917b	-0.075472794
18	0x3d6f63f7	0.058444943
19	0x3ddbe229	0.10736496
20	0x3d7948de	0.060860507
21	0xbd8c2c4b	-0.06844386
22	0xbd7ac204	-0.061220184
23	0x3dcafefb	0.09911915
24	0x3ddaa573	0.10676088
25	0xbced0c6c	-0.028936587
26	0x3e1c1901	0.15243913
27	0xbcbeceb9	-0.023291932
28	0x3ca6cc7d	0.02036118
29	0x3d94435e	0.07239412
30	0x3da55ba4	0.0807412
31	0xbda1eaf7	-0.07906144
32	0x3dadacb4	0.08480206
33	0xbd5af0f2	-0.05345244
34	0x3d8b70b8	0.06808609
35	0xbd1b3e4d	-0.03790121
36	0xbb9bbfe7	-0.004753101
37	0xbd817fda	-0.06323214
38	0x3de17c46	0.110100314
39	0x3da0717c	0.078341454
40	0xbea5e9b5	-0.32404867
41	0x3d414eef	0.047194418
42	0x3dec51e9	0.115390606
43	0xbdaa557e	-0.083170876
44	0x3d963003	0.07333376
45	0xbd380099	-0.044922445
46	0xbd5ddade	-0.054163806
47	0xbd3b5426	-0.045734547
48	0x3d30630e	0.043063216
49	0xbc9b4cf3	-0.01895759
50	0x3e6438f4	0.22287351
51	0xbd32ce98	-0.043654054
52	0xbc7bae0d	-0.015361321
53	0xbdb12a03	-0.08650591
54	0xbcbe781a	-0.023250628
55	0x3da3afd4	0.07992521
56	0x3dd9fe4a	0.10644205
57	0xbcc0b49c	-0.023523621
58	0xbc52a092	-0.012855666
59	0x3df9ada8	0.121913254
60	0xbce4f479	-0.027948605
61	0x3dd953bc	0.10611674
62	0xbd979ce8	-0.07402974
63	0x3d729e87	0.059233215
64	0xbd0b2a1b	-0.0339757
65	0xbb90ec43	-0.004422696
66	0x3e11a448	0.14222825
67	0xbdb710ce	-0.08938752
68	0x3d9ac757	0.07557552
69	0x3dab96e0	0.083783865
70	0xbe82367e	-0.254322
71	0x3defd1ef	0.117099635
72	0xbd86bfe4	-0.06579569
73	0xbd5b7e06	-0.053586982
74	0x3ca532e2	0.020165864
75	0x3dc2ab64	0.095053464
76	0x3d1f9db0	0.038968742
77	0xbd415ef2	-0.047209688
78	0xbdf81d77	-0.12114995
79	0x3dc33a20	0.09532571
80	0x3ce81aa4	0.028333016
81	0x3bf0102c	0.0073261466
82	0xbd4c6426	-0.049900196
83	0x3ce9686b	0.028492173
84	0x3c898b62	0.016790096
85	0x3d5cc592	0.053899355
86	0xbc2a157e	-0.010381101
87	0x3d705baa	0.058681168
88	0x3cc78a1a	0.024357844
89	0x3db283c2	0.08716537
90	0x3d68621b	0.056734186
91	0x3d8fe32a	0.0702575
92	0x3d4d3583	0.05009986
93	0xbcbc2377	-0.02296613
94	0xbdbdcde1	-0.09267784
95	0x3ba0d390	0.0049080327
96	0x3d0bb12d	0.034104515
97	0xbd1db712	-0.038504668
98	0xbd04d5bd	-0.0324304
99	0x3d98245d	0.07428811
100	0xbd9c36f1	-0.07627667
101	0xbd0de0e6	-0.034638308
102	0xbbd212e7	-0.0064109447
103	0x3e0289d3	0.12747888
104	0x3e2ad3f0	0.1668241
105	0x3d81539d	0.06314776
106	0x3dac118d	0.08401785
107	0x3dfe6201	0.124210365
108	0xbe04f9fe	-0.1298599
109	0xbc42cef9	-0.011890166
110	0xbe6bc624	-0.23024803
111	0xbdef9786	-0.11698823
112	0x3dfb3662	0.12266232
113	0xbe00bc44	-0.12571818
114	0xbe27393a	-0.16330424
115	0x3e36a84b	0.17837636
116	0x3d3e0ee7	0.04640093
117	0xbb244571	-0.0025065804
118	0x3e25afbc	0.16180319
119	0xbdaa35fc	-0.08311078
120	0x3d7fe4d2	0.06247408
121	0xbc752f7a	-0.014964933
122	0x3c77a92f	0.01511602
123	0xb95ca99a	-0.00021044016
124	0xbdee8cb3	-0.1164793
125	0x3e171f61	0.14758064
126	0xbb95f38c	-0.004576152
127	0xbe19cca2	-0.15019467
128	0x3e039b06	0.12852105
129	0x3d8b2749	0.067946024
130	0x3e0ababd	0.13547798
131	0xbd534237	-0.05157682
132	0xbdfaa036	-0.12237589
133	0x3d9e50e9	0.07730276
134	0xbe179456	-0.1480268
135	0x3c207aff	0.00979495
136	0xbdf99dc6	-0.12188296
137	0xbe0b5b59	-0.13609065
138	0x3de79cf1	0.11309231
139	0xbd1a38f6	-0.03765198
140	0x3e317f41	0.173337
141	0xbd9fd474	-0.07804194
142	0xbd6a4459	-0.057194088
143	0xbde9e81c	-0.114212245
144	0x3e0bfbd9	0.13670291
145	0x3e1b8af8	0.15189731
146	0x3e2253ed	0.15852328
147	0x3da293d3	0.079383515
148	0x3da2b026	0.07943754
149	0xbc9b1719	-0.018931912
150	0xbe11181b	-0.14169352
151	0xbdd9fb29	-0.10643608
152	0xbdfb0cb8	-0.12258285
153	0x3da72b47	0.081625514
154	0xbe2ab133	-0.16669159
155	0xbd8104cc	-0.06299743
156	0x3a5b7980	0.0008372292
157	0xbe0f379d	-0.13986059
158	0xbd822c90	-0.06356156
159	0x3e0a942f	0.1353309
160	0xbdd89392	-0.10575022
161	0x3d9f3bc0	0.07775068
162	0xbdda4146	-0.10656981
163	0xbb223f85	-0.00247571
164	0x3db70747	0.08936935
165	0x3d4fc048	0.050720483
166	0x3deb45c3	0.11487915
167	0x3c11bdfb	0.0088953925
168	0xbe2c36e9	-0.16817822
169	0xbc6c1151	-0.014408425
170	0xbd6ee640	-0.058325052
171	0x3de0abe8	0.109702885
172	0xbde6be29	-0.11266739
173	0x3c5d7366	0.013516283
174	0x3db1eb18	0.08687419
175	0x3e2b002d	0.16699286
176	0x3ddbbfc9	0.107299395
177	0xbe274933	-0.16336517
178	0xbe024e19	-0.12725104
179	0x3d949637	0.07255214
180	0x3dfd79d9	0.12376756
181	0xbd4df498	-0.05028209
182	0xbdc0ca29	-0.09413559
183	0xbe236a46	-0.15958509
184	0xbd44a0db	-0.048004966
185	0xbe09e3d3	-0.13465814
186	0x3acdb503	0.0015694204
187	0x3e22d5d5	0.15901883
188	0xbc82003a	-0.015869249
189	0x3d9f20a0	0.077698946
190	0xbd869c34	-0.06572762
191	0x3d8280a6	0.06372194
192	0xbd6a3d31	-0.057187263
193	0xbd89c733	-0.06727447
194	0xbe13acd3	-0.14421396
195	0x3e2de8da	0.16983357
196	0x3dbb065c	0.09132072
197	0x3baf4c53	0.0053496747
198	0xbd211b78	-0.039332837
199	0x3e145f0f	0.14489387
200	0xbd15f737	-0.036612716
201	0x3ea220c3	0.3166562
202	0xbd9dba50	-0.07701552
203	0x3e454530	0.19264674
204	0x3b8a0893	0.004212448
205	0x3d7c5cef	0.061612066
206	0xbd84ffe2	-0.06494118
207	0x3e6cf51f	0.23140381
208	0xbe11a9b4	-0.14224893
209	0xbdc1e94b	-0.09468325
210	0x3e71be83	0.2360783
211	0x3dbc042f	0.091804855
212	0x3d96e8c4	0.07368615
213	0xbe5366c0	-0.20644665
214	0xbe122503	-0.14271931
215	0x3e63f064	0.2225967
216	0xbdc1916b	-0.094515644
217	0x3ed25746	0.4108221
218	0x3e3a54e6	0.18196449
219	0x3e465135	0.19366916
220	0x3d2bf59c	0.04198228
221	0xbc9a9324	-0.01886899
222	0x3e93e98d	0.28889123
223	0x3bc2445e	0.00592856
224	0x3e41fe88	0.18944752
225	0x3d087e3c	0.03332351
226	0xbe1f8303	-0.15577321
227	0xbe0de1b1	-0.13855626
228	0x3e4b38cb	0.19845884
229	0xbd7c7b7a	-0.061641194
230	0xbcb59d49	-0.022169726
231	0x3d5e5787	0.05428269
232	0xbe27803b	-0.1635751
233	0xbad624d3	-0.0016337879
234	0x3e070cd2	0.13188484
235	0x3d9baa6f	0.07600867
236	0x3ddcddb9	0.10784478
237	0xbe26cd9e	-0.16289374
238	0xbd1f358d	-0.03886943
239	0xbd4d32ce	-0.05009728
240	0x3e5574ee	0.20845386
241	0xbd6df6b2	-0.058096595
242	0xbe1f03bb	-0.15528767
243	0x3e4fa0da	0.20276204
244	0x3db7cabd	0.08974216
245	0x3b0e12d1	0.0021678696
246	0xbdb82d76	-0.08993046
247	0x3deb5ff0	0.11492908
248	0x3e47a0f8	0.19494998
249	0x3d457351	0.048205677
250	0xbdd29115	-0.102815785
251	0xbe185dc6	-0.14879522
252	0x3d81c68f	0.063367
253	0xbab4bc97	-0.0013789114
254	0x3e256198	0.1615051
255	0xbe0a337a	-0.13496199

4.bias f4 [7]
0	0x3cfd6c9d	0.03093558
1	0x3e00c98d	0.12576886
2	0x3e0340f9	0.12817754
3	0x3e1510bc	0.14557165
4	0x3dc458b6	0.09587233
5	0xbd099965	-0.033593554
6	0x3ca8c503	0.020601755
