models/date-06-19-2025-15-27p1-RLbotp2-RLbotDDQNself_play-Falseexp_dir-RLbotepochs-50p1_win_rate-0.04p2_win_rate-0.96is_test-False/model.pth (torch, 117053 bytes, 6 tensors)

0.weight f4 [150, 84]
000000 18 f0 27 3e ad a1 d2 3d c1 66 29 3e 8a ce ca bc
       0.16400182 0.102847435 0.16543104 -0.024756689
000010 f0 b1 46 3b f8 71 5b bd 49 89 3c bd 2c 7d f5 3c
       0.0030318461 -0.053575486 -0.046029363 0.029966913
000020 a6 fc 58 3c b3 fb 14 bd e6 53 a7 bc 1f d3 b8 3d
       0.01324383 -0.03637285 -0.020425748 0.09024643
000030 a8 92 71 bd 56 00 27 bd f0 62 3d 3e b8 91 78 bd
       -0.058977753 -0.040771805 0.18494773 -0.060685843
000040 97 b6 82 3d 77 01 4b bc 4d 62 09 bd f8 9a 75 bd
       0.063824825 -0.012390486 -0.033541013 -0.059962243
000050 27 99 4a 3d bf 61 c2 3d 95 3d 5d 3d 69 70 a1 bd
       0.049462464 0.094913 0.054013807 -0.07882769
000060 70 4b 06 bd 04 25 94 bc 7b 1f e1 3d 67 50 b7 3d
       -0.032786787 -0.018084057 0.109923325 0.089508824
000070 98 6c 94 3d 96 15 50 bb 26 fa 11 3e 5e ce 83 bc
       0.07247275 -0.0031751147 0.1425558 -0.016089614
000080 ae 0b 88 3c e8 dd 85 bd 55 39 4c bd 78 45 9a bd
       0.016607132 -0.06536466 -0.049859364 -0.07532781
000090 a3 b6 a5 3d dc 87 b6 3d 4a c8 b6 3d 43 c4 ad bc
       0.08091476 0.08912632 0.08924921 -0.021211749
0000a0 e3 9c 5a 3d d2 2d 67 bd 09 ee e9 bd 64 31 aa 3c
       0.053372275 -0.056440182 -0.11422355 0.020775504
0000b0 45 fc 28 3d f9 0a 00 3e d7 75 fa bd 37 7d c2 3d
       0.041256208 0.12504186 -0.122295074 0.09496539
0000c0 84 2a 28 bd fa 92 af 3d dc b3 70 bd c4 ec d1 3d
       -0.04105617 0.085729554 -0.058765277 0.102502376
0000d0 bf 8b fa 3d 66 7f 33 bc 5a b1 b9 bd 85 96 ab 3d
       0.12233686 -0.010955667 -0.0906703 0.08378319
0000e0 10 2c 01 be a2 71 87 3d 32 83 c3 bd 78 1b 03 3e
       -0.12614465 0.066134706 -0.09546508 0.12803447
0000f0 dd 5a e6 3d 66 be a5 bb 3e 90 ee bc 08 92 96 3d
       0.112477995 -0.0050580977 -0.029121514 0.07352072
000100 e1 a1 3e 3c 03 18 0d bd f2 ed 3a 3d 5b b9 4c bc
       0.011635275 -0.034446727 0.04563708 -0.012495364
000110 68 3b 34 bd 25 34 a5 3c 95 bf 6a 3d 7d 41 c5 bd
       -0.044001967 0.020166466 0.057311613 -0.096316315
000120 c5 1b 7c 3d f6 d9 e4 3d 0f e2 34 bd 36 93 8d 3d
       0.06154992 0.11174385 -0.0441609 0.06912844
000130 1b e7 e0 bd 6b 04 01 be 44 b6 de 3d c3 4a 2e bd
       -0.1098158 -0.12599342 0.10874608 -0.042551767
000140 d3 14 95 bc a0 bb bf 3d 97 4e 01 bc 2f 85 15 be
       -0.018198406 0.093619585 -0.007892272 -0.14601587
000150 2c 43 a1 bd 68 c7 71 bd 6d 70 7c bd 99 e5 6a bd
       -0.0787414 -0.05902806 -0.061630655 -0.057347868
000160 18 48 5a 3c 5f d1 95 bc 17 5f 48 3d cf 15 66 bb
       0.013322853 -0.018288312 0.04891881 -0.0035108214
000170 db ea 1b 3d e7 b5 b8 bd 0f ca 82 bd 48 af 5b bc
       0.038065773 -0.0901907 -0.06386196 -0.0134084895
000180 1a 08 f9 bd 0e a6 99 bd 26 b4 be bc 75 d5 14 3e
       -0.121597484 -0.075023755 -0.02327926 0.14534552
000190 b8 4c 18 bd 64 b4 1f 3d f2 6b db bd 36 64 b3 bd
       -0.03718254 0.038990393 -0.10713948 -0.08759348
0001a0 40 ec ae 3d 19 ff cc 3d 1a 69 98 bd d8 ab 75 3d
       0.08541155 0.100095935 -0.074419215 0.059978336
0001b0 7a 21 c6 3c 43 3e 80 3d 04 3f 02 bb c1 ab 0d bd
       0.024185885 0.062618755 -0.0019873986 -0.034587625
0001c0 9a f0 b7 3c 19 8f 9c bd e6 fe 2c 3d 60 f3 60 bd
       0.022453595 -0.07644481 0.042235278 -0.0549196
0001d0 3d 7d 62 bd a6 ee 32 3d e3 e8 bc 3d ae 50 96 bc
       -0.055295218 0.043684624 0.09224107 -0.018349018
0001e0 87 f9 1a bd da d7 f1 3d de 97 b8 bd be 25 62 bd
       -0.037835624 0.118087485 -0.09013341 -0.055211775
0001f0 62 1a dc bd 86 22 12 3c ba 18 86 3c 67 cf d8 3c
       -0.107472196 0.008919364 0.016369212 0.026466085
000200 b1 48 8c bd b7 8f 67 bd fe 98 a5 3d c7 e4 17 bd
       -0.06849802 -0.05653354 0.080858216 -0.037083413
000210 68 90 a7 bd 6a 5c 90 bc da a4 fb bd fc a1 05 be
       -0.0818184 -0.017622191 -0.12287302 -0.13050073
000220 60 51 92 3c a0 3e 04 bd f3 3e c2 bb 41 21 00 be
       0.017861068 -0.032286286 -0.0059279143 -0.12512685
000230 15 b3 85 bd 67 dc 90 bc 43 7b 2b 3c 93 30 e6 3d
       -0.06528298 -0.017683221 0.0104664 0.112397335
000240 a1 77 da 3d da 85 84 3d fa d1 d9 bd 19 84 f0 3c
       0.10667349 0.06470843 -0.10635753 0.029359864
000250 06 98 03 be f5 51 f0 3c 85 6d 85 3d a6 d3 dd bb
       -0.12850961 0.029335955 0.0651503 -0.006769615
000260 fe 94 58 bd 0c db 06 3d eb 14 fe bd e1 65 4b 3d
       -0.052876465 0.032923743 -0.124063335 0.049657706
000270 2f 7b bc 3d bc e1 f8 bd 5c 3f 1f bd 51 82 c1 bd
       0.09203183 -0.121524304 -0.038878784 -0.09448684
000280 39 64 60 bd fc 4a 25 bc b9 b8 70 3c b6 78 b3 bd
       -0.05478308 -0.010088678 0.014692479 -0.08763258
000290 a7 52 11 bd 2e 89 c5 3d 3e a3 73 bd c8 cb 09 bc
       -0.035479214 0.096453056 -0.05948185 -0.008410402
0002a0 d2 39 6b 3d a2 26 b2 3d 0f ae 5e 3c dd 6e 30 bd
       0.05742819 0.08698775 0.0135913035 -0.043074477
0002b0 fb 1b 12 bd b0 23 87 bc 5a 93 da 3d 5a 81 82 3c
       -0.035671216 -0.01649651 0.10672636 0.01593082
0002c0 32 fe a6 ba 74 5f 70 3d 1d 2b 51 bd 00 62 94 3d
       -0.0012740551 0.05868478 -0.051066507 0.072452545
0002d0 92 d2 2d bc 85 59 9e 3c 74 63 16 3d f0 2b 7a 3d
       -0.010609286 0.019329796 0.03671594 0.06107706
0002e0 07 ac db 3d 56 04 26 3b ac c0 f0 3c fa cd 15 bd
       0.10726171 0.0025332174 0.029388748 -0.036573388
0002f0 7b 95 b4 bd 04 ac 8a bd 1e 4a 9d bd 57 cc bb bd
       -0.08817574 -0.067710906 -0.07680152 -0.09169834
000300 60 80 82 3d 2b cd bb 3d 6f 96 89 3c 48 ec 99 3d
       0.06372142 0.09169992 0.016795365 0.0751577
000310 fa 4f 02 bd ee 61 c8 bd 9f 22 b5 3d 62 6a a5 3d
       -0.031814553 -0.097843036 0.08844494 0.080769315
000320 77 c0 ad bd b8 6f d9 bd f5 0a 1b 3d 95 ea e9 bd
       -0.084839754 -0.10617012 0.037852246 -0.11421696
000330 36 2f cf bd 8d ed 90 3d a6 5b a6 bd 50 f4 78 3c
       -0.10116427 0.07076559 -0.08122949 0.015194967
000340 9f bf 9f bd 28 1b 63 3d b6 ab c4 bd f4 01 2d bd
       -0.07800221 0.05544582 -0.09603064 -0.04223819
000350 0d f2 42 3c 41 b3 78 bc 21 53 98 bd 49 ee d4 3b
       0.01189853 -0.015179456 -0.074377306 0.0064981324
000360 73 ca a0 3d cf 2e 3d bd 75 c5 72 3b 48 56 9c 3d
       0.07851114 -0.04618722 0.0037043963 0.07633644
000370 58 9c 8e bd f0 36 be bd 2f ec a4 3d dd a5 7e 3d
       -0.06963414 -0.09287822 0.08052861 0.0621699
000380 d3 39 22 bd ff b5 2b 3d c0 1f e4 bd 92 1b b8 3d
       -0.039605927 0.041921612 -0.11138868 0.089896336
000390 bc 9f 46 3c 7e 3d 3c 39 87 7a 13 3c b4 0d d7 bd
       0.012123045 0.00017951985 0.009001381 -0.105006605
0003a0 3d 7f 88 3d b2 ea cc bd a6 22 99 bc 1f 06 87 3d
       0.06664894 -0.10005702 -0.01869328 0.065929644
0003b0 e2 aa 86 3c 68 cd 58 bd 70 be ad 3d e3 14 a5 3c
       0.016438905 -0.052930266 0.08483589 0.020151561
0003c0 2a fc d4 3d c0 41 b0 3d db eb ca 3d a4 6b 94 3d
       0.10399659 0.08606291 0.09908267 0.07247093
0003d0 c4 84 c4 bd 68 3d 50 bd 74 3e e1 bd 6c 11 a0 bd
       -0.095956355 -0.05083981 -0.1099824 -0.07815823
0003e0 b9 f8 2a bd 5b 21 7f bd dc 2e c5 bc 2d 1d 73 bd
       -0.041741107 -0.06228767 -0.024070196 -0.059353996
0003f0 aa b5 a0 bd 1e 6a 88 3c 28 fa 3c bd fb 4d 94 bd
       -0.0784715 0.016652163 -0.046137005 -0.07241436

0.bias f4 [150]
000000 37 b9 5b bc 74 10 09 3e 82 4a cc bd 85 fe 19 3d
       -0.013410858 0.13385183 -0.09975149 0.037596244
000010 9b 0a b6 3d c8 e7 04 bd f2 10 d2 3c 2d a0 e2 3d
       0.088887416 -0.032447606 0.025642846 0.11065707
000020 50 66 92 3a 1f 16 f1 3d 28 c6 54 3c f3 03 52 3d
       0.0011169408 0.117717974 0.012986697 0.051273298
000030 10 9e fa 3d a2 4d 4c bd f0 53 e4 3d 38 0b a2 bd
       0.12237179 -0.049878724 0.11148822 -0.07912296
000040 0a d5 7e bc 5e 3e c4 bc 8e a2 f0 3d 23 60 6a bd
       -0.015553722 -0.02395552 0.11749755 -0.05722059
000050 9b d7 13 bd a4 c0 e9 3d 4c 70 41 3d ac ae 92 bd
       -0.03609429 0.114136964 0.047226235 -0.07162222
000060 a7 1c 10 bd 59 61 d6 3d eb 77 a2 3c 70 8c 27 bc
       -0.035183575 0.10467786 0.019832572 -0.010226354
000070 72 bb ea bd a6 80 84 bd 95 71 ab bd 9f 56 4c bd
       -0.114615336 -0.0646985 -0.083712734 -0.049887296
000080 7b fb d4 3d 25 02 a6 3d 6b 53 49 3d b7 56 77 bb
       0.103995286 0.08105878 0.04915182 -0.0037740895
000090 b1 7d fb 3d 1c 23 06 bc 6b d4 03 3d 5e d7 80 3d
       0.12279833 -0.008187082 0.032185 0.06291078
0000a0 16 82 3a 3d a8 c8 13 3c e3 8d d1 3c 8e f9 bd 3d
       0.045534216 0.009020008 0.025580352 0.092761144
0000b0 7a f1 a8 3d 82 86 30 bd 6b 5c 24 bd 28 c7 d8 3d
       0.08249183 -0.043097027 -0.0401272 0.10584861
0000c0 2e f1 29 3c 74 52 aa 3d 85 4b 06 3d 06 68 1b 3e
       0.010372443 0.08316508 0.032786865 0.151764
0000d0 a9 3e 2e 3d ca b7 ba 3d e8 27 25 bd 67 7b 25 3d
       0.042540226 0.09117086 -0.04032126 0.04040089
0000e0 12 1f 10 3e f3 07 a0 3d 7f 6f 12 3e 4d ee 60 3d
       0.14074352 0.07814016 0.14300345 0.05491476
0000f0 a1 53 51 ba c3 e8 84 3c af 16 9d bd b6 80 ec 3c
       -0.0007985179 0.01622427 -0.07670342 0.028869968
000100 51 70 89 3d dd b4 9e 3d 25 08 de 3d 9c 0e 99 3d
       0.06710876 0.07749341 0.10841397 0.0747349
000110 92 6e bc bd 83 c9 a8 3d 3d cb 98 bb 30 9d 0b 3e
       -0.09200777 0.0824156 -0.0046628998 0.13634181
000120 fd 7b 53 3d 94 83 1e 3e 9c a8 94 bb 49 92 f6 ba
       0.051631916 0.1547988 -0.0045367014 -0.0018811907
000130 7e 51 e2 3d ce 2f 33 3e 39 ce a1 bd 8d 15 10 3d
       0.110507 0.17498705 -0.07900662 0.035176802
000140 eb ef 78 3d 8a 1a 94 3d c5 c9 fa bb c8 a3 26 3e
       0.06077568 0.072316244 -0.0076534473 0.16273415
000150 3a 94 9f bd 8d 80 24 ba 85 c7 10 bd f7 5e 86 bd
       -0.07791944 -0.0006275259 -0.035346527 -0.06561082
000160 09 f5 34 3c c4 f1 93 3d 9d 35 7a 3d e6 46 18 3c
       0.011044749 0.072238475 0.061086286 0.009294247
000170 5f fa 9e 3d 3d 27 7a 3d 9c 4a 92 3d d3 fb 81 3d
       0.07762598 0.061072577 0.07143137 0.0634686
000180 3a 1d 45 3d 77 c2 81 bd 45 63 63 3d 09 82 be 3d
       0.048123576 -0.06335919 0.055514593 0.09302146
000190 24 97 72 bd bb 26 2f 3d 0e 3e 89 3c 84 5e f3 3d
       -0.05922617 0.042761546 0.016753223 0.11883262
0001a0 68 02 4e 3d 57 6d dd bb 18 49 34 bc bf 2d ed 3b
       0.050295264 -0.006757419 -0.011003755 0.0072381194
0001b0 5c 5e 45 3d 50 1f 92 bd 99 a7 c0 bc 82 84 49 3d
       0.04818569 -0.07134879 -0.023517417 0.049198635
0001c0 ff a9 37 3c e3 83 02 3e 7a f3 ee 3d 87 0c 89 bd
       0.011209964 0.12745623 0.11667533 -0.066918425
0001d0 7b c3 b5 3d 47 f2 e3 bb 81 33 c7 bc 6b bf 75 3c
       0.088751756 -0.006956372 -0.024316551 0.014999251
0001e0 50 a2 4f 3a 88 99 78 3c fc 82 c4 3d 3d f3 6b 3d
       0.000792061 0.015173323 0.09595296 0.057605017
0001f0 37 cf ad 3d ba 65 2d bd b5 82 2a bd de 16 f5 3d
       0.08486789 -0.042333342 -0.04162856 0.11967252
000200 06 d9 64 bd 7f 6b 0b 3e 37 90 8e bd 20 ab a7 3d
       -0.055871032 0.13615225 -0.069611005 0.081869364
000210 e2 df bf 3d 5b 25 5f 3d 02 12 c8 bd bd 12 ad 3d
       0.09368874 0.054478984 -0.0976906 0.0845084
000220 b4 80 20 3d c3 40 95 bd 24 6b 2e 3e f1 a8 f7 3c
       0.03918524 -0.07287743 0.17033058 0.030231925
000230 41 1d a7 bd e3 8f ca 3c e8 31 a9 bd 99 06 95 bd
       -0.081598766 0.024726814 -0.08261472 -0.07276649
000240 db 93 01 bd 66 bc 90 3c fc a5 94 3d 3c 05 4f bd
       -0.031635147 0.01766796 0.072582215 -0.0505421
000250 f2 4d 8f bd f0 dc 99 3d
       -0.06997289 0.075128436

2.weight f4 [100, 150]
000000 17 aa 88 bd 96 af db bd 72 04 04 bd 31 6a ed 3d
       -0.06673067 -0.1072685 -0.032230802 0.1159252
000010 33 5b 8e 3d 9c 9d d8 3d 1f 98 a6 3c a2 d2 43 bd
       0.069509886 0.105769366 0.020336209 -0.047808297
000020 50 52 bd bb 47 e2 0e bd ad 57 da 3d db e1 50 bc
       -0.0057776347 -0.034883764 0.10661254 -0.012749161
000030 16 c5 11 bc 10 8c 6d bd 39 2d ec 3d d0 4a 13 bd
       -0.008897087 -0.057994902 0.11532063 -0.03596002
000040 89 84 fa ba 5f 14 e3 ba 83 0d 86 3c da 3b 16 bd
       -0.0019112985 -0.0017324797 0.016363865 -0.036678173
000050 e6 9d 5c bd 75 9e 9b 3d 7e d3 e3 3c a9 94 08 3c
       -0.05386152 0.07598583 0.027810808 0.008336225
000060 96 22 d8 bc 54 ae 30 bd e0 01 1a 3e d9 05 0b 3d
       -0.02638368 -0.043135002 0.15039778 0.033941124
000070 90 b2 14 bc 7d c1 9f bc 14 20 14 bd 58 9e 80 3c
       -0.009075776 -0.019501442 -0.036163405 0.015700504
000080 a2 be 96 bc 7b 81 69 3d 24 44 be 3d b1 87 c5 3d
       -0.018401448 0.057008248 0.092903405 0.09645022
000090 26 1b 6d bd 5b 75 b5 bc 90 92 7f 3d b7 1e c1 3a
       -0.05788722 -0.022150686 0.062395632 0.0014733885
0000a0 72 9a a4 3b b6 10 c1 3d 6b 8f 69 3a 44 9f 2c 3d
       0.005023294 0.094270155 0.00089096156 0.042144075
0000b0 dc 97 07 3d 30 a6 40 b9 f7 63 c1 bd 7d 04 e8 3d
       0.03310381 -0.00018372457 -0.09442895 0.11328981
0000c0 dc f0 5e bd 28 48 9f 3c 86 06 cc 3d 82 13 c4 3d
       -0.05442892 0.019443586 0.09962182 0.09574033
0000d0 ca 0a 69 bd 6a bb 7b 3d 7b 41 42 3c 55 89 10 3d
       -0.056895055 0.06145803 0.011856432 0.03528722
0000e0 12 f8 88 3d 02 60 96 3d 4e a6 1c b9 36 44 0d 3d
       0.06687941 0.07342531 -0.00014939273 0.03448888
0000f0 e1 21 50 bd d8 2d 13 3e 70 05 c8 bd cb ba 76 bc
       -0.05081356 0.14372957 -0.09766662 -0.015059183
000100 62 96 79 3c 4d 0e bd bc 2d b0 d0 bd 85 8d 93 bd
       0.015233608 -0.023078108 -0.10189853 -0.07204727
000110 da fd ac 3d d2 8f ee 3c 4f 32 cf 3d 9a 2d 0e 3e
       0.08446856 0.029121313 0.101170175 0.13884583
000120 0f b6 ce 3d d4 c0 08 3e 62 15 1f 3d 8f 45 55 bd
       0.10093319 0.13354808 0.03883875 -0.05206829
000130 a5 31 3b 3d 60 e3 26 3d 48 d4 0b 3e 3a 6a 86 3d
       0.04570164 0.040744185 0.13655198 0.0656323
000140 1c 24 bc 3d 73 25 54 3d 24 03 5a 3d 4c 41 1b bd
       0.09186575 0.051793527 0.05322565 -0.03790407
000150 74 7d 65 3d 06 fe 0b 3e 2d 7c 61 bd fa a2 aa 3d
       0.056027845 0.13671121 -0.055050064 0.083318666
000160 36 35 1c 3e 15 4a d7 3d b6 f9 90 bc 9d ae d0 3d
       0.15254673 0.10512177 -0.017697196 0.10189555
000170 bc 6b 8c bd 77 f9 16 bd 3d bc 42 3c ab ae b0 bc
       -0.06856486 -0.036859002 0.0118857 -0.021567663
000180 ae 4f e5 bc d1 09 1d 3d 01 42 76 bd ae 65 55 3d
       -0.027992096 0.03833944 -0.06012154 0.052098922
000190 85 a0 c0 3c 17 22 23 bd 1b 43 de 3d 0e 19 e2 3d
       0.023514042 -0.039827432 0.10852643 0.11039935
0001a0 70 9e 74 3d 2d c6 3f bd 93 7f ee 3c c2 a2 f9 bc
       0.05972141 -0.046819855 0.029113567 -0.030473117
0001b0 16 39 e8 bb ae 16 b6 3c 29 8b b3 bc 34 d4 07 bd
       -0.0070868833 0.022227611 -0.021916943 -0.033161357
0001c0 90 5f 19 bd 62 0b 95 3c 2a 81 ed 3b 77 05 17 3d
       -0.03744465 0.018193904 0.0072480636 0.036870446
0001d0 07 82 1e bd 66 be 64 bd a9 da 92 bd 55 91 00 3e
       -0.038698222 -0.05584564 -0.07170612 0.1255544
0001e0 fc 9a 07 3d 37 6a e3 bd 4b c2 88 3d 80 22 c9 3d
       0.03310679 -0.11104243 0.066776834 0.098210335
0001f0 76 8c d9 3c fc d2 f3 bc 10 f4 8d 3b 7c bf 0b bc
       0.026556235 -0.029763691 0.004332073 -0.00852954
000200 37 5b 86 bd 62 25 8d bc af 83 ab 3d 8f 7c 08 3e
       -0.065603666 -0.01722974 0.08374726 0.13328765
000210 35 5e a3 3d 5b ca a9 3d 23 47 8e bc 53 03 9a 3b
       0.07976953 0.08290549 -0.017367905 0.0047001033
000220 d0 4c 48 3d 86 64 d9 bc 49 55 eb 3c 97 27 c6 3d
       0.04890138 -0.026537191 0.02872719 0.0967552
000230 a1 b5 e1 3d aa 8b 9e 3d c3 69 77 3d a1 ff 6f bd
       0.11020971 0.077414826 0.060403597 -0.058593396
000240 f0 00 eb 3c 0f 3e a9 3c 14 a0 bb bd 53 72 bf 3d
       0.02868697 0.020659475 -0.09161392 0.093479775
000250 04 4b 90 3c 5f 07 ad 3c d2 1c bc 3d df 22 0e 3d
       0.017613895 0.021121679 0.091851845 0.034701224
000260 7d 9a 97 bd 6e 07 b4 3d 81 e3 c8 bb 70 f2 bb 3d
       -0.07402513 0.087904796 -0.006130636 0.09177101
000270 5b cd 6a 3d 20 f3 f3 bd bd 8d 9c 3d 23 dc c9 3c
       0.05732475 -0.11911607 0.07644222 0.024641102
000280 9d aa 97 bd 9b 63 01 be 22 6d cb 3d db f1 c5 bc
       -0.07405589 -0.12635653 0.09932925 -0.024163177
000290 6e 66 00 3c 94 c1 33 3d e5 73 63 bd 86 55 88 bb
       0.007836921 0.043885782 -0.055530448 -0.004160586
0002a0 86 f9 ab bb bf e0 3b 3d d5 2c d6 3d c0 2a 80 bd
       -0.0052482514 0.04586863 0.1045777 -0.06258154
0002b0 26 e5 0d be 3e 2d 48 bc 9e e6 13 3c 54 9e a9 3c
       -0.13856944 -0.012217818 0.009027151 0.02070538
0002c0 a3 4a 19 be 73 18 86 3d 31 d7 a2 3c ea 69 99 ba
       -0.14969878 0.06547632 0.019878002 -0.0011704538
0002d0 83 5b 24 bd 61 2b 1e bb 32 a5 3a 3d a1 c1 be bd
       -0.040126335 -0.0024134743 0.0455677 -0.093142755
0002e0 9b f9 67 bd 9e 3b 37 3d 4b 6a 2c bc 66 fe ac bd
       -0.056634527 0.04473459 -0.010523389 -0.0844696
0002f0 34 a6 22 bd fd 01 76 3d 42 5c c6 bd 50 e5 47 bd
       -0.039709285 0.06006049 -0.096855655 -0.048802674
000300 a7 83 b7 bd c2 74 8c bc 29 3e 11 3c 4d 61 58 bd
       -0.089606576 -0.017145518 0.008864918 -0.05282717
000310 30 97 14 bd 8e 42 f2 3c 3d 33 ae 3b b3 2e 20 bd
       -0.036276996 0.029572751 0.0053161667 -0.039107036
000320 90 cb 00 be 94 48 f1 3d 9e de e6 3d 9e 26 d7 3d
       -0.12577653 0.11781421 0.112729296 0.105054125
000330 5d a2 0d bd ec f7 0b bd cb 9f db bc a1 2f 14 3d
       -0.03457867 -0.034171984 -0.026809594 0.036178235
000340 a2 1d 88 bd 11 92 8d 3d 87 0c 12 3e 0c 48 05 be
       -0.06646277 0.069126256 0.14262591 -0.13015765
000350 6d 55 80 3d 6a 6e 80 3d 6f ed 58 bd 77 6f c6 3d
       0.06266294 0.0627106 -0.05296081 0.09689229
000360 1a 47 b4 bb 80 93 9e bc 03 fa a6 3c 61 ec 94 bd
       -0.00550164 -0.019357443 0.020382887 -0.07271648
000370 02 66 98 bd 40 74 a4 bd 26 2b d1 bd 79 ee 6c bd
       -0.074413314 -0.080299854 -0.10213308 -0.057844613
000380 ca 49 f8 bd b7 05 13 3c 48 ad d1 3c 37 7a 47 3d
       -0.12123449 0.0089735305 0.025595322 0.048700538
000390 8a d5 1d be 04 e5 4f bd 65 70 21 3c aa a0 30 bd
       -0.1541349 -0.050755516 0.009853457 -0.04312197
0003a0 ad fc 11 be 4c 92 d6 bd 4a 5b d1 3c f5 61 b6 bd
       -0.14256544 -0.10477123 0.025556225 -0.089054026
0003b0 ce e3 9a 3d d2 52 2a bc 80 38 b8 bc 3c 72 48 3d
       0.075629815 -0.010395722 -0.022487879 0.048937067
0003c0 6f 3b ff bd e4 e8 e6 3b 04 0f 52 3d 7e d2 bb 3c
       -0.12462508 0.0070468057 0.05128385 0.022927519
0003d0 59 4f 82 bd d7 8d ed 3d 3c b9 1c 3d 31 56 36 be
       -0.063627906 0.115993194 0.03826259 -0.17806317
0003e0 af 64 82 ba 1f c5 0e be ac 11 c3 bd ff 21 c8 3d
       -0.0009948219 -0.13942383 -0.09524855 0.09772109
0003f0 bc 0d 66 bb d4 51 49 3d 48 d1 08 3d 48 17 9c 3d
       -0.0035103401 0.049150303 0.03340271 0.07621628

2.bias f4 [100]
000000 8b 54 a3 3d 26 8a 4e bc 31 2a 2a bd d3 de 7b bd
       0.0797511 -0.012606179 -0.041544143 -0.0614918
000010 b6 ef e7 3d 7c b8 ae bd 5d b7 69 bc 6c bd 5b bd
       0.11325018 -0.08531281 -0.014264909 -0.053647444
000020 c0 55 a9 3d ed bc b3 bb b3 40 bf 3d 3f 73 64 3d
       0.08268309 -0.005485168 0.09338512 0.05577397
000030 7b be 93 3c d8 13 b8 3d d8 0e c7 3a 30 f7 22 3d
       0.018035164 0.0898816 0.0015186919 0.039786518
000040 4e 58 f7 bc 3a 69 42 3d d6 ae 35 3d 8d 1e b5 3d
       -0.030193474 0.047463633 0.04435619 0.08843718
000050 6a 9c b9 3d fd 96 c2 3c 31 84 46 3d d0 8f 93 ba
       0.09063037 0.023753637 0.04846591 -0.001125807
000060 a1 b5 03 bd 6c ed 37 3d 02 c1 77 3d 0f eb 17 3d
       -0.032155637 0.044904158 0.0604868 0.037089404
000070 7f f7 a5 bd 6a 91 38 bc 5f 62 3b 3d ea a6 30 bd
       -0.08103847 -0.011265138 0.04574811 -0.04312793
000080 98 de 9a 3d 2e 6d 07 3d d6 89 57 3c 4f c3 bc bd
       0.07561988 0.033063106 0.013155421 -0.0921694
000090 6c 81 98 3d 1c 84 c9 3b f6 b6 7b 3c 81 22 31 3c
       0.0744656 0.006149782 0.0153634455 0.010811449
0000a0 4c 04 9e 3c e8 d8 e1 3d 41 6b b8 3d 95 59 bf bc
       0.019289158 0.110277 0.09004832 -0.023358146
0000b0 5a a6 ad 3c 07 cd 1e bd 5b 33 00 bd 9b 5a b0 3c
       0.021197487 -0.038769748 -0.031298976 0.021527579
0000c0 11 24 52 bd f3 4a 86 bd 23 fe ef 3d b3 c1 09 3d
       -0.051303927 -0.06557264 0.117183946 0.03363199
0000d0 d4 35 30 bd e6 42 3a 3d 76 0f 29 3d 29 4e 4d 3c
       -0.043020085 0.045473956 0.04127451 0.012530842
0000e0 b5 c5 f5 3c a1 c9 01 3c 04 ba 7f bd ba d7 2c 3d
       0.0300015 0.007921607 -0.062433258 0.04219792
0000f0 93 5a 79 3d ff 46 72 3d aa ad e0 3b 96 81 4a 3d
       0.060877394 0.05914974 0.00685664 0.04943999
000100 16 79 5a bc a3 17 38 3d 18 57 30 bd 7c 5a 87 3b
       -0.013334533 0.044944417 -0.04305181 0.0041306596
000110 c1 15 d1 bc 30 55 7c 3d 01 67 dd bc 8e 7f c7 3c
       -0.025523068 0.06160468 -0.027026655 0.024352815
000120 20 88 df 3c 58 78 4e bd e6 61 77 3d c6 39 a6 bb
       0.02728659 -0.050407737 0.060396098 -0.005072805
000130 4b 41 50 3d bc f9 dc 3c 35 a3 cb 3d 9c 7f 3a 3c
       0.05084352 0.026974551 0.09943239 0.0113829635
000140 7f 3c f6 bc c8 a9 d9 3d de 38 ae bd 31 39 a6 3d
       -0.030058144 0.10628086 -0.0850694 0.08116377
000150 d6 69 39 bc 23 5d f1 3c d3 65 83 3d 96 28 ef 3d
       -0.011316737 0.029463356 0.06415906 0.11677663
000160 d9 15 0f bd 2f ee 29 3c 3f 2f 62 3d 81 27 b4 3d
       -0.034932945 0.010371729 0.05522084 0.08796597
000170 3d 7d 11 bd 55 4d ee 3c e0 cb 62 bd ee d2 d4 3b
       -0.035519827 0.02908961 -0.05537021 0.0064948713
000180 62 c5 8b bd 3a bc c1 3c d0 4a 34 bd 6f 49 88 bb
       -0.06824757 0.023649324 -0.04401666 -0.0041591446

4.weight f4 [7, 100]
000000 e1 4a cc 3d 38 bf 35 be 80 40 18 3d 96 fb 21 3e
       0.099752195 -0.17748725 0.037170887 0.15818629
000010 16 c2 be bb 50 3a 9d bd bf 6a cc 3d 93 75 90 bc
       -0.0058214767 -0.07677138 0.09981298 -0.017634189
000020 30 79 95 bd c8 69 95 bd 51 ab e0 bd 11 37 85 3d
       -0.07298505 -0.07295567 -0.10970176 0.06504644
000030 27 88 25 3e 96 22 00 3d 2f 11 35 bd 8f 7f 3f bd
       0.16165219 0.031282984 -0.04420584 -0.04675251
000040 19 c8 9d 3d 21 28 16 3e bb f9 c5 3c b1 03 68 3d
       0.07704181 0.14663745 0.024166932 0.056644145
000050 c2 71 19 be 42 10 88 bd eb 12 78 3d 01 bd 90 bd
       -0.14984801 -0.06643726 0.060564917 -0.070673
000060 78 12 d1 3d 00 34 e5 bd 6b 54 80 3d 0c a8 39 3d
       0.10208601 -0.11191559 0.062661014 0.045326278
000070 a1 58 b5 bd 2b d5 e3 3d 9a 77 b7 3d b3 6e 73 3d
       -0.08854795 0.11124643 0.08958359 0.059431743
000080 18 3c 98 bd bc a0 9c 3d 27 33 21 3e f4 eb 44 bb
       -0.07433337 0.07647845 0.1574217 -0.0030047866
000090 6b ad 83 3d 1c a2 09 be 21 75 05 be aa 6a e9 bd
       0.06429561 -0.13440746 -0.13032962 -0.11397298
0000a0 fe 4d a3 bd 04 c7 ab bd 5a 63 f7 bd a3 23 0b be
       -0.0797386 -0.083875686 -0.12079497 -0.13587813
0000b0 9e 99 a9 3d 03 86 8b 3d a2 64 14 3e f7 a3 00 3e
       0.08281253 0.0681267 0.14491513 0.12562548
0000c0 3a f9 cc bd 8a fb 83 3d 23 4b f5 bc 3c ed f9 bd
       -0.10008474 0.06444462 -0.029943055 -0.12203452
0000d0 b4 0b 21 3d d7 57 54 bd a9 1d a0 bd 7b 8e 56 bb
       0.0393178 -0.051841583 -0.07818157 -0.0032738734
0000e0 15 72 5a 3d 15 db 48 bc e0 c9 b4 bd b0 76 64 3d
       0.053331453 -0.0122592645 -0.08827567 0.05577725
0000f0 38 c1 b7 3d 57 03 1a 3e 2f 61 30 3d 60 7e ef 3d
       0.089724004 0.15040337 0.04306143 0.11694026
000100 a1 32 b3 bd 46 2a 1e be c3 80 36 bd 39 e7 f3 bd
       -0.08749891 -0.15445814 -0.04455639 -0.119093366
000110 72 32 27 bd e4 fc 21 3e c2 cd 4e 3d ea 2e 86 3d
       -0.040819593 0.15819126 0.050489195 0.06551917
000120 33 c0 e8 3d 90 13 f3 bd e2 1d 0c be c3 e8 b1 bd
       0.11364784 -0.118689656 -0.13683274 -0.08686974
000130 54 db be bd 09 3f 03 3e ad d8 71 bd 6e 60 88 bd
       -0.09319177 0.12817015 -0.05904453 -0.066590175
000140 23 af e0 bc fd 1c c4 bd 17 98 12 bd 59 fd 04 be
       -0.027427262 -0.095758416 -0.035789575 -0.1298727
000150 65 76 5d 3d c7 2e 8d 3d 32 2d ab bd 79 23 14 be
       0.054067988 0.06893688 -0.0835823 -0.14466657
000160 35 51 99 3d 2a 04 e5 bd 81 f9 c7 bc 47 ee c5 bd
       0.07486192 -0.11182435 -0.024410965 -0.096645884
000170 08 bd de 3c be 6d e1 bd ca 8d a7 3d 15 91 06 be
       0.027189746 -0.1100726 0.08181341 -0.13141282
000180 cb aa c7 3d 63 7a 0b be 7c 8b 01 3e 0d f3 10 bc
       0.09749373 -0.13620906 0.12650865 -0.00884701
000190 9c 93 99 3d 0f 3d e6 3d 1a 10 4b 3d 2f d1 cc 3d
       0.074988574 0.11242115 0.049575903 0.10000836
0001a0 05 4f 08 bc fd fc 48 bd 4c a4 87 3d 23 d1 59 bd
       -0.008319621 -0.049069393 0.06623134 -0.053177964
0001b0 4c 3e 98 bd b1 a8 00 3e ce 87 bc 3c 76 8f 26 3d
       -0.07433757 0.1256435 0.023013975 0.04066416
0001c0 95 93 ac 3c 51 90 12 3d 72 95 5e 3b 04 84 37 bd
       0.021066466 0.035782162 0.0033963588 -0.044803634
0001d0 98 44 64 3d 22 68 02 bb f5 62 e8 3d d7 a5 91 bc
       0.05572948 -0.0019898494 0.113469996 -0.017779274
0001e0 d0 10 57 bd 4d 07 10 bd 7d f8 43 bd 7e 0c bd ba
       -0.052506268 -0.035163213 -0.0478444 -0.0014423279
0001f0 39 8f 8f bd 9a dc 6d bd 03 3f 95 3c 9b 8f d4 bc
       -0.070097394 -0.05807171 0.018218523 -0.025947383
000200 b7 6a c7 bd 65 5a 69 bd 47 44 f4 bc 67 84 84 ba
       -0.09737151 -0.056970973 -0.029817713 -0.001011026
000210 92 4c da 3d 5e 14 2f bd 6d 08 40 3d db 8a 7a ba
       0.10659136 -0.042744033 0.046883035 -0.0009557434
000220 96 fc 0b bd 21 c0 5a bb 6c b4 74 bd 8b b5 79 bd
       -0.03417643 -0.0033378678 -0.059742376 -0.06096415
000230 0d a1 d6 3c 91 9a 5b bd a6 16 04 bc 54 aa 41 bd
       0.026199842 -0.053614203 -0.00806204 -0.04728158
000240 71 90 2e bd 5c 40 af 3d 8a 10 81 bd 97 ba 5e 3d
       -0.04261822 0.085571975 -0.06301983 0.054377165
000250 e2 89 82 bd 24 63 9a bd af c9 78 3d 80 d8 34 3d
       -0.06373955 -0.07538441 0.060739215 0.044151783
000260 7c a3 60 3c 80 1e f4 3c c7 b7 d5 bc a1 dd bf 3c
       0.013710853 0.0297997 -0.026088608 0.02342111
000270 7a e4 3a 3d 9c 62 06 3c 33 89 41 3c 2a ec 96 3d
       0.04562805 0.008202221 0.011812496 0.073692635
000280 f1 93 17 3d 7c b7 53 3d 97 47 3b bd a4 e8 9f bd
       0.037006322 0.051688656 -0.04572257 -0.078080446
000290 5a 0a 8e 3d 0b 16 2b bd 21 c2 86 bd 14 8c 66 bd
       0.06935568 -0.04176907 -0.06579996 -0.056285933
0002a0 cb 76 9e bd c4 6d 83 bd 81 24 e9 3c c1 44 3b 3d
       -0.07737502 -0.064174205 0.02845979 0.045719866
0002b0 18 98 a2 bd bc 73 14 3d fb eb 5b bd 56 aa 7d 3d
       -0.07939166 0.036243185 -0.053691845 0.061930023
0002c0 7a d1 80 3d 5d 67 75 bc 6d 2f ed 3d 87 97 ab 3d
       0.062899545 -0.014978257 0.115813114 0.08378511
0002d0 aa 14 66 bd a1 cf 71 bc 67 28 ca 3a 30 05 29 bd
       -0.05617205 -0.014758975 0.0015423418 -0.041264713
0002e0 f5 14 87 bc e4 30 6a bd 9b ad c4 3c 7f f9 98 bd
       -0.016489485 -0.057175532 0.024008563 -0.074694626
0002f0 c9 9b 8d 3c 1f 3b 0e 3d ef bb 9c 3d d2 72 86 ba
       0.017286198 0.03472435 0.07653033 -0.0010257608
000300 7f 13 64 3c 56 0f a4 3c 80 e6 ca bc 99 a0 20 3c
       0.013920664 0.020026844 -0.024768114 0.009803914
000310 21 f8 1f 3d d2 a6 8a 3d 23 24 99 3d d7 54 a7 bd
       0.039054994 0.067701 0.07477596 -0.08170479
000320 41 23 50 3d f9 e6 70 3c 43 87 c3 3d 6e cd 89 bc
       0.05081487 0.014703506 0.095472835 -0.01682159
000330 b7 76 be bd ad 36 9d bd 3f a0 ab bd 03 c6 e8 bc
       -0.09299987 -0.07676444 -0.08380174 -0.028414732
000340 de 03 94 3d 8d f7 c1 3d df 2c a6 3d 22 46 12 bd
       0.072273 0.09471045 0.08114027 -0.035711415
000350 88 f5 48 3d 8f 4a 7c 3d 75 f0 af bd 61 cd 2e bd
       0.04906228 0.061594542 -0.085907854 -0.042676333
000360 40 14 6e bd 1c d6 8a bd 89 72 85 3d 23 9e 0d 3d
       -0.05812478 -0.06779119 0.065159865 0.03457464
000370 a1 ac a9 3d 1b d5 46 3d f7 04 99 bc 0d f9 b8 3c
       0.082848795 0.048543077 -0.018679125 0.022579694
000380 c1 44 74 3d 9c 4b 60 bd 84 9f a4 ba 1a 79 bc 3d
       0.05963588 -0.054759607 -0.0012559746 0.09202786
000390 3d 57 86 bd d0 39 f5 3b 09 ff 31 3c 1a b7 f1 3b
       -0.06559608 0.0074836984 0.010864028 0.0073765637
0003a0 99 61 79 bd 5c a3 b2 bb ef 39 93 bd 9a fa ca bb
       -0.060884092 -0.005451603 -0.07188784 -0.006194425
0003b0 d0 54 90 3d 02 f0 d2 bb 3e b5 12 3d b4 c2 86 bb
       0.07047427 -0.0064373026 0.035817377 -0.004112566
0003c0 93 a3 5a bd 15 a2 92 bd ad fd bc 3d f6 44 bd bd
       -0.053378653 -0.07159821 0.09228072 -0.09241669
0003d0 fe 9c 94 3d 2e b6 b9 bd 49 35 38 3d 19 74 a1 3c
       0.072565064 -0.09067951 0.04497269 0.01970868
0003e0 7a c4 94 bd d5 19 6c bd 7b c9 ee 3c e4 d4 c8 3b
       -0.072640374 -0.057641823 0.029148808 0.006128894
0003f0 4b 73 05 3d 1e 43 83 3c 4d b9 9a 3d 8a 3a ae bd
       0.032580655 0.016023215 0.075548746 -0.08507259

4.bias f4 [7]
000000 1d ef 2b bc a1 b3 a2 3d 90 c8 90 bd fc 24 4f bd
       -0.010494021 0.07944418 -0.07069504 -0.05057238
000010 51 cc 14 bd 0c a8 80 3d d7 af 18 bc
       -0.036327664 0.062820524 -0.009319267
