models/date-06-19-2025-15-28p1-RLbotp2-RLbotDDQNself_play-Falseexp_dir-RLbotepochs-50p1_win_rate-0.22p2_win_rate-0.78is_test-False/model.pth (torch, 117053 bytes, 6 tensors)

0.weight f4 [150, 84]
0	0x3dc1cfa3	0.09463432
1	0xbc915050	-0.017738491
2	0xbb9999e2	-0.0046875337
3	0xbd2ef1ec	-0.042711183
4	0x3d11dda0	0.03561175
5	0xbddb88ef	-0.107194774
6	0x3c91da4f	0.017804293
7	0xbd13745b	-0.035999637
8	0xbda4aab1	-0.08040369
9	0x3d50caf0	0.050974786
10	0x3d30ce62	0.043165572
11	0xbd397d83	-0.045285713
12	0x3e011ae0	0.12607908
13	0x39728e71	0.00023131982
14	0xbdda3338	-0.106543005
15	0xbcc6e441	-0.024278762
16	0xbcd71c36	-0.02625857
17	0xbdc56861	-0.09639049
18	0x3d8a752f	0.06760632
19	0x3d5ca4cf	0.05386811
20	0xbd300213	-0.042970728
21	0xbc6b991b	-0.014379765
22	0x3dd11923	0.102098726
23	0x3cbf86ce	0.02337971
24	0x3d456402	0.048191078
25	0x3cbbfa25	0.022946427
26	0xbe0c8000	-0.13720703
27	0x3d47332d	0.04863279
28	0x3e0b8a55	0.13626988
29	0x3d9230b0	0.07138193
30	0xbe06831f	-0.13135956
31	0xbd6ea9dc	-0.05826746
32	0x3d20e029	0.039276276
33	0x3e0dd43a	0.1385049
34	0xbe0ed483	-0.13948254
35	0xbc226c66	-0.0099135395
36	0x3d29881e	0.041389577
37	0xbddf5582	-0.10904981
38	0xbde8c00d	-0.11364756
39	0x3dc9d836	0.09855692
40	0xbde46e5e	-0.11153863
41	0xbdc01466	-0.09378891
42	0xbcda89fb	-0.026677122
43	0xbdd61837	-0.10453837
44	0xbdb69c48	-0.08916527
45	0x3d37fd25	0.04491915
46	0x3c9b7235	0.018975357
47	0x3e1c0bc2	0.1523886
48	0x3c6850f1	0.014179454
49	0xbdfa5511	-0.122232564
50	0x3bd564f2	0.0065122778
51	0xbdb06d83	-0.08614638
52	0x3dd45a7c	0.10368821
53	0xbd87ecd1	-0.06636966
54	0x3e2e19df	0.17002057
55	0x3d9d46fb	0.07679554
56	0xbdc779a3	-0.09739997
57	0xbba8982b	-0.005145093
58	0x3c103a4c	0.008802962
59	0xbc4ef299	-0.012631082
60	0x3c167a6c	0.009184461
61	0x3cac0e63	0.021002954
62	0xbdc1eca4	-0.09468964
63	0xbd99929a	-0.07498665
64	0xbd9ba7ff	-0.07600402
65	0xbdfc0543	-0.12305691
66	0x3d445d88	0.04794076
67	0xbe1208bd	-0.14261146
68	0x3e1c05b1	0.15236546
69	0xbda3e883	-0.080033325
70	0xbc8a2e10	-0.016867667
71	0xbddab584	-0.106791526
72	0xbdf387ee	-0.11891161
73	0xbd4c2b8e	-0.049846224
74	0x3d3e4832	0.04645557
75	0x3dc17e20	0.094478846
76	0x3d0a9a73	0.0338387
77	0xbd150cec	-0.036389276
78	0x3c6f7e7a	0.014617557
79	0xbd2976e8	-0.041373163
80	0xbdb79388	-0.08963686
81	0xbd950486	-0.072762534
82	0x3d96440e	0.07337199
83	0xbcb27080	-0.02178216
84	0xbd9231c6	-0.071384
85	0x3c8454db	0.016153743
86	0x3d0cde67	0.034391787
87	0xbd233f21	-0.039855126
88	0x3d265919	0.040612314
89	0x3d613377	0.05498072
90	0xbd6d5d68	-0.057950407
91	0x3d027c5e	0.031856887
92	0x3d5d0032	0.053955264
93	0xbccf3073	-0.025291657
94	0x3df31ccf	0.11870729
95	0x3e1dcb6e	0.15409634
96	0x3dcd775b	0.10032531
97	0x3d19596b	0.03743879
98	0x3d4306c0	0.04761386
99	0x3c8c8717	0.01715426
100	0xbd1f9af0	-0.03896612
101	0x3d68c98d	0.05683284
102	0x3dc21df5	0.0947837
103	0x3dd260b2	0.102723494
104	0xbccaa7bf	-0.02473819
105	0xbd1126ed	-0.035437513
106	0xbd5d6b0d	-0.05405717
107	0xbd40cd14	-0.047070578
108	0x3df6f86a	0.120591
109	0x3d6caada	0.057780124
110	0xbc8c8393	-0.017152583
111	0xbd9ebf08	-0.0775128
112	0xbd91a7ce	-0.07112084
113	0xbe0cfd74	-0.1376856
114	0x3c9d4900	0.019199848
115	0xbce1ceec	-0.027564488
116	0x3d74c63a	0.059759356
117	0xbcaae574	-0.020861365
118	0x3dfe99ff	0.12431716
119	0x3dbb7bcc	0.09154472
120	0xbd27102c	-0.040786907
121	0x3e02eef3	0.12786464
122	0xbd820969	-0.06349451
123	0x3cba81b8	0.022766933
124	0x3d740e69	0.059584055
125	0x3ddf99c0	0.10917997
126	0xbd2a3222	-0.041551717
127	0xbc87825f	-0.016541658
128	0xbc8aeeee	-0.016959634
129	0x3c6ec212	0.014572637
130	0x3e120937	0.14261328
131	0xbcff8165	-0.03118963
132	0xbd5cd7c5	-0.05391671
133	0x3dbd0556	0.092295334
134	0x3d53130b	0.051531833
135	0x3dc25e1d	0.09490607
136	0x3d3e7842	0.046501406
137	0xbe161437	-0.14656149
138	0x3d3d56fe	0.04622554
139	0x3d274e18	0.04084596
140	0x3aefab52	0.001828531
141	0xbc041a8a	-0.008062968
142	0x3d27e3ec	0.040988848
143	0xbda5eaa9	-0.081013985
144	0xbd7f411d	-0.062317956
145	0xbd43d6a5	-0.047812123
146	0xbd95c8db	-0.07313701
147	0x3e2a78cc	0.16647643
148	0xbd86dfc0	-0.06585646
149	0x3e02330d	0.12714787
150	0xbcda4581	-0.02664447
151	0xbd9bfefd	-0.076169945
152	0x3ccefad3	0.025266087
153	0xbd8bf98b	-0.06834706
154	0x3e2b8a9e	0.16752097
155	0xbc69debb	-0.0142742945
156	0x3d67f660	0.056631446
157	0x3d8ae72e	0.06782375
158	0x3db92f42	0.09042217
159	0xbd914517	-0.07093256
160	0xbe3982d1	-0.18116309
161	0xbd99a092	-0.075013295
162	0x3c63eb10	0.013911024
163	0x3d177d87	0.036984947
164	0xbe505e26	-0.20348415
165	0xbc53373d	-0.012891588
166	0xbd6a0f08	-0.05714324
167	0x3d78aac7	0.06070974
168	0x3ccab5e8	0.024744943
169	0xbd0ed249	-0.034868512
170	0xbd4ad9ca	-0.049524106
171	0xbda2eb3c	-0.07955024
172	0xbd6241d6	-0.055238567
173	0x3c24ff15	0.010070582
174	0x3d999043	0.07498219
175	0xbc63c29f	-0.013901382
176	0xbdc6d10c	-0.09707841
177	0x3d5569c5	0.052102823
178	0x3cdd735a	0.027032543
179	0x3e3ccdf8	0.18437946
180	0x3987fe98	0.00025938894
181	0x3d6b30e5	0.057419676
182	0xbd742f53	-0.059615444
183	0x3adde52c	0.001692926
184	0x3d1fea5f	0.039041873
185	0xbdf966fc	-0.12177846
186	0xbbd4a059	-0.0064888415
187	0xbdd3cda4	-0.10341957
188	0x3db72a71	0.08943642
189	0x3d3f1144	0.046647325
190	0xbbdfe767	-0.006833005
191	0x3dede19f	0.116152994
192	0xbdc91551	-0.09818519
193	0x3d72f67e	0.059317105
194	0x3d3fcff6	0.046829186
195	0xbced8b0d	-0.028996969
196	0xbd2e00a1	-0.04248107
197	0x3c3e8d15	0.011630316
198	0x3c5787ce	0.013154937
199	0xbdb41024	-0.08792141
200	0xbc687f90	-0.0141905695
201	0x3c34ff22	0.0110471565
202	0x3c1bb8a9	0.009504476
203	0xbc0eb660	-0.008710474
204	0xbd9988a2	-0.07496764
205	0x3c62aba1	0.013834865
206	0xbdfb87d6	-0.12281768
207	0xbd21ef69	-0.03953496
208	0x3e05714b	0.13031499
209	0xbd41b8ef	-0.047295507
210	0xbda39ae9	-0.07988531
211	0x3c4d57b1	0.012533114
212	0xbd049981	-0.032372955
213	0x3d959bff	0.073051445
214	0x3dddd2a9	0.10831196
215	0xbc9636e2	-0.018336717
216	0x3cee1859	0.029064344
217	0x3dcc31cc	0.099704355
218	0x3c2cdfd8	0.010551415
219	0xbd164673	-0.03668828
220	0x3d98f55a	0.07468672
221	0x3d55e4ef	0.05222028
222	0x3d2a88ca	0.04163436
223	0xbde9f4d0	-0.114236474
224	0xbdd3a2a4	-0.103337556
225	0xbca40894	-0.020023622
226	0xbdc6aaee	-0.09700571
227	0x3d86eec0	0.06588507
228	0xbd887ef3	-0.06664839
229	0xbd9ce007	-0.07659917
230	0xbce01729	-0.027354794
231	0xbd0eb70d	-0.03484254
232	0xbcfe085c	-0.031009845
233	0x3e0ea961	0.139318
234	0xbc45e925	-0.012079512
235	0x3c906356	0.017625492
236	0x3cbf7f03	0.023375994
237	0xbc023949	-0.007948228
238	0x3e3a9d15	0.18223985
239	0xbd7351b5	-0.059404094
240	0x3da65468	0.08121568
241	0x3b58628f	0.003301773
242	0x3cf1b489	0.029505031
243	0xbdecc046	-0.11560111
244	0xbc395f61	-0.011314244
245	0xbcd6304c	-0.026146077
246	0x3dece1b1	0.11566485
247	0xbd4584ba	-0.04822228
248	0xbcc74a98	-0.024327561
249	0x3d31cf40	0.04341054
250	0xbcfd8de5	-0.03095145
251	0xbdac0927	-0.08400183
252	0x3c989706	0.018626701
253	0x3dba4496	0.09095113
254	0xbd5fed64	-0.054669753
255	0xbda74aab	-0.08168539

0.bias f4 [150]
0	0x3d965cb6	0.07341902
1	0x3d7d6f19	0.06187353
2	0xbcc9d4ae	-0.024637546
3	0x3d00683c	0.031349406
4	0xbd7fd3fe	-0.06245803
5	0xbdada7e0	-0.08479285
6	0x3b01b92b	0.0019794207
7	0xbd8f37a1	-0.06993032
8	0xbb5a4684	-0.003330619
9	0x3d5e6cee	0.054303102
10	0x3d19c49d	0.03754102
11	0xbcc433f4	-0.023950554
12	0xbdd6c21a	-0.10486241
13	0x3c7904fe	0.015198944
14	0x3d3a7d69	0.045529757
15	0xbd642e89	-0.055708442
16	0xbd360373	-0.044436883
17	0x3b2202d8	0.0024720933
18	0xbd556611	-0.05209929
19	0x3d89b902	0.067247406
20	0xbaab9967	-0.0013091982
21	0xbcc80087	-0.024414314
22	0x3d201218	0.039079756
23	0xbd04d036	-0.032425128
24	0xbcf550f7	-0.029945834
25	0x3d359b9c	0.044337854
26	0xbd825886	-0.06364541
27	0x3d91deb3	0.07122555
28	0x3d23b716	0.039969526
29	0x3e17a19d	0.14807744
30	0x3ba12d25	0.0049187117
31	0xbc2947c7	-0.010332054
32	0xbd3d60b3	-0.046234798
33	0xbcb98866	-0.022648048
34	0x3d92ce76	0.071682855
35	0xbbee6f13	-0.0072764247
36	0x3dac8111	0.08423055
37	0x3e0d25f6	0.13784012
38	0xbccab16c	-0.024742804
39	0xbc2593d3	-0.010106045
40	0xbde9c399	-0.114142604
41	0x3d07c9d4	0.033151463
42	0xbda0d14f	-0.078524224
43	0xbd57c88e	-0.0526815
44	0x3c7f0a86	0.015566474
45	0xbd47d15a	-0.048783638
46	0xbcedcdb9	-0.02902876
47	0xbca254c8	-0.019815817
48	0xbc406b3f	-0.011744319
49	0x3b8f889a	0.004380298
50	0x3e188d83	0.14897732
51	0x3e18ac73	0.14909534
52	0x3d752edc	0.05985914
53	0x3d9e6ce0	0.0773561
54	0xbd829e39	-0.06377835
55	0xbcc06229	-0.023484306
56	0x3e354564	0.17702252
57	0xbca35a17	-0.01994042
58	0x3ca0abba	0.019613136
59	0x3d6ce976	0.057839833
60	0xbcf75397	-0.030191226
61	0x3db7a985	0.0896788
62	0xbdcbe0ab	-0.099549614
63	0x3d66939f	0.056293126
64	0x3d2f9923	0.042870652
65	0x3dba02cb	0.09082564
66	0xbd39d42c	-0.04536836
67	0xbd6cd2e1	-0.057818297
68	0xbccd7c55	-0.0250837
69	0xbbff00e8	-0.0077820905
70	0xbcd1536f	-0.02555248
71	0xbd62e647	-0.05539539
72	0x3cf48ea9	0.029853182
73	0x3dc99e90	0.098446965
74	0x3c03df0a	0.008048782
75	0x3df71ebc	0.12066409
76	0x3d890a5e	0.066914305
77	0x3dd04790	0.101698995
78	0xbda36a25	-0.0797923
79	0xbd33afb4	-0.043868735
80	0xbd91fccc	-0.07128295
81	0x3d710a1f	0.058847543
82	0xbd6fc4ec	-0.05853741
83	0x3dab1093	0.08352771
84	0x3ca733b8	0.020410404
85	0x3d7d2917	0.061806764
86	0xbdb08d02	-0.08620645
87	0xbbce5ed4	-0.0062979255
88	0xbc59472d	-0.013261599
89	0xbd232872	-0.039833494
90	0x3e106e09	0.14104475
91	0xbd670a9d	-0.056406606
92	0xbd3702ab	-0.04468028
93	0x3d8662c5	0.065618075
94	0xbd889f34	-0.066709906
95	0xbd268553	-0.04065449
96	0x3d891179	0.06692786
97	0xbd9808fd	-0.074235894
98	0xbdc8d47b	-0.098061524
99	0x3aac9a21	0.0013168493
100	0x3b361365	0.0027782556
101	0xbd5759a7	-0.052575734
102	0xbc8d0e62	-0.017218772
103	0x3d4398af	0.047753032
104	0x3dd8977f	0.105757706
105	0xbd8d97d6	-0.06913726
106	0xbc81e86a	-0.015857894
107	0x3dbfdd78	0.09368414
108	0x3d849a9a	0.064748004
109	0xbd580525	-0.05273928
110	0xbd940e63	-0.072293065
111	0x3db7bb7a	0.08971305
112	0x3cfe0a95	0.031010905
113	0x3cd47e7a	0.025939215
114	0xbb3cfb92	-0.002883647
115	0x3d2bdd43	0.04195906
116	0x3cd9f71d	0.02660709
117	0x3e0bddb8	0.13658798
118	0x3de9b0e2	0.11410691
119	0x3d8f2846	0.069901034
120	0x3d4a0599	0.049321745
121	0x3cee4fa8	0.029090717
122	0x3d8516c1	0.064984806
123	0xbb57c1b5	-0.0032921855
124	0xbdb1a206	-0.08673482
125	0xbdb1a9ca	-0.08674963
126	0xbda7fe55	-0.08202807
127	0x3d0835ca	0.033254422
128	0x3ceecb7c	0.029149763
129	0x3e130339	0.14356698
130	0xbda2ca51	-0.07948745
131	0xbd1800fa	-0.037110306
132	0x3dab5385	0.083655395
133	0x3d4c5a56	0.04989084
134	0x3dd41cd9	0.10357065
135	0x3d1e791c	0.038689718
136	0xbd72e71b	-0.05930243
137	0x3c8dafd7	0.017295761
138	0xbd1acdd0	-0.037793934
139	0xbc0958fd	-0.008383033
140	0xbd8c03d7	-0.0683667
141	0xbcf8e5fb	-0.0303831
142	0x3bb2294f	0.0054370533
143	0x3df0c176	0.1175565
144	0x3df8933d	0.121374585
145	0x3d3ad203	0.04561044
146	0x3d084fb4	0.033279136
147	0x3dcfa347	0.101385646
148	0xbd675187	-0.056474235
149	0x3c40724d	0.011746001

2.weight f4 [100, 150]
0	0x3d44a656	0.048010193
1	0xbd21db1d	-0.039515603
2	0x3d8abcaa	0.06774266
3	0xbd72d4ba	-0.059284903
4	0xbcc06002	-0.02348328
5	0xbd760894	-0.060066774
6	0xbe1aa140	-0.15100574
7	0x3d9863a8	0.07440883
8	0xbcf26d74	-0.029593207
9	0x3e1c0252	0.1523526
10	0x3cab3ae0	0.020902097
11	0x3ca0143b	0.019540897
12	0xbda2c610	-0.07947934
13	0x3bccd6ef	0.006251208
14	0x3dac34be	0.08408497
15	0xbe01b6a6	-0.12667331
16	0x3d5a5b80	0.053309917
17	0x3dd5564d	0.10416851
18	0x3df821db	0.121158324
19	0x3d73372b	0.059378784
20	0xbd99c6b7	-0.07508605
21	0xbb662af0	-0.0035120808
22	0xbd5466df	-0.051855918
23	0xbe008710	-0.12551522
24	0xbc068ac2	-0.008211793
25	0xbd62ddde	-0.05538737
26	0xbd64e07c	-0.055878147
27	0x3c54720c	0.012966644
28	0x3d86a370	0.06574142
29	0x3dfca8bb	0.1233687
30	0x3ccecabe	0.02524316
31	0x3ce7f2a9	0.028313952
32	0x3ce36832	0.027759645
33	0x3d8d78b8	0.06907791
34	0x3d82bdb2	0.06383838
35	0x3d91940b	0.07108315
36	0xbd8058e7	-0.06266957
37	0x3d52ef31	0.051497642
38	0xbdf300b9	-0.11865372
39	0x3dd70cd5	0.105004944
40	0x3cce7643	0.025202876
41	0xbd2fe020	-0.04293835
42	0xbd8f9701	-0.070112236
43	0x3b1f2a56	0.0024286709
44	0x3de02d4a	0.10946138
45	0x3d3e7956	0.046502434
46	0xbd98b823	-0.07456996
47	0x3d818951	0.06325019
48	0xbc0fa689	-0.008767732
49	0x3aeff0a8	0.0018305974
50	0xbd785b66	-0.06063404
51	0xbd95bd83	-0.07311537
52	0xbdb29a37	-0.087208204
53	0x3d1bc035	0.0380251
54	0xbdeabcc4	-0.114617854
55	0x3dfe26df	0.12409758
56	0x3dc2370c	0.094831556
57	0x3dfce74e	0.12348805
58	0x3da8df40	0.082457066
59	0xbc82ea99	-0.015981006
60	0x3c4d84cb	0.012543867
61	0xbd58d31d	-0.05293571
62	0x3d7b5382	0.061358936
63	0x3d35f785	0.044425506
64	0x3d88b6d6	0.06675498
65	0xbcc45ab5	-0.023969034
66	0x3d93bb63	0.072134756
67	0xbd916307	-0.07098966
68	0xbcecbd62	-0.028898899
69	0xbd3db652	-0.046316452
70	0x3d4034a2	0.046925195
71	0xbd85a493	-0.06525531
72	0x3bc20d7b	0.005922017
73	0xbc4ba639	-0.012429767
74	0xbba67f5c	-0.0050811004
75	0x3d3d6fc9	0.046249185
76	0x3c3c52a9	0.011494317
77	0x3d3d086f	0.04615062
78	0x3ce617ae	0.028087463
79	0x3de1bfae	0.11022888
80	0x3d604b1f	0.05475914
81	0x3da10d16	0.07863824
82	0xbd03f5de	-0.0322169
83	0xbe0461f7	-0.12927996
84	0x3de2f90a	0.11082657
85	0xbc9cd3ed	-0.019144023
86	0xbccd69d9	-0.025074886
87	0x3d9a2f4d	0.07528553
88	0x3d93a764	0.072096616
89	0xbc893e9b	-0.016753485
90	0x3da68dcf	0.081325166
91	0x3cd2f501	0.025751593
92	0x3c3017a2	0.010747822
93	0x3cbcc8e3	0.023045009
94	0xbc5bca41	-0.01341492
95	0x3b66ad14	0.0035198377
96	0x3df33d06	0.11876874
97	0xbe05b2f4	-0.13056546
98	0xbc413464	-0.011792276
99	0xbd2fafd7	-0.042892303
100	0x3d842c6b	0.064537846
101	0xbd68017e	-0.056642048
102	0xbde27224	-0.11056927
103	0xbcd9e95f	-0.026600538
104	0x3d5d9d38	0.054105014
105	0x3dc7ef43	0.097624324
106	0xbc8eac83	-0.017416244
107	0x3e0a9517	0.13533436
108	0x3d784fb0	0.06062287
109	0x3e2579f1	0.16159798
110	0xbd965e7f	-0.073422424
111	0xbb280eb9	-0.002564354
112	0x3d80d586	0.06290726
113	0xbcae83d2	-0.021303091
114	0x3dadc1fa	0.08484264
115	0xbd833a66	-0.06407623
116	0xbd4d0a99	-0.050058935
117	0x3c04ee50	0.008113459
118	0xbc8e60fa	-0.017380226
119	0xbd843d3f	-0.06456994
120	0x3d88ce67	0.06679993
121	0x3d290b44	0.04127051
122	0x3b3d3e5d	0.0028876283
123	0x3d9b9140	0.075960636
124	0x3db8b127	0.09018164
125	0xbd9ffce6	-0.078119084
126	0xbc621cc6	-0.013800805
127	0xbe094f14	-0.13409072
128	0x3dfc001f	0.123047106
129	0x3d72b1c3	0.059251558
130	0x3d84e7d0	0.06489527
131	0x3d12024e	0.03564673
132	0xbc6882c8	-0.014191337
133	0xbaf4e632	-0.0018684326
134	0x3d8820e1	0.06646896
135	0x3d6c37c3	0.057670366
136	0xbbc7d0a2	-0.006097869
137	0x3d31a506	0.04337027
138	0xbda1a17b	-0.07892128
139	0x3e12ebd5	0.14347775
140	0xbd77fff7	-0.06054684
141	0x3dbf3bbe	0.09337567
142	0x3cd7e9ad	0.026356542
143	0x3d19604a	0.037445344
144	0xbd102b6f	-0.03519767
145	0xbde66673	-0.112500094
146	0xbdbf68da	-0.09346171
147	0x3d28d9a4	0.041223183
148	0x3d9ce09c	0.07660028
149	0x3df0d189	0.11758716
150	0xbbdfa1ea	-0.0068247216
151	0x3dbd1785	0.092330016
152	0x3dcde6ad	0.100537635
153	0xbcbb76ab	-0.022883734
154	0xbbd3623b	-0.006450919
155	0x3d9a51f7	0.07535165
156	0x3d253c7c	0.040340886
157	0xbe0adf35	-0.13561709
158	0xbc0400c4	-0.008056823
159	0x3d77a7e9	0.060462866
160	0x3d5f590c	0.05452828
161	0x3d82dea3	0.06390121
162	0xbce194f1	-0.027536841
163	0xbd9da301	-0.07697106
164	0x3ccdaba9	0.025106268
165	0x3d9a8976	0.0754575
166	0xbe1fd3ba	-0.15608111
167	0xbd027796	-0.031852327
168	0xbda206ca	-0.07911451
169	0x3d7d761b	0.061880212
170	0x3dc09e62	0.09405209
171	0xbd5dea60	-0.054178596
172	0x3d63e766	0.0556406
173	0xbd92e020	-0.07171655
174	0xbce5651d	-0.028002316
175	0x3cfacf84	0.03061653
176	0xbd967320	-0.07346177
177	0x3c833112	0.01601461
178	0x3df558c0	0.11979818
179	0x3e236d52	0.15959671
180	0xbd51cfff	-0.05122375
181	0xbc2c9c1d	-0.010535267
182	0x3d8fbc5b	0.07018348
183	0x3d6a10d5	0.05714496
184	0x3d919ebe	0.07110356
185	0xbb34132d	-0.002747725
186	0xbd619fd2	-0.055084057
187	0xbd1f1f70	-0.03884834
188	0xbd8a759b	-0.06760713
189	0xbbda222f	-0.006656907
190	0xbacd687a	-0.0015671395
191	0xbd63ffbe	-0.055663817
192	0x3c7eb099	0.015545034
193	0x3d054bcc	0.03254299
194	0xbdc339ee	-0.095325336
195	0x3ca186e0	0.019717634
196	0xbd9a6c71	-0.07540215
197	0x3d875892	0.0660869
198	0xbd584164	-0.052796736
199	0xbcd22c1a	-0.025655795
200	0x3dbfec4b	0.09371241
201	0x3d6b51a5	0.05745091
202	0x3d39181b	0.045189004
203	0xbbb653c3	-0.0055641844
204	0xbe03a234	-0.12854844
205	0xbcb65faf	-0.022262422
206	0x3e076070	0.13220382
207	0x3dcf4dc9	0.10122258
208	0x3d88de39	0.066830106
209	0x3d927e36	0.07152979
210	0xbd11b149	-0.035569463
211	0xbd2196f7	-0.039450612
212	0x3ca819ef	0.020520179
213	0xbd636ed3	-0.055525612
214	0x3d5d710c	0.054062888
215	0x3da35fb6	0.0797724
216	0x3c20b1c4	0.009808008
217	0xbcdbcc82	-0.026830915
218	0xbdfafd26	-0.122553155
219	0xbdb1bc7a	-0.08678527
220	0x3db1c535	0.086801924
221	0xbbd8b64e	-0.0066135293
222	0x3d552dd4	0.05204566
223	0xbdbfab2b	-0.093588196
224	0xbc942ef6	-0.018088799
225	0xbc1e8f8a	-0.009677777
226	0x3cebb842	0.028774384
227	0x3dc16c87	0.09444528
228	0xbd7c2017	-0.06155404
229	0x3d6fb0aa	0.05851809
230	0xbccc76ee	-0.024959054
231	0x3c4282cc	0.011872005
232	0xbd082ca5	-0.0332457
233	0xbc8cedc1	-0.017203214
234	0x3df2cd99	0.11855621
235	0xbdb7c088	-0.08972269
236	0x3c7441c6	0.01490826
237	0x3dc4687b	0.095902406
238	0x3d13ec7c	0.0361142
239	0xbdc0d25e	-0.09415124
240	0x3dc1b9c0	0.09459257
241	0xbcf14478	-0.029451594
242	0xbe01e9d9	-0.12686862
243	0x3d84ee03	0.0649071
244	0xbc62e824	-0.013849292
245	0x3d765878	0.060142964
246	0xbadba01e	-0.0016756093
247	0xb7ef0ea4	-2.8497838e-05
248	0x3d6c8c5d	0.05775105
249	0xbd3799fd	-0.04482459
250	0xbcdd910e	-0.027046707
251	0xbcfeaf7f	-0.031089542
252	0xbdd1505e	-0.10220407
253	0xbcedf4ad	-0.029047335
254	0xbc902041	-0.017593505
255	0xb9d763d8	-0.00041082385

2.bias f4 [100]
0	0x3dafccb1	0.08583964
1	0xbcb1e15f	-0.02171391
2	0x3d9476e3	0.07249238
3	0xbcb2d08b	-0.021827957
4	0x3d0a5c07	0.03377917
5	0x3c8a2e4f	0.016867785
6	0xbd4521a9	-0.048127804
7	0x3d12ed3c	0.035870776
8	0xbc827f25	-0.015929768
9	0x3ae470bd	0.0017428618
10	0xbd819cc7	-0.06328731
11	0x3d3082a0	0.043093324
12	0x3d32d844	0.04366328
13	0xbbf42afe	-0.007451414
14	0x3d9a83f1	0.07544697
15	0xb96c352f	-0.00022526526
16	0x3d289489	0.04115728
17	0xbd8d237f	-0.06891536
18	0x3d3476fa	0.044058777
19	0x3d999db2	0.07500781
20	0xbd3b14a8	-0.045673996
21	0xbd2948f3	-0.041329335
22	0x3d7baeb2	0.0614459
23	0x3ce63f50	0.028106362
24	0xbd29d312	-0.041461058
25	0x3d922544	0.07136014
26	0x3d84292d	0.06453166
27	0x3d567575	0.05235811
28	0x3da5b775	0.08091632
29	0xbcfb66fd	-0.030688757
30	0x3dae86f8	0.08521837
31	0x3df042f9	0.11731524
32	0x3d9119be	0.07084988
33	0x3d0bf75e	0.034171455
34	0x3d976cfb	0.07393833
35	0xbd3ed85f	-0.046593066
36	0x3d4073e1	0.04698551
37	0x3dc8e707	0.0980969
38	0xbb8f61c7	-0.0043756696
39	0xbb4ff1e5	-0.0031729874
40	0x3cd13afb	0.02554082
41	0x3cb45a3b	0.022015681
42	0xbcead60f	-0.028666524
43	0xbc62da13	-0.013845938
44	0xbd04626e	-0.032320432
45	0x3d82c020	0.06384301
46	0x3da27947	0.07933288
47	0xbd2ef538	-0.042714328
48	0x3d3d3f4c	0.046202943
49	0x3d558c02	0.052135475
50	0x3d888485	0.06665901
51	0x3d6bfe5e	0.05761563
52	0x3d76365a	0.060110427
53	0x3c247632	0.010037946
54	0xbd1ac6a0	-0.03778708
55	0xbd466f99	-0.04844627
56	0x3d5ae965	0.05344524
57	0x3d70f800	0.05883026
58	0xbb33ff86	-0.0027465536
59	0x3dc1b9a5	0.09459237
60	0xbb33aaec	-0.002741511
61	0xbcaf7f6a	-0.02142306
62	0x3d93e4bd	0.07221363
63	0xbd61f17f	-0.05516195
64	0xbc7e8b31	-0.0155361155
65	0xbd88a06d	-0.06671224
66	0xbd4501e2	-0.0480975
67	0x3b913596	0.004431437
68	0xbc40c004	-0.01176453
69	0x3d8b765a	0.06809683
70	0x3c03c5e0	0.008042783
71	0xbbb9f1e9	-0.00567459
72	0xbd84ad38	-0.06478351
73	0x3d62a299	0.055330846
74	0xbd096d38	-0.033551425
75	0x3d579d79	0.052640412
76	0x3cc9bcc9	0.024626153
77	0xbc857372	-0.0162904
78	0xbc503cc0	-0.012709796
79	0xbd3801a3	-0.044923436
80	0xbd52f9c0	-0.05150771
81	0xbc6a7eff	-0.014312505
82	0xbc0b9112	-0.008518474
83	0x3d867561	0.06565357
84	0x3d6b3b45	0.05742957
85	0x3d3b2522	0.04568971
86	0xbc5c120a	-0.013432035
87	0x3c7f2b44	0.01557428
88	0xbd6d842e	-0.057987384
89	0xbd6a0e32	-0.057142444
90	0x3c4fcaf7	0.012682668
91	0x3da6ca67	0.08144074
92	0x3cc3b606	0.023890506
93	0x3d33b84d	0.043876935
94	0xbbd6c96a	-0.006554772
95	0xbc2f5402	-0.010701181
96	0xbcb0dfeb	-0.021591147
97	0x3dba41a0	0.09094548
98	0x3b72146b	0.003693844
99	0x3dac8faf	0.08425843

4.weight f4 [7, 100]
0	0x3dbd3447	0.09238487
1	0x3dabdc03	0.08391573
2	0xbdc1fb2e	-0.09471737
3	0xbda506da	-0.080579475
4	0xbde4c848	-0.11171013
5	0xbd78c14a	-0.06073121
6	0xbd3e7332	-0.046496578
7	0xbcddb074	-0.027061678
8	0xbddfd2bd	-0.10928867
9	0xbe365d16	-0.17808947
10	0xbe036d23	-0.12834601
11	0xbe049fe6	-0.12951621
12	0xbe2c4e8b	-0.16826837
13	0x3d663a18	0.056207746
14	0x3ce46a13	0.027882611
15	0xbddb2ab5	-0.10701505
16	0xbdc29610	-0.095012784
17	0xbd810d5f	-0.063013785
18	0xbd0d8d7a	-0.03455875
19	0xbd9abfc7	-0.0755611
20	0x3e379ecc	0.1793167
21	0x3d9f4852	0.07777466
22	0xbdf17486	-0.11789803
23	0xbd3c8e93	-0.046034407
24	0x3d9048f5	0.070451654
25	0x3da88c9b	0.08229943
26	0x3db15008	0.08657843
27	0xbd0dff92	-0.03466756
28	0xbd49fe9c	-0.04931508
29	0xbdd33b4c	-0.10314044
30	0x3daa9985	0.08330063
31	0x3dfd8194	0.12378231
32	0x3d234958	0.039864868
33	0x3dada4d5	0.08478705
34	0xbe0a746c	-0.13520974
35	0x3d88c60d	0.066784
36	0xbda534bd	-0.080667
37	0xbe0d67a9	-0.13809074
38	0xbddf5c8a	-0.10906322
39	0x3d5f5997	0.0545288
40	0xbdbdfcf9	-0.09276766
41	0xbda3bea1	-0.07995344
42	0xbe26cdcc	-0.16289443
43	0xbde1d492	-0.11026873
44	0x3d872003	0.065979026
45	0xbdbe163f	-0.09281587
46	0x3e117d22	0.1420789
47	0xbdef5c33	-0.116875075
48	0x3dd4f212	0.10397734
49	0x3c4748f1	0.012163387
50	0x3da04a46	0.078266665
51	0xbd902fd2	-0.07040371
52	0xbd2a22f0	-0.041537225
53	0x3df6f140	0.120577335
54	0xbd1b4449	-0.03790692
55	0x3c808837	0.015689952
56	0xbe0044d7	-0.1252626
57	0xbd9af01b	-0.07565328
58	0x3e2a00b9	0.16601838
59	0xbde74b3d	-0.112936474
60	0xbbd22d31	-0.0064140786
61	0x3db7aa5c	0.0896804
62	0x3df7a269	0.12091524
63	0xbde4b632	-0.111675635
64	0x3e08e383	0.13368039
65	0xbd677bf3	-0.05651469
66	0xbdc8cf93	-0.09805217
67	0x3e296501	0.16542436
68	0xbe0f4c26	-0.13993892
69	0xbcc37742	-0.023860577
70	0x3d3f1c6b	0.04665796
71	0x3cf6718c	0.03008344
72	0xbdbd3254	-0.09238115
73	0xbde52dd6	-0.11190383
74	0xbd41bd29	-0.047299538
75	0x3cd01dfe	0.025404926
76	0xbdb91b3b	-0.09038397
77	0xbc136c8b	-0.008998047
78	0x3b21caa9	0.0024687445
79	0x3caf397f	0.021389721
80	0xbd99b758	-0.07505673
81	0xbe240df7	-0.16020952
82	0xbdf342dc	-0.11877987
83	0xbe343860	-0.1759963
84	0x3dc8b03d	0.0979924
85	0xbdf6b488	-0.12046152
86	0xbd918260	-0.07104945
87	0xbd0a2611	-0.03372771
88	0x3dadd864	0.08488539
89	0xbc0bbf85	-0.0085295485
90	0x3df79988	0.12089831
91	0xbdf6fb37	-0.12059634
92	0xbe299b57	-0.16563164
93	0xbd94110d	-0.07229815
94	0x3d16ffd3	0.036865067
95	0x3d8944c4	0.06702569
96	0x3e15fe41	0.14647771
97	0xbdc68ffd	-0.09695432
98	0x3e1f7f05	0.15575798
99	0x3dc15045	0.09439138
100	0xbd5401b2	-0.05175943
101	0xbdf77178	-0.12082189
102	0xbc4e6ecc	-0.012599658
103	0x3da8680a	0.08222969
104	0xbdbc1892	-0.09184374
105	0xbdce83ef	-0.10083758
106	0xbcdf4078	-0.02725242
107	0xbd96da62	-0.07365872
108	0xbd9c5963	-0.07634237
109	0xbd69b380	-0.05705595
110	0xbc3d0106	-0.011535889
111	0xbd647732	-0.055777736
112	0xbd97c479	-0.07410521
113	0x3e3f9c9d	0.18712087
114	0xbde2a606	-0.11066823
115	0xbbbc9d1b	-0.005756033
116	0xbdf5f24a	-0.120091036
117	0xbd346b43	-0.044047605
118	0x3c3858ad	0.011251611
119	0x3d79f45b	0.06102405
120	0x3e07644e	0.13221857
121	0xbd4296a3	-0.04750694
122	0xbc9d939f	-0.01923543
123	0xbd068935	-0.032845695
124	0x3db34bf7	0.087547235
125	0x3ddcb12d	0.10775981
126	0x3e18f752	0.14938095
127	0x3e1a0e1b	0.15044443
128	0xbda8c917	-0.0824148
129	0x3de46a76	0.11153118
130	0x3d8a6f1e	0.06759475
131	0x3e0d2af9	0.13785924
132	0x3e03448d	0.12819119
133	0xbc97f380	-0.018548727
134	0xbdb66111	-0.08905233
135	0xbda81b87	-0.082083754
136	0x3d9ee011	0.07757581
137	0x3c5723e4	0.013131116
138	0xbd47250e	-0.048619322
139	0xbde15dca	-0.11004217
140	0xbd33be7b	-0.04388283
141	0x3dd9b6d6	0.10630576
142	0xbd4cf729	-0.050040398
143	0xbd80440c	-0.06262979
144	0xbd369bee	-0.0445823
145	0x3dd99161	0.10623432
146	0xbc44cac5	-0.012011235
147	0xbd96a0f4	-0.07354918
148	0x3de62ab1	0.112386115
149	0xbbf62a00	-0.007512331
150	0xbdcee8a5	-0.10102967
151	0xbd8d3e5e	-0.06896661
152	0x3cbc9184	0.023018606
153	0x3e1aab10	0.15104318
154	0xbda0088b	-0.078141294
155	0x3d2af801	0.04174042
156	0x3dabd546	0.08390288
157	0x3d1207c7	0.03565195
158	0xbe08eb05	-0.13370903
159	0x3d923e87	0.071408324
160	0x3d277440	0.04088235
161	0xbd3c457d	-0.045964707
162	0xbd8946f1	-0.06702984
163	0xbd08950c	-0.033345267
164	0xbc1f0c4d	-0.009707523
165	0x3cd738da	0.026272226
166	0xbdf71343	-0.12064221
167	0x3dd9acfe	0.10628699
168	0xbce50951	-0.027958544
169	0xbdbb5cba	-0.091485456
170	0x3cb630a9	0.02224
171	0xbb9b97ae	-0.0047483062
172	0xbc25291a	-0.0100806
173	0x3dbecf08	0.09316832
174	0xbc596f0c	-0.013271105
175	0x3db949dc	0.09047291
176	0xbd04131e	-0.032244794
177	0xbd6e06ce	-0.05811196
178	0x3c93a55d	0.018023187
179	0x3adf5133	0.0017037749
180	0x3d5bc840	0.05365777
181	0xbdf1fc9d	-0.1181576
182	0xbc72ec9d	-0.014826921
183	0x3d3fe750	0.046851456
184	0xbde58729	-0.112074204
185	0x3cc750f9	0.024330603
186	0x3d9ab98e	0.07554923
187	0xbe08723b	-0.13324825
188	0xbd800e1b	-0.062526904
189	0xbc42f627	-0.011899508
190	0xbcaa4f78	-0.020789847
191	0xbd446179	-0.04794452
192	0xbde6180f	-0.112350576
193	0xbd1351b9	-0.03596661
194	0x3c6d610d	0.014488471
195	0xbd4e36f4	-0.050345376
196	0x3ca44b5c	0.020055465
197	0xbdeb5bb5	-0.11492101
198	0x3d6fe459	0.05856738
199	0xbe142303	-0.14466481
200	0x3da5a3f4	0.08087912
201	0x3e4f9379	0.202711
202	0x3cbd6cf3	0.02312324
203	0xbd9e3d73	-0.07726564
204	0x3d6ed714	0.058310583
205	0xbd6e1eca	-0.05813483
206	0xbd96b354	-0.07358423
207	0x3e2bac9f	0.16765068
208	0x3e18345e	0.14863726
209	0xbc18a995	-0.009317775
210	0x3dfe01c3	0.1240268
211	0xbdf23bca	-0.1182781
212	0x3e187ec1	0.14892103
213	0xbb9b5469	-0.004740287
214	0x3e074bce	0.13212511
215	0xbe0e53ef	-0.13899206
216	0xbe140156	-0.14453635
217	0xbd067b63	-0.032832514
218	0x3e246482	0.16053966
219	0xbdc74fd2	-0.097320214
220	0xbcec1c8a	-0.028822202
221	0xbbae2e82	-0.0053156028
222	0xbe1c9e4b	-0.15294759
223	0xbd0d4b3c	-0.034495577
224	0xba2bcbe8	-0.0006553517
225	0x3deca51b	0.11554929
226	0x3d9d4eea	0.07681067
227	0x3ce9189e	0.028454121
228	0xbe17e85c	-0.14834732
229	0xbe234af5	-0.15946563
230	0xbd6287fa	-0.05530546
231	0x3e19a80a	0.15005508
232	0x3dbd8465	0.09253768
233	0x3cfc63ae	0.03080925
234	0xbe14f364	-0.14545971
235	0x3d344bb7	0.04401752
236	0xbd8455da	-0.064616874
237	0x3d9a8c16	0.075462505
238	0xbccc878c	-0.024966978
239	0x3c8a0156	0.01684634
240	0x3c7c5872	0.015401946
241	0xbe349d8a	-0.17638221
242	0x3dd27e7f	0.102780335
243	0xbc191485	-0.009343271
244	0x3e4b087f	0.1982746
245	0xbcaba492	-0.020952497
246	0xbe19fd6e	-0.15038082
247	0xbd8ec08f	-0.069703214
248	0xbcff81d7	-0.031189842
249	0xbe1cbef0	-0.15307212
250	0x3d9c8c56	0.076439545
251	0xbdb61fff	-0.088928215
252	0x3e0bbf3e	0.13647172
253	0x3cb3de55	0.021956602
254	0xbd992564	-0.07477835
255	0xbdfd3781	-0.12364102

4.bias f4 [7]
0	0x3d92a7e8	0.07160932
1	0x3c79f0a4	0.015255127
2	0xbdb02efe	-0.08602713
3	0xbc9bb645	-0.019007811
4	0xbde5e1e1	-0.112247236
5	0x3d642bf2	0.055705972
6	0xbcf7b235	-0.030236343
