models/date-06-19-2025-16-37p1-RLbotp2-RLbotDDQNself_play-Trueexp_dir-RLbotepochs-50p1_win_rate-0.0p2_win_rate-1.0is_test-False/model.pth (torch, 117053 bytes, 6 tensors)

0.weight f4 [150, 84]
0	0xbdb57648	-0.08860451
1	0xbdac90c8	-0.08426052
2	0xbd525517	-0.05135068
3	0xbd4942b8	-0.049135894
4	0xbc9fede8	-0.019522622
5	0x3d8ac069	0.067749806
6	0xbca5e4b5	-0.020250658
7	0xbd8012d5	-0.06253592
8	0x3a902780	0.00109981
9	0x3dc03ce6	0.093866155
10	0x3dc29520	0.095010996
11	0x3c80dee3	0.01573128
12	0xbd8e740f	-0.0695573
13	0xbd850795	-0.06495587
14	0x3c6d0934	0.014467526
15	0x3d84a39e	0.0647652
16	0x3ba72e5c	0.005101962
17	0xbdae8375	-0.08521167
18	0x3d95d347	0.073156886
19	0xbd3127ef	-0.043250974
20	0xbd8c3020	-0.068451166
21	0x3da9be14	0.08288208
22	0xbd8d5490	-0.06900895
23	0x3d31ad71	0.043378297
24	0xbda4c3e6	-0.08045177
25	0x3d23b4a1	0.039967183
26	0xbdb7bcce	-0.089715585
27	0x3d417524	0.047230855
28	0xbdb93761	-0.09043766
29	0x3d962532	0.07331313
30	0x3d6265d0	0.055272877
31	0x3dc49c4d	0.096001245
32	0x3dad66af	0.08466851
33	0xbd149157	-0.03627142
34	0x3d188266	0.037233733
35	0xbdfd3227	-0.123630814
36	0x3d967f77	0.07348531
37	0x3d95f645	0.07322363
38	0x3dca2443	0.098701976
39	0xbdd3a7da	-0.103347495
40	0x3d13832d	0.03601377
41	0x3d380ae3	0.044932257
42	0x3d859780	0.06523037
43	0xbcfc9ed9	-0.030837463
44	0xbc7d9b36	-0.0154789
45	0x3d9fca7d	0.078022934
46	0x3d7b4a0e	0.06134992
47	0xbdbcf760	-0.092268705
48	0xbda66ec4	-0.081265956
49	0xbd979c9a	-0.07402916
50	0xbda335fe	-0.079692826
51	0xbd71bcbf	-0.059017893
52	0x3d679ca7	0.05654588
53	0xbbee6bb0	-0.007276021
54	0x3ddf0c7b	0.10891052
55	0x3cf5de6a	0.030013282
56	0x3da1f7a6	0.07908563
57	0x3dc40d53	0.09572854
58	0x3d4385c1	0.04773498
59	0xbc41b17e	-0.011822103
60	0xbd226bcb	-0.03965358
61	0xbd24636e	-0.040133886
62	0xbddada38	-0.10686153
63	0x3d8c9a17	0.06865328
64	0x3de47761	0.11155582
65	0x3d7314c5	0.05934598
66	0x3d84904e	0.064728364
67	0xbc8d92e0	-0.01728195
68	0x3d8b2212	0.06793608
69	0x3d1a7baf	0.03771561
70	0xba00cd90	-0.00049134437
71	0x3dbd70e2	0.09250046
72	0xbc9e12e6	-0.01929612
73	0x3d2ef8d0	0.042717755
74	0x3d36b8b0	0.044609725
75	0x3ce6ccda	0.028173853
76	0x3dd76262	0.10516812
77	0xbddad877	-0.10685819
78	0x3ce1be97	0.0275567
79	0x3dcb4285	0.09924797
80	0xbd833ead	-0.06408439
81	0x3da64254	0.0811812
82	0xbc8a21e2	-0.01686186
83	0x3d896a0a	0.067096785
84	0xbc833972	-0.016018603
85	0xbd993b5e	-0.074820265
86	0x3ca62653	0.020281946
87	0xbd31868d	-0.04334121
88	0x3d78b3c9	0.06071833
89	0x3c2830e6	0.010265565
90	0xbdb61bd3	-0.08892026
91	0x3d4697e7	0.04848471
92	0x3d5a4d22	0.053296216
93	0x3dcb7195	0.099337734
94	0x3d59843b	0.05310462
95	0xbddde025	-0.10833768
96	0x3d325813	0.043541025
97	0x3cf65d04	0.03007365
98	0xbdaf58fc	-0.08561894
99	0xbdd15da5	-0.102229394
100	0xbc8500d3	-0.016235745
101	0x3c8c0441	0.017091872
102	0x3db3ceea	0.087797
103	0x3daa4436	0.083137915
104	0xbd27aebd	-0.040938128
105	0xbcf119a8	-0.02943118
106	0xbd093b8a	-0.033504046
107	0xbca730d7	-0.02040903
108	0xbc4e5249	-0.0125928605
109	0x3dad6a0b	0.08467492
110	0x3dc16f8d	0.09445105
111	0x3d242b9f	0.040080663
112	0xbc28483d	-0.010271129
113	0xbdbfae70	-0.09359443
114	0x3d3ae3f7	0.04562756
115	0xbda575e3	-0.08079126
116	0x3d7311f6	0.0593433
117	0xbd93835f	-0.072027914
118	0xbd9d1b2b	-0.076711975
119	0x3d5e1205	0.054216404
120	0x3d3b1c14	0.045681074
121	0x3caae6dd	0.020862037
122	0xbdfa0c7c	-0.122094125
123	0x3d7928ea	0.060830034
124	0xbd0ed6c8	-0.0348728
125	0x3d958500	0.07300758
126	0x3dd79fdd	0.105285384
127	0x3d0bc6dc	0.034125194
128	0xbdd9e9bf	-0.10640287
129	0x3c5f2285	0.01361907
130	0xbcd894ed	-0.0264382
131	0xbddd0887	-0.10792642
132	0x3abdd6df	0.0014483592
133	0xbc84aeb6	-0.01619659
134	0xbdcb8b04	-0.099386245
135	0xbdc07f59	-0.0939929
136	0x3d6ccc0c	0.05781178
137	0x3c831e71	0.016005727
138	0xbdbd5181	-0.09244061
139	0xbdcb0e1f	-0.09914803
140	0x3d298b8a	0.04139284
141	0xbd1ca3c4	-0.038242117
142	0xbc72051f	-0.014771729
143	0xbd2fd02c	-0.042923138
144	0xbccffa86	-0.025388014
145	0xbd4a4e1c	-0.049390897
146	0xbd6626ea	-0.056189455
147	0xbdde7f15	-0.10864083
148	0x3d865187	0.06558519
149	0xbd83cf45	-0.06436018
150	0x3d639525	0.055562157
151	0xbce153f3	-0.02750585
152	0xbda21d2f	-0.079157226
153	0xbd4df297	-0.05028018
154	0x3d093e27	0.03350654
155	0xbdd27411	-0.10276044
156	0xbd528a36	-0.05140134
157	0xbd64fb40	-0.055903673
158	0x3c25ac32	0.010111855
159	0xbbbca7a8	-0.005757291
160	0xbd803a46	-0.06261115
161	0xbd7d0b61	-0.06177843
162	0xbd9f8b10	-0.07790196
163	0xbddce7a5	-0.1078637
164	0x3bbde37f	0.005794942
165	0xbca8eb4e	-0.020620015
166	0xbdf0278a	-0.117262915
167	0x3dafc4a2	0.085824266
168	0x3d505bf1	0.050868932
169	0xbd01585b	-0.031578403
170	0x3da42f3c	0.08016822
171	0xbdc7dd24	-0.09758976
172	0xbd528760	-0.051398635
173	0xbda66dfe	-0.08126448
174	0xbda2171c	-0.07914564
175	0x3cc42d7f	0.023947475
176	0xbd7b0435	-0.06128331
177	0x3d65893d	0.056039084
178	0x3dc89cef	0.09795558
179	0xbd82b415	-0.06382004
180	0x3d1d03a5	0.038333554
181	0xbd9a745c	-0.07541725
182	0xbd90dcf0	-0.070733905
183	0xbda2d8da	-0.079515174
184	0xbc6106cc	-0.013734531
185	0xbd5722a3	-0.052523267
186	0x3d8cbd1b	0.068720065
187	0xbbda201f	-0.006656661
188	0xbd8c986c	-0.0686501
189	0xbd39bd43	-0.04534651
190	0xbc347845	-0.011015003
191	0x3d570d7e	0.0525031
192	0xbcbbf2af	-0.022942869
193	0xbd5592d2	-0.052141972
194	0xbdcc7ead	-0.09985099
195	0xbb572b60	-0.003283225
196	0x3d1854d9	0.037190292
197	0xbd94ee8e	-0.07272063
198	0x3ddfb9a0	0.10924077
199	0xbd5234eb	-0.051319998
200	0x3d544579	0.051824067
201	0x3da2322a	0.07919724
202	0xbd8f647c	-0.07001588
203	0x3bedea6b	0.007260611
204	0x3dab1f75	0.08355609
205	0x3d0aeb94	0.03391607
206	0x3ce0fbeb	0.027463874
207	0xbdba40c2	-0.09094383
208	0xbc18ee1d	-0.009334114
209	0xbd84678c	-0.064650625
210	0xbd9d3d0d	-0.0767766
211	0x3d042dcc	0.032270238
212	0x3db1ab31	0.0867523
213	0xbca130c9	-0.019676583
214	0xbdf22182	-0.11822797
215	0x3d5adf9c	0.053435907
216	0xbdae4059	-0.08508367
217	0xbc9545a0	-0.018221676
218	0x3dadccc1	0.08486319
219	0xbd65f0ee	-0.05613797
220	0xbd172cb7	-0.036907878
221	0xbc7cea86	-0.015436774
222	0xbcb9060f	-0.022585897
223	0x3d1b7cbb	0.03796075
224	0x3d5431fd	0.051805485
225	0x3d00bdfa	0.031431176
226	0xbdbbdacf	-0.09172594
227	0xbde865f8	-0.11347574
228	0x3cefd1bd	0.029274816
229	0x3dcd8c98	0.10036582
230	0xbdd9cfbf	-0.106353275
231	0xbdca2e81	-0.09872151
232	0xbddcfef5	-0.10790817
233	0x3c357691	0.011075632
234	0xbdb5b182	-0.088717476
235	0x3d85be88	0.065304816
236	0xbd55bbf8	-0.052181214
237	0xbd9ed66e	-0.07755743
238	0xbdbd3bb2	-0.092399016
239	0x3cb3c600	0.021945
240	0xbcedcaa4	-0.02902729
241	0x3d834462	0.06409527
242	0xbc7cfb87	-0.015440828
243	0x3ca91cdc	0.020643644
244	0xbdce1158	-0.10061902
245	0xbcbb8b0f	-0.022893457
246	0x3d866105	0.06561474
247	0xbdb1958f	-0.08671104
248	0x3d40a617	0.047033396
249	0xbceb9090	-0.028755456
250	0xbd930f26	-0.07180624
251	0xbdb2740f	-0.08713543
252	0x3dc33864	0.0953224
253	0x3d9b9fb3	0.075988196
254	0xbdd3f8eb	-0.10350212
255	0x3d600dfd	0.05470084

0.bias f4 [150]
0	0x3d905d23	0.070490144
1	0x3d966831	0.07344092
2	0x3d68ad39	0.056805823
3	0xbcab8c2d	-0.020940864
4	0xbde09a00	-0.10966873
5	0x3da0e679	0.07856459
6	0xbdc0170f	-0.09379398
7	0xbd897c71	-0.067131884
8	0xbd18785d	-0.037224162
9	0x3c16df11	0.009208457
10	0xbd287386	-0.041125797
11	0xbdc630a9	-0.0967725
12	0xbd13ca54	-0.036081627
13	0xbb889445	-0.0041680657
14	0xbdf6d4a7	-0.12052279
15	0xbd531e0e	-0.051542334
16	0x3ddd48f4	0.1080493
17	0xbc08ab68	-0.008341648
18	0xbd2abd61	-0.041684512
19	0xbbf03026	-0.0073299585
20	0x3d734005	0.059387226
21	0x3d7b5233	0.06135769
22	0xbcf3ad3e	-0.029745694
23	0xbd8d8baf	-0.06911408
24	0x3ce1109a	0.027473737
25	0xbd548d84	-0.051892772
26	0x3d23d01e	0.039993398
27	0x3d238b59	0.039927814
28	0x3dde15f0	0.10844028
29	0xbd51b9e9	-0.05120269
30	0x3db3242a	0.08747132
31	0x3da68b59	0.08132047
32	0xbe00d840	-0.12582493
33	0xbd749c66	-0.059719466
34	0x3d54d97d	0.051965225
35	0x3c7037c4	0.014661733
36	0xbd599e79	-0.053129647
37	0x3d7546da	0.059882022
38	0x3b6fa37e	0.0036565955
39	0xbd72ab6d	-0.059245516
40	0x3cac45d6	0.021029394
41	0xbdcd9f56	-0.100401565
42	0x3d25cdfd	0.04047965
43	0xbde55aae	-0.111989364
44	0x3d7df53c	0.06200145
45	0x3d9091d2	0.07059063
46	0xbc0a743e	-0.008450566
47	0xbdc53927	-0.096300416
48	0x3d1aff08	0.037840873
49	0x3dbf7549	0.09348542
50	0xbdad3872	-0.08458032
51	0x3c30759b	0.010770227
52	0x3c581834	0.013189364
53	0xbd9edad5	-0.07756583
54	0xbd9fd107	-0.07803541
55	0xbcfe5db6	-0.031050544
56	0x3dad94b6	0.0847563
57	0xbda29552	-0.07938637
58	0x3d6b0864	0.05738105
59	0xbd6bb534	-0.057545856
60	0x3d76b675	0.0602326
61	0x3cdd6e51	0.027030142
62	0x3d34e784	0.044166103
63	0xbdac6b7e	-0.0841894
64	0xbd159c8b	-0.036526244
65	0x3d200ade	0.039072864
66	0x3d2d983f	0.04238152
67	0x3d6ed1cf	0.058305558
68	0xbd30e523	-0.04318727
69	0x3cfc2b80	0.030782461
70	0xbc85d27f	-0.016335724
71	0x3cd66851	0.026172789
72	0xbdb4b4de	-0.0882356
73	0x3d86d42f	0.065834396
74	0x3dc78e38	0.09743923
75	0x3cc3976d	0.023875916
76	0xbd5c4d52	-0.053784676
77	0xbd7d3022	-0.06181348
78	0x3d8866fe	0.06660269
79	0x3da44760	0.08021426
80	0x3d6f69ac	0.058450386
81	0x3dc47089	0.09591777
82	0xbdf7b855	-0.120957054
83	0x3d8aed5e	0.067835554
84	0xbd69f044	-0.0571139
85	0x3d27a5b2	0.040929504
86	0x3ca01d3e	0.019545194
87	0x3c93a982	0.018025164
88	0x3d8d25c0	0.06891966
89	0x3d37cbba	0.044872023
90	0xbe11f157	-0.1425222
91	0x3d1663cd	0.03671627
92	0x3cc0afd2	0.023521338
93	0x3dbfbc85	0.09362129
94	0xbcfd5e1c	-0.030928664
95	0x3dba061d	0.09083197
96	0xbda52efc	-0.08065602
97	0x3d01f4f0	0.03172773
98	0x3de3f971	0.111315615
99	0xbdd8b6e6	-0.1058176
100	0x3d8837a1	0.06651235
101	0x3d3bd428	0.045856625
102	0x3d924d61	0.07143665
103	0xbdac1635	-0.08402673
104	0xbb40911c	-0.0029383367
105	0xbc77da1a	-0.015127683
106	0xbccd0326	-0.025025915
107	0xbb938d41	-0.0045029228
108	0xbd7fc29c	-0.062441453
109	0xbde4c606	-0.111705825
110	0xbd18a7dd	-0.037269462
111	0xbc84b552	-0.016199742
112	0xbcd718af	-0.026256887
113	0x3d83cbca	0.06435354
114	0xbb85f179	-0.0040876237
115	0xb8edb434	-0.00011334606
116	0x3c1eddf6	0.009696474
117	0x3dc6859d	0.096934535
118	0xbdea3d55	-0.114374794
119	0xbd20cfff	-0.03926086
120	0xbb54e8a4	-0.0032487297
121	0x3d0aab65	0.03385486
122	0x3dccef27	0.10006552
123	0x3d852f4c	0.06503162
124	0xbd178468	-0.036991507
125	0xbd218351	-0.039431874
126	0x3d884ccc	0.06655273
127	0x3d964923	0.073381685
128	0x3cea1d84	0.028578527
129	0x3d1e46bb	0.038641673
130	0x3ce027f1	0.027362796
131	0xbdebfdbc	-0.11523005
132	0xbdadfcba	-0.084954694
133	0x3d9986ca	0.07496412
134	0xbd285447	-0.041096
135	0xbdff0968	-0.12452966
136	0xbd896c41	-0.06710101
137	0xbd6d0c61	-0.057873134
138	0x3cd4b976	0.02596734
139	0xbb71e5b8	-0.0036910605
140	0xb7db9948	-2.6178212e-05
141	0xbdedba0a	-0.1160775
142	0x3cb661fe	0.022263523
143	0xbd054a0e	-0.032541327
144	0xbd9cdd12	-0.07659353
145	0x3d721620	0.05910313
146	0xbccf426b	-0.025300225
147	0xbd6518d8	-0.055931896
148	0xbdb1cbd0	-0.08681452
149	0x3d29ecc5	0.041485567

2.weight f4 [100, 150]
0	0x3d35eba9	0.044414196
1	0xbd28f309	-0.0412474
2	0xbd87e7f5	-0.06636039
3	0xbd99c9e9	-0.075092144
4	0x3c88d334	0.016702272
5	0x3d2ce1e5	0.042207617
6	0x3d1b22ba	0.037874915
7	0xbd443129	-0.047898445
8	0xbd1e6a87	-0.03867581
9	0x3d092aeb	0.033488195
10	0xbda942b8	-0.08264679
11	0xbbacc2d0	-0.005272247
12	0x3d598d7c	0.053113446
13	0xbd7634ec	-0.060109064
14	0xbd120240	-0.035646677
15	0xbd4afe42	-0.049558885
16	0x3cc892d0	0.024484068
17	0x3d22f5cf	0.039785203
18	0x3d0b9432	0.034076877
19	0xbdb8cc6f	-0.090233676
20	0x3d713720	0.058890462
21	0xbd788f5b	-0.06068359
22	0x3be7c8ac	0.0070734825
23	0xbcea6e5f	-0.028617082
24	0xbcfbc616	-0.030734103
25	0x3c820499	0.015871333
26	0x3d5ab47e	0.053394787
27	0xbc938bad	-0.018010939
28	0xbcb6dfff	-0.022323607
29	0x3cfcb46a	0.030847747
30	0xbc41491c	-0.011797216
31	0x3d95ac3c	0.07308242
32	0x3d71dd79	0.059049103
33	0xbd0086a4	-0.031378403
34	0xbd35366b	-0.04424135
35	0xbcf8cb02	-0.03037024
36	0x3cbba27e	0.02290463
37	0xbda09ab8	-0.0784201
38	0xbd80e87e	-0.06294344
39	0x3c93343c	0.017969243
40	0xbd1ac2af	-0.03778332
41	0x3d17dc8b	0.03707556
42	0x3d811832	0.06303443
43	0x3d5862a5	0.05282845
44	0x3d7942eb	0.060854834
45	0xbd6b1414	-0.057392195
46	0xbd65e1fd	-0.056123722
47	0x3cda71f6	0.026665669
48	0xbbe0a24f	-0.006855286
49	0xbceb13e1	-0.028696002
50	0xbd388a23	-0.045053612
51	0xbd51555b	-0.051106792
52	0x3991946f	0.00027767147
53	0xbd1c6627	-0.038183358
54	0xbcc7a3b1	-0.024370046
55	0x3d91cd31	0.07119215
56	0xbcb62655	-0.022235075
57	0xbda64b09	-0.081197806
58	0x3d0c48db	0.034249168
59	0x3bfc6d84	0.007703485
60	0xbd9f2a70	-0.07771766
61	0xbce0af0a	-0.027427215
62	0x3cc948a0	0.024570763
63	0xbd6c5cda	-0.057705738
64	0xbd8ada8e	-0.06779967
65	0xbd56d7b5	-0.052451808
66	0x3d084506	0.03326895
67	0xbd197d62	-0.03747309
68	0x3d37c812	0.044868536
69	0x3cb99483	0.022653824
70	0x3d89eb3c	0.067343205
71	0x3c5a425c	0.013321485
72	0xbd0e4434	-0.034733012
73	0x3d84f2b7	0.06491607
74	0x3d5ddaf3	0.054163884
75	0xbd6b282e	-0.057411365
76	0xbd82047e	-0.06348513
77	0xbcbb45d2	-0.022860441
78	0xbd9cf737	-0.0766434
79	0x3d7d3290	0.0618158
80	0xbd6cedd0	-0.057843983
81	0x3d9e9c83	0.07744696
82	0x3d0f3c55	0.034969646
83	0xbc742789	-0.014902004
84	0xbd8d2ea2	-0.0689366
85	0x3d28b148	0.041184694
86	0xbccb4be9	-0.02481647
87	0xbd27b84f	-0.040947255
88	0x3da164a7	0.07880526
89	0x3cc802fc	0.024415486
90	0x3d2211ca	0.039567746
91	0x3d73d189	0.059526
92	0x3ca54568	0.020174697
93	0x3d6c3d20	0.05767548
94	0xbdc52afe	-0.09627341
95	0xbd2cc699	-0.042181585
96	0x3d871eb0	0.0659765
97	0x3d99c146	0.07507567
98	0xbd964ad8	-0.07338494
99	0xbd4aff8e	-0.049560122
100	0x3d970012	0.0737306
101	0xbcdb48de	-0.026768144
102	0xbd603c3c	-0.054744944
103	0xbda7fb2c	-0.08202204
104	0xbd977ea0	-0.07397199
105	0xbd7fc1d3	-0.062440705
106	0xbd858b82	-0.0652075
107	0x3db24a04	0.087055236
108	0xbd8b7d2a	-0.068109825
109	0x3d1fc883	0.039009582
110	0xbd9d0517	-0.076669864
111	0xbd5d7bed	-0.054073263
112	0x3d9af1c5	0.07565645
113	0x3ceeabd1	0.029134663
114	0xbd2f38f4	-0.042778924
115	0xbca677e1	-0.020320835
116	0xbd63e5dc	-0.055639133
117	0xbc66a23e	-0.0140767675
118	0xbcc29f64	-0.023757644
119	0xbce15e34	-0.02751074
120	0x3d6c1088	0.057632953
121	0x3d8376db	0.06419154
122	0x3be20fa8	0.006898839
123	0x3d036074	0.032074407
124	0x3d15ef98	0.036605448
125	0x3d2941d0	0.04132253
126	0xbc7fcf4b	-0.015613387
127	0x3d8fcb67	0.07021218
128	0x3d139f02	0.036040314
129	0xbd613d67	-0.0549902
130	0x3d334421	0.043766145
131	0x3d0689bf	0.03284621
132	0xbd12ce45	-0.035841245
133	0xbd9f344f	-0.07773649
134	0xbd771ea8	-0.06033197
135	0xbd8ad826	-0.06779508
136	0x3d011596	0.031514727
137	0xb9434999	-0.00018624066
138	0x3d79b762	0.060965903
139	0x3d778361	0.060428027
140	0xbd99aa8b	-0.075032316
141	0xbd7aaa14	-0.061197355
142	0xbca252a1	-0.019814791
143	0xbdba4442	-0.090950504
144	0x3c71d11f	0.014759331
145	0x3b348901	0.002754748
146	0x3d1f3f8b	0.03887896
147	0x3c5b6fc5	0.013393347
148	0x3db8858f	0.09009849
149	0x3c89e57b	0.016833058
150	0x3d1d0cc0	0.038342237
151	0x3bd9ebf1	0.006650441
152	0xbc252b44	-0.010081116
153	0xbd6c629f	-0.05771124
154	0x3d77135f	0.060321208
155	0xbc4b3c0d	-0.012404454
156	0xbd31a347	-0.043368604
157	0x3d3c0a4b	0.045908254
158	0xbd7d4b84	-0.061839595
159	0x3ca64390	0.020295888
160	0xbd39dbc7	-0.04537561
161	0xbd8fe668	-0.070263684
162	0xbc8c92ae	-0.017159786
163	0x3ca4f2ac	0.020135246
164	0x3babb6a0	0.0052402765
165	0xbd5f92e7	-0.054583456
166	0xbd550a06	-0.052011512
167	0xbc17ea9e	-0.009272246
168	0xbd8ac0e4	-0.06775072
169	0x3d50a66f	0.050939973
170	0x3d8927f7	0.06697076
171	0xbd45792d	-0.048211265
172	0xbd128d4b	-0.03577928
173	0xbb42203b	-0.0029621262
174	0xbd7b0916	-0.061287962
175	0x3d43c7f9	0.04779813
176	0x3c8a8bac	0.016912304
177	0xbc7c9248	-0.015415736
178	0x3d8ffdaa	0.070308045
179	0xbdafd576	-0.08585636
180	0x3d6d0708	0.057868034
181	0xbdada846	-0.08479361
182	0x3abc8c96	0.001438516
183	0xbd9e2c9d	-0.07723353
184	0x3d5465c7	0.051854875
185	0xbd5b5107	-0.05354407
186	0xbcb9add5	-0.022665897
187	0xbd6be895	-0.057594854
188	0xbdb2ec78	-0.08736509
189	0x3d5335cd	0.05156498
190	0x3c149556	0.009068808
191	0x3cf190bd	0.029487962
192	0x3cbc8684	0.02301336
193	0x3c698440	0.014252722
194	0xbcd88814	-0.026432075
195	0xbd96eb9e	-0.07369159
196	0x39cdc84f	0.00039249889
197	0x3cb9adfc	0.02266597
198	0xbc33f09e	-0.010982661
199	0x3d5cdba4	0.053920403
200	0x3d499fbe	0.049224608
201	0xbce4bec1	-0.02792299
202	0x3ce62d7d	0.028097862
203	0x3c8029bb	0.015644899
204	0xbcc5eb2b	-0.024159988
205	0xbd16a838	-0.03678152
206	0xbb906c80	-0.0044074655
207	0xbda01413	-0.07816329
208	0xbda4f518	-0.080545604
209	0x3d0c904b	0.034317296
210	0xbd9a1540	-0.07523584
211	0xbd1b0b76	-0.037852727
212	0xbd8e3ab3	-0.0694479
213	0x3d20a6cd	0.039221574
214	0x3d33c777	0.043891396
215	0xbb4121ee	-0.0029469687
216	0xbc848823	-0.016178196
217	0x3d7d2e7d	0.061811913
218	0x3d8c621d	0.06854651
219	0xbd2cd556	-0.04219564
220	0xbd0effcf	-0.034911927
221	0xbbd74169	-0.006569077
222	0x3d62189f	0.05519926
223	0xbd7c09ca	-0.061532773
224	0xbd9c9124	-0.07644871
225	0xbd918357	-0.07105129
226	0x3d6d85dc	0.057988986
227	0xb9901a28	-0.00027485308
228	0xbd95fd2b	-0.073236786
229	0x3d27aba9	0.040935192
230	0xbbbc814d	-0.0057527185
231	0xbd289f4e	-0.04116755
232	0x3d4dd3b2	0.050250717
233	0x3d78fed5	0.0607899
234	0x3d983339	0.07431645
235	0x3b9aa8a7	0.004719812
236	0x3d5772bc	0.052599654
237	0xbd7ecfd0	-0.062209904
238	0x3cc30e53	0.023810541
239	0xbd77d0f8	-0.060502023
240	0xbd69fa60	-0.05712354
241	0xbcf4c0a9	-0.029877024
242	0x3d3a000a	0.045410194
243	0x3d85e608	0.065380156
244	0xbb8f2559	-0.004368466
245	0xbda8e37a	-0.08246513
246	0xbd4a5879	-0.04940078
247	0xbd567f12	-0.052367277
248	0x3c282241	0.010262073
249	0x3c70f7f0	0.01470755
250	0xbc17e03e	-0.009269772
251	0x3ccfc868	0.025364116
252	0xbd3d35f1	-0.04619402
253	0xbdb53149	-0.08847291
254	0xbd466ba3	-0.048442494
255	0xbc12050d	-0.008912337

2.bias f4 [100]
0	0x3d649a92	0.055811472
1	0xbb7d2c93	-0.0038631305
2	0x3da5c972	0.08095063
3	0x3d8318ac	0.0640119
4	0xbd123466	-0.035694502
5	0xbc08f591	-0.008359329
6	0xbda08d45	-0.07839445
7	0x3db0b68a	0.086285666
8	0xbc9af396	-0.018914979
9	0xbada35bb	-0.0016648093
10	0x3aa19831	0.0012328682
11	0x3d9e4d00	0.0772953
12	0xbd58cbea	-0.052928843
13	0x3b2460f1	0.0025082196
14	0x3c8f8f01	0.017524244
15	0x3dad5921	0.084642656
16	0xbd8984f1	-0.0671481
17	0xbcc93a80	-0.024564028
18	0x3bea01d7	0.0071413326
19	0x3ca742ac	0.020417534
20	0x3d00a95e	0.03141152
21	0x3d2f0669	0.042730723
22	0xbd38f166	-0.04515209
23	0x3b0650ea	0.0020495006
24	0x3c0ff522	0.008786472
25	0xbd28986b	-0.041160982
26	0x3d30049e	0.042973153
27	0x3d959e99	0.07305641
28	0xbd61424e	-0.054994874
29	0x3d1bb3b3	0.03801317
30	0x3d9804a3	0.074227594
31	0xbd8583ad	-0.06519256
32	0xbcc7586b	-0.024334153
33	0x3d86f95e	0.06590532
34	0x3d1c8955	0.038216908
35	0x3d26a523	0.04068483
36	0xbd9d7779	-0.07688803
37	0xbdad9f43	-0.084776424
38	0x3c26654d	0.010155988
39	0x3d3f5a51	0.04671699
40	0x3dabcae5	0.083883084
41	0xbd84dac4	-0.06487039
42	0x3c8ef850	0.017452389
43	0x3d759b32	0.05996246
44	0x3ca70635	0.020388702
45	0xbd5d5680	-0.05403757
46	0x3c96df39	0.018416988
47	0x3cd0e23c	0.025498502
48	0xbcbc797f	-0.023007153
49	0xbc8a8091	-0.016907008
50	0x3cb6b0cb	0.022301098
51	0x3cfae7a6	0.030628037
52	0x3da99d82	0.08281995
53	0x3cd77575	0.026301125
54	0x3c31d216	0.010853311
55	0xbc614b8f	-0.013750925
56	0xbac70f22	-0.0015187005
57	0xbd35437f	-0.044253822
58	0xbc80f478	-0.015741572
59	0xbbd879df	-0.006606325
60	0x3d7dccab	0.061962765
61	0xbd89ae53	-0.06722703
62	0xbd7e4303	-0.062075626
63	0x3c315bd5	0.010825117
64	0x3d290b28	0.041270405
65	0xbd4cc0ab	-0.04998843
66	0xbcf52f29	-0.029929714
67	0xbbafff5a	-0.0053710165
68	0xbd08211c	-0.0332347
69	0x3da39163	0.07986715
70	0xbd03e03e	-0.032196276
71	0x3d972a6c	0.07381138
72	0x3d216153	0.039399456
73	0xbd3eaa54	-0.046549156
74	0x3cf3fd3a	0.029783834
75	0xbd20f80e	-0.039299063
76	0x3d88f3ba	0.06687112
77	0x3cc52c33	0.024068927
78	0xbda8e2ea	-0.082464054
79	0xbda34293	-0.079716824
80	0x3d2e0cac	0.042492554
81	0x3dbb561d	0.09147284
82	0x3d334491	0.043766562
83	0x3c0ec03c	0.008712824
84	0xbd82abd0	-0.06380427
85	0x3d9eee1b	0.07760259
86	0xbd6d325d	-0.05790936
87	0xbd8b060b	-0.06788262
88	0xbd8e5a95	-0.06950871
89	0x3d80cb67	0.06288796
90	0x3d10899d	0.03528749
91	0xbd0ffb26	-0.035151623
92	0xbda67905	-0.081285514
93	0x3ccc5475	0.024942616
94	0x3d92a024	0.07159451
95	0xbcf284e3	-0.029604381
96	0x3c8ace92	0.016944204
97	0x3d63f7c8	0.055656224
98	0x3d6b9fce	0.05752545
99	0x3cab891f	0.020939408

4.weight f4 [7, 100]
0	0x3ba8ea48	0.0051548816
1	0x3dc5cf8d	0.09658728
2	0xbd8e49d9	-0.06947679
3	0x3dc1c365	0.09461097
4	0xbab60791	-0.0013887753
5	0x3d9c39ea	0.07628234
6	0x3d8e421a	0.069462016
7	0xbd7b63b8	-0.061374396
8	0x3d92fa4f	0.07176649
9	0x3c82f000	0.015983582
10	0x3c377cc9	0.011199185
11	0x3d4cce59	0.050001476
12	0x3d7d52dd	0.061846603
13	0xbd780ea3	-0.060560834
14	0x3da9369c	0.08262369
15	0xbd4eab40	-0.050456285
16	0x3db7772d	0.08958278
17	0x3d8a162a	0.06742509
18	0x3d665278	0.056230992
19	0xbd098d5b	-0.033582073
20	0xbd2df3c8	-0.042468816
21	0xbcfabce8	-0.030607656
22	0xbcf2b13d	-0.02962553
23	0x3cf96d5b	0.030447653
24	0xbc8db51e	-0.017298277
25	0xbbdb82e7	-0.0066989544
26	0xbcea3569	-0.028589921
27	0xbc8c5030	-0.01712808
28	0x3d5d8918	0.05408582
29	0xbd93bd16	-0.072138
30	0x3cb1c0f5	0.021698454
31	0xbd38bd9a	-0.045102693
32	0xbb874f7f	-0.0041293497
33	0xbd3e600e	-0.046478324
34	0x3b985a45	0.004649433
35	0x3d55dcd4	0.05221255
36	0x3be779d3	0.007064083
37	0x3c3c392f	0.011488243
38	0xbca3ab7a	-0.019979227
39	0x3db0ee85	0.08639244
40	0xbcb20cf0	-0.021734685
41	0xbdb49d9a	-0.088191226
42	0xbda0f969	-0.07860071
43	0x3d6a69e9	0.05722991
44	0x3bba6fc3	0.0056895926
45	0xbd02f31c	-0.03197013
46	0x3d4fd9d4	0.050744846
47	0x3c024537	0.007951072
48	0xbc829de0	-0.015944421
49	0xbcbd18d6	-0.023083132
50	0xbd985cf0	-0.074396014
51	0xbdab7a52	-0.0837294
52	0xbdabf4d2	-0.08396305
53	0x3d534340	0.051577806
54	0x3d158a8e	0.03650909
55	0xbd5c900d	-0.053848315
56	0xbd494b45	-0.04914405
57	0x3d023dd1	0.031797234
58	0x3d7feffe	0.062484734
59	0xbd007d59	-0.03136954
60	0xbdaab4e9	-0.08335287
61	0xbd2599d7	-0.040429916
62	0x3da7220c	0.08160791
63	0x3cfb5ec6	0.03068484
64	0x3d94fc9e	0.072747454
65	0xbd566941	-0.05234647
66	0xbc65d518	-0.014027856
67	0x3d068f0b	0.03285126
68	0xbbb83f75	-0.005622799
69	0xbd965247	-0.07339912
70	0x3a5e7bc0	0.0008487068
71	0xbd39632d	-0.045260597
72	0xbc26e7c1	-0.01018709
73	0xbcd8ed47	-0.02648033
74	0x3d6203fa	0.055179574
75	0x3d8cedee	0.06881319
76	0x3d264a43	0.040598165
77	0x3d81027f	0.06299304
78	0xbda3bdde	-0.07995199
79	0x3d0b5c3d	0.034023512
80	0xbcbcddad	-0.023054922
81	0x3d76dfc9	0.060272012
82	0x3da9ffd1	0.08300746
83	0x3d37020d	0.04467969
84	0x3d8c489c	0.06849787
85	0x3c838619	0.016055154
86	0xbdcf567e	-0.10123919
87	0xbd5da184	-0.05410911
88	0x3db21d0c	0.086969465
89	0xbd98496b	-0.07435878
90	0x3cfffc22	0.031248156
91	0x3cd63d0b	0.026152154
92	0xbd6564dd	-0.056004394
93	0x3d411e72	0.047148176
94	0x3db33c3c	0.08751723
95	0xbd20f588	-0.039296657
96	0x3d2bf18a	0.041978396
97	0xbd8c2bb8	-0.06844276
98	0xbda0f0ba	-0.07858415
99	0x3bc852d7	0.006113391
100	0x3d85fcad	0.06542335
101	0xbc5b66cd	-0.013391209
102	0x3dd967a1	0.10615469
103	0x3cb0fd7b	0.021605244
104	0xbd6baeb3	-0.057539653
105	0xbb3d8645	-0.0028919142
106	0xbdc7d31a	-0.09757061
107	0x3d5c05ff	0.053716656
108	0x3c967272	0.018365119
109	0xbb602642	-0.003420249
110	0x3c94e9e4	0.018177934
111	0xbba21df3	-0.004947418
112	0x3cd53edc	0.02603095
113	0x3d3139ba	0.043267943
114	0x3dc4c85f	0.0960853
115	0x3d4295e5	0.04750623
116	0x3d6460a9	0.055756245
117	0xbd9dd0d0	-0.077058434
118	0x3d18cbc2	0.037303694
119	0x3c59d477	0.0132952845
120	0x3d50b37a	0.050952412
121	0x3dd3e345	0.103460826
122	0xbc9c7dc3	-0.019102937
123	0xbb91bfba	-0.0044479044
124	0x3d43e456	0.04782518
125	0x3d942ce7	0.07235127
126	0x3d67aebe	0.05656313
127	0xbdaf2387	-0.08551698
128	0x3d8c35b3	0.0684618
129	0x3d878da1	0.066188104
130	0xbda84bcc	-0.08217582
131	0x3cb109fa	0.021611203
132	0x3bfbd332	0.0076850886
133	0x3dccd2f2	0.10001172
134	0xbd94fc58	-0.07274693
135	0x3d49f9a8	0.049310356
136	0x3d080a23	0.033212792
137	0xbd36324d	-0.044481564
138	0x3dbcd6da	0.09220667
139	0xbc45fed7	-0.012084684
140	0xbcccaa2e	-0.024983492
141	0xbc3ab6a0	-0.01139608
142	0x3d03fffe	0.032226555
143	0x3db67e42	0.089108005
144	0xbb7e82d9	-0.0038835315
145	0xbd96a348	-0.07355362
146	0xbd928a79	-0.07155318
147	0xbcd5616f	-0.026047437
148	0x3d98c497	0.074593715
149	0xbd041bd8	-0.032253116
150	0x3d9c315d	0.07626603
151	0x3dcde39c	0.10053179
152	0x3dbd9ecd	0.092588045
153	0x3d52b906	0.051445983
154	0x3ac60fcc	0.0015110909
155	0x3caa8ae6	0.020818185
156	0xbd6f715d	-0.05845772
157	0x3c3b063d	0.011415062
158	0xbd872eef	-0.06600749
159	0xbda6ff78	-0.081541955
160	0xbb68f6f6	-0.003554759
161	0x3d5c556f	0.053792413
162	0xbd640477	-0.05566832
163	0x3da3e928	0.080034554
164	0xbd7c5168	-0.061601073
165	0xbd53981a	-0.051658727
166	0xbda8a753	-0.082350396
167	0x3dc3ddc7	0.09563785
168	0x3dba4c1f	0.0909655
169	0x3d306563	0.04306544
170	0x3da9459a	0.082652286
171	0x3c82272e	0.015887823
172	0x3da9521f	0.082676165
173	0xbccf4a3a	-0.025303949
174	0x3d47a3b1	0.048740093
175	0x3cdf0b67	0.027227117
176	0x3beb602c	0.0071830954
177	0xbcd13bb0	-0.025541157
178	0xbd899d1e	-0.06719421
179	0x3c862d8e	0.016379144
180	0xbd2d4c47	-0.042309072
181	0x3cae759a	0.021296311
182	0x3b5084fc	0.0031817546
183	0xbd1ecdc0	-0.038770437
184	0x3d95b55b	0.073099814
185	0xbd9ee1a4	-0.07757881
186	0xbb0e9c3e	-0.0021760608
187	0x3c7dddb3	0.015494752
188	0x3ceef377	0.029168827
189	0x3d1460a6	0.036224984
190	0x3db24846	0.08705191
191	0xbd119daa	-0.03555075
192	0x3d9800d3	0.07422032
193	0xbd4491dd	-0.04799067
194	0x3dc2a209	0.09503562
195	0x3d13da26	0.036096714
196	0x3cb79e47	0.02241434
197	0x3cbf1a04	0.023327835
198	0xbd41e11d	-0.047333825
199	0x3d195701	0.03743649
200	0x3ceef936	0.029171567
201	0x3cfd9627	0.030955387
202	0x3a67b363	0.00088386814
203	0x3935e0ca	0.00017345246
204	0xbcef2781	-0.029193642
205	0xbd7332a4	-0.059374467
206	0x3d123b37	0.035701003
207	0x3d3e8393	0.046512198
208	0x3d8ef1d0	0.06979716
209	0x3d1addd7	0.03780922
210	0xbd1b6361	-0.037936572
211	0xbd2c36ad	-0.04204433
212	0xbd7b6370	-0.061374128
213	0xbb8112e6	-0.0039390204
214	0xbceaeb4b	-0.02867665
215	0x3dcdab08	0.10042387
216	0xbc16cecd	-0.009204579
217	0x3d951f33	0.072813414
218	0x3caf8074	0.021423556
219	0xbb38a677	-0.0028175393
220	0xbcd02fbd	-0.025413388
221	0xbc56823f	-0.0130925765
222	0xbcc9dff4	-0.024642922
223	0xbd2c38c4	-0.042046323
224	0x3d7a8d81	0.061170105
225	0x3d881cb0	0.06646097
226	0xbb24e3d5	-0.0025160213
227	0x3c1961dc	0.00936171
228	0xbdc9b17a	-0.09848304
229	0x3d29acb5	0.041424472
230	0x3d3bc77b	0.045844536
231	0x3d286715	0.04111393
232	0xbd396b50	-0.045268357
233	0xbcb8e822	-0.022571627
234	0x3a3ac116	0.0007124109
235	0x3cd2ba3c	0.02572357
236	0xbd506dde	-0.050886028
237	0xbd802d15	-0.06258599
238	0xbd3785aa	-0.044805206
239	0x3dbdb083	0.092621826
240	0x3d6d30d7	0.057907905
241	0xbccfb1df	-0.02535337
242	0xbd95902e	-0.07302891
243	0x3d9ca436	0.07648508
244	0x3d79ac58	0.060955375
245	0xbccdfb3c	-0.025144212
246	0x3d09131a	0.033465482
247	0x3da17056	0.078827545
248	0xbc577938	-0.013151459
249	0x3da04bb5	0.0782694
250	0xbd5d56e5	-0.054037947
251	0x3b605af6	0.0034233904
252	0xbd359161	-0.044328097
253	0x3a5967b7	0.0008293348
254	0x3c905a0b	0.01762106
255	0xbd81ef9c	-0.0634453

4.bias f4 [7]
0	0x3dafe0ef	0.085878246
1	0xbd49b4c7	-0.04924467
2	0xbd06104b	-0.032730382
3	0x3d90d1db	0.07071277
4	0x3ce496df	0.027903972
5	0xbc673c66	-0.014113521
6	0x3db8c2ea	0.09021552
