models/date-06-19-2025-16-58p1-RLbotp2-RLbotDDQNself_play-Trueexp_dir-RLbotepochs-50p1_win_rate-0.06p2_win_rate-0.94is_test-False/model.pth (torch, 117053 bytes, 6 tensors)

0.weight f4 [150, 84]
00000000: 95bb 04bc 8b26 5a3b 5f82 de3d b077 debd
00000010: c537 dd3c fd22 be3d 3b5b 8a3d 5984 dabc
00000020: 25a6 94bd 785f 443d 06df ac3c 0162 a8bd
00000030: b725 a83c 56e8 f13d 7ef6 2ebd 438d 53bd
00000040: aee6 f33d 0116 89bd 9976 263d 2f9e 62bd
00000050: 48ca a1bd 715f 093d d649 9e3d 497c 9cbd
00000060: 370e 89bd 4f6c 013e f1e6 9b3d faa5 02bc
00000070: ff53 0bbd df72 72bd 30a8 04bd fc46 9d3d
00000080: 9f63 683d 9fbe 783d c95e 92bd 0d1d 9e3c
00000090: 9159 a2bd 07d1 5dbd 06dd 94bc 2c0a 03bd
000000a0: af92 aa3d d40f 9c3d 6e89 a23d 9666 0dbd
000000b0: 53b3 573d 7ae4 c5bd b7ee 92bc 02aa 7dbc
000000c0: 7196 85bc c261 943d 6932 883d 383f a2bc
000000d0: 0811 45bc e750 74bd 9921 ba3d 3bd9 873d
000000e0: aaab abbd df73 efbc 39db 523c 466c 60bd
000000f0: a32c 373d fa11 583d 9db9 fe3c 5195 8d3d
00000100: c4b9 e33d f844 9d3d 0e20 d2bd d360 083d
00000110: bad7 febc c4f8 95bb 0284 4cbd 3d06 533d
00000120: c0c3 9f3d c277 e4bc 93d2 883d e2d3 95bd
00000130: 8792 9f3d 7f66 cf3c 2b9b 7e3d 84ad 203d
00000140: 2d8f 27bd 65c6 133c 9d0c c7bd 8fb0 8f3d
00000150: 6291 b9bc 5690 2a3d cfda 24bd 8f7c b4bd
00000160: 41e9 c1bc b1c8 4d3d 12c4 d6bd 719a b5bd
00000170: e69a c3b9 0cd3 933c 4a96 5d3d 9307 3abd
00000180: ed0a e63c 031a 08bd 8d25 773c 5068 503c
00000190: 417c b9bc e38e 823d 1925 97bd 083f 1fbd
000001a0: 8f6a c53d a92c a8bd 1c8d 54bd c176 98bc
000001b0: 0e65 bc3d 704a 8a3b c4d0 d63b 567b c23d
000001c0: ce9c c4bd 0e65 8b3d e0cf 533d 9013 663d
000001d0: 8bf4 933d bd00 0b3c b49d 80bd 8120 89bd
000001e0: 0bd0 84bd f369 06be d248 093d 987b be3c
000001f0: 8684 01bc 3a60 72bc 25d6 c73d 703b 163d
00000200: efd8 24bd ccd5 cbbd 991a 053e 97f1 1a3d
00000210: 102f 403d 095c b43b 2238 933d 84fb 1dbc
00000220: 5778 cb3c 11bf 2fbc ed13 303d a016 aebc
00000230: fa36 49bd 61a1 69bd 0d66 6b3d 0bdf b6bd
00000240: 3211 df3d 70a0 b73d 20a5 f83d b32c f8bc
00000250: 2801 40bd 6e28 ddbd 0e1e c4bc fb87 94ba
00000260: 4341 793d 869f 35bc c80a a3bd 0db0 de3d
00000270: cafe 393c 99ed 463d 1b76 b33b b766 4cbd
00000280: d3df 213c 848c ac3d 6580 5f3c bb48 163c
00000290: fc3b 63bb f843 9d3d b097 1fbd f09c 24bd
000002a0: 3cd3 9d3c de95 6ebd 5cb0 f9bc 3300 9fbd
000002b0: fbf7 bc3d a31f 4e3d 1ca7 d2bd 29ea 83bd
000002c0: ecdd 4fbd bed8 a83d e6cf c43d 80c3 f23d
000002d0: 2d99 c6bd 9a67 d7bd 1a9c de3d 7349 cdbd
000002e0: e695 733d fdae 5abd 6c85 46bd d48d cc3c
000002f0: eef7 92bd 2f86 ae3d b3f1 9ebc 6445 f3bc
00000300: b01c ae3b dc91 3bbd 46bb ca3d 3639 793d
00000310: b913 a53d d916 e2bd d9c1 7cbd 4f6e a1bc
00000320: e432 85bd d5c1 44bd 03f8 0abd 7d62 173d
00000330: 66dc 76bc c252 f1bd 8d63 b93d b9bf f73c
00000340: 94c9 25bd 9d17 f4bd 72c8 f23c 455d c4bd
00000350: 5557 c8bd fed9 ce3d 6b1e dc3d b025 b7bb
00000360: ba58 bdbd a6c4 5c3d 2aa0 2f3d d6bd dbbd
00000370: d6b7 793d 62ac 763d 842f bfbd 6910 33bd
00000380: 7422 feb8 6afc 40bd 1f6e d1bd 5818 9bbd
00000390: 30c4 96bc 543c f43c 66cd 973d 3742 a7bc
000003a0: 1fbe 94bd 71c5 92bd 6a83 6c3d ac6d ba3d
000003b0: 93c4 c43d c3f7 ac3d f051 4cbd 7343 dc3d
000003c0: c30f d63d 7a9d e33d 7197 a2bd 44c7 b63d
000003d0: 5ceb be3b e645 7cbd 9b2c 57bd 19c5 d83c
000003e0: 3e36 953c c6ba 963d 1406 03bc cd7a 563d
000003f0: c3c6 b1bc 4211 853d 491c 08bd bcb2 ae3d
-0.008101364 0.0033287134 0.1086471 -0.10862672 0.027004132 0.09284017 0.06755682 -0.026674436
-0.07258252 0.04794261 0.02110244 -0.08221818 0.020525796 0.11811893 -0.042715542 -0.05164839
0.11909233 -0.0669365 0.040640447 -0.055326637 -0.0789991 0.033538286 0.07728927 -0.07640893
-0.066921644 0.12638973 0.07612408 -0.007974142 -0.03401565 -0.05919158 -0.03238696 0.07679555
0.05673563 0.060728665 -0.07146985 0.019300962 -0.0792724 -0.054154422 -0.018171798 -0.031992123
0.08328759 0.076202065 0.07936369 -0.03452166 0.05266125 -0.09662719 -0.017936094 -0.015482428
-0.016307088 0.07245208 0.0665024 -0.019805536 -0.012027986 -0.059647467 0.090884395 0.0663323
-0.08382352 -0.029230056 0.01286965 -0.054790758 0.044720303 0.05275152 0.031094367 0.069132455
0.11119416 0.0767917 -0.1026002 0.033295464 -0.031108726 -0.0045767743 -0.04993058 0.05151962
0.07801008 -0.027889136 0.06680789 -0.07315804 0.0779162 0.025317429 0.0621597 0.039227977
-0.040908027 0.009019469 -0.09719203 0.07016098 -0.022652332 0.041641556 -0.040247735 -0.0881282
-0.023670794 0.050240222 -0.10486616 -0.08867348 -0.00037308707 0.01804497 0.054098405 -0.04541738
0.028081382 -0.03322793 0.015084636 0.012720183 -0.022642257 0.0637491 -0.07380123 -0.03887847
0.09639465 -0.08211643 -0.051892385 -0.018611314 0.09198962 0.0042202994 0.0065556485 0.09496181
-0.096002206 0.06806384 0.051711917 0.056171 0.07224377 0.008484063 -0.062800795 -0.06695653
-0.064849935 -0.13126354 0.033516712 0.023252293 -0.007905131 -0.01479345 0.09757642 0.036677778
-0.040245946 -0.09952888 0.12998427 0.037828054 0.046919882 0.0055041355 0.07188441 -0.0096424855
0.024837656 -0.010726706 0.042987753 -0.021251023 -0.049124695 -0.05703867 0.05747037 -0.08929261
0.108919516 0.08966148 0.1214087 -0.030294752 -0.046876103 -0.10798727 -0.023940112 -0.0011332029
0.060853254 -0.011085397 -0.07961041 0.10873423 0.01135225 0.048566435 0.0054767258 -0.049902644
0.009880024 0.08425239 0.0136414515 0.009172614 -0.0034673205 0.0767898 -0.03896302 -0.04018873
0.019265763 -0.058248393 -0.030479603 -0.0776371 0.09226986 0.05032314 -0.1028578 -0.06441147
-0.05074875 0.08244465 0.09609966 0.11853695 -0.09697185 -0.10517807 0.10869618 -0.10023775
0.059469126 -0.053389538 -0.048467085 0.024969973 -0.07176195 0.08521687 -0.01940236 -0.029696174
0.0053134784 -0.0457934 0.09899001 0.060845576 0.080604024 -0.11039514 -0.061708305 -0.01970592
-0.06503847 -0.048036415 -0.03392793 0.03695916 -0.0150671955 -0.11783363 0.09052191 0.030242788
-0.040475443 -0.119185664 0.029636595 -0.09588102 -0.09782282 0.101001725 0.10747989 -0.0055892095
-0.09245439 0.053898476 0.042877354 -0.10729568 0.060966335 0.06022299 -0.09335235 -0.04371682
-0.00012118081 -0.04711572 -0.10226082 -0.075730026 -0.018404096 0.029813923 0.074122235 -0.020417316
-0.07262825 -0.07166565 0.057742514 0.091029495 0.09607806 0.08445694 -0.04988283 0.107550524
0.10452225 0.11114021 -0.079390414 0.08924726 0.005826397 -0.061590098 -0.052532773 0.026461171
0.018214341 0.07359843 -0.007997055 0.052363206 -0.021701222 0.06497432 -0.0332301 0.085301846

0.bias f4 [150]
00000000: b270 613d c8cd 60bd 9125 7c3d d4a8 21bc
00000010: 5345 fcba 0c74 153d 8fe3 34bb 6d6c afbb
00000020: 172d c23d 2ffd 173d bb35 2b3d 84b3 c63d
00000030: 6155 1abb 38f4 b3bd a743 abbb c889 ffbd
00000040: 691f 5e3d 6cff 0b3d b8fb fd3c 0ebc a3bd
00000050: e13e e03d d12b 9c3c b4a6 6bbd af9e b13d
00000060: 44f9 a03d dda5 21bd dde9 00bd 7b2e 023d
00000070: 128f 86bd 3e84 8f3b 11f2 e83c 010e 013d
00000080: 42c9 56bd f0a2 cd3d e05f da3c c4d5 aa3d
00000090: 2525 b63d 5270 17bc a958 e2bc 1c93 083e
000000a0: 5ee8 c8bc 0186 80bd 7ec5 c3bd 69a9 643d
000000b0: 5f6b b6bd fce2 b9bc e9a4 19bd 236a 86bd
000000c0: b7b7 b43d e1e4 c3bd 19c2 bdbd 8dbc e53d
000000d0: 7095 95bd 8979 ad3c b4be 983d 45a9 6f3d
000000e0: b3b8 a5bd a859 07bd f584 343a 1744 8fbd
000000f0: 45ee 0b3d 2be6 2e3d 8202 86bd 5a14 853c
00000100: e26a d83d 5dc0 a3bd ba9e 073c 5b51 9ebb
00000110: 10f5 363d 1548 7b3d ed6a f5bc 38b9 c9bb
00000120: f74b 14bc 3914 71bd ee28 a9bd fc63 9dbd
00000130: fbf0 dfbb a372 a73d 23ed 86bd 5f14 44bd
00000140: 1c2b c63d b2f3 02bd 9049 ef3b 647f 24bc
00000150: c338 57bd 6227 c63d 8ef9 de3d 7ab4 ac3c
00000160: a469 b63b af9a fd3d 615a fa3c 3bdf 773d
00000170: dbd4 28bd 7060 9d3b 01df 883d 78dd 053e
00000180: 2db7 653d d78a 97bd 1e7e 2ebd e9fa 853b
00000190: 8e99 813d 724f b93c b69f 5e3d 082f 973d
000001a0: 5a64 503d 27d7 85bc 4a57 ecba bb7e 3bbc
000001b0: 7482 043d 6c7d 023d 81fb c53d 8995 b0bc
000001c0: 1082 8bbd 6d07 a33d 1db0 193d f5fc c63d
000001d0: 19da ecbd fd57 93bd 5c58 773d 5205 06bc
000001e0: a107 bcbd 7d31 9b3d 8ced 0ebd 895b dd3d
000001f0: d971 9e3d 0693 cb3d 7ba3 cf3d baf7 d6bd
00000200: f243 1dbc 019c 2c3d 56ec e83d b1d8 1dbd
00000210: 285c 1dbd c45f 2f3d 220a a63b 69e2 e83b
00000220: 029b 9cbd e8e1 a2bd 4a43 0bbd 46fd 8cbd
00000230: b29c 9fbd 042b 4a3d c99a 793d 5409 f13d
00000240: 99ed 63bd 5377 48bd 2b6b 9fbc a5ab f8bc
00000250: 3284 adbd c702 e8bc
0.055039115 -0.05488375 0.061559264 -0.009866912 -0.0019246734 0.036487624 -0.0027601456 -0.0053535015
0.094812565 0.03710669 0.04179929 0.09702209 -0.0023549425 -0.087868154 -0.0052265706 -0.124774516
0.054229174 0.034179136 0.031003818 -0.07994853 0.10949493 0.019063862 -0.057532027 0.086728446
0.07860044 -0.03946482 -0.03147303 0.03178261 -0.06570257 0.004379778 0.028435739 0.031507496
-0.05243803 0.100408435 0.026657045 0.08341554 0.088938035 -0.009243088 -0.027630167 0.13337368
-0.024524864 -0.06275559 -0.09559153 0.055825625 -0.08907198 -0.022691242 -0.037510786 -0.06563213
0.08824103 -0.095651396 -0.09265537 0.11217604 -0.073038936 0.021176117 0.07458249 0.058511037
-0.08091869 -0.033044487 0.0006886267 -0.06995409 0.03416278 0.042699974 -0.06543447 0.016245056
0.10567261 -0.07995675 0.008277589 -0.0048314757 0.044667304 0.06134804 -0.029958213 -0.006156113
-0.009051315 -0.058857176 -0.0825976 -0.07685086 -0.006834147 0.08176162 -0.06588199 -0.04787099
0.09676191 -0.031970687 0.0073024705 -0.010040138 -0.052544367 0.096754804 0.108874425 0.021082152
0.0055667926 0.12383019 0.030560674 0.060515624 -0.04121862 0.004802756 0.066831596 0.13072765
0.056082893 -0.073995285 -0.042600743 0.0040887487 0.06328116 0.02262089 0.05435153 0.073820174
0.050876953 -0.016337944 -0.0018031385 -0.011443789 0.032350972 0.031857893 0.09667111 -0.021555679
-0.06811917 0.07960401 0.03752147 0.097162165 -0.11565036 -0.07194517 0.060387 -0.008179979
-0.091811426 0.075777985 -0.03489451 0.108084746 0.077365585 0.09940152 0.10138603 -0.10496469
-0.009598719 0.042140964 0.113732025 -0.03853673 -0.038417965 0.04281594 0.005067126 0.0071070683
-0.07646753 -0.079532444 -0.03399972 -0.068842456 -0.07793559 0.04935743 0.06093863 0.11769357
-0.055646513 -0.04894192 -0.019460281 -0.030355284 -0.0847248 -0.028321637

2.weight f4 [100, 150]
00000000: 5393 a33d 72e6 fabc e871 81bd 99be 9b3c
00000010: 39ed 2cbd 217f 893d 99bf 073d ed45 94bc
00000020: f680 fe3c 14c3 91bd b603 8a3d 355c c23a
00000030: e5ff 86bd 73cd 4e3d 0e80 6a3c 75f8 443d
00000040: 0c1c 1bbc a5d0 e0bc 0d1b feba 9b63 70bd
00000050: befe 4abd ba78 45bd 231a ac3c 8b17 7bbd
00000060: 1b13 17bd 2daf a1ba 4f0c 8ebd 8386 dcbc
00000070: 63b4 713d 405b 80bd 1da7 ab3c 6528 0f3c
00000080: 78c5 a33d d54b 813d 9e0b 4a3d fb1e 153d
00000090: 95a5 97bd 772a 0cbd 6139 a3bd b856 483c
000000a0: d04b 8d3d cb8e a1bd 097e cdbc 6f4e df3c
000000b0: 76b0 d23a fea3 b73c d86f c73c 3a4a 08bd
000000c0: 75df 70bd f1fe 963d e384 093d 3630 0fbd
000000d0: 1888 263d 7488 e0bb f82b ac3b 9ff3 583d
000000e0: 7c6f c03c 65ea 95bd df30 ed3c bdf9 213d
000000f0: 69c5 fc3c 4517 45bc be33 02bd c2a6 3ebd
00000100: ab1a 54bb 2c7a f53c 19a2 52bd 916a 68bd
00000110: 5801 20bd 7350 4ebd 252e a7bd eb79 263d
00000120: 12a0 83bc c443 cf3c 6135 2fbd a8b7 873d
00000130: 21f6 02bd a8be 343d 3438 9cbd 921d 70bd
00000140: 0888 a43d e2a1 b8bc 64e6 8bbd 7938 933d
00000150: 8f3d 38bd df0f 32bd f86a f2b9 4830 0e3c
00000160: c348 e73c 26ec cebb 6b9e b8bc 74e7 2f3c
00000170: 737c 5b3d 38ff 4aba 15d6 80bd ac44 ae3c
00000180: fd44 34bd 5f90 77bd 0828 183d aa43 243d
00000190: 5590 a5bd 2141 8dbd 91e5 dbbc 8482 4a3d
000001a0: eebe 593d 7756 843d 937f 7fbd bda1 783d
000001b0: 9e5f ff3c 7f30 90bd 7817 4dbc 71ab 7cbd
000001c0: 448d a3bd 18ac 993c 47c9 903d 63d1 7ebd
000001d0: 3c05 31bd d02b 65bd 314e ecbb bde6 71bc
000001e0: 95b5 483d 7609 42bd 1317 593d 05ea 29bd
000001f0: f2fc 443d 3bf2 8ebd 688d 40bd 7355 933d
00000200: 0438 7fbd ddb9 253d c545 093d c7cb 82bc
00000210: ced7 383d 38f9 873d cbf3 a43d e765 c4bb
00000220: a9ab 6dbd bf53 0bbd d085 c3bc 5243 3a3d
00000230: ad2b 4dbd dc19 8a3d 3e5e 893c 7552 da3c
00000240: 5025 be3c d806 3f3d 22b4 0a3c 31f6 1eb9
00000250: 887c 323d e197 7abd 6f35 65bd 3985 69bc
00000260: 446b 593d 0b30 22bd 3890 cf3d 1166 483d
00000270: a4ca 6c3c 840d c63c 2b90 46bd 8e25 24bd
00000280: 6219 853d 75c2 283d b638 fc3b a025 e13c
00000290: 2e4e a1bd d056 81bd a627 9a3c e456 a23d
000002a0: ccb3 033c 33a9 4abd 9f0e 8f3d c12e 493c
000002b0: cdb1 5abd 2537 a83d 792f c7bd 7ae9 783d
000002c0: 5225 563b b0e0 87bd a082 cbbd 666e 91bc
000002d0: 9b52 9d3d 03d9 73bd 44d8 e03b db69 223d
000002e0: 7213 9cbd 73d3 163c 1e40 853d 5286 b03d
000002f0: 41d6 ab3c 7032 e03c e54c 303d 4464 a8bd
00000300: 4e74 2e3b bfad 263c 9da5 74bc 0c00 83bc
00000310: 24eb af3d d420 453d be4f 71bd be52 193b
00000320: 079b 36bb 348c 683d e9d8 ebba 3ef2 9d3c
00000330: 2a89 f13c f961 01bd da7c f4bc 8063 bdb9
00000340: bec3 233d 412b 0bbd 7bef aabc ab76 98bc
00000350: 89f2 283c f5c2 193d 46e5 5c3d df39 8bbc
00000360: 1082 54bd 9fec 40bb 737e 9a3d f602 72bd
00000370: 3aa7 59bd 7bc8 ad3b b7c6 a1bd ea09 403d
00000380: 4dba 273c e384 403c fdac 11bc 6e10 bb3d
00000390: 18e0 a6bd 5fc2 463d efce 0cbd 3fad b3bc
000003a0: 9811 a4bc 3b5e 323d 2074 653c cad6 4e3d
000003b0: 7565 973d 3ee7 133d e246 3abb 47c7 31bd
000003c0: 1cd6 7d3d 7642 20bc c63a 60bc 83be f23b
000003d0: cf7d d13c 9377 88bb b473 743d 8847 edbc
000003e0: 9589 8dbd 6089 48bd afe7 9a3b 29c9 91bc
000003f0: bb9a 7e3d 5907 63bc 223b c1bc 7c5e 243c
0.07987084 -0.030627463 -0.06320554 0.019011782 -0.04221842 0.06713701 0.033141706 -0.01809975
0.031067353 -0.07117286 0.06738989 0.0014828505 -0.06591777 0.0504889 0.014312757 0.04808851
-0.009467136 -0.02744324 -0.0019386724 -0.05868874 -0.049559347 -0.048210837 0.021008557 -0.06130175
-0.036883455 -0.0012335532 -0.069359414 -0.026919609 0.05900992 -0.062674046 0.02095371 0.008737658
0.079966486 0.06313292 0.049327485 0.0364065 -0.07404629 -0.034220185 -0.079699285 0.012227707
0.06899226 -0.07888564 -0.025084512 0.02725908 0.0016074318 0.022417065 0.024345323 -0.033273913
-0.058806855 0.07372845 0.033573996 -0.034958087 0.040657133 -0.006852204 0.005254265 0.05296671
0.02349066 -0.07320098 0.028953968 0.03954481 0.030855851 -0.012029474 -0.031787626 -0.04654575
-0.0032364528 0.029965483 -0.05142412 -0.056742255 -0.03906378 -0.05036969 -0.08163098 0.040643614
-0.016067538 0.025300868 -0.042775515 0.066268265 -0.031973008 0.044127136 -0.076279074 -0.05862195
0.080337584 -0.02253813 -0.06831053 0.07188506 -0.04498058 -0.043472167 -0.00046237535 0.008678503
0.028232938 -0.006314772 -0.022536477 0.010736335 0.05358548 -0.0007743719 -0.06290833 0.02127298
-0.044011105 -0.060440417 0.03714755 0.040103592 -0.0808417 -0.06897188 -0.026842864 0.049440876
0.0531606 0.06461804 -0.062377524 0.06070112 0.031173524 -0.070405 -0.012517802 -0.061686937
-0.07985929 0.018758819 0.070696406 -0.062211405 -0.043217883 -0.055949986 -0.0072114696 -0.014764485
0.049001295 -0.047372304 0.05300052 -0.041482944 0.04809279 -0.069797955 -0.047009856 0.071940325
-0.06230928 0.040460456 0.033513803 -0.01596631 0.045127682 0.066393316 0.08054312 -0.005993593
-0.058025036 -0.034015413 -0.023867518 0.045474358 -0.05009048 0.067432135 0.016768571 0.026650647
0.023211151 0.046637386 0.008465799 -0.00015159768 0.043575794 -0.06118 -0.05595916 -0.014252954
0.053080812 -0.0395966 0.101349294 0.048925463 0.01445261 0.024176367 -0.048477333 -0.040074877
0.06498982 0.041201074 0.00769719 0.027483761 -0.0787624 -0.06315386 0.018817734 0.07926729
0.008038472 -0.049477767 0.069852106 0.012279213 -0.05339222 0.08213643 -0.097258516 0.060769536
0.0032676053 -0.066346526 -0.09937024 -0.017752837 0.07681771 -0.05953313 0.0068617184 0.039651733
-0.076208964 0.009205687 0.0650637 0.086193696 0.020976188 0.0273678 0.043042082 -0.08222249
0.0026619616 0.01017326 -0.014932063 -0.015991233 0.085897714 0.04812701 -0.05891394 0.0023395265
-0.00278634 0.056774333 -0.0017993721 0.01928055 0.02948435 -0.031587575 -0.02984469 -0.00036123022
0.039981596 -0.033976797 -0.020866146 -0.018611273 0.010311731 0.03753944 0.05392959 -0.016995369
-0.05188185 -0.0029437912 0.075436495 -0.059084855 -0.053137995 0.00530344 -0.0789923 0.046884455
0.010237289 0.011750433 -0.008891341 0.09133993 -0.08148211 0.04852521 -0.034377035 -0.021933196
-0.02002792 0.043546896 0.014004737 0.050497808 0.07392398 0.0361092 -0.0028423597 -0.043402936
0.06197177 -0.0097814705 -0.013685888 0.0074079647 0.025572686 -0.004164645 0.059680656 -0.028964773
-0.06911007 -0.048959136 0.004727326 -0.017796116 0.06215928 -0.013856732 -0.023587767 0.010032292

2.bias f4 [100]
00000000: 9e13 4ebd aa30 b23d 54b9 713d 2987 413d
00000010: 3872 8d3b 9f22 b63a 6196 febc 6dea 2d3c
00000020: 3c7e a23d 9946 afbd c243 ef3a 1812 b2bd
00000030: 1730 c5ba de0b 553d 48dd b73c 0658 0abd
00000040: 13eb c8bc 9971 613d 96ec 7d3d 0d6f 48bd
00000050: bac6 b2bc e195 e83c 7e6e 36bd bd9e e13a
00000060: 2f2b cd3d 76c7 7fbd 262c 003c 771d 673d
00000070: 23ad 9c3d c0a2 febc bc59 813d e332 b13d
00000080: 4575 693c fdbf 643d 7d90 f43c 93b6 99bc
00000090: b105 8fbd 3b2c 08bd f52a 5b3d bf46 453c
000000a0: 0225 bf3d 8c3d 663d 1f1d 8ebd 755b 553d
000000b0: 3515 da3c e22a 303d 0112 4cbc 365e 9fbd
000000c0: d92f e03b 3c79 5fba 11a1 4c3d 7655 963d
000000d0: 3ee2 2dbd 0a5c 89bd d907 433b 4ac1 28bd
000000e0: 6388 923c e937 5fbd d476 123c 7217 5b3d
000000f0: 4756 6b3d 4a58 263d 43d6 043d 5c91 3fbd
00000100: ca9f a53d 6373 a6bc 9cff 82bc 89c7 9cbd
00000110: a17d 2ebd f616 91bd 8427 443c ef34 473d
00000120: b34c 923c 99af 8d3d 079c 0fbd 2d65 873d
00000130: 0d94 693d 6ac1 25bd 1da1 133c 8b03 e13c
00000140: 2867 f4bc 3913 93bd 7617 8c3d 06ac 783d
00000150: 6faf 033d b2a4 4d3d 2f2d 1b3c 35d0 623d
00000160: 5df5 123d 8fdd a43c 770c a0bd 61dc 57bd
00000170: f697 a1bd 344e 6fbc e9ea d4bb 0eb0 cd3d
00000180: dbd3 fc3c 2eb5 b33c 2ed1 b33c 87cf 49bb
-0.050311677 0.08700688 0.059014633 0.04724804 0.0043165945 0.0013895816 -0.031077566 0.0106149735
0.079342335 -0.08558387 0.0018254446 -0.08694857 -0.0015044239 0.05201327 0.022444382 -0.033775352
-0.024526155 0.055039976 0.061993204 -0.04893403 -0.021823276 0.02839178 -0.044538967 0.0017213445
0.10018002 -0.06244608 0.007823026 0.056424584 0.07650211 -0.031083465 0.063159436 0.08652284
0.014249151 0.055847157 0.029854054 -0.018763816 -0.069835074 -0.033245306 0.053507764 0.012040793
0.093332306 0.05621104 -0.06939148 0.052089173 0.02662144 0.043009646 -0.012455464 -0.07781641
0.0068416414 -0.000852484 0.049958292 0.07340519 -0.04245209 -0.06707008 0.0029759316 -0.04119996
0.0178873 -0.05449668 0.008939464 0.053489156 0.057455327 0.040611543 0.0324309 -0.046769485
0.08087118 -0.020318693 -0.015991025 -0.07655246 -0.042600278 -0.070844576 0.011972312 0.048634466
0.017858839 0.06918258 -0.03506091 0.066110946 0.057025958 -0.040467657 0.00901058 0.02746751
-0.029834345 -0.07181401 0.06840412 0.06071093 0.03214973 0.050205894 0.009471222 0.055374343
0.035878528 0.020125179 -0.078148775 -0.052700404 -0.078903124 -0.014606047 -0.00649773 0.100433454
0.03086274 0.02193698 0.02195033 -0.0030793862

4.weight f4 [7, 100]
00000000: 7dbd 603d 0c52 e23d 1e0e 8abd 729f c33d
00000010: dd71 96bd ddd2 d73d ea0a 6cbc 39d3 0a3d
00000020: db42 80bd 1d66 493d a29c 753d 3034 b43d
00000030: 4667 9bbd 7e6e a2bd 2c19 88bb 4f71 283d
00000040: f860 f73d 1aa3 b03d 46fe 963d fb67 df3c
00000050: c2f6 98bd afff 5bbd 8903 d13d ad32 54bd
00000060: 1991 9d3d d72d d9bc bda3 4dbc 112d 943d
00000070: d312 f1bb 039d b1bd 2edc 83bc fa08 453a
00000080: b133 9abd a250 cebc 2b3c 8e3d ea28 c1bb
00000090: 3a04 e53c eaed c23d 2d98 9bbd a555 883d
000000a0: 3154 793d 923f b23d 5d3e 87bd 64f7 38bd
000000b0: c228 a93d 6737 81bd fe77 33bd e780 25bc
000000c0: 0f6c b23d ed36 7abd bb41 bcbc 3682 d63c
000000d0: 8bcc 8b3d 9bc5 913d 0218 95bd 7d81 be3c
000000e0: 8bf7 e23d 5a5a 793c a565 49bd 5df1 7fbd
000000f0: 4b8c 04bd f975 8e3d b7b5 413d 68a3 4fbd
00000100: 8947 9a3c 63e9 8c3d 519d 2a3d 1532 71bd
00000110: 060e 613d d525 90bd d8e1 bfbb 8831 db3c
00000120: b9bc b3bc f889 b63d 4c04 3d3d 7ecc 2abb
00000130: cf0f 793d e26b ba3d 0256 c23d c3bf 203a
00000140: ec84 a43d 1a02 15bd 4059 1d3c aeb8 a93d
00000150: 7527 5f3d 4c55 a0bd 57f1 ccbc 1844 173d
00000160: 545c 4d3d c91b 2f3d 13ad 38bd a22a 9bbd
00000170: 0d77 b8bd 6a6a 223c fe0f 46bd 8a99 4cbd
00000180: bd70 9d3d 0d65 82bd 142f 80b9 a3ee e13d
00000190: b362 f13c 87d0 52bd f959 963d c470 c83d
000001a0: 8ba6 a03d 9351 d83c 236e 8c3d 936b a73d
000001b0: a19d ddbd 1647 283c 8178 eebd 5ece 48bd
000001c0: 092e a73c edd0 9ebd d34b 6ebd 71c9 00bd
000001d0: 0c1c 23bd 378d b23d 2c8d 36bd d278 b3bd
000001e0: 1539 863d 8066 ecbd f0ea a9bd 547a a7bd
000001f0: fa98 39bb a9d1 cfbd f6a2 efbd 2eb8 9cbd
00000200: 448a c93d 50e8 1bbd 0243 283d 9c21 c6bd
00000210: c907 78bd 2b4f a73d 6003 fa3d 825c 8c3d
00000220: 8793 96bd 6694 94bd fc87 9ebd 9516 403d
00000230: b925 983d 249d 8dbc 79b4 4d3d 87b5 fd3b
00000240: 9bb5 953c 852a 9f3c a992 aa3d 7a73 d03c
00000250: adad c6bb f7d0 4a3c b431 9d3c 05de fabd
00000260: 488f b5bd 5872 b6bd fed6 693d ccd5 c6bc
00000270: 5dfa a4bd 32d6 5d3d 723d 6bbd 19f1 c53d
00000280: b128 023d e1c7 a9bd 9cb1 f43c 290c b0bc
00000290: dfaa a1bd 17e1 b5bd 94c3 95bd 5dc3 c23d
000002a0: 6146 98bb 6217 c9bd 4b43 823d 7f66 57bd
000002b0: a321 8b3d fff8 293c 4ed8 96bd edc5 cb3d
000002c0: 5b57 a8bd 5a22 27bd fa6e 92bd 631e d2bb
000002d0: ba9d 39bd 6290 84bd d43e 0abc c6e2 ae3d
000002e0: fd8a b03d afa6 a93d 1e93 00be ea85 9e3d
000002f0: 477f 86bb 4772 c7bc e007 013d 1708 78bd
00000300: 5318 03bd e9cd 99bc 0427 b0bd eccf 7fbc
00000310: 257a 723c 247e 3ebd 18d3 f5bc a159 a13d
00000320: b26e 663d a782 97bd 4124 d4bc 3cda 0c3c
00000330: bcf2 5dbd ba07 c0bd e0d0 b53c 7a74 f03c
00000340: ea87 3a3c cd50 d53c 0da7 9dbd 96dc c43d
00000350: ec75 cf3d e01c 2abd ff85 b5bc 2158 52bc
00000360: 1cd7 6b3d a181 023b 6116 81bc 984b 8e3d
00000370: ccbd bcbd b471 a2bd b94e 73bd f41d bebd
00000380: 407a c33d e15f 9bbd e7fa 1cbc 4c21 273d
00000390: 64ca 43bd 8069 1ebb 6101 b0bd ae08 c1bd
000003a0: 0bd2 bc3d 21dc e8bc 6f61 663d 9d88 80bd
000003b0: baba a5bd ec6a 97bd 50d1 923d fe85 183c
000003c0: 75b5 39bd bc65 a83c 1b45 88bd b2f0 aa3d
000003d0: 8254 0f3d b0b7 bbbc d492 77bd c75d d23c
000003e0: b8be 5f3d 7bc5 09bd 6a26 b13d 624b 3d3d
000003f0: 5e09 0bba 2145 343d 5908 bbbc faee ca3d
0.05486821 0.110508054 -0.06740974 0.09551896 -0.073459364 0.10538266 -0.014406899 0.033892844
-0.06262752 0.04916965 0.05996383 0.087990165 -0.07588057 -0.07931231 -0.0041533913 0.041123684
0.12079042 0.08624859 0.073727176 0.027271261 -0.0746894 -0.053710636 0.102057524 -0.05180614
0.07693691 -0.026511116 -0.012551245 0.07235158 -0.0073569803 -0.08672526 -0.0160962 0.0007516291
-0.075293906 -0.025184933 0.0694507 -0.00589477 0.027956117 0.09518035 -0.075973846 0.066569604
0.060871307 0.08703531 -0.06603692 -0.045157805 0.08259727 -0.06309395 -0.043815605 -0.0101015335
0.08712017 -0.061087538 -0.022980561 0.026185136 0.06826123 0.071177684 -0.0727997 0.023255104
0.11082371 0.015219295 -0.0491692 -0.06248604 -0.032360356 0.06956095 0.047292437 -0.050692946
0.018832939 0.068804525 0.041653935 -0.058885653 0.054945014 -0.07038466 -0.00585578 0.026757017
-0.021940576 0.08913034 0.046146676 -0.0026061828 0.060806092 0.09102608 0.09489061 0.00061320903
0.08033165 -0.036378957 0.009603798 0.08287178 0.05448099 -0.07828769 -0.025017424 0.036930174
0.05013688 0.042751107 -0.04508693 -0.07576491 -0.09007082 0.009913066 -0.048355095 -0.049951114
0.07687519 -0.0636693 -0.00024449138 0.110318445 0.029466009 -0.0514684 0.0734138 0.09787133
0.078442656 0.026406085 0.068569444 0.08174815 -0.10821081 0.010270854 -0.11644078 -0.049024932
0.020407693 -0.07754693 -0.05817778 -0.03144211 -0.03982167 0.08718341 -0.044568226 -0.08763279
0.06553856 -0.11542988 -0.08296764 -0.08177629 -0.002831994 -0.101474114 -0.11701004 -0.07652317
0.09840825 -0.038063347 0.04107953 -0.09674379 -0.0605543 0.08169397 0.12207675 0.06853582
-0.07352357 -0.07254867 -0.07740781 0.046896536 0.0742907 -0.017286845 0.05022094 0.007742587
0.018275073 0.019429455 0.083287545 0.025445689 -0.0060631842 0.012378923 0.01918874 -0.12249378
-0.08865219 -0.08908528 0.0570898 -0.024271868 -0.080555655 0.05415935 -0.057431646 0.09665126
0.031777088 -0.08290077 0.029869847 -0.021490173 -0.07893919 -0.08880823 -0.07312694 0.09509919
-0.0046470617 -0.09818913 0.06360491 -0.052587982 0.06793525 0.010374307 -0.073654756 0.09949861
-0.08219787 -0.040804245 -0.07150073 -0.006412314 -0.045316435 -0.06472851 -0.008437831 0.08539347
0.0862026 0.082837455 -0.12556121 0.07740386 -0.004104528 -0.024346484 0.03150165 -0.06055459
-0.03200562 -0.018774943 -0.08601192 -0.015613537 0.014799629 -0.046507016 -0.030007884 0.078784235
0.05625791 -0.07397967 -0.025896193 0.008596953 -0.054186568 -0.09376474 0.022194326 0.029352415
0.0113849435 0.026039505 -0.07697878 0.09612386 0.10129914 -0.041531444 -0.02215862 -0.012838394
0.05757819 0.001991369 -0.015757741 0.06948012 -0.092158884 -0.079318434 -0.059401248 -0.09283057
0.09544802 -0.07586647 -0.009581304 0.04080324 -0.047800437 -0.002417177 -0.08594013 -0.09425484
0.0921975 -0.028425278 0.056245264 -0.06276057 -0.08092256 -0.073934406 0.071688294 0.00930929
-0.045339067 0.020556323 -0.06653806 0.0834669 0.034992702 -0.022914737 -0.06044276 0.025679482
0.054625243 -0.033635598 0.08649905 0.04621447 -0.0005303825 0.04401124 -0.022831129 0.099088624

4.bias f4 [7]
00000000: d717 0cbc 5a9b 7cbd 0a9d 4f3c c48b a13b
00000010: 9a54 153d ce87 16bc 7ba3 9d3d
-0.008550606 -0.061671592 0.012671718 0.0049299914 0.036457635 -0.009187652 0.07697197
