models/date-06-19-2025-11-21p1-RLbotp2-RLbotself_play-Falseexp_dir-RLbotepochs-50p1_win_rate-0.03p2_win_rate-0.97is_test-False/model.pth (torch, 117053 bytes, 6 tensors)

0.weight f4 [150, 84]
0.0829892 0.04938588 0.0082283225 0.045853443 0.025420807 -0.10241225 -0.03845455 0.07802176
-0.0300212 0.08242931 -0.019244075 -0.1012521 -0.07316401 0.02825038 0.016164219 0.0077961823
-0.05488629 0.0008014393 0.08134199 0.055110555 0.084269695 -0.009645162 0.03778864 0.015337747
0.056946162 0.07235835 0.046148326 0.09807189 0.09047663 0.08242818 -0.09171863 0.086418346
0.08690103 -0.0034216421 -0.03397838 -0.111329466 -0.08291111 -0.002222553 -0.05268351 0.03926378
-0.04962438 0.011406369 -0.09801023 -0.054573305 -0.053240698 -0.013988994 0.1044783 0.023443412
0.07598597 0.0143727325 0.0342103 0.03577479 -0.05305869 0.018085668 0.02016602 0.07704392
-0.09461942 0.004682479 -0.11588014 0.042340495 0.027856773 0.016102329 0.033525825 0.0020852801
0.028573973 0.021919316 0.09387027 0.008717265 0.06070084 -0.04899812 0.015280012 -0.068002194
0.004641757 -0.011323478 0.07241386 -0.053935513 0.025347887 0.07460507 -0.05956322 0.04451129
-0.042800717 0.0839342 0.008799075 0.08247507 0.035899248 0.039262287 -0.049496155 0.090852745
0.000742103 -0.050405525 0.022319395 0.027621605 0.019386088 0.103245355 -0.03477542 0.046063114
-0.017681714 0.04889351 0.03804151 -0.04056324 0.0628983 0.07555094 0.03724433 0.074983545
0.09378132 -0.059735224 0.029545292 -0.06614047 0.09401621 0.07855145 -0.09744801 0.020427242
0.009472891 -0.0922503 -0.08107968 0.05442785 -0.062109176 -0.074205 0.08901368 -0.01580245
-0.029019391 -0.022685966 0.018876776 -0.029606357 -0.11819669 0.06262421 -0.0064806123 0.019248763
-0.06414446 -0.09113516 -0.083579175 0.0076796995 0.07107646 -0.06630513 -0.040666908 0.094267055
0.06388305 0.023978494 -0.025647812 -0.10076695 -0.10158645 0.025226481 0.04305584 0.10205178
0.011656852 -0.10676158 -0.12422579 -0.092777915 -0.06393505 0.06631412 -0.091344304 0.03741721
0.014760206 -0.012816462 0.07805888 -0.10748635 -0.021688694 -0.01490121 0.0648572 0.0062382855
0.09294323 -0.08094523 -0.006462216 0.0334715 -0.07650774 -0.014055995 0.053421065 -0.093226224
-0.06685445 0.064916536 -0.046972785 -0.055911604 -0.06076306 -0.054771 0.043850448 -0.003277349
0.049682323 0.05899098 -0.018195072 -0.014693146 -0.06851501 -0.024638716 0.08323446 -0.065176606
-0.06663329 -0.0920197 0.0037283204 -0.06637924 -0.08376157 -0.034769885 -0.016364248 -0.1026513
-0.031557772 -0.016378699 -0.090800524 -0.02789283 -0.056713723 -0.07119721 -0.017962191 0.03060674
0.071769014 -0.12137114 -0.01115314 -0.05107373 0.04609118 0.030591937 -0.037086423 -0.08996407
0.036141645 -0.11027722 0.0072040427 -0.022489386 -0.057178248 -0.01710735 0.079863295 0.10690016
-0.097345516 -0.10650577 -0.08112845 0.091971666 0.03993625 0.061381947 -0.05934475 0.11613742
-0.005666085 -0.026664037 -0.030849209 0.045891974 0.0562475 0.07658356 0.06702718 0.0914478
-0.009175546 -0.067045934 -0.005243561 0.048030544 0.09031681 0.06786701 0.067421295 0.120364875
-0.03163858 -0.08232509 0.03833751 0.059259668 -0.05730266 0.093419656 0.08119243 0.028825728
0.103696786 0.045009866 0.068296306 0.058239862 -0.044333406 -0.039919306 0.026960444 -0.101013824
00000000: 3ef6 a93d d948 4a3d 16d0 063c d2d0 3b3d
00000010: 4c3f d03c 84bd d1bd 8582 1dbd dfc9 9f3d
00000020: 05ef f5bc b3d0 a83d c0a5 9dbc 435d cfbd
00000030: 03d7 95bd 576d e73c d36a 843c 1e77 ff3b
00000040: 72d0 60bd ae17 523a a196 a63d 9bbb 613d
00000050: 9795 ac3d be06 1ebc 43c8 1a3d 2c4b 7b3c
00000060: 6140 693d 9d30 943d 0706 3d3d ead9 c83d
00000070: d04b b93d 1bd0 a83d fad6 bbbd 1afc b03d
00000080: 2bf9 b13d a13d 60bb ea2c 0bbd b400 e4bd
00000090: 4dcd a9bd 40a8 11bb aaca 57bd 0fd3 203d
000000a0: ef42 4bbd c7e1 3a3c 96b9 c8bd 4288 5fbd
000000b0: eb12 5abd 1832 65bc b8f8 d53d 660c c03c
000000c0: 889e 9b3d 9c7b 6b3c 1920 0c3d 9688 123d
000000d0: 1254 59bd 6528 943c 3633 a53c 34c9 9d3d
000000e0: d4c7 c1bd 7b6f 993b 9152 edbd 3a6d 2d3d
000000f0: e333 e43c 08e9 833c 6052 093d 32a9 083b
00000100: f713 ea3c 2390 b33c 0e3f c03d dcd2 0e3c
00000110: 72a1 783d 41b2 48bd 0459 7a3c bc44 8bbd
00000120: e119 983b 1c86 39bc b84d 943d 7ceb 5cbd
00000130: 5fa6 cf3c 8bca 983d 90f8 73bd 7851 363d
00000140: ce4f 2fbd b2e5 ab3d ff29 103c b1e8 a83d
00000150: 170b 133d 7ed1 203d 7bbc 4abd 0111 ba3d
00000160: b089 423a 0676 4ebd 2ad7 b63c b446 e23c
00000170: 93cf 9e3c 4d72 d33d ac70 0ebd adac 3c3d
00000180: 3ed9 90bc 9044 483d 6ad1 1b3d a425 26bd
00000190: d3d0 803d 74ba 9a3d 838d 183d f990 993d
000001a0: 6c10 c03d ecac 74bd f808 f23c a874 87bd
000001b0: 928b c03d 95df a03d d392 c7bd 0857 a73c
000001c0: 2f34 1b3c baed bcbd 1a0d a6bd bdef 5e3d
000001d0: 3166 7ebd cbf8 97bd ce4c b63d 2474 81bc
000001e0: 13ba edbc ebd7 b9bc 78a3 9a3c 0889 f2bc
000001f0: 1b11 f2bd 1f41 803d 515b d4bb 95af 9d3c
00000200: 2c5e 83bd 12a5 babd 8f2b abbd fda5 fb3b
00000210: 8990 913d fcca 87bd 5892 26bd 160f c13d
00000220: 1ed5 823d 8c6e c43c 5c1b d2bc e75e cebd
00000230: 8f0c d0bd c4a7 ce3c 525b 303d 8600 d13d
00000240: 62fc 3e3c d1a5 dabd 176a febd 5902 bebd
00000250: 61f0 82bd b3cf 873d b912 bbbd ca42 193d
00000260: cbd4 713c 23fc 51bc 56dd 9f3d ce21 dcbd
00000270: 7dac b1bc 3424 74bc dad3 843d 886a cc3b
00000280: 0559 be3d 9dc6 a5bd ffc0 d3bb 6919 093d
00000290: 17b0 9cbd 1e4b 66bc 0cd0 5a3d 64ed bebd
000002a0: fcea 88bd f6f2 843d 8966 40bd 9103 65bd
000002b0: b0e2 78bd 8e57 60bd 879c 333d cbc8 56bb
000002c0: b17f 4b3d 87a0 713d d50d 95bc 85bb 70bc
000002d0: 9951 8cbd 22d7 c9bc d476 aa3d 507b 85bd
000002e0: 0977 88bd d374 bcbd d656 743b d7f1 87bd
000002f0: 308b abbd de6a 0ebd 510e 86bc d83a d2bd
00000300: b942 01bd 9f2c 86bc a0f5 b9bd 817f e4bc
00000310: a64c 68bd d8cf 91bd 7225 93bc fcba fa3c
00000320: a2fb 923d 6f91 f8bd a9bb 36bc b032 51bd
00000330: 1bca 3c3d f19b fa3c efe7 17bd 153f b8bd
00000340: 4309 143d 06d9 e1bd e40f ec3b a93b b8bc
00000350: bd33 6abd b724 8cbc 5e8f a33d 79ee da3d
00000360: 165d c7bd b21f dabd ac26 a6bd a45b bc3d
00000370: 3194 233d a36b 7b3d 7b13 73bd 75d9 ed3d
00000380: 91aa b9bb 8a6e dabc 7bb7 fcbc 39f9 3b3d
00000390: c763 663d d7d7 9c3d 8c45 893d fc48 bb3d
000003a0: 0755 16bc 614f 89bd 2ed2 abbb adbb 443d
000003b0: 05f8 b83d dcfd 8a3d 2d14 8a3d dc81 f63d
000003c0: 7597 01bd 0f9a a8bd cb07 1d3d 44ba 723d
000003d0: 32b6 6abd ce52 bf3d 3748 a63d ef23 ec3c
000003e0: fb5e d43d 445c 383d efde 8b3d ec8c 6e3d
000003f0: f296 35bd 6d82 23bd 26dc dc3c 56e0 cebd

0.bias f4 [150]
0.026064236 0.0151843475 0.080635 0.0339907 -0.006066076 -0.012979743 -0.07789316 -0.014213393
0.04414879 -0.07828718 0.07668409 0.083721206 0.075503126 -0.036201335 -0.04331485 0.022636976
-0.08288095 0.015082656 0.070582435 -0.0209112 -0.11072314 0.0059223706 -0.037400585 -0.029124524
-0.05086961 -0.041618835 0.036911532 0.07019843 0.022660265 -0.08766393 0.091316156 -0.0070061297
0.08749107 -0.040133473 -0.08705433 0.07517339 0.057990007 0.060664885 0.041171394 -0.08983097
-0.072161466 -0.06989211 0.113353 -0.082546234 0.07792402 -0.030474477 0.004825538 0.020967545
0.07923911 0.026958639 0.0456957 0.054499675 0.028457133 -0.042886678 0.07119469 -0.03144425
-0.029943429 0.08832419 -0.03240176 0.117957816 -0.030595297 -0.047725204 0.0534704 -0.018530345
0.08844555 0.07273899 0.036255322 0.09155612 0.020801326 -0.005126331 0.10957216 0.06370234
0.059394352 0.07267671 0.05291179 -0.018495394 0.09203446 -0.058241617 -0.05202764 -0.053870667
0.012055622 0.028586013 -0.119264096 -0.05153532 0.06263619 0.050204463 0.028011993 0.09327776
-0.079172984 0.10150133 0.022573026 0.07284965 0.111841075 0.080827884 0.07397351 0.045605194
-0.0042595137 -0.07000453 0.043631695 -0.036465935 -0.017284261 -0.05584181 -0.020337272 -0.026550386
0.09683436 -0.0026811298 -0.028048292 -0.015267902 0.050848395 -0.026613163 0.0057927007 0.028245227
0.08718948 -0.088388264 -0.0047142445 0.10664697 -0.0865281 0.072949246 0.10540444 0.06676728
0.05660774 -0.1003933 0.073801786 -0.053674735 0.026832448 0.023003798 -0.09956701 0.021094337
-0.054677684 -0.0087082675 -0.023228474 0.04184081 -0.035270527 0.028879272 0.08610344 0.06044079
0.03393491 -0.072121084 0.08418444 -0.029919984 0.045252312 -0.07775253 -0.08662061 -0.101557404
-0.033726078 -0.03935921 0.019456 -0.072072186 -0.04801995 0.011650713
00000000: aa84 d53c c5c7 783c f623 a53d d539 0b3d
00000010: efc5 c6bb fda8 54bc 7386 9fbd 4bdf 68bc
00000020: 5dd5 343d 0755 a0bd 8c0c 9d3d 0676 ab3d
00000030: 62a1 9a3d da47 14bd ea6a 31bd 2e71 b93c
00000040: 7dbd a9bd 3f1d 773c 868d 903d f74d abbc
00000050: d0c2 e2bd 7210 c23b 5b31 19bd 8e96 eebc
00000060: a75c 50bd 8378 2abd 8c30 173d 32c4 8f3d
00000070: 05a2 b93c 2689 b3bd f703 bb3d ad93 e5bb
00000080: 852e b33d ff62 24bd 8a49 b2bd 82f4 993d
00000090: ee86 6d3d be7b 783d 56a3 283d 4df9 b7bd
000000a0: 64c9 93bd 9823 8fbd 9e25 e83d 000e a9bd
000000b0: a196 9f3d 9ca5 f9bc 8c1f 9e3b 21c4 ab3c
000000c0: 1d48 a23d 5dd8 dc3c 6a2b 3b3d 0d3b 5f3d
000000d0: ef1e e93c f1a9 2fbd 86ce 913d b0cb 00bd
000000e0: ec4b f5bc 50e3 b43d b5b7 04bd de93 f13d
000000f0: fda2 fabc 817b 43bd c703 5b3d f3cc 97bc
00000100: f122 b53d 2ef8 943d 7680 143d c681 bb3d
00000110: 8b67 aa3c c8fa a7bb 5e67 e03d 5f76 823d
00000120: 7e47 733d 87d7 943d 08ba 583d a783 97bc
00000130: 907c bc3d c38e 6ebd ef1a 55bd 7da7 5cbd
00000140: f284 453c 372d ea3c bc40 f4bd b316 53bd
00000150: 6747 803d 32a3 4d3d 6879 e53c 6908 bf3d
00000160: 7225 a2bd eedf cf3d 11eb b83c 3332 953d
00000170: ef0c e53d 1789 a53d 6c7f 973d 83cc 3a3d
00000180: 6493 8bbb 895e 8fbd 26b7 323d 4e5d 15bd
00000190: b997 8dbc 62ba 64bd 5a9a a6bc 3280 d9bc
000001a0: 1851 c63d e5b5 2fbb 88c5 e5bc 3926 7abc
000001b0: 6846 503d d903 dabc b2d0 bd3b 8962 e73c
000001c0: 6690 b23d e804 b5bd f379 9abb ba69 da3d
000001d0: a535 b1bd 6a66 953d 48de d73d 49bd 883d
000001e0: 85dd 673d 019b cdbd 6425 973d 0ada 5bbd
000001f0: b9cf db3c 7672 bc3c cae9 cbbd 08ce ac3c
00000200: b5f5 5fbd 1fad 0ebc a449 bebc 4561 2b3d
00000210: d477 10bd 3994 ec3c 0057 b03d c390 773d
00000220: 55ff 0a3d 38b4 93bd e468 ac3d c11a f5bc
00000230: 7d5a 393d b83c 9fbd 2566 b1bd 54fd cfbd
00000240: 5b24 0abd 1f37 21bd 3062 9f3c 959a 93bd
00000250: 91b0 44bd a2e2 3e3c

2.weight f4 [100, 150]
0.06601288 0.013260935 -0.071183816 0.037460968 -0.05224555 0.06261019 0.073247515 -0.03502043
-0.023514042 -0.061637662 -0.06050641 0.016514331 0.06405654 -0.06831871 0.07072372 0.038466193
0.07124982 -0.070447095 -0.04706866 0.089342 0.041895065 0.05875249 -0.084599845 0.018310742
0.03780534 -0.07414752 -0.080313064 0.032599345 -0.023118759 0.06277134 0.02629567 -0.012967952
0.07340982 0.0031878082 0.031591825 -0.032028362 -0.021584444 0.017257402 0.047102842 -0.06859079
0.051579338 0.05236837 -0.055596024 0.10073108 0.009081078 0.03138095 -0.021700626 0.06539242
0.0012586501 -0.08805487 0.03280691 0.0038628543 -0.06487061 0.015820665 0.06297907 0.03903385
0.04767473 0.0074867876 0.05561616 0.028983051 0.018736476 -0.028717712 -0.090537265 0.046418004
0.024039546 0.028776363 0.04109838 0.05189704 0.02768354 -0.00012082806 0.03152772 -0.038046606
0.027809076 -0.033762265 0.036085185 0.034807947 0.033066284 -0.057975464 0.0320428 -0.059627496
-0.08111335 -0.011520798 -0.007980183 0.05332652 -0.070700444 -0.05509349 0.011708768 0.029750194
0.045101043 -0.09535999 -0.0127308285 0.07353921 -0.06565406 0.018883198 0.035783686 0.010614891
0.03067415 0.082890406 0.049967453 0.017741993 -0.0023797085 0.07523279 -0.09388828 0.06403912
-0.025509551 -0.051560033 0.023734044 0.019366832 0.031303663 -0.016808832 -0.08083904 -0.04953102
0.04588468 -0.03410648 -0.025338933 -0.061725456 -0.024879359 -0.044623155 -0.024288822 -0.015871864
-0.031106768 0.014513809 -0.03570312 -0.004482483 0.01096834 -0.0051008966 -0.06336916 -0.051701244
0.015724096 0.021647325 -0.015243875 -0.045338735 -0.048527375 -0.032495953 -0.04017729 0.005755315
-0.07518356 0.045906067 -0.07147246 -0.090775594 -0.043671757 0.06268072 -0.004822175 0.07415982
0.055364802 -0.07557193 0.02224317 -0.08950859 0.087126955 0.0008297068 -0.02205466 -0.009295635
0.015199092 -0.083286084 0.013923221 -0.006508844 -0.06739749 0.059452094 -0.00984779 -0.011014635
-0.0046155844 0.03286168 0.071718395 -0.0384663 -0.01886459 -0.086155154 -0.054795764 0.042333852
-0.014281316 0.00063314906 0.0678501 0.0054457197 0.045384925 0.06382737 -0.079376236 -0.045466032
0.08173069 -0.06739451 0.024466107 0.03236468 0.021734724 -0.015690802 -0.009997942 -0.04680875
0.0035012881 -0.067650735 0.013894267 0.03177597 -0.073346175 0.082049064 0.08299657 -0.017185407
-0.0021198282 0.017545145 -0.005748453 0.034402244 -0.021560198 0.08079441 -0.039139897 0.054729015
-0.050329294 -0.049192138 0.017819135 -0.020223696 -0.011825843 -0.04177755 0.017785594 0.017865773
0.004795517 0.01358875 0.021625552 0.018506851 -0.02547813 0.021827932 0.065114915 0.046008494
-0.052289285 -0.06705065 0.041732214 0.062209763 -0.04302421 -0.061501577 0.03350492 -0.06521545
0.060302135 -0.09013803 0.021630967 -0.029662667 0.043847747 0.044553313 -0.076293655 0.012623346
0.02564225 0.033026036 0.0684313 -0.077727154 0.07213336 -0.041064683 0.005630482 0.070572846
0.0071859327 -0.0040235063 -0.054695353 0.072765306 -0.07032966 -0.033154067 0.029060198 -0.078455895
-0.0022017097 -0.082631715 0.020926574 -0.015515446 -0.04710724 0.07066028 -0.037247263 0.009912447
00000000: c331 873d 6544 593c d2c8 91bd ac70 193d
00000010: 6eff 55bd c539 803d cb02 963d 9571 0fbd
00000020: 85a0 c0bc c677 7cbd 92d5 77bd 1049 873c
00000030: 1330 833d aeea 8bbd 99d7 903d ba8e 1d3d
00000040: 6deb 913d 9146 90bd 11cb 40bd f0f8 b63d
00000050: 299a 2b3d 73a6 703d af42 adbd 6900 963c
00000060: c6d9 1a3d a8da 97bd 2d7b a4bd e486 053d
00000070: 8d63 bdbc 438e 803d 046a d73c 8877 54bc
00000080: e357 963d 8cea 503b 6e66 013d 2c30 03bd
00000090: dcd1 b0bc 655f 8d3c e9ee 403d 5479 8cbd
000000a0: db44 533d 3780 563d a8b8 63bd 194c ce3d
000000b0: cdc8 143c 5089 003d 83c5 b1bc 76ec 853d
000000c0: 4af9 a43a 1d56 b4bd 8a60 063d f127 7d3b
000000d0: e2da 84bd 579a 813c 2cfb 803d f5e1 1f3d
000000e0: 9446 433d ba53 f53b c5cd 633d dd6d ed3c
000000f0: 3d7d 993c 6841 ebbc 9a6b b9bd ce20 3e3d
00000100: 95ee c43c 68bc eb3c c656 283d fe91 543d
00000110: 97c8 e23c 1265 fdb8 3623 013d c2d6 1bbd
00000120: dccf e33c 4d4a 0abd 0fce 133d c792 0e3d
00000130: 8370 073d ae77 6dbd 503f 033d f63b 74bd
00000140: c21e a6bd bbc1 3cbc 50bf 02bc e96c 5a3d
00000150: 65cb 90bd b6a9 61bd 22d6 3f3c aeb6 f33c
00000160: dfbb 383d 194c c3bd f794 50bc ba9b 963d
00000170: a375 86bd f0b0 9a3c ea91 123d 14ea 2d3c
00000180: 5b48 fb3c 72c2 a93d acaa 4c3d a857 913c
00000190: e2f4 1bbb a613 9a3d 8048 c0bd f126 833d
000001a0: 68f9 d0bc 9d30 53bd e66d c23c 31a7 9e3c
000001b0: 4538 003d adb2 89bc f08e a5bd 0ae1 4abd
000001c0: 93f1 3b3d 3db3 0bbd 9893 cfbc d5d3 7cbd
000001d0: cccf cbbc c5c6 36bd 5af9 c6bc b605 82bc
000001e0: 9fd3 febc 54cb 6d3c 6f3d 12bd cbe1 92bb
000001f0: 8db4 333c 6c25 a7bb b1c7 81bd afc4 53bd
00000200: d2cf 803c bb55 b13c 72c1 79bc 1cb5 39bd
00000210: a4c4 46bd 7a1a 05bd f190 24bd 1597 bc3b
00000220: d7f9 99bd 0008 3c3d 2760 92bd 8ee8 b9bd
00000230: 28e1 32bd c05e 803d 5603 9ebb 1be1 973d
00000240: 34c6 623d 75c5 9abd 4f37 b63c 4850 b7bd
00000250: 9e6f b23d ae80 593a f9ab b4bc b84c 18bc
00000260: 9d05 793c e591 aabd 391e 643c 2448 d5bb
00000270: b207 8abd 0a84 733d a058 21bc ba76 34bc
00000280: 543e 97bb f899 063d 18e1 923d d78e 1dbd
00000290: ea89 9abc 1d72 b0bd 8671 60bd 4366 2d3d
000002a0: 2efc 69bc eaf9 253a fef4 8a3d 0272 b23b
000002b0: 8be5 393d edb7 823d 0290 a2bd 973a 3abd
000002c0: 6c62 a73d 2206 8abd 256d c83c d490 043d
000002d0: 050d b23c ff89 80bc 68ce 23bc 88ba 3fbd
000002e0: de75 653b 788c 8abd c8a4 633c 8527 023d
000002f0: 8536 96bd 5709 a83d 1bfa a93d 69c8 8cbc
00000300: d1ec 0abb d6ba 8f3c 855d bcbb 5ee9 0c3d
00000310: 039f b0bc 8a77 a53d 2851 20bd 882b 603d
00000320: 1726 4ebd b27d 49bd 6ff9 913c 2aac a5bc
00000330: 2ec1 41bc f01e 2bbd 18b3 913c 3e5b 923c
00000340: b623 9d3b 59a3 5e3c 1228 b13c ae9b 973c
00000350: 83b7 d0bc 7ed0 b23c f85a 853d 6773 3c3d
00000360: 4a2d 56bd da51 89bd 66ef 2a3d aacf 7e3d
00000370: 273a 30bd 14e9 7bbd 743c 093d ae8f 85bd
00000380: 5fff 763d 4a9a b8bd 6d33 b13c 1fff f2bc
00000390: b299 333d 897d 363d d93f 9cbd 27d2 4e3c
000003a0: b20f d23c 4f46 073d b625 8c3d 6a2f 9fbd
000003b0: a8ba 933d 7133 28bd e87f b83b 7f88 903d
000003c0: f977 eb3b 9ed7 83bb 3c08 60bd fa05 953d
000003d0: ff08 90bd 8fcc 07bd a70f ee3c 7cad a0bd
000003e0: 8f4a 10bb d13a a9bd 356e ab3c 7f34 7ebc
000003f0: 85f3 40bd 56b6 903d 9690 18bd d167 223c

2.bias f4 [100]
0.046788856 -0.050738264 0.06521651 -0.040915065 0.038918428 -0.020603403 -0.025533766 -0.0063082534
0.03930592 -0.044308506 -0.06100335 -0.03641636 -0.0053776638 0.05382084 -0.010481993 -0.051451743
-0.08876623 0.04162434 -0.0150297675 -0.09228058 0.031544853 -0.0075559467 -0.030713763 -0.05994815
-0.022069002 -0.030377235 0.026317218 -0.035061937 -0.009256674 -0.00662857 -0.08136288 0.08400033
0.031157333 -0.049978822 0.051351693 0.010127258 -0.0029988962 0.081259996 -0.0595526 0.05249427
0.039164376 0.027382996 0.07327849 -0.023417378 -0.021124845 -0.07397409 0.04776449 -0.04470389
0.033481605 -0.033142366 0.035892043 -0.012691836 0.00530489 -0.0086338585 0.06677275 -0.0006771456
-0.02989002 -0.06507325 0.06343157 -0.0158747 -0.07578092 -0.0137125375 0.06887061 -0.017310532
-0.045315396 -0.08511064 0.03275069 -0.0017506717 -0.07548665 0.025353031 -0.018135622 -0.016850593
-0.0863099 0.015748842 0.08685884 -0.021942973 -0.05531643 0.02641486 0.078988746 -0.08599417
0.015812576 0.06900807 -0.0818415 -0.023630757 0.06361119 0.031657197 -0.049324576 0.039308287
0.03185201 -0.0146638565 -0.016151069 0.056754995 0.00036678897 -0.0084133865 -0.08615737 -0.030794712
0.024860471 -0.06494272 -0.029579 0.0042797546
00000000: aca5 3f3d edd2 4fbd 3c90 853d 8e96 27bd
00000010: ee68 1f3d 78c8 a8bc 302c d1bc 77b5 cebb
00000020: 3fff 203d d67c 35bd a6de 79bd 5229 15bd
00000030: 1d37 b0bb 3e73 5c3d aabc 2bbc 10bf 52bd
00000040: 12cb b5bd 497e 2a3d 6a3f 76bc 9afd bcbd
00000050: 2d35 013d e097 f7bb 6e9b fbbc 318c 75bd
00000060: 0dca b4bc aed9 f8bc 3597 d73c 1b9d 0fbd
00000070: 4ea9 17bc 7a34 d9bb 95a1 a6bd 5d08 ac3d
00000080: aa3d ff3c 98b6 4cbd 2756 523d ccec 253c
00000090: 2189 44bb a46b a63d 6ded 73bd 3b04 573d
000000a0: d36a 203d 4e52 e03c 0813 963d cdd5 bfbc
000000b0: 030e adbc ba7f 97bd b3a4 433d 6d1b 37bd
000000c0: 0224 093d 4ac0 07bd 8903 133d 6bf1 4fbc
000000d0: a5d4 ad3b 0775 0dbc 27c0 883d 7982 31ba
000000e0: eadb f4bc 2045 85bd 69e8 813d a90b 82bc
000000f0: 0733 9bbd 8daa 60bc 090c 8d3d d1ce 8dbc
00000100: a39c 39bd 7d4e aebd 9625 063d cb76 e5ba
00000110: bf98 9abd 29b1 cf3c 2891 94bc 410a 8abc
00000120: 3fc3 b0bd b703 813c 0ce3 b13d c0c1 b3bc
00000130: 7b93 62bd fa63 d83c dac4 a13d b61d b0bd
00000140: 6089 813c 1a54 8d3d 849c a7bd 4a95 c1bc
00000150: 9546 823d faaa 013d 9108 4abd ba01 213d
00000160: 4177 023d ac40 70bc 3f4f 84bc ed77 683d
00000170: 954d c039 4dd8 09bc 4673 b0bd 3145 fcbc
00000180: 30a8 cb3c b000 85bd a94f f2bc 2f3d 8c3b

4.weight f4 [7, 100]
0.024610633 -0.0021507198 -0.08101334 0.06071573 -0.0018636042 0.09229446 -0.013381096 -0.074458614
-0.039819464 -0.085321456 -0.05143487 -0.020564096 0.10432025 -0.024349302 -0.09423214 -0.060108505
-0.019359851 -0.0756581 -0.0788481 0.060310602 0.06822177 0.036941595 0.09779535 -0.016466916
-0.0039158254 0.018283546 0.0026557574 0.010535193 -0.08208407 0.011599472 0.07633187 -0.08770127
0.01375803 -0.009233565 0.050081696 0.08129471 -0.002125063 -0.10631845 0.07112195 -0.025117464
0.11478448 -0.088151105 -0.0052924054 0.025217094 -0.030260516 0.08547773 0.07562414 -0.022946445
-0.104846604 0.11095435 -0.004079698 0.047067773 -0.066626415 0.019603705 0.019606495 0.074441604
-0.035094894 0.03926227 0.010785333 0.10073557 -0.099686585 -0.089242935 0.07598464 0.021020807
0.05916524 -0.017321099 0.045427926 0.018897822 -0.073113605 -0.01864356 -0.0134914685 0.0111395195
-0.0852428 -0.07323728 -0.04903355 -0.09549245 -0.058108937 0.09211178 0.08075671 0.040227722
0.05204595 0.10456965 -0.077034056 0.09022845 0.07694526 -0.02187993 -0.070415795 -0.09774101
-0.05026165 0.0010722568 0.046333633 -0.047068696 0.03487947 0.09379702 -0.033740234 -0.037766792
-0.07523723 0.035008892 -0.0015121292 -0.005888634 -0.054963604 -0.0056172567 -0.036755968 -0.04865294
-0.034195017 -0.04925828 0.025033709 0.039673444 0.0743898 -0.0023222137 0.056164917 -0.013464057
0.030119143 0.08841622 -0.054480687 -0.074532904 -0.053123962 0.092234254 0.015210704 0.07469996
0.029184673 -0.041741576 0.10074948 -0.082414284 -0.02113122 -0.08089774 -0.07849598 -0.07767095
-0.08712081 -0.015286203 0.030232804 0.05127785 0.07591906 0.0066478224 -0.031136725 -0.005283738
0.048161034 0.03847061 0.02658704 -0.022075051 -0.026786739 0.04910345 0.0653803 0.027148461
-0.08294648 -0.013955855 0.061683863 0.09008795 0.008731362 -0.059978213 -0.034704246 0.072862245
-0.014411426 0.05246508 0.04640554 0.0047829873 -0.06362003 -0.022819368 0.049870487 -0.07723697
-0.045060027 -0.06301478 -0.016251931 0.04776327 0.0109286485 -0.015296216 -0.017616838 0.0028940223
0.039851952 0.0144477645 0.11220277 0.0351535 0.073754355 0.050655868 -0.004189024 -0.039813183
0.009681284 0.0703966 0.046836622 0.0041012955 0.08601357 0.079067774 -0.0006498933 -0.060593877
0.06901682 -0.04820491 0.004259582 -0.008024991 0.09499344 0.07106172 0.061496444 -0.08049025
-0.0297829 0.001585842 -0.08661885 -0.020776344 0.00054534496 -0.076079436 -0.06767595 -0.042961102
-0.008890394 0.042632602 0.04004511 0.032284476 0.04349306 -0.01580594 0.094424084 0.053711675
0.077823326 0.038049184 -0.0696866 0.03134418 0.05356643 0.034172136 0.009796966 -0.05596185
-0.022549607 0.0030790842 -0.026010912 -0.021541528 0.019774733 0.089585185 -0.05648191 -0.054903507
0.07331637 -0.09513091 0.0013732121 -0.048048783 -1.1673308e-05 0.068047196 -0.003931892 0.038071513
0.03439675 -0.022154871 0.03937501 0.08106157 -0.0194169 0.075915776 -8.6747295e-06 0.01237171
0.08626233 -0.040612202 0.07361765 0.09955418 0.040516328 -0.05723796 0.016680896 -0.039329678
0.112120345 -0.049527064 0.03426741 0.007130942 0.08964491 -0.090619735 0.005334915 0.0012736089
00000000: 3d9c c93c 17f3 0cbb 52ea a5bd 0fb1 783d
00000010: 2e44 f4ba e104 bd3d 623c 5bbc c27d 98bd
00000020: bc19 23bd 04bd aebd 5fad 52bd 0976 a8bc
00000030: dba5 d53d 3078 c7bc c8fc c0bd 5634 76bd
00000040: 8d98 9ebc a2f2 9abd 1d7b a1bd 4008 773d
00000050: dbb7 8b3d 1250 173d ee48 c83d a0e5 86bc
00000060: 5350 80bb 60c7 953c 370c 2e3b cd9b 2c3c
00000070: b11b a8bd b60b 3e3c e253 9c3d b99c b3bd
00000080: 5c69 613c 6148 17bc 7722 4d3d d77d a63d
00000090: a444 0bbb 7dbd d9bd 63a8 913d 24c3 cdbc
000000a0: 2014 eb3d 9188 b4bd ea6b adbb 1494 ce3c
000000b0: e7e4 f7bc f30e af3d d4e0 9a3d 2ffa bbbc
000000c0: d1b9 d6bd 093c e33d fdae 85bb 23ca 403d
000000d0: 6e73 88bd f397 a03c cd9d a03c d774 983d
000000e0: aabf 0fbd 79d1 203d f7b4 303c 734e ce3d
000000f0: 7b28 ccbd 00c5 b6bd d69d 9b3d d433 ac3c
00000100: 4057 723d fae4 8dbc a212 3a3d 9bcf 9a3c
00000110: 96bc 95bd 61ba 98bc 520b 5dbc 8882 363c
00000120: c793 aebd 6dfd 95bd 67d7 48bd 8c91 c3bd
00000130: a303 6ebd 1aa5 bc3d c663 a53d d3c5 243d
00000140: 222e 553d 9d28 d63d 08c4 9dbd b2c9 b83d
00000150: 7a95 9d3d 8a3d b3bc 2836 90bd 702c c8bd
00000160: 29df 4dbd f88a 8c3a 56c8 3d3d 1bcb 40bd
00000170: c6dd 0e3d a718 c03d 3333 0abd 5ab1 1abd
00000180: fa15 9abd 7c65 0f3d a332 c6ba 71f5 c0bb
00000190: 8421 61bd f710 b8bb 6d8d 16bd 4e48 47bd
000001a0: 1310 0cbd 0dc3 49bd 7e13 cd3c 9f80 223d
000001b0: ae59 983d 4830 18bb 2f0d 663d 5998 5cbc
000001c0: 6cbc f63c 9013 b53d 2427 5fbd b5a4 98bd
000001d0: 8398 59bd 50e5 bc3d 5136 793c 4bfc 983d
000001e0: b214 ef3c 37f9 2abd be55 ce3d d2c8 a8bd
000001f0: 611b adbc b7ad a5bd 80c2 a0bd f211 9fbd
00000200: 656c b2bd fb72 7abc c9aa f73c b908 523d
00000210: 747b 9b3d fad5 d93b 7212 ffbc 3523 adbb
00000220: 8144 453d 5c93 1d3d 10cd d93c bdd6 b4bc
00000230: dd6f dbbc b320 493d 1be6 853d 7366 de3c
00000240: d8df a9bd 19a7 64bc 38a8 7c3d 0880 b83d
00000250: fd0d 0f3c b7ab 75bd 0a26 0ebd cd38 953d
00000260: e71d 6cbc a0e5 563d bc13 3e3d 9bba 9c3b
00000270: 384b 82bd afef babc ff44 4c3d 6b2e 9ebd
00000280: dd90 38bd e50d 81bd c522 85bc 6ba3 433d
00000290: 130e 333c fb9c 7abc 3051 90bc a3a9 3d3b
000002a0: cd3b 233d 51b6 6c3c 91ca e53d 1efd 0f3d
000002b0: 860c 973d 877c 4f3d 1544 89bb 2613 23bd
000002c0: 409e 1e3c 182c 903d c2d7 3f3d 2964 863b
000002d0: e227 b03d 49ee a13d 9a5d 2aba 4931 78bd
000002e0: b158 8d3d 8372 45bd f793 8b3b 407b 03bc
000002f0: ec8b c23d cf88 913d b2e3 7b3d 12d8 a4bd
00000300: 45fb f3bc 07dc cf3a 3965 b1bd 2733 aabc
00000310: 7bf5 0e3a 89cf 9bbd b099 8abd fbf7 2fbd
00000320: 04a9 11bc 869f 2e3d 5706 243d ba3c 043d
00000330: c725 323d 757b 81bc 6a61 c13d c600 5c3d
00000340: d661 9f3d 76d9 1b3d d9b7 8ebd c162 003d
00000350: 7968 5b3d 15f8 0b3d 7483 203c 4138 65bd
00000360: f4b9 b8bc 76ca 493b d614 d5bc dc77 b0bc
00000370: 9ffe a13c 7078 b73d 9359 67bd 80e2 60bd
00000380: e526 963d ffd3 c2bd 5afd b33a cdce 44bd
00000390: 7ad8 43b7 545c 8b3d 1ad7 80bb e0f0 1b3d
000003a0: 9be3 0c3d 227e b5bc b147 213d 9c03 a63d
000003b0: 3110 9fbc bb79 9b3d ae89 11b7 b6b2 4a3c
000003c0: 4eaa b03d fb58 26bd dac4 963d 10e3 cb3d
000003d0: 73f4 253d 5a72 6abd 60a6 883c 2818 21bd
000003e0: 5a9f e53d e4dc 4abd fc5b 0c3d adaa e93b
000003f0: c097 b73d d796 b9bd 83d0 ae3b 39ef a63a

4.bias f4 [7]
0.0645241 0.007470091 -0.06579402 -0.08687444 -0.070768766 -0.040870536 0.008743925
00000000: 3625 843d aac7 f43b 04bf 86bd 3aeb b1bd
00000010: 37ef 90bd dd67 27bd ae42 0f3c
