models/date-06-19-2025-20-15p1-RLbotp2-RLbotDDQNself_play-Trueexp_dir-RLbotepochs-50p1_win_rate-0.54p2_win_rate-0.46is_test-False/model.pth (torch, 117053 bytes, 6 tensors)

0.weight f4 [150, 84]
0	0x3da40f27	0.080107026
1	0x3de8e2b7	0.113713674
2	0x3bc83eae	0.0061109876
3	0xbd1016a1	-0.03517783
4	0x3d5ae550	0.053441346
5	0x3d385893	0.045006346
6	0xbd208cd4	-0.039196804
7	0x3defb216	0.11703889
8	0xbc0d0c3d	-0.008608875
9	0x3e1bffbf	0.15234278
10	0xbcf54be5	-0.029943416
11	0xbd5aee5d	-0.053449977
12	0x3c2d8925	0.01059178
13	0x3d063b5f	0.032771464
14	0xbca6284f	-0.020282893
15	0x3b680c8a	0.0035407864
16	0xbd1b9d10	-0.037991583
17	0xbdd8f180	-0.105929375
18	0x3dd7888d	0.10524092
19	0x3dd6b9de	0.1048467
20	0x3d66a7f7	0.056312528
21	0xbda94361	-0.08264805
22	0xbcbc5100	-0.022987843
23	0x3d8babfd	0.068199135
24	0x3ce1c50d	0.027559781
25	0xbded4b93	-0.1158668
26	0xbca8cfe6	-0.020606946
27	0xbc5daa2a	-0.01352934
28	0x3d6a1e14	0.05715759
29	0xbdac9af1	-0.0842799
30	0x3df54fc9	0.119781084
31	0xbdc96818	-0.098343074
32	0xbc751c37	-0.01496034
33	0xbcd90d4c	-0.026495598
34	0xbbf40172	-0.0074464614
35	0x3e0c2df9	0.13689412
36	0xbc9d84fc	-0.019228451
37	0xbdd73f49	-0.105101176
38	0x3cf8627c	0.030320399
39	0xbdbf1121	-0.09329439
40	0xbde9afdf	-0.11410498
41	0xbd621e45	-0.05520465
42	0xbd82cbf8	-0.0638656
43	0xbdb063e6	-0.08612804
44	0x3d171757	0.036887493
45	0xbda21595	-0.07914273
46	0xbd087171	-0.03331131
47	0xbc292d62	-0.0103257615
48	0x3dc3a5fa	0.09553142
49	0xbd94eac7	-0.07271343
50	0x3db23cc1	0.08702994
51	0x3d344db5	0.04401942
52	0xbd96c4e5	-0.073617734
53	0xbcd06b59	-0.025441812
54	0xbd15b57f	-0.03655004
55	0xbd8c4680	-0.06849384
56	0x3db248e6	0.087053105
57	0x3d2df891	0.04247338
58	0xbd95eb8b	-0.07320317
59	0xbcf01ce6	-0.029310655
60	0x3d297280	0.04136896
61	0x3dec5fa6	0.11541681
62	0x3db33b52	0.08751549
63	0x3ce28fb6	0.027656417
64	0x3deb1aa9	0.114796944
65	0x3b884f8d	0.004159874
66	0x3d9092f1	0.07059277
67	0xbda42580	-0.08014965
68	0x3e0962fe	0.13416669
69	0x3d903160	0.070406675
70	0xbd108dad	-0.035291363
71	0xbdcbee71	-0.099575885
72	0xbd634c43	-0.05549265
73	0xbd40f62d	-0.04710977
74	0xbc71050d	-0.014710677
75	0xbcfb20a0	-0.030655205
76	0x3d270cd1	0.040783707
77	0xbdb23766	-0.08701973
78	0xbd715e30	-0.058927715
79	0xbd0a3f25	-0.033751626
80	0xbda5b018	-0.08090228
81	0x3da05d9b	0.07830354
82	0xbcde3f53	-0.027129805
83	0x3d4b48c0	0.049629927
84	0x3ceb1777	0.028697712
85	0x3d9a5973	0.07536592
86	0x3e23b80b	0.15988176
87	0xbdda746e	-0.106667385
88	0x3d95c80a	0.07313545
89	0xbd40e72c	-0.047095463
90	0xbcd37668	-0.025813296
91	0xbd9d0654	-0.076672226
92	0xbb905924	-0.0044051576
93	0x3e376020	0.17907763
94	0xbd867847	-0.0656591
95	0x3d7a7761	0.061149005
96	0xbe08a1a9	-0.13342918
97	0x3cab9bbd	0.020948285
98	0xbdc44855	-0.09584109
99	0x3ce5aa28	0.028035238
100	0x3d9ee4de	0.07758497
101	0xbdbc1819	-0.09184284
102	0xbd0bcea9	-0.034132633
103	0xbcc97517	-0.024591966
104	0x3d473dc3	0.048642885
105	0xbc2aee4d	-0.010432792
106	0x3dbf7e55	0.09350268
107	0x3c43a5d7	0.011941395
108	0x3d8b8325	0.06812123
109	0xbd308a04	-0.043100372
110	0xbd586ac7	-0.052836206
111	0xbc14c816	-0.009080907
112	0x3ddcd763	0.10783269
113	0x3dc28815	0.09498612
114	0xbd4b6c40	-0.049663782
115	0x3c40f863	0.01177797
116	0xbcf9029c	-0.030396752
117	0x3e0485fd	0.12941737
118	0xbdc78e13	-0.097438954
119	0x3db9771d	0.09055922
120	0x3d03747c	0.03209351
121	0x3d68cf4f	0.05683833
122	0x3d827bba	0.06371255
123	0xbd66be42	-0.056333788
124	0x3d965212	0.073398724
125	0x3c95d230	0.018288702
126	0x3d9a8a49	0.07545907
127	0x3e2b08a8	0.16702521
128	0x3da6f13e	0.08151482
129	0xbcc00b4b	-0.023442885
130	0xbb1d26a8	-0.002397934
131	0x3d87004d	0.06591854
132	0x3e11ecab	0.14250438
133	0xbb8bbebf	-0.004264682
134	0x3d339b1c	0.043849096
135	0x3dec10d8	0.1152665
136	0xbd75cafe	-0.06000804
137	0x3d8fc103	0.07019236
138	0xbc780dd4	-0.015140016
139	0xbcfcd834	-0.030864812
140	0x3d979c0b	0.0740281
141	0xbcac7c99	-0.021055507
142	0xbd88e6ec	-0.0668467
143	0xbd9b497a	-0.07582374
144	0xbdb49304	-0.088171035
145	0x3de34fe7	0.110992245
146	0x3df4caa6	0.119527146
147	0xbd940f1e	-0.07229446
148	0x3dc4296e	0.095782146
149	0xbd831f66	-0.06402473
150	0x3d710dc2	0.05885101
151	0xbcc8f692	-0.024531636
152	0x3e017017	0.12640415
153	0x3d0b6cf7	0.034039464
154	0x3d853b19	0.065054126
155	0xbd53fdca	-0.051755704
156	0x3cef3c97	0.029203696
157	0x3dbc33ef	0.09189593
158	0xbd568b6f	-0.052379068
159	0xbd9c0d12	-0.076196805
160	0xbca8ae6a	-0.02059098
161	0xbd66700b	-0.056259196
162	0x3dabf8bf	0.08397054
163	0x3c3c4a22	0.011492284
164	0xbb784eb2	-0.0037888703
165	0xbe075e95	-0.13219674
166	0xbc503fe9	-0.01271055
167	0x3d5ded21	0.054181222
168	0x3d0339de	0.03203761
169	0xbd4b4ae1	-0.049631957
170	0xbd201a89	-0.039087806
171	0xbd5b4fae	-0.053542785
172	0x3aad1e34	0.0013207854
173	0xbda1fc65	-0.079094686
174	0xbba3b28f	-0.004995651
175	0x3d902828	0.07038909
176	0x3d2be6c6	0.04196813
177	0xbd0ac2a5	-0.033877034
178	0xbc88efcd	-0.016715908
179	0xbdd09d4c	-0.10186252
180	0xbdd0d6ce	-0.10197221
181	0xbccfad17	-0.02535109
182	0x3d48ac85	0.048992652
183	0xbbfc46e7	-0.007698882
184	0xbd2af32a	-0.041735806
185	0xbcc77293	-0.024346625
186	0xbde69448	-0.11258751
187	0x3d8f7734	0.07005158
188	0x3c78361e	0.015149621
189	0x3b3ffd1c	0.0029295152
190	0x3d37e98b	0.04490046
191	0xbdb109e1	-0.086444624
192	0xbd9ce287	-0.07660394
193	0xbb811747	-0.0039395425
194	0xbc025957	-0.007955871
195	0x3d6429f3	0.05570407
196	0x3d681e2e	0.056669407
197	0x3df72406	0.12067418
198	0x3c527866	0.012846088
199	0xbce4e0b5	-0.02793918
200	0xbd2df632	-0.04247112
201	0x3d9206cd	0.071302034
202	0x3d9b6215	0.07587067
203	0x3d605e86	0.054777645
204	0x3dd4f7cc	0.10398826
205	0xbd709ca1	-0.058743123
206	0x3d58f012	0.052963324
207	0xbcd72e49	-0.026267188
208	0xbd5dbb03	-0.054133426
209	0x3d8bf3f1	0.068336375
210	0x3d83dbc0	0.06438398
211	0xbb3bf7e2	-0.0028681685
212	0x3dead56a	0.11466487
213	0x3bf5c495	0.007500241
214	0xbd02f483	-0.031971466
215	0x3c11bb13	0.0088947
216	0x3ced1a01	0.028943064
217	0xbb700ea1	-0.0036629813
218	0xbd3c55aa	-0.045980133
219	0xbda09015	-0.078399815
220	0x3dd3d8cf	0.10344087
221	0xbdf69008	-0.120391905
222	0x3d544f2a	0.05183331
223	0x3d53f8f8	0.051751107
224	0xbcea4741	-0.02859843
225	0xbdb7712f	-0.08957135
226	0x3d039a8f	0.03212982
227	0x3d88e845	0.06684927
228	0x3cbe3908	0.023220554
229	0xbd78a2cf	-0.06070214
230	0x3dae847e	0.08521365
231	0x3d5c766c	0.053823873
232	0x3d03a1bd	0.032136668
233	0xbc9777e3	-0.018489784
234	0xbdd62f31	-0.1045822
235	0x3db80a3d	0.08986328
236	0x3dd91fc3	0.10601761
237	0xbbc160e2	-0.005901442
238	0x3d77942a	0.060444035
239	0xbd0e777d	-0.03478192
240	0x3ce584a2	0.028017346
241	0xbd8fcae2	-0.07021119
242	0x3d857b0c	0.0651761
243	0xbd8babfb	-0.06819912
244	0xbd0ba948	-0.034096986
245	0xbd9243fc	-0.07141873
246	0x3ddf7cf5	0.109125055
247	0x3da5b3b8	0.08090919
248	0x3b58136e	0.0032970565
249	0x3dc4c693	0.096081875
250	0xbd5fff84	-0.054687038
251	0xbdb861f2	-0.090030566
252	0xbd002e0b	-0.03129391
253	0x3dcb792a	0.099352196
254	0xbcfb2c41	-0.03066075
255	0xbd6e787e	-0.05822038

0.bias f4 [150]
0	0x3d72b4dd	0.059254516
1	0xbc7452d0	-0.014912322
2	0xbd6f0186	-0.058351062
3	0x3c772372	0.015084134
4	0xbda10fc8	-0.07864338
5	0x3de7a01f	0.113098375
6	0xbbf7101f	-0.0075397636
7	0xbb9df0e4	-0.004819976
8	0x3c9c3a9f	0.019070921
9	0xbd7769f0	-0.060403764
10	0xbd827fcd	-0.06372032
11	0x3cbb5717	0.022868676
12	0x3e032e35	0.12810595
13	0xbd936673	-0.07197275
14	0xbde21b1d	-0.11040328
15	0x3d9297bf	0.071578495
16	0xbcd55ae2	-0.026044313
17	0x39ee452e	0.0004544644
18	0x3d50fa74	0.0510201
19	0xbd944a1a	-0.07240696
20	0x3cd09155	0.025459925
21	0xbaf00287	-0.00183113
22	0x3d117eb3	0.03552122
23	0x3d0e298a	0.034707583
24	0x3d098c40	0.03358102
25	0xbd88ffbd	-0.06689403
26	0xbd1fe518	-0.03903684
27	0xbdbe5dae	-0.09295212
28	0xbd5cf018	-0.05393991
29	0xbdafc84c	-0.085831255
30	0xbdcc48a4	-0.099747926
31	0xbdbbec0d	-0.091758825
32	0xbdc83e95	-0.097775616
33	0x3d8e315e	0.0694301
34	0x3c3e9e2a	0.011634389
35	0x3c011987	0.007879621
36	0xbd54667d	-0.051855553
37	0x3d51db96	0.051234804
38	0x3c8aa0d2	0.016922388
39	0x3d39ee34	0.045393184
40	0xbdb65f87	-0.08904939
41	0x3cb4bebb	0.022063604
42	0xbc007084	-0.007839326
43	0xbd2e74b5	-0.04259177
44	0xbc4cdb37	-0.012503437
45	0xbc450511	-0.012025134
46	0x3d9994aa	0.074990585
47	0x3d68bc46	0.056820177
48	0xbca0a258	-0.019608662
49	0xbd9b00ed	-0.07568536
50	0xbdb47c59	-0.0881278
51	0x3d6293ce	0.05531674
52	0xbcc3b0b5	-0.023887971
53	0xbd696815	-0.056984026
54	0x3ce3c24f	0.027802614
55	0x3c94ac5f	0.0181486
56	0xbd2efab8	-0.042719573
57	0xbc94b8cc	-0.018154524
58	0x3aceff60	0.001579266
59	0xbd1a6a25	-0.037698884
60	0x3d414f35	0.04719468
61	0xbd9fd6b4	-0.07804623
62	0xbd95cd47	-0.07314544
63	0x3da61467	0.0810936
64	0xbdd21513	-0.10257926
65	0x3c4d929b	0.0125471605
66	0x3d041674	0.032247975
67	0x3dc2100e	0.094757184
68	0x3bf183c9	0.0073704463
69	0x3df38908	0.11891371
70	0x3dbc1577	0.091837816
71	0xbd2d9f09	-0.042387996
72	0x3d817734	0.06321564
73	0x3cfc5542	0.030802373
74	0xbdb3e569	-0.08783991
75	0x3d7f3c06	0.062313102
76	0x3cdc3929	0.026882725
77	0x3dd84ccf	0.10561525
78	0xbd731536	-0.0593464
79	0x3d310d57	0.043225612
80	0xbb082d26	-0.0020778864
81	0x3de606f0	0.11231792
82	0xbb467332	-0.0030281064
83	0x3da5d7ba	0.08097787
84	0xbd3e50b4	-0.046463683
85	0x3d84f9a0	0.06492925
86	0xbd753194	-0.059861735
87	0x3d0fc70b	0.03510193
88	0x3c14ffbd	0.009094176
89	0xbd7f040d	-0.062259723
90	0x3c93fa35	0.018063644
91	0xbdd151e7	-0.102207
92	0x3bfda3ca	0.0077404724
93	0x3da31474	0.079628855
94	0x3c0c6772	0.008569585
95	0x3dfa0032	0.122070685
96	0x3dd3238e	0.10309516
97	0x3dcbbf53	0.099486016
98	0xbcaedb1d	-0.021344716
99	0x3ba42864	0.0050096978
100	0xbcabae23	-0.020957058
101	0x3b696d7a	0.0035618232
102	0x3df1b8f2	0.11802854
103	0xbdd62a99	-0.104573436
104	0x3c141071	0.009037123
105	0xbda669fd	-0.081256844
106	0xbd6254d8	-0.055256695
107	0xbdfeca05	-0.12440876
108	0xbc822cdb	-0.01589053
109	0xbcd333e9	-0.025781589
110	0xbdb59ab7	-0.088674
111	0x3c08382e	0.0083141755
112	0x3ccb21da	0.024796415
113	0xbd03dd33	-0.032193374
114	0xbde74fec	-0.11294541
115	0xbca8c488	-0.020601526
116	0xbd8489b7	-0.064715795
117	0x3bf9e465	0.0076261037
118	0x3c55c8a4	0.013048325
119	0x3d6a0e68	0.057142645
120	0xbdacf4fe	-0.08445166
121	0xbda3d0e5	-0.07998828
122	0xbd5bbb74	-0.053645566
123	0x3c8fcab6	0.017552715
124	0x3de7a560	0.1131084
125	0x3dd4a5f5	0.10383216
126	0xbdb22670	-0.086987376
127	0xbdc2d090	-0.095124364
128	0x3dcac9e7	0.09901791
129	0x3da9dbc6	0.082938716
130	0xbdd325d1	-0.10309947
131	0xbce1daf7	-0.02757023
132	0xbdc05579	-0.093913026
133	0xbd9f7ead	-0.07787833
134	0x3d78a146	0.060700677
135	0x3d40f4de	0.047108524
136	0x3c394b6e	0.011309488
137	0xbd0c9d1a	-0.03432951
138	0xbc5e0a51	-0.013552264
139	0x3acbfe5f	0.0015563479
140	0xbc8ffad2	-0.017575655
141	0xbdad8352	-0.08472313
142	0xbd928f19	-0.071562
143	0x3d1433c2	0.036182173
144	0x3d96b606	0.07358937
145	0xbd5281b8	-0.05139324
146	0x3dc42d5c	0.09578964
147	0x3da8c367	0.08240395
148	0xbc1fc23d	-0.0097509
149	0xbc7d81b0	-0.015472814

2.weight f4 [100, 150]
0	0x3d4d2d9a	0.050092317
1	0x3dc3b4eb	0.09555992
2	0xbc27a782	-0.010232808
3	0xbcf4992d	-0.029858196
4	0xbd3cb64a	-0.046072282
5	0x3dcad7db	0.099044524
6	0xbd865ed5	-0.065610565
7	0x3d925ed1	0.07146991
8	0xbd934c94	-0.071923405
9	0xbdadcd29	-0.08486397
10	0xbd6111f9	-0.05494878
11	0xbb44292a	-0.0029931762
12	0x3d2562e0	0.040377498
13	0x3d80d1e4	0.062900335
14	0xba632ada	-0.0008665748
15	0xbc4038ba	-0.011732275
16	0xbd00e076	-0.031464063
17	0xbd8e97ff	-0.06962585
18	0xbd83efe0	-0.06442237
19	0xbcab96ba	-0.020945895
20	0xbd5c848a	-0.053837337
21	0xbc8ae6ae	-0.0169557
22	0x3d962a1a	0.07332249
23	0x3cd42631	0.025897117
24	0x3da1bfc3	0.07897904
25	0x3ca47fb0	0.020080417
26	0xbb873457	-0.0041261124
27	0x3d1dc8a6	0.03852143
28	0x3db4981d	0.08818076
29	0x3d9071e0	0.0705297
30	0xbd4964dc	-0.049168453
31	0x3bae4f4a	0.0053195106
32	0xbcabc4c9	-0.020967858
33	0x3d97a383	0.07404234
34	0x3ddffdbb	0.10937067
35	0xbcdf2ead	-0.027243936
36	0x3d9792a3	0.074010156
37	0x3b816e5a	0.0039499225
38	0xbd6dcba8	-0.05805555
39	0x3d8fcd41	0.07021571
40	0xbd1c630d	-0.0381804
41	0xbd8ec3e6	-0.069709584
42	0xbd2ad354	-0.041705444
43	0xbda8381d	-0.08213828
44	0xbd1e719a	-0.038682558
45	0x3d2c4f46	0.04206779
46	0xbdaea451	-0.085274346
47	0x3adc56d4	0.0016810545
48	0x3cc20399	0.023683356
49	0xbd9ed4a4	-0.07755402
50	0xbe0e0d04	-0.13872153
51	0xbcf2f662	-0.0296585
52	0xbcb946ae	-0.02261671
53	0xbe021357	-0.1270269
54	0x3cb432bc	0.021996848
55	0x3dca2404	0.09870151
56	0x3d8ffdb7	0.07030814
57	0x3c17618e	0.009239567
58	0x3d2024ee	0.03909772
59	0xbd8e6471	-0.069527514
60	0x3d55510d	0.05207925
61	0xbd655151	-0.055985752
62	0x3d80ef23	0.06295612
63	0xbc82b924	-0.015957423
64	0x3c6db8df	0.014509409
65	0xbcaac8d0	-0.020847708
66	0xbcfa1c51	-0.03053108
67	0x3c856938	0.016285524
68	0x3c3da310	0.011574522
69	0x3d9c8889	0.076432295
70	0x3c975ab8	0.018475875
71	0x3ce791cd	0.028267765
72	0xbda4634a	-0.080267504
73	0xbdcbf98b	-0.09959706
74	0xbd586391	-0.05282933
75	0xbd4ad0ca	-0.049515523
76	0x3de30323	0.11084583
77	0x3e150282	0.14551738
78	0x3e047ca6	0.12938175
79	0xbd08d916	-0.033410154
80	0xbd6b0379	-0.05737636
81	0xbe0aec25	-0.13566644
82	0xbd0c486b	-0.03424875
83	0x3c195557	0.0093587255
84	0x3bebd964	0.007197546
85	0x3ca57a40	0.020199895
86	0x3cb13034	0.02162943
87	0xbd70aa39	-0.058756087
88	0xbda32879	-0.07966704
89	0x3cc67a57	0.024228258
90	0xbd18b801	-0.037284855
91	0x37a553e8	1.9708605e-05
92	0xbcb216a8	-0.021739319
93	0x3dfca380	0.12335873
94	0xbd5d309b	-0.054001432
95	0xbd458d84	-0.048230663
96	0x3db2b996	0.08726804
97	0xbd2bd987	-0.041955497
98	0x3d95606b	0.07293781
99	0x3d2ebfe6	0.042663477
100	0xbd286077	-0.04110762
101	0x3cf47eae	0.029845562
102	0x3adac96a	0.0016692106
103	0xbc415569	-0.0118001485
104	0x3d61dd5b	0.05514274
105	0x3c813add	0.015775139
106	0xbd69f43a	-0.05711768
107	0x3a541683	0.0008090513
108	0xbd721465	-0.05910148
109	0x3c20ee7f	0.009822487
110	0x3ba9d8e3	0.0051833256
111	0xbdaa2cd6	-0.08309333
112	0x3d54c46f	0.051945146
113	0x3cb12d47	0.021628035
114	0xbdcf7307	-0.101293616
115	0x3d250382	0.04028655
116	0x3d57b476	0.052662335
117	0xbd0c0d62	-0.03419245
118	0xbd95ff61	-0.073241
119	0xbdd69b42	-0.10478832
120	0x3d73bdf8	0.05950734
121	0x3d54332f	0.051806625
122	0xbcdcc5df	-0.026949821
123	0xbcdbcbd7	-0.026830597
124	0x3d99e247	0.07513862
125	0xbd5ce4a7	-0.053928997
126	0xbd314e71	-0.0432877
127	0xbde28427	-0.11060362
128	0xbd64b222	-0.055833943
129	0xbcc009b0	-0.02344212
130	0xbd4170e8	-0.047226816
131	0x3b58c6a2	0.0033077379
132	0x3c5f7909	0.013639697
133	0x3e0553ef	0.130203
134	0x3c0949fe	0.0083794575
135	0xbd0940c6	-0.03350904
136	0xbd10e562	-0.035375006
137	0x3c6e68c6	0.014551347
138	0xbd4ac2c1	-0.049502138
139	0xbb0ade24	-0.0021189535
140	0x3d9a5496	0.07535665
141	0xbd0028ba	-0.03128884
142	0x3d0e91c0	0.034806967
143	0x3d5e583d	0.05428337
144	0x3da793b5	0.0818247
145	0x3cb593b3	0.022165155
146	0xbc954147	-0.018219603
147	0xbd4e3404	-0.050342575
148	0x3e117f08	0.14208615
149	0xbd189a87	-0.037256744
150	0xbbe60888	-0.00702006
151	0xbdb76980	-0.089556694
152	0x3d8487e6	0.06471233
153	0xbd168684	-0.036749378
154	0xbc205646	-0.009786194
155	0xbbfa6e7e	-0.007642566
156	0xbe050670	-0.12990737
157	0xbd58f2ec	-0.052966043
158	0x3d849ee0	0.064756155
159	0x3d9b245a	0.07575293
160	0x3d6bccd2	0.05756838
161	0x3d4c9f52	0.049956627
162	0xbd842e73	-0.06454172
163	0xbd2aa57c	-0.041661724
164	0x3d041734	0.03224869
165	0x3c0c61f0	0.008568272
166	0x3bca7623	0.006178634
167	0xbbcaab05	-0.006184938
168	0xb98bf354	-0.0002669344
169	0x3d93710b	0.071992956
170	0xbbc3694b	-0.0059634796
171	0xbdada661	-0.08479
172	0x3d84e0fc	0.06488225
173	0xbdc0e10e	-0.09417926
174	0xbc45053e	-0.012025176
175	0x3c8b6541	0.017016055
176	0xbda7d8f0	-0.081956744
177	0x3ce3db73	0.027814602
178	0x3d5c64a7	0.053806927
179	0x3cae9ba4	0.02131445
180	0x3bc36bb4	0.005963767
181	0xbdaa8cba	-0.08327623
182	0xbc2763b5	-0.010216643
183	0x3ca371c5	0.01995171
184	0x3d82cf5b	0.06387206
185	0x3c8d9581	0.017283203
186	0xbcebe54a	-0.028795857
187	0x3cb85e0d	0.022505784
188	0xbcb9f279	-0.022698628
189	0x3c85b50b	0.01632168
190	0xbdb6a5d2	-0.089183465
191	0xbd5f37e8	-0.054496676
192	0xbd2ddfc7	-0.04244974
193	0x3d76734d	0.060168553
194	0x3c93a9ab	0.01802524
195	0xbcc8f2d4	-0.024529852
196	0x3cb61448	0.022226468
197	0x3d81325c	0.063084334
198	0x3cae436c	0.021272384
199	0xbdbaf849	-0.09129388
200	0x3d8427e7	0.06452923
201	0xbcf8b13e	-0.030357953
202	0x3d0e6d80	0.034772396
203	0xbc52cc47	-0.012866086
204	0xbc36f565	-0.011166905
205	0xbd94bb7f	-0.072623245
206	0xbdded260	-0.108799696
207	0xbda44d0e	-0.080225095
208	0xbd3dfdc0	-0.046384573
209	0x3c27b2ff	0.010235547
210	0xbd80099f	-0.06251835
211	0xbd90782d	-0.07054172
212	0xbd073ea9	-0.03301874
213	0x3d898be6	0.06716137
214	0xbda5a228	-0.080875695
215	0xbd4dc79c	-0.05023919
216	0x3d8c965f	0.068646185
217	0xbdadf08b	-0.084931456
218	0xbd0b6d20	-0.034039617
219	0x3be40ec3	0.0069597675
220	0x3d2cb200	0.04216194
221	0xbc2c670a	-0.010522613
222	0x3d1a2aea	0.037638582
223	0x3d25fc0b	0.04052357
224	0x3d1924fb	0.037388783
225	0x3d7d86f4	0.06189628
226	0xbdb838e2	-0.089952245
227	0x3d9aaac0	0.07552099
228	0x3d840edf	0.06448149
229	0xbdb6017d	-0.088870026
230	0xbd8b90fa	-0.068147615
231	0xbdab2071	-0.08355797
232	0xbdb171e7	-0.08664303
233	0x3cd25edb	0.025679996
234	0xbd6804f0	-0.056645334
235	0xbbb1a82a	-0.005421658
236	0x3d98368b	0.07432278
237	0xbd9c8b27	-0.07643729
238	0x3cf71955	0.030163446
239	0x3c5ff695	0.01366963
240	0x3c488dea	0.012240866
241	0x3d4dd4a9	0.050251637
242	0x3d2ca894	0.042152956
243	0xbd35680f	-0.04428869
244	0x3c9a39bf	0.018826364
245	0xbccfb277	-0.025353653
246	0xbd7df325	-0.06199946
247	0xbcec7fc5	-0.028869519
248	0xbd3c161f	-0.045919534
249	0xbd04a2c0	-0.032381773
250	0xbd952561	-0.0728252
251	0xba822cde	-0.0009931584
252	0x3c32fb6b	0.0109242005
253	0x3d166520	0.036717534
254	0x3d30f0a0	0.043198228
255	0x3b960157	0.0045777964

2.bias f4 [100]
0	0x3d59fa5f	0.053217288
1	0x3d198df4	0.037488893
2	0x3d830d65	0.06399039
3	0xbc2e2790	-0.01062955
4	0x3d222849	0.0395892
5	0xbd882adc	-0.066488
6	0x3da432e0	0.08017516
7	0x3d49233a	0.04910586
8	0xbc903431	-0.017603012
9	0x3d2ed51b	0.042683702
10	0xbcb793c4	-0.022409327
11	0xbd2e7f05	-0.042601604
12	0x3c4e47d6	0.012590369
13	0x3d3d6826	0.0462419
14	0xbbb646f3	-0.005562657
15	0x3db662a6	0.089055344
16	0x3d3dfc93	0.04638345
17	0x3cba61fc	0.0227518
18	0x3d026d92	0.031842776
19	0xbd8813c6	-0.066443965
20	0xbdb3d528	-0.08780891
21	0x3c658fd5	0.014011343
22	0xbb4d8a83	-0.0031363077
23	0xbc673625	-0.01411203
24	0xbcd59ff8	-0.026077256
25	0xbda32a5d	-0.079670645
26	0xbd906013	-0.07049575
27	0xbd889b6b	-0.066702686
28	0x3d4f57bf	0.05062079
29	0xbd608978	-0.0548186
30	0x3a9527aa	0.0011379619
31	0x3c284c84	0.010272149
32	0x3d81acec	0.0633181
33	0x3d81be6d	0.06335149
34	0xbcafc998	-0.021458432
35	0x3c93b48e	0.018030431
36	0xbd873cbc	-0.06603381
37	0xbd0d15ed	-0.03444474
38	0xbd0ffeac	-0.035154983
39	0x3c46c013	0.012130755
40	0xbd742db2	-0.05961389
41	0xbdaa45f6	-0.08314125
42	0x3d030f93	0.031997275
43	0x3b85ac23	0.004079358
44	0x3b3e7541	0.0029061588
45	0x3d439a78	0.047754735
46	0x3d23d4d7	0.0399979
47	0x3b9c9cd3	0.004779437
48	0x3d822534	0.06354752
49	0x3df595a5	0.11991433
50	0x3cb6ee2d	0.022330368
51	0xbd159f7a	-0.03652904
52	0xbc18199e	-0.009283451
53	0xbd7a6a80	-0.061136723
54	0xbd81dd15	-0.06340996
55	0xba236f6c	-0.00062345597
56	0xbdadb60e	-0.0848199
57	0x3c681fc9	0.014167734
58	0xbcbf5aa5	-0.023358652
59	0x3c64c599	0.013963127
60	0xbd1df0c7	-0.0385597
61	0xbc371cf3	-0.011176336
62	0xbd8b2372	-0.0679387
63	0xbda03473	-0.07822504
64	0x3cf81dba	0.030287612
65	0x3c0d05fe	0.008607386
66	0xbd89b38a	-0.067236975
67	0x3d0df918	0.034661382
68	0x3d9d0da6	0.07668619
69	0xbdaf1971	-0.085497744
70	0x3be5f71f	0.0070179845
71	0x3c05c44b	0.008164476
72	0xbd404400	-0.04693985
73	0xbd995f0c	-0.07488832
74	0x3d071eb2	0.032988258
75	0xbbb2ac9d	-0.005452706
76	0xbc9e9863	-0.019359773
77	0xbd4915dd	-0.049093116
78	0x3db0bfa6	0.08630304
79	0x3d699f13	0.05703647
80	0x3bdaf379	0.0066818562
81	0xbbd91036	-0.006624247
82	0x3d4eeff1	0.050521795
83	0x3d8614a4	0.06546906
84	0x3c9ff829	0.019527512
85	0x3d4049e5	0.04694547
86	0x3aab82aa	0.0013085206
87	0x3c8921f5	0.016739825
88	0x3d3ec59f	0.046575185
89	0x3d9b42f2	0.07581128
90	0x3c8e25d3	0.01735202
91	0x3cc55739	0.024089443
92	0x3cc7dff8	0.024398789
93	0xbd8c2670	-0.06843269
94	0x3d7b1d5a	0.06130729
95	0xbd89277f	-0.066969864
96	0x3c2d6741	0.0105837
97	0xbbd56716	-0.006512533
98	0xbd19d003	-0.03755189
99	0x3c04355a	0.008069361

4.weight f4 [7, 100]
0	0x3e2366fd	0.15957256
1	0x3d981c2c	0.07427248
2	0xbdfbdee7	-0.122983746
3	0x3e103d4a	0.1408588
4	0x3c889578	0.016672835
5	0xbcb6d31a	-0.022317458
6	0x3d924cee	0.071435794
7	0x3d1d98c4	0.038475767
8	0x3cae2a2e	0.021260347
9	0x3e183c60	0.14866781
10	0x3de99737	0.11405795
11	0x3d1a0090	0.037598193
12	0x3d8aa514	0.067697674
13	0x3ac21535	0.0014807346
14	0x3e09126d	0.13385935
15	0xbd9eaa4d	-0.07747326
16	0x3d7462a4	0.059664384
17	0xbd94b975	-0.072619356
18	0xbcb8d59d	-0.022562796
19	0xbcd7c346	-0.02633823
20	0x3dd2e326	0.102972314
21	0x3dedfe62	0.11620785
22	0x3e283ab8	0.1642865
23	0xbd30a823	-0.043129098
24	0x3e2d04d9	0.1689638
25	0x3db5449d	0.088509776
26	0x3b87fa00	0.0041496754
27	0x3dc1eca5	0.094689645
28	0xbde4c472	-0.111702815
29	0x3dc2e56b	0.09516414
30	0xbd69e855	-0.057106335
31	0x3d90ad1f	0.0706427
32	0xbd8feaf9	-0.07027239
33	0xbdad051c	-0.0844824
34	0x39e39c30	0.00043413183
35	0x3d4abbab	0.04949538
36	0xbd5625d8	-0.052282184
37	0x3cd0cedc	0.025489263
38	0xbd72f4da	-0.05931554
39	0x3d81d0fc	0.06338689
40	0xbe0846b6	-0.13308224
41	0x3d890fa3	0.066924356
42	0x3e08a5bf	0.13344477
43	0xbceb4fd1	-0.028724583
44	0x3d4d3628	0.050100476
45	0xbd735da5	-0.05941548
46	0x3d01b3a3	0.031665456
47	0x3c9b85be	0.018984672
48	0x3d281dce	0.04104405
49	0xbd3435a3	-0.043996464
50	0xbd38798a	-0.045037784
51	0xbd178f30	-0.03700179
52	0xbd1371f3	-0.035997342
53	0x3dab888d	0.08375654
54	0xbc906166	-0.017624568
55	0xbdeac91c	-0.1146414
56	0xbd93563e	-0.07194184
57	0x3db98b94	0.090598255
58	0xbdb82857	-0.08992069
59	0xbad74fec	-0.0016427017
60	0xbcb67054	-0.02227036
61	0xbb239d00	-0.0024965405
62	0xbd89cb24	-0.06728199
63	0xbd1874b7	-0.037220683
64	0xbb2ec9da	-0.0026670606
65	0x3dc68b19	0.096944995
66	0x3dfd09dd	0.12355397
67	0xbc8c11a6	-0.01709826
68	0xbdaee307	-0.08539396
69	0x3b6c6e00	0.0036076307
70	0x3cac56d9	0.021037506
71	0xbdb591e5	-0.08865718
72	0x3c33ad9c	0.010966685
73	0xbd293580	-0.041310787
74	0x3d1f917c	0.038957104
75	0x3c36789e	0.011137156
76	0x3ce8c629	0.028414803
77	0x3d89bdf2	0.06725682
78	0xbdb1deb6	-0.08685057
79	0xbd1a6a8b	-0.037699264
80	0xbd1e0e88	-0.038588077
81	0xbdace7a9	-0.08442623
82	0xbdb5f437	-0.08884471
83	0x3e016c8c	0.12639064
84	0xbd57b181	-0.052659515
85	0x3da707f4	0.08155814
86	0x3dc85710	0.09782231
87	0x3dc78f34	0.09744111
88	0x3e02a3cf	0.127578
89	0x3dadf848	0.084946215
90	0xbd3aab54	-0.045573547
91	0x3d5a865c	0.05335079
92	0x3d8bd217	0.06827181
93	0x3d8993f1	0.06717671
94	0x3d8a1db5	0.067439474
95	0x3e0b2665	0.13588865
96	0xbdb97f5c	-0.09057495
97	0x3df0f6e0	0.11765838
98	0x3e022156	0.12708029
99	0x3e0ee8b7	0.13955961
100	0xbdebf2bb	-0.115209065
101	0xbd9ce622	-0.07661082
102	0xbcd9a869	-0.026569562
103	0xbdb738df	-0.08946394
104	0x3ddae524	0.10688236
105	0x3dd01c19	0.10161609
106	0x3dc62970	0.09675872
107	0x3df198c6	0.11796717
108	0xbb7a1a3d	-0.0038162612
109	0xbdb14275	-0.08655254
110	0x3dca5922	0.09880282
111	0x3cc33daf	0.023833124
112	0xbd1fd6c1	-0.039023165
113	0x3b1591bb	0.0022822458
114	0x3d5086a3	0.05090965
115	0xbcaa4b83	-0.02078796
116	0x3db4113b	0.08792349
117	0x3d4d0286	0.050051235
118	0xbc895f28	-0.016769007
119	0x3cc2354b	0.023707053
120	0xbc910d97	-0.017706675
121	0x3e2bcee0	0.16778135
122	0xbdec2a54	-0.11531511
123	0x3dd90ad6	0.1059777
124	0x3c4a8c05	0.012362485
125	0xbd4e4f02	-0.050368316
126	0x3d8daa3f	0.069172375
127	0xbd991404	-0.07474521
128	0xbdbec470	-0.09314811
129	0x3d5b5ccb	0.05355529
130	0x3d5bafde	0.053634517
131	0x3d2c6b10	0.04209429
132	0x3da0f069	0.078583546
133	0x3c97d45d	0.01853388
134	0xbd37809f	-0.044800397
135	0x3cf8e43e	0.030382272
136	0xbd99551f	-0.07486939
137	0x3cbdef33	0.023185348
138	0xbcc27fd3	-0.023742592
139	0xbd9d01e6	-0.07666378
140	0xbde5d3e7	-0.11222058
141	0xbd60cbab	-0.054881733
142	0x3dc9e591	0.098582394
143	0x3d93b1ca	0.07211645
144	0xbcdbb398	-0.026819035
145	0xbd0d6c0f	-0.03452688
146	0xbdf0fa8d	-0.11766539
147	0x3d464e12	0.048414297
148	0x3d63e0c4	0.055634275
149	0x3e36ea60	0.17862844
150	0x3cd6fbbe	0.026243087
151	0xbde4d860	-0.11174083
152	0x3db41c17	0.0879442
153	0x3d626acc	0.05527763
154	0x3e047c10	0.12937951
155	0xbdfaa65a	-0.1223876
156	0x3c8dd200	0.01731205
157	0x3e083cd3	0.13304453
158	0x3d1aaca7	0.03776231
159	0xbddf5b74	-0.10906115
160	0x3da7466a	0.08167727
161	0xbd3a1810	-0.045433104
162	0x3dcf7750	0.10130179
163	0xbd94b6ed	-0.07261453
164	0x3e2102cc	0.15723723
165	0x3d1ccd13	0.03828151
166	0x3e0c3318	0.13691366
167	0x3e30e38b	0.17274301
168	0xbd347a4e	-0.04406195
169	0x3d84d3b7	0.06485694
170	0xbd07e681	-0.03317881
171	0x3cd14157	0.025543852
172	0xbcc1833a	-0.023622144
173	0x3de51b88	0.11186892
174	0xbdd01579	-0.101603456
175	0xbdb36684	-0.08759788
176	0x3e1542d8	0.1457628
177	0xbce4624d	-0.027878905
178	0x3d3f2c7c	0.046673283
179	0xbd634386	-0.055484317
180	0xbdf1f0fa	-0.11813541
181	0x3d46db6a	0.048549093
182	0x3d95c41e	0.07312797
183	0x3b889154	0.004167715
184	0x3e00c330	0.12574458
185	0x3de8eb32	0.11372985
186	0xbd10acea	-0.035321154
187	0x3dc93b61	0.09825779
188	0xbdc4bc52	-0.09606232
189	0x3db456b6	0.08805601
190	0x3d022986	0.03177788
191	0x3dc0ca61	0.09413601
192	0xbd55ce2c	-0.052198574
193	0xbd01e3c3	-0.03171135
194	0xba3d1c90	-0.0007214034
195	0x3dbc69aa	0.09199841
196	0xbe024d0f	-0.12724708
197	0x3d9bebd3	0.07613339
198	0x3df99a2d	0.1218761
199	0xbdd3e577	-0.10346501
200	0x3df37ea2	0.11889388
201	0xbd3a00bb	-0.045410853
202	0x3d4aea0f	0.049539622
203	0xbda013d0	-0.07816279
204	0x3d706c6b	0.058697145
205	0x3e2aed30	0.16692042
206	0xbd21445d	-0.039371837
207	0xbd465b4e	-0.04842692
208	0xbded80ee	-0.11596857
209	0x3e286f92	0.1644881
210	0x3d97a8fe	0.074052796
211	0x3e08044c	0.13282889
212	0xbda38579	-0.07984442
213	0x3e03dce9	0.1287724
214	0xbd693078	-0.05693099
215	0x3d59ad99	0.05314407
216	0x3d763619	0.060110185
217	0x3e1aa1e8	0.15100825
218	0xbdbe8f68	-0.09304696
219	0xbd674297	-0.05645999
220	0xbcf11f80	-0.029433966
221	0x3d839728	0.06425315
222	0x3d95527a	0.07291122
223	0x3c616a76	0.013758292
224	0x3e125a1a	0.14292184
225	0xbc67e29c	-0.014153149
226	0xbd81c3ab	-0.06336149
227	0xbd973b5e	-0.0738437
228	0xbd8df538	-0.069315374
229	0xbca9a693	-0.020709312
230	0x3ca430ce	0.020042803
231	0xbd7609ae	-0.060067825
232	0xbc9984f6	-0.018740159
233	0xbd5cd9a2	-0.05391849
234	0x3cce1550	0.025156647
235	0x3d91c091	0.07116807
236	0xbbf77671	-0.007551961
237	0xbc5884de	-0.013215272
238	0x3b8f1c80	0.004367411
239	0xbda179d2	-0.078845635
240	0x3c65c09f	0.014022975
241	0xbb00b122	-0.001963683
242	0xbcb9d9e3	-0.022686904
243	0x3d000451	0.031254116
244	0xbc97e7e3	-0.01854319
245	0x3d3e347f	0.046436783
246	0xbd1b3426	-0.03789153
247	0xbdc11f90	-0.09429848
248	0x3deebfa8	0.11657649
249	0xbb8a1890	-0.004214354
250	0x3d795d11	0.06087977
251	0x3da58e9a	0.0808384
252	0x3dbed077	0.09317105
253	0x3dd29a0c	0.10283288
254	0x3dc0f9b1	0.09422625
255	0x3ce16ea8	0.027518585

4.bias f4 [7]
0	0xbc5999d1	-0.013281302
1	0xbc52f4ad	-0.012875718
2	0x3d12da4d	0.03585272
3	0x3d8913ef	0.06693255
4	0x3d580b9b	0.052745443
5	0xbd5d082c	-0.05396287
6	0x3c92fb87	0.017942203
