models/date-06-19-2025-15-17p1-RLbotp2-RLbotself_play-Falseexp_dir-RLbotepochs-50p1_win_rate-0.0p2_win_rate-1.0is_test-False/model.pth (torch, 117053 bytes, 6 tensors)

0.weight f4 [150, 84]
00000000: 9b1a b43d 1950 013c d8d9 b53b ea06 56bc
00000010: 0d3a d4bd 7818 923d 1fde a5bd 9eee 003d
00000020: 7762 33bd 489b b1bd b817 553d 8b7a 21bd
00000030: 2e2f b23b 228e f43d 4b6a 8f3b 9234 41bd
00000040: 238d a53d e028 d5bb d9ca d1bd c1ee c2bc
00000050: 8336 503d d8b7 a23b 0cf5 8fbd 3a30 dbbd
00000060: ac8c a4bd 75fb 98bb da63 b6bd 1ba0 8e3d
00000070: bcc3 fabc 9060 e53c 9d7a 503d f76e b33c
00000080: df5a 40bd a354 aa3b ebff 183b ee26 a33d
00000090: 7bc3 2ebb 1bfa 633d 1293 afbc c0ff 95bc
000000a0: c7ab c83c f5ca f5bd 506e 9f3d f6ed 013d
000000b0: 56b4 3bbd be77 ebbc fbcc 4f3d 016b 6c3d
000000c0: d109 973d dba0 643d 4b07 66bd 1932 323d
000000d0: 9fa2 f1bb eb53 a9bd 6151 4ebd a2cd bd3d
000000e0: f8d4 fdbc 0c60 1ebc e958 d439 e2cd 61bd
000000f0: 6fd6 8a3d dd03 8f3d 5585 4d3c 9aaf dfbb
00000100: f0fc 5d3d c244 edbd 1c90 58bd 08d3 a1bd
00000110: 9948 333d c6d2 73bc 481c e13c 7fe4 86bd
00000120: 5a94 373d 61f2 c33c 9732 22bd 1c6a dabd
00000130: 9471 e03d 86e4 033d 1124 1dbd 5fd4 b5bd
00000140: 2807 babd 60ff 963d 5fd1 bfbd e97b 203d
00000150: 39d1 bc3d aa00 c2bd 118d 5d3d d128 953d
00000160: a9f5 4c3d fd10 90bd 4cd2 a0bc 7590 b9bd
00000170: 9807 553d 108a 88bd b653 f63c 7bb7 b4bd
00000180: 29a5 c13d 72b7 573d 7a02 69bd d38e ba3d
00000190: 4a14 d53b ea6a 90bd 01fd a5bd 95da 70bc
000001a0: 4543 1ebd 5594 993d 5632 89bc 608b 0dbd
000001b0: 5c75 febd a1db 9cbc fa46 613a dce6 bdbd
000001c0: fe6e f43c 9107 233d 3875 863d f64f bebc
000001d0: 1802 43bd dee0 c33d 884c 73bd 2dd2 97bd
000001e0: 3dcb 433d 74e7 a8bd bc88 21bd dadd 02bc
000001f0: 07fe 0d3d 52ca 923c 87e1 8abd cd1e a73c
00000200: 0ac1 b3b8 33d1 2d3d c717 973c 74da f8bb
00000210: e164 ffbd 7898 d7bd 8d5b e8bc cde8 26bd
00000220: b718 993d 4a5b 633d 4f03 a53d f446 ba3c
00000230: 30d5 c7bd 6c6b c33d e1a4 21bd 2290 e33c
00000240: 2d0c 913d 4730 933d daa5 52bd e7df 22bd
00000250: 2520 943c 0e97 26bd 3bf1 a73d c218 58bd
00000260: ad0c 933c a6b9 b83d 5814 093e 195f a2bd
00000270: 377e 10bd 1b75 eb3d 08e7 cb3d 8fbd ccbc
00000280: c9f3 6f3d 0aaa 8aba 3a38 aa3d 4f96 b53b
00000290: 292e 82bd c2ac 923d a10b a6bd 2277 b93c
000002a0: 7158 a73d ca83 9bbd f6c0 9ebd ae4f c9bd
000002b0: 9c5e 85bd 2c33 503d 8fcf fa3c 0386 98bd
000002c0: 4e51 913d 0c75 cdbb e338 62bd 0140 563d
000002d0: cd79 f93c 6dd1 093e 7b97 46ba 3b79 843c
000002e0: 6d3e c63b 5393 d93d a0c6 d0bd 453b 9bbb
000002f0: f239 583d ac7a 6d3c 5552 563d 3ed7 0dbc
00000300: bd5e 413d 6b8a 0e3d 1b45 223d 9e22 61bd
00000310: b147 b2bd df07 8b3d f6eb 62bd 9bc0 1bbd
00000320: 1d74 b7bc f1ca 2b3d 1020 d2bc 485b 38bd
00000330: 2fdb 05bd c98e 8c3d dc83 8eba e73c b1ba
00000340: 5a81 c4bd a79e 293c d96b b03c 6290 adbd
00000350: 7d1c 583d 4d68 8d3d 1432 a23d 51bf 603d
00000360: edb3 a43d bfe6 e0bc 4543 ba3c 1521 d43d
00000370: 23a7 92bc 4ca6 a4bd 5c79 893d bb62 483d
00000380: af13 8d3c 409e 683d 6851 40bd 5a02 633d
00000390: 9c55 b0bd e309 e23c 705a 87bc d55b d83d
000003a0: 3757 973d 4db7 83bc 1719 c23c db51 0dbd
000003b0: 58b7 d33d 2dcc 7bbd 6fad 043d f91d 21bc
000003c0: f82a 383d 7abc a23d 323d c63d f7a1 453d
000003d0: 5189 5abd 05fb 9bbd 2d11 cb3d 228d 6cbd
000003e0: 4ec6 63bd d6bf 7e3d 6294 bbbb ec72 a7bd
000003f0: c35d bc3d c66b e63c d56b 8abd bd22 98bc
0.08794137 0.007892632 0.0055496506 -0.013063172 -0.10362635 0.07133573 -0.08099007 0.031477563
-0.043795075 -0.08672196 0.052024573 -0.039423507 0.005437753 0.11941172 0.004376685 -0.047169276
0.0808356 -0.006505117 -0.10243768 -0.023795487 0.050833236 0.0049657635 -0.07029161 -0.10702558
-0.080346435 -0.004668648 -0.08905764 0.069641314 -0.030610912 0.028000146 0.050898183 0.021903498
-0.04696166 0.0051980778 0.0023345898 0.079664096 -0.0026666808 0.05565844 -0.021432433 -0.018310428
0.024495972 -0.120016016 0.07784712 0.031721078 -0.04582628 -0.028743621 0.050732594 0.057719234
0.07374919 0.055817466 -0.0561593 0.043504808 -0.0073741223 -0.08267959 -0.050370578 0.09267737
-0.03098534 -0.009666454 0.00040502034 -0.055127986 0.06779181 0.06983159 0.012543996 -0.0068263533
0.054196298 -0.1158538 -0.05287181 -0.07901579 0.043770406 -0.014881795 0.027479306 -0.06586551
0.044819213 0.023919286 -0.039599027 -0.1066477 0.10959163 0.03220036 -0.038364474 -0.08878397
-0.09083396 0.07372928 -0.09366106 0.03918067 0.092195936 -0.09472783 0.05408961 0.07283176
0.050038967 -0.0703449 -0.019631527 -0.09060756 0.052009195 -0.06666958 0.030069213 -0.088240586
0.0945533 0.05266518 -0.056887127 0.09109273 0.006502663 -0.07051642 -0.08104897 -0.0147005515
-0.038638372 0.07498995 -0.016747635 -0.034556746 -0.12424728 -0.019147696 0.0008593645 -0.092725486
0.029838081 0.039802138 0.065653265 -0.023231488 -0.04760942 0.095643744 -0.059399158 -0.07413135
0.047801245 -0.08247271 -0.03943704 -0.007987464 0.034666087 0.01791874 -0.06781297 0.02040043
-8.5713415e-05 0.042435836 0.018443955 -0.007594401 -0.12470413 -0.10527128 -0.028363967 -0.04074936
0.07475417 0.055506982 0.08057272 0.022738911 -0.09757459 0.095419735 -0.03946388 0.027778689
0.070824005 0.071869425 -0.0514277 -0.03976431 0.018081734 -0.0406714 0.08200308 -0.052757986
0.01795038 0.09019785 0.13386667 -0.07928295 -0.035276618 0.114969455 0.09956175 -0.024992732
0.0585821 -0.001057924 0.083115056 0.0055416 -0.063564606 0.07161857 -0.08107687 0.022639815
0.08171166 -0.07593496 -0.07751648 -0.09829651 -0.06512186 0.05083005 0.03061655 -0.07447436
0.07095586 -0.0062700566 -0.055230033 0.052307133 0.030453587 0.13458796 -0.0007575673 0.016171088
0.006049922 0.10623803 -0.10194135 -0.00473729 0.052789636 0.014494579 0.05232461 -0.008657275
0.04720949 0.034799974 0.039616685 -0.054964654 -0.0870508 0.06788611 -0.05540081 -0.03802548
-0.022394234 0.041941587 -0.025650054 -0.045008928 -0.032679733 0.068631716 -0.0010873037 -0.0013522179
-0.09594984 0.010352767 0.0215358 -0.084748045 0.052761544 0.069046594 0.07919708 0.054869954
0.080421306 -0.027453778 0.022737155 0.103578724 -0.017901963 -0.08039531 0.067126006 0.04892228
0.0172213 0.056791544 -0.046952635 0.055422164 -0.08610079 0.027592605 -0.016522616 0.105643906
0.07389682 -0.016078616 0.023693604 -0.03450189 0.103377044 -0.061474014 0.03239196 -0.009833806
0.044962853 0.07946105 0.09679641 0.048250165 -0.05335361 -0.076162376 0.099153854 -0.057751782
-0.05560904 0.062194668 -0.0057244757 -0.081762165 0.09197571 0.028127562 -0.067588486 -0.018571252

0.bias f4 [150]
00000000: 7399 e2bd f0b1 51bd fa8a 58bd 15bc bc3d
00000010: 9fd0 90bc 283f 07bc 5db7 cabd b6cf 643d
00000020: e3a5 793c 5503 b0bc 6a9e a5bc 1e3b acbd
00000030: 9b5e 12bd 4a3f 913d e4a5 84bd 94ad 4d3d
00000040: d27b c4bd 968d b9bd 9086 203b be6f d3bd
00000050: d61d d0bd b9ba 89bd bf58 bdbd 2c68 42bd
00000060: 4be6 edbc aaa3 41bd 3585 97bd b828 b13c
00000070: 301a 91bd decb 2eba 92a5 c6bd 17e3 18bb
00000080: 4eae 51bd 6e70 53bd c4df debc cd50 de3d
00000090: 37ed 39bd 96fc 76bd eb30 2fbd 679a 1dbd
000000a0: bdd4 f1bd ff6c a3bd cdd6 623d 535d 063c
000000b0: c2ae 6fbd 0f7c a1bc a3bd 85bd 9a0b 00bc
000000c0: 3ceb 7a3b d061 ecbd 4712 903d fe78 8b3d
000000d0: 1bf7 d53d 7292 b33b 77a3 e0bd faf5 cdbd
000000e0: 0382 563d 76e6 c43d 52eb 693c 7987 923d
000000f0: 0376 693d 6a54 62bd 158f 9fbd e56a d5bd
00000100: 3fa5 58bd b78c eabd 068e 343c fd32 c93d
00000110: 07c0 d1bc b914 a9bd 1cd8 97bc efc2 3bbd
00000120: d544 a5bd fdaf d6bd 9fca febc b5fd 633c
00000130: 05e0 443c 5770 f7bc fceb c8bc 9faf abbc
00000140: e7f1 98bd 37a0 9ebd a256 b93b 5937 36bd
00000150: b6d3 0d3d b56b 7cbd fb6a 673d 83da dd3c
00000160: 44b8 b7bc 37b8 353d 5bae 193d b3f1 4e3d
00000170: af36 c7bd 8f5a 4b3d 7ecd 76bd 6809 b2bc
00000180: c36d 1f3d 9124 d5bc f4d6 943d a78c a8bd
00000190: 3601 a0bb 36b9 ad3d fc3a a5bd 4853 debd
000001a0: 4658 903c cf81 86bb 3976 8fbb 8341 403b
000001b0: 212c fa3c e0e8 99bc 6ba0 6abc 3dfc 10bd
000001c0: 7baa 0abd d6b4 ca3d 9009 c33c 81b1 51bd
000001d0: f543 c4bd a053 1dbd 30ec 893d a2a2 41bd
000001e0: 4f06 5bbc d6c7 c13d f1a9 623d b74d a8bd
000001f0: ddef 0b3d a085 75bd b17f 47bc 97c4 ef3d
00000200: 80bf 483b 1134 f7bd 7ef4 c8bd d9a9 b8bd
00000210: c181 693d 532c 58bd f0fc ccbd 88b1 bf3c
00000220: 9095 2ebd d877 a7bd cb88 303d 1c80 693d
00000230: 50e2 ffbc 5a81 bf3d fed8 b5bd e044 533d
00000240: f9cd 6d3b 317e a2bd 2d60 a33d 90d7 a0bc
00000250: 6e8b afbb 7509 98bd
-0.11064424 -0.051195085 -0.052866913 0.09215561 -0.017677603 -0.008254804 -0.09898255 0.05586215
0.015237304 -0.021485964 -0.02021714 -0.08409713 -0.035734754 0.070921496 -0.064769536 0.050214365
-0.09593929 -0.090602085 0.0024494268 -0.103240475 -0.10161941 -0.06725068 -0.092454426 -0.047462627
-0.029040476 -0.047275223 -0.07398454 0.021625862 -0.07085073 -0.0006667952 -0.09699549 -0.0023328715
-0.05119162 -0.051620893 -0.02720631 0.10855255 -0.04539224 -0.06029948 -0.04277126 -0.038477328
-0.11808155 -0.07979774 0.05538063 0.008200961 -0.05851627 -0.019712476 -0.06530311 -0.007815266
0.0038287183 -0.11542094 0.07034736 0.06810187 0.10447522 0.005480104 -0.109686784 -0.10056682
0.052370083 0.096142694 0.014277296 0.071547456 0.05699731 -0.055256285 -0.077909626 -0.10420779
-0.052891966 -0.114526205 0.011020189 0.09824178 -0.025604261 -0.08255906 -0.018535666 -0.0458402
-0.08069769 -0.10482786 -0.031102477 0.013915469 0.012016301 -0.030204935 -0.024526589 -0.020957766
-0.07468014 -0.07745402 0.0056560794 -0.044486377 0.03462573 -0.061626155 0.05649851 0.027081734
-0.022426732 0.044365134 0.037519794 0.05052347 -0.09727227 0.04964691 -0.060254566 -0.021733
0.038923036 -0.026018413 0.072675616 -0.08229952 -0.004882957 0.08482592 -0.08067891 -0.108557284
0.017620217 -0.00410483 -0.004378107 0.0029335923 0.03053862 -0.018787801 -0.014320473 -0.035396803
-0.03385399 0.09897773 0.02380827 -0.05119467 -0.09583274 -0.03840983 0.06734502 -0.04727424
-0.013368203 0.09461944 0.05533785 -0.08217948 0.0341643 -0.059941888 -0.01217644 0.117074184
0.003063172 -0.12070478 -0.09812258 -0.09016771 0.05700851 -0.052776646 -0.100091815 0.023400083
-0.042623103 -0.08177155 0.043099206 0.05700694 -0.031235844 0.09350844 -0.088792786 0.051579356
0.00362861 -0.07934225 0.079773284 -0.019634038 -0.0053571975 -0.07423679

2.weight f4 [100, 150]
00000000: 7848 a4bd 8790 653d 3726 3abd 594b 2a3d
00000010: 25c7 d2bc 67e5 ac3c 1ffe 60bb fb2e 1b3d
00000020: c3d2 493d 5f66 0cbd d52b 89bd 3bd9 7f3d
00000030: 3b04 873d 1bfc a9bc 0790 693d 80fb 69bd
00000040: e17c 7bbd 37de 7abc 3e26 313d aea5 66bc
00000050: 536b 71bc a47a 8bbd 4d5c c53c 78d5 61bd
00000060: 1509 48bd c343 73bd 5035 373d 2fee 163d
00000070: 3504 5ebd 94c8 9c3d 86ca 673d 31a8 0f3d
00000080: b05d 573d 5c94 a9bd d17c 92bd 2f46 04bd
00000090: 9e24 3dbc 1b3f 3fba 69f4 c33b 94c3 3c3c
000000a0: 8df2 4bbc c8a9 f4bb 96be 053d 4fbc 84bd
000000b0: 2aad 073d 5c35 ebbc 7ee3 01bd 4259 983d
000000c0: 3dd6 03bd ff80 5d3d 5e19 14bb b9e3 ae3b
000000d0: 4202 6ebd b9ea 0abd 8dad 903c 1adf 7cbd
000000e0: 0828 0abd fb9c babd df41 333d aace 00bc
000000f0: e9dd 24bd 01e1 54bd b665 493d 2f5d 85bd
00000100: 0966 80bd ca4b d1bc 740e acbd 3e46 ebbb
00000110: 70b4 c5bd 9d8d b63b e740 adbd 1596 85bc
00000120: e655 a6bd 507c 91bd 6ca3 373d 3fdf 38bd
00000130: c1e0 c5ba 3a31 743c 6759 693d 2077 1fbd
00000140: cc7d a1bd 21a2 093d faaa 753b 132f 68bd
00000150: d525 78bd e1f4 6c3d 0cfb 263d d611 bd3b
00000160: 6aa7 5d3d 4126 e63c 60a6 2cbd b411 883d
00000170: 99f4 153d dbcc 21b9 4be7 a03c db1c 603d
00000180: 113b 56bd fa38 283d 723d a7bd e4bd dcbc
00000190: ccd6 93bc 3695 27bd 185f 98bd 391c 19bd
000001a0: 3ae1 68bd 0bb3 e83c fc3a 653d 3fbe 79bd
000001b0: 95a4 c0bd ec13 683d a80a 02bd 5ea7 863d
000001c0: 7dc4 89bd 7bed ccbd 677f 9bbd 5c5e 353d
000001d0: 97ec 3b3d 77b8 603d 197d ba3c 69aa 70bc
000001e0: c940 aebc 9001 343c e0cf b03c 3d4f bd3c
000001f0: 1b43 81bd 0e2b 62bd be8b 87bc c8e6 7cbd
00000200: e1e8 883d ddbf 9ebd 3fa4 81bd ac4b 3abc
00000210: 65d2 753d 5aad 2dbd 6ebe 0f3d 13b6 ca3c
00000220: e26b de3c 0022 023d 323a a1bd 55c7 593c
00000230: 9c40 583d 2063 2cbc 9b5c 03bd e0d8 c3bc
00000240: bf3f 91bb 8369 333d 1496 8cbd de86 d9bc
00000250: a009 2d3d 906b 98bd 2cd0 d23b f82a 05bc
00000260: 875c 9cbd 56ca 7c3d 8256 86bc f755 6a3d
00000270: de8a 83bd 19fe bfbd a8f6 ea3c dbc2 e53b
00000280: 5441 953d b78d 28bd 92f4 50bd 90f3 1ebd
00000290: 0267 6cbd f77b 043d eec1 603d 4be3 3abc
000002a0: 9f8a 5fbd 36ef c73c 0928 f23c c237 29bd
000002b0: 281f 95bd 0f0d 583d 6e79 38bc 0ff3 2dbc
000002c0: 4137 bf3c 8834 8e3c d2a6 4cbd 1690 903d
000002d0: b7f6 743c 3b72 b3bb 50c4 b4bd 3907 e13c
000002e0: e114 6a3d 9e65 8bbd 8f85 b23b 7a97 123d
000002f0: 33e6 3dbd 59a2 26bd 027f 20bc e7db 01bd
00000300: 07e4 6e3d 9444 ec3c 67f1 dc3c 373f 92bd
00000310: e03b 863d 513f a2bb a39d 66bb 90df 9f3d
00000320: 8ee5 bf3b 9d33 a53b 25c9 233d 932d 19bc
00000330: 8c34 85bb 391f 3bbc 8a81 18bd 489d 1b3c
00000340: de5e d0bc 1fa4 143d 8d98 04ba 0993 8b3d
00000350: 889b 973b ccdb 8b3d 034e 86bd c4f4 993d
00000360: 2b32 28bd 99b1 09bc 2084 cc3c c29f 9abd
00000370: 7a57 433d 0f4f 303d 3f7c e4bc 5291 66bc
00000380: a6b5 1e3c 5184 bc3c ce37 2c3d 2527 a4bd
00000390: c120 8a3d 950b 55bd dce5 e4bc a9fe a3bd
000003a0: ac5d 29bd e54b 91bd 5d5c cebb 42ff 5abd
000003b0: b1bd 4fbd c407 93bc a4ca a1bd 6bd5 853d
000003c0: 8d49 39bd 6065 37bd d134 cfbc f909 3f3d
000003d0: 3eba 11bd cae1 07bd 4c77 123d bbb8 b8bc
000003e0: 1383 8d3d ebb1 673d de4c 3a3c d2a3 bbbc
000003f0: ef4b ad3d b2f5 22bd e929 a83c 4d2d f2bb
-0.08021635 0.056046035 -0.0454466 0.041575763 -0.025729725 0.021105481 -0.0034331155 0.0378866
0.049273264 -0.034277316 -0.066978134 0.062463026 0.06592604 -0.020750096 0.05702212 -0.057124615
-0.06139839 -0.015311769 0.04324936 -0.014077587 -0.014735061 -0.06810501 0.024091864 -0.05513522
-0.048836786 -0.059390794 0.044728577 0.036848243 -0.05420323 0.07655445 0.056589626 0.03507251
0.05257958 -0.082802504 -0.07152713 -0.032293495 -0.011544375 -0.0007295475 0.0059800637 0.011521239
-0.012447965 -0.0074665286 0.03265246 -0.064812295 0.033124126 -0.028711967 -0.031711094 0.074388996
-0.032186735 0.0540781 -0.0022598128 0.0053372052 -0.058107622 -0.033915255 0.01766088 -0.061736204
-0.033729583 -0.09111973 0.04376399 -0.007861773 -0.040250693 -0.051972393 0.049169265 -0.06511914
-0.06269462 -0.025548834 -0.08401194 -0.0071800044 -0.09653556 0.005571081 -0.08459645 -0.016306916
-0.081218526 -0.07103789 0.044833586 -0.04513478 -0.0015096889 0.014904315 0.056970026 -0.038931966
-0.07885322 0.033601884 0.0037485943 -0.05668552 -0.060582954 0.057850722 0.04076676 0.0057699485
0.054114737 0.028094413 -0.042150855 0.066440016 0.03661022 -0.00015430471 0.01964154 0.05471502
-0.052302424 0.041069962 -0.08166017 -0.026946016 -0.01804676 -0.040913783 -0.07440013 -0.03738043
-0.056855418 0.028405687 0.055964455 -0.06097245 -0.094063915 0.056659624 -0.031748444 0.065748915
-0.0672693 -0.10006233 -0.075926594 0.04427944 0.045879927 0.05486342 0.02276473 -0.014689066
-0.021271126 0.010986701 0.021583498 0.023109073 -0.063116275 -0.05521684 -0.016546126 -0.061743528
0.06685043 -0.07751439 -0.063301556 -0.011370581 0.0600151 -0.04240165 0.035093717 0.024745023
0.027151052 0.031770706 -0.07872428 0.013292153 0.05279599 -0.01052168 -0.032070737 -0.023907125
-0.004432648 0.043801796 -0.06864563 -0.026553567 0.042245507 -0.07442391 0.0064335074 -0.00812792
-0.07634836 0.0617164 -0.016398672 0.05721089 -0.06422971 -0.09374637 0.028682068 0.007011754
0.07287851 -0.041150775 -0.05101449 -0.038806498 -0.057715423 0.032344785 0.054872446 -0.01140673
-0.05457556 0.024406057 0.029560106 -0.04131294 -0.07281333 0.05274683 -0.01125942 -0.010617032
0.023341777 0.017359033 -0.04996378 0.07058732 0.0149513995 -0.005476264 -0.08826506 0.027469264
0.057148818 -0.06806491 0.0054480503 0.03578899 -0.046362113 -0.04068217 -0.009795906 -0.031703856
0.058322933 0.028841294 0.026970578 -0.071409635 0.06554389 -0.0049513956 -0.0035189174 0.07806313
0.0058562225 0.005041553 0.03998675 -0.009349245 -0.004065102 -0.011421018 -0.037232913 0.009497948
-0.025435861 0.03628933 -0.0005058132 0.06815154 0.004626695 0.06829032 -0.06557848 0.075173885
-0.04106347 -0.008404159 0.024965346 -0.07550003 0.047690846 0.043044146 -0.027891276 -0.014072733
0.009686863 0.023012312 0.042045407 -0.08015279 0.067445286 -0.052013 -0.027941637 -0.08007557
-0.041349098 -0.07094554 -0.0062976317 -0.05346609 -0.050718013 -0.017948039 -0.07899979 0.06534847
-0.04523616 -0.044774413 -0.02529374 0.04664037 -0.035578005 -0.033174314 0.0357583 -0.022549024
0.06909766 0.05656616 0.011370866 -0.022905264 0.08461749 -0.039785095 0.020527797 -0.007390654

2.bias f4 [100]
00000000: c6d1 74bd 5c77 41bd 0753 2d3a 80e8 a0bd
00000010: 83cd 663d f52f 33bd c129 b2bd 5ff5 1d3b
00000020: 4fe6 673d 9eaf 0bbd 66e4 45bb 255b 0e3c
00000030: d576 7cbd 3d27 5ebd d137 6c3d 974d 9dbd
00000040: 9c90 4cbd 12cc 0ebd 83c3 97bd fadb 98bd
00000050: 7d9f a6bd db0a 003d d8da b93c 8130 8abd
00000060: 8b0e a93d 709a 1f3d 6cf1 f2bb 31c5 5b3c
00000070: 4b04 acbd 8350 b93c 3a10 1fbc b704 cabc
00000080: 9c08 a2bd c1aa 833d 4ee1 99bc 14bd 783d
00000090: 6b64 49bd 10c6 06bd 7bb5 d4bc 650b a8bd
000000a0: f09d 6f3d a18a 923a 1c11 ab3d a4ed 953d
000000b0: a773 4ebd 0cc1 5a3d 734a 8ebd 6f14 b33c
000000c0: 3d9b b0bc 6db2 c1bc a628 a53c 907d 6f3d
000000d0: 2c4e 513d bb6e 553d ab44 a6bd f1b4 923c
000000e0: 2087 1dbd 2fce 21bd fb55 74bd ffc3 93bd
000000f0: a4ae 573d 4ee1 ba3b 16b0 8c3d 4a64 18bd
00000100: 232d c1bc c098 b2ba 10ff 4bbd 3e24 0b3c
00000110: 75c4 803d 2739 a63d e370 f03b 8a13 6ebc
00000120: aa88 eebc 6b0d 19bc 9846 ce3c 21e5 fe3b
00000130: 7a02 923d d38a 77bd f72c 5d3b 93f3 ebbc
00000140: 6c94 d5bc d9b1 7a3d 11a4 903d 20f9 2abd
00000150: 9945 a8bc 8d95 bd3c 52ec c23c baa8 8dbd
00000160: ce73 9d3d c451 20bd 513a 53bd 288b 663d
00000170: c874 873d 0d97 73bd c227 113d 08d5 46bd
00000180: 646d 81bd 875f 053c 259b a0bd b002 a7bd
-0.059770368 -0.04723297 0.00066117983 -0.07856846 0.056348335 -0.043746907 -0.0869937 0.0024102551
0.056616124 -0.03410303 -0.003019595 0.008688723 -0.061636765 -0.05423664 0.05767042 -0.07680815
-0.049942598 -0.034862585 -0.07410338 -0.07463832 -0.08135889 0.031260353 0.02268736 -0.06747533
0.08254727 0.038965642 -0.0074140336 0.013413713 -0.08399256 0.022621399 -0.009708459 -0.024660451
-0.07911798 0.06429053 -0.018784191 0.060727194 -0.04916803 -0.03290373 -0.025965443 -0.08205298
0.05850023 0.0011180231 0.08352873 0.07320717 -0.050403263 0.05340676 -0.06947794 0.02186033
-0.021558398 -0.02364465 0.020160984 0.058469355 0.05109994 0.052107554 -0.08118566 0.017908545
-0.038458943 -0.039503273 -0.05965231 -0.07215118 0.052656785 0.005703128 0.06869523 -0.037205018
-0.023581093 -0.0013625845 -0.049803793 0.0084925275 0.06287471 0.0811637 0.007337676 -0.014531026
-0.0291179 -0.009341578 0.025180146 0.007778779 0.071293786 -0.060435127 0.0033748725 -0.028802669
-0.02607175 0.061204765 0.07062543 -0.04174149 -0.020541 0.0231426 0.023794327 -0.06916948
0.076881036 -0.039140478 -0.051569287 0.056285053 0.06614071 -0.059470225 0.035438307 -0.048543006
-0.06319693 0.008140451 -0.078420915 -0.081548095

4.weight f4 [7, 100]
00000000: 53e3 823d 0426 6fbd 1ded 4cbd ef2e ae3d
00000010: 474d 35bc 531b 93bc ae0e 3d3d eed6 893d
00000020: 05ba 6cbd 9123 9ebd ada0 c73c 0aec 483d
00000030: d2c6 993d b03c 173b 027e e0bc 4aa9 963d
00000040: 8d27 14bd 2432 c33c c054 8abc a740 c83d
00000050: 9a1f 5bbd 5952 bebc 6502 453d 5de3 4abd
00000060: 0de3 893d e3e9 943d d005 27bd 9a59 9bbd
00000070: 8bb1 ad3c 4ea8 64bc a23d 553d 8a91 89bd
00000080: b2f6 853d bec8 54bc ff0a 88bd df10 363d
00000090: a724 c2bd 5628 8f3d 43c1 253d 0484 bebd
000000a0: 219b 963d 77ab bfbd 76c6 173d 2080 403d
000000b0: 0a2c 2abd 5ab2 653d f26e 873d 9f3d 733d
000000c0: d30a 0a3b eedd 933d 602e 8c3c 5031 993d
000000d0: 3924 b5bd 4274 653c f6bc 87bd b864 17bc
000000e0: 33c0 f0bb 365e e0bd c496 b43d ddaa 8c3d
000000f0: edb2 b5bd 6721 a63d a528 88bd 5991 a33c
00000100: b046 b13d 3495 e4bb 8792 883d e767 793d
00000110: 80d1 483b 13c2 cabd 4980 a3bd f24d 9fbb
00000120: 5ebd ddbc 2a5e 0a3d 39cb 1f3c 7fda 003d
00000130: ec77 62bc 805b 653c 6333 563d f100 3c3d
00000140: 8002 283d 083c b63d 0950 963d 5c42 673d
00000150: 1bec 30bd 1e2f 823d f07c 78bc 8d22 503c
00000160: c511 0fbd 17fa 80bd 1196 a63d b223 b53c
00000170: 879b 173d 80a1 30bd 2672 9a3d 786b 4d3d
00000180: 9f41 7cbd 55b6 853c 400d 81bd da4b 9f3d
00000190: 16ab a8bc 12fb d03d b515 7e3c 596d 943d
000001a0: ee18 703d b792 abbb 094b 77bc f078 153d
000001b0: 6ce1 3f3d d7c6 e83c 627d 98bd ffdf c83d
000001c0: cd61 b23d 0af9 64bd 33e7 80bd 5a1a c2bc
000001d0: 47b4 2a3d 5fe7 52bd 607b 273d 3220 b3bd
000001e0: 455b 8fbb 13d5 bd3d feaa d13d 9bec 823d
000001f0: 9c5c a33d 5492 b6bd 3339 d23b 4af7 93bd
00000200: 3340 79bc 2748 25ba f2f1 293d 4292 503d
00000210: 9cd2 a1bd 7be7 14bc ebd1 a43d bf31 b73d
00000220: ae9f 36bd 8cd4 033d 78e5 bdbd 6a09 f93c
00000230: 53df 063c 7ac0 cf3c 8f8b bf3d c6f3 1e3d
00000240: 4b37 9ebd 7e7d 54bd fa19 f1bc a548 4e3d
00000250: b2be 18bc 69b1 9cbc 11af 46bd 5149 a83c
00000260: 9c0a 76bc 2eb6 cebc 63d4 063d c74c 64bd
00000270: 48d6 a0bd cb73 a03d 5595 debc f430 873d
00000280: c2eb 8abc 67b7 483b d1df 873d c120 e73c
00000290: 0a9e 093d b238 92bc 5b77 69bd a04c 5ebc
000002a0: d03f 95bd 3cf4 92bd ffb1 673b 91d6 27bd
000002b0: 680f 1fbd a70c 563c 237d 03bd 4a90 883d
000002c0: cf75 713d fac0 81bd c27b 643d c47a 39bd
000002d0: df56 40bd a4c7 8d3d bb10 523d 279b 913d
000002e0: f114 d73c abfc 20bb fed7 99bc a8b7 bebd
000002f0: ba3d 6cbd 64b8 203d f709 a7bd 7c28 d83d
00000300: d3f8 47bd 1731 193d 00a5 b1bd 5466 f43c
00000310: 4fdd b93c b542 a53d b086 433d 6a6b 353d
00000320: f5b0 acbd a519 a7bd 87e9 773b dabb 0f3c
00000330: eeae d9bd a557 853d 1539 773d 179d 38bc
00000340: 0ab7 f93c b4c6 7e3c d498 dd3c 4dfd ba3d
00000350: f21f 08bd 598f 183d d8e5 b13d 2153 a03d
00000360: 10c2 5d3d 79a0 6b3d 3a04 133d 19e4 09ba
00000370: 2fe3 473d 3f27 9fbd 30c8 14bd 725c cabd
00000380: efa9 c53d 0d15 68bd 874b b8bb 7265 ad3b
00000390: 7d6f 85bd 5595 183d 29f8 5c3d 7c52 913d
000003a0: 8ba5 973d f2df 1bbd 184e cc3d ec73 fcbb
000003b0: fa09 d3bc 4786 fc3c 0787 873d b7ad aa3c
000003c0: 3f1d 6abd d0cb 4ebd 4c4a 27bd 4d3d dc3c
000003d0: b326 fb3b b6e0 aebd c32e 8fbd 094b 8abd
000003e0: 734c abbc c1d8 71bd 2d04 adbb cec7 81bd
000003f0: 7a4a 793d aa5d 30bc f58a bfbd f85d 5fbd
0.06391015 -0.058385864 -0.050030816 0.085050456 -0.011065788 -0.017957365 0.046156578 0.06730448
-0.05779459 -0.077216275 0.024368608 0.04905323 0.07508625 0.0023076944 -0.027403835 0.07356508
-0.03617053 0.02382762 -0.016886115 0.097779565 -0.053496934 -0.023232626 0.048097987 -0.049533237
0.067327596 0.07271173 -0.040777028 -0.075854495 0.021202823 -0.013956143 0.05206073 -0.067172125
0.06541194 -0.012987314 -0.06642722 0.044449683 -0.09479647 0.06990115 0.04046751 -0.09302524
0.07353807 -0.09358876 0.0370545 0.04699719 -0.041545905 0.056078292 0.06612958 0.05938494
0.002106358 0.07220064 0.017111957 0.07480109 -0.088447995 0.014004769 -0.06627838 -0.009240322
-0.0073471307 -0.10955469 0.08817819 0.06868527 -0.08872018 0.0811184 -0.06648377 0.019966768
0.08656061 -0.006975794 0.06668573 0.060890105 0.003064245 -0.09900298 -0.07983453 -0.0048615867
-0.027067836 0.033781208 0.009753042 0.031458374 -0.013822537 0.013998866 0.0522951 0.045899335
0.04101801 0.08898169 0.07339484 0.05645977 -0.043193918 0.06356643 -0.015166506 0.01270355
-0.034929056 -0.06297701 0.08134092 0.022111747 0.037013557 -0.04312277 0.07541303 0.05015132
-0.06158602 0.016322294 -0.06301355 0.077781394 -0.020589393 0.10204138 0.015508105 0.07247419
0.058617525 -0.0052359956 -0.015093573 0.036492288 0.04684584 0.028415127 -0.0744579 0.09808349
0.0871006 -0.055901565 -0.06294098 -0.023694206 0.041675832 -0.051490184 0.040889144 -0.08746375
-0.004374894 0.09269156 0.10237692 0.06392785 0.07976648 -0.089146286 0.00641551 -0.07224901
-0.01521306 -0.0006305002 0.041490503 0.050920732 -0.07901499 -0.009088392 0.08047851 0.08945035
-0.044585876 0.032185122 -0.09272283 0.030399997 0.008231956 0.025360335 0.093527906 0.0388067
-0.0772539 -0.05187749 -0.029431332 0.050362248 -0.009322809 -0.019127565 -0.0485068 0.020542772
-0.015017178 -0.025233354 0.03291739 -0.055737283 -0.07853371 0.07834586 -0.027170816 0.06601134
-0.016958121 0.0030626894 0.066344865 0.02821386 0.033597983 -0.0178493 -0.056998592 -0.0135680735
-0.07287562 -0.0717549 0.0035353897 -0.04097611 -0.038833052 0.01306454 -0.03210176 0.06668146
0.05895024 -0.063356355 0.055782087 -0.045283094 -0.046957847 0.06922844 0.051285487 0.07109671
0.026255103 -0.0024564664 -0.01877975 -0.093123734 -0.057676055 0.03923835 -0.081561975 0.10554597
-0.04882128 0.03740033 -0.086740494 0.02983395 0.022688536 0.08069364 0.04773587 0.04429189
-0.084321894 -0.08159188 0.0037828402 0.008772815 -0.10629068 0.065108575 0.060357172 -0.011267922
0.030482788 0.015550304 0.027050413 0.091303445 -0.03323359 0.037246082 0.08686417 0.078283556
0.05414015 0.057526086 0.035892703 -0.00052601245 0.048800644 -0.077711575 -0.036323726 -0.09880914
0.09651553 -0.0566607 -0.005624238 0.0052916342 -0.06515405 0.03725179 0.0539476 0.07095811
0.07404622 -0.038055368 0.09975833 -0.0077042487 -0.025761593 0.030825747 0.06617551 0.020834787
-0.057156797 -0.05048734 -0.04084234 0.0268847 0.0076645254 -0.08538954 -0.06991341 -0.06752593
-0.020910477 -0.059044603 -0.005280039 -0.06336938 0.060862042 -0.010764519 -0.09352676 -0.054532975

4.bias f4 [7]
00000000: 7583 0f3d afad 51bc e48c 0e3d 86a0 a0bd
00000010: def3 ddbc efad 87bc e013 f23c
0.035037477 -0.012797757 0.034802333 -0.078431174 -0.027093824 -0.01656243 0.029550493
