models/date-06-19-2025-20-20p1-RLbotp2-RLbotDDQNself_play-Trueexp_dir-RLbotepochs-50p1_win_rate-0.59p2_win_rate-0.41is_test-False/model.pth (torch, 117053 bytes, 6 tensors)

0.weight f4 [150, 84]
-0.06984686 0.05258098 0.117085055 0.0044104806 -0.16888052 0.15510191 -0.1180445 -0.045760993
-0.0287488 0.04941946 -0.018440833 -0.0144923795 -0.042576805 0.10105458 0.10168477 0.050560683
0.11676869 0.14093491 -0.029544292 0.020279538 0.13998634 -0.057776373 -0.035524298 -0.067577206
-0.034376204 -0.13516636 0.075920016 0.026258023 -0.08390582 0.078319184 0.004539582 0.050660193
0.071627095 -0.039168973 -0.013372493 -0.035232566 -0.02563074 -0.017780075 0.13909559 -0.043625254
-0.07499984 -0.106689975 0.059327524 0.09011163 0.114909455 0.036569573 -0.04161743 0.1051252
0.08126583 0.01984865 0.17772101 -0.0029849922 0.114422165 -0.0069303154 0.2191395 0.06945246
0.1288613 -0.03424117 0.0042056567 -0.10752397 0.032706965 -0.07541998 0.0583506 0.050189022
0.08413424 0.017272865 0.10703889 -0.0062127355 0.02865301 0.101155 0.012695666 -0.019663524
-0.028244203 -0.13099667 -0.096465535 -0.10170408 0.07021943 0.102666795 -0.07790563 -0.045058794
0.015029375 0.034939785 -0.012494827 0.067190625 0.09848391 -0.045127608 -0.010358487 -0.069280006
-0.014184436 -0.008237295 -0.11154194 0.0065612393 -0.0062644044 0.048161075 -0.11367114 -0.066308245
-0.05343539 0.028649766 0.03643749 -0.02557576 -0.060669564 0.060031928 0.028445262 -0.0052780225
-0.13031021 0.07139611 0.020308731 -0.08360517 -0.011415989 -0.04854143 -0.019554688 -0.08333713
0.07661222 -0.08882801 0.03732807 0.0010760708 -0.16969119 -0.027800655 0.063839175 0.09005323
0.025071835 -0.086939245 -0.024407549 -0.050596215 0.07576347 -0.055735398 0.039811347 -0.009096878
0.15023802 0.007945205 0.011149411 -0.032546524 -0.06354366 -0.032219328 -0.12516887 0.12149295
0.13912404 0.0986038 -0.082323596 0.0020454926 -0.0920749 -0.020561397 -0.034299016 -0.10011597
-0.044827692 -0.10096595 -0.024507735 -0.004111602 0.015720975 -0.0548979 -0.009982961 0.04960634
-0.053521432 -0.07751814 -0.048232988 0.101225615 0.1111996 0.028071404 0.04797765 0.008190192
0.07306904 0.08558657 -0.024334332 -0.028621593 0.06269253 0.10048121 -0.1036137 -0.03218604
0.100099295 -0.0477188 -0.006413517 0.007031995 -0.009310171 0.06988668 -0.008569714 -0.0074775857
0.090318166 -0.0013095785 -0.073368035 0.0016517808 0.12796256 -0.064618714 -0.0016124799 0.06651598
0.030237967 0.10184759 -0.049209937 0.14903364 0.021766974 0.06966257 0.09803289 0.04229732
-0.020225717 0.051926747 -0.01972339 0.024217268 -0.05593016 0.047704812 0.03798325 0.01797635
0.089894824 0.009237878 0.003955277 0.015067737 -0.06949636 -0.02023945 0.036589757 0.059374694
0.07334865 -0.08680838 0.031561784 -0.00033002155 0.0937123 0.10554149 -0.036633946 -0.08431027
0.061570548 -0.026547244 -0.016165726 0.11159494 0.0538374 0.011537158 0.16460168 0.07168288
-0.043164324 -0.03128558 -0.013116896 0.08735107 -0.05849123 -0.13879511 0.022708843 0.031492848
-0.11232227 0.06611179 0.007333345 0.060379673 0.1143025 0.0895502 -0.008931948 0.08066855
0.045753516 -0.0662202 -0.0985689 -0.00018646196 -0.09493257 -0.11343171 -0.06612955 -0.040355656
0.0059561185 -0.07360892 0.016746363 0.06288879 0.080935545 -0.052800547 0.06611391 -0.056497388
00000000: df0b 8fbd 275f 573d 4aca ef3d cb85 903b
00000010: 04ef 2cbe 09d3 1e3e 51c1 f1bd e16f 3bbd
00000020: 9a82 ebbc 0f6c 4a3d 3b11 97bc 7271 6dbc
00000030: 0465 2ebd b4f5 ce3d 1b40 d03d b818 4f3d
00000040: 6c24 ef3d 3e51 103e df06 f2bc 4621 a63c
00000050: 9458 0f3e eba6 6cbd ed81 11bd eb65 8abd
00000060: 10ce 0cbd 0d69 0abe f47b 9b3d 111b d73c
00000070: d1d6 abbd cf65 a03d c6c0 943b 1081 4f3d
00000080: 3ab1 923d a56f 20bd 4d18 5bbc 0650 10bd
00000090: 8ff7 d1bc 85a7 91bc 136f 0e3e 65b0 32bd
000000a0: 8499 99bd 4680 dabd 6b01 733d 728c b83d
000000b0: a655 eb3d fac9 153d 0a77 2abd e14b d73d
000000c0: b36e a63d a399 a23c 7ffc 353e dc9f 43bb
000000d0: 2b56 ea3d b317 e3bb 1b66 603e 173d 8e3d
000000e0: 37f4 033e 7840 0cbd 9bcf 893b 8735 dcbd
000000f0: bdf7 053d ca75 9abd 0a01 6f3d 0193 4d3d
00000100: 934e ac3d d37f 8d3c 3537 db3d 3494 cbbb
00000110: b8b9 ea3c 5a2a cf3d 7c01 503c 6615 a1bc
00000120: 6360 e7bc fe23 06be b98f c5bd 3b4a d0bd
00000130: 34cf 8f3d f842 d23d fd8c 9fbd 928f 38bd
00000140: c53d 763c 051d 0f3d 1ab7 4cbc 3d9b 893d
00000150: efb1 c93d bad7 38bd a5b6 29bc ade2 8dbd
00000160: d665 68bc b8f5 06bc 1a70 e4bd aaff d63b
00000170: a245 cdbb 8c44 453d 6acc e8bd 9ecc 87bd
00000180: 11df 5abd eab2 ea3c 7a3f 153d 4284 d1bc
00000190: a680 78bd 0ae4 753d 0a06 e93c 43f3 acbb
000001a0: 0a70 05be 2038 923d 7f5e a63c 3039 abbd
000001b0: 210a 3bbc 61d3 46bd 2731 a0bc a8ac aabd
000001c0: dee6 9c3d 76eb b5bd 51e5 183d f20a 8d3a
000001d0: 87c3 2dbe 33be e3bc 1dbe 823d d46d b83d
000001e0: 7363 cd3c 340d b2bd 57f2 c7bc fa3d 4fbd
000001f0: e129 9b3d cd4a 64bd 3911 233d 120b 15bc
00000200: ffd7 193e 9b2c 023c 05ac 363c 814f 05bd
00000210: 2e23 82bd 6af8 03bd 452c 00be 4cd1 f83d
00000220: 8876 0e3e caf0 c93d 4699 a8bd ac0d 063b
00000230: c491 bcbd 6070 a8bc 207d 0cbd 9a09 cdbd
00000240: 3e9d 37bd 3cc7 cebd 72c4 c8bc 9eba 86bb
00000250: 46c9 803c 9fdc 60bd 938f 23bc 0430 4b3d
00000260: 4a39 5bbd d5c1 9ebd f48f 45bd 604f cf3d
00000270: 9ebc e33d 00f6 e53c 3684 443d 2830 063c
00000280: 39a5 953d 0348 af3d cb58 c7bc d577 eabc
00000290: f164 803d 18c9 cd3d 6b33 d4bd 82d5 03bd
000002a0: dc00 cd3d ca74 43bd 7b28 d2bb a66c e63b
000002b0: b089 18bc bf20 8f3d fc67 0cbc 8906 f5bb
000002c0: bbf8 b83d 2aa6 abba fb41 96bd 9180 d83a
000002d0: 9e08 033e d156 84bd d959 d3ba 8839 883d
000002e0: 9db5 f73c 7895 d03d 5c90 49bd 469c 183e
000002f0: a750 b23c 40ab 8e3d 78c5 c83d f43f 2d3d
00000300: 67b0 a5bc 24b1 543d f292 a1bc 4b63 c63c
00000310: 0617 65bd 1f66 433d 5394 1b3d 2343 933c
00000320: c71a b83d 785a 173c 459b 813b abde 763c
00000330: 1c54 8ebd 34cd a5bc 24df 153d e132 733d
00000340: d137 963d 98c8 b1bd ee46 013d be06 adb9
00000350: 3cec bf3d 2326 d83d 7a0d 16bd ddaa acbd
00000360: 6631 7c3d 9b79 d9bc fc6d 84bc e38b e43d
00000370: 9b84 5c3d 5906 3d3c 588d 283e 79ce 923d
00000380: 13cd 30bd 4f25 00bd 40e8 56bc 1ee5 b23d
00000390: 8094 6fbd 4e20 0ebe e507 ba3c a5fe 003d
000003a0: 3809 e6bd 9e65 873d 8e4c f03b ad50 773d
000003b0: 6e17 ea3d 1866 b73d 4e57 12bc 8e35 a53d
000003c0: 0a68 3b3d 759e 87bd 7ede c9bd 0085 43b9
000003d0: 026c c2bd e24e e8bd ee6e 87bd f94b 25bd
000003e0: 8b2b c33b 46c0 96bd ab2f 893c d7cb 803d
000003f0: 89c1 a53d 6345 58bd bb66 873d ce69 67bd

0.bias f4 [150]
-0.043152682 -0.08222656 -0.0420546 -0.058259882 -0.00810778 0.05252414 0.009770292 0.07387048
0.02985462 0.059828438 0.053884543 -0.11615398 -0.050629046 -0.09819178 0.09947019 -0.043530915
-0.06495097 -0.09397429 -0.11942487 -0.061733246 -0.0032879268 -0.039147686 0.066527426 0.10946879
0.035845935 0.06399494 -0.064359 0.018636465 0.10191825 0.07300802 0.08592676 0.0391001
0.021325473 0.06958112 0.015046947 -0.029906875 -0.010174423 0.10345444 -0.010685275 -0.012191478
-0.059557494 -0.09269586 0.08183048 0.09203073 -0.06249062 -0.09545686 0.032085594 0.07648856
0.055054452 0.026054224 -0.08092602 -0.081459254 -0.048551116 0.04980551 0.06969014 0.065376565
0.11743814 -0.07738653 0.047325622 0.04842445 -0.006279325 0.096251644 -0.062779136 0.076451704
-0.038558565 -0.027711805 -0.03425086 -0.11692832 0.09634106 0.051815458 0.08472272 0.094785504
0.041347682 0.010425086 -0.08085352 -0.0672695 0.05964278 0.10169541 0.0054115676 0.054453257
0.050117783 -0.053529575 -0.0042978637 -0.084889166 -0.010264624 0.03818337 0.0056145573 -0.04314362
-0.025666475 -0.108133346 -0.042421076 0.0008210988 -0.11969692 -0.037591364 0.093361236 -0.023533067
0.030345669 -0.09513216 -0.035859104 0.024531666 -0.08577647 -0.05701613 -0.013958315 -0.0047268677
0.13060473 0.002846696 0.008452916 -0.10355984 -0.019480925 0.02312343 0.004067677 0.095182255
0.0115225 -0.031325176 0.028872587 0.0153244315 0.03810983 -0.09429287 0.010370935 -0.10329732
0.04328566 0.058698922 0.071555234 0.010774111 0.082074575 0.1472022 -0.03787148 -0.10223043
-0.04739998 0.013008991 0.06281327 -0.0065171584 -0.019967197 0.040159192 0.07324176 0.028905753
0.07915432 -0.053193025 -0.05629881 0.09048392 -0.11723719 -0.04752364 0.06312325 0.021647012
-0.100724645 -0.026648639 -0.024043227 0.077412166 0.08356314 -0.019706741
00000000: dec0 30bd 6666 a8bd 7241 2cbd eaa1 6ebd
00000010: 7ed6 04bc 8d23 573d 9313 203c 6849 973d
00000020: ad91 f43c aa0e 753d 0ab6 5c3d 23e2 edbd
00000030: 6760 4fbd c618 c9bd 07b7 cb3d 794d 32bd
00000040: 0405 85bd 9875 c0bd 0795 f4bd 00dc 7cbd
00000050: 427a 57bb 5359 20bd 883f 883d 2c31 e03d
00000060: 30d3 123d c70f 833d a7ce 83bd 80ab 983c
00000070: 84ba d03d 3b85 953d 5ffa af3d 6d27 203d
00000080: c2b2 ae3c 8c80 8e3d 7887 763c 43ff f4bc
00000090: a0b2 26bc ecdf d33d 4b11 2fbc c4be 47bc
000000a0: 8ff2 73bd 54d7 bdbd bd96 a73d 9b7a bc3d
000000b0: 2af6 7fbd e37e c3bd 2f6c 033d 09a6 9c3d
000000c0: c780 613d ab6f d53c 8bbc a5bd 1cd4 a6bd
000000d0: 89dd 46bd dd00 4c3d b4b9 8e3d 26e4 853d
000000e0: 6883 f03d d47c 9ebd 83d8 413d b758 463d
000000f0: ccc2 cdbb 951f c53d 5992 80bd b692 9c3d
00000100: 96ef 1dbd de03 e3bc a14a 0cbd 1d78 efbd
00000110: 764e c53d 723c 543d 1b83 ad3d e71e c23d
00000120: 305c 293d fbcd 2a3c 8896 a5bd 97c4 89bd
00000130: fd4b 743d af45 d03d 8553 b13b 610a 5f3d
00000140: 4e48 4d3d d441 5bbd 18d5 8cbb 5fda adbd
00000150: f42c 28bc 2a66 1c3d 52fa b73b 5db7 30bd
00000160: 8042 d2bc 0475 ddbd b9c1 2dbd 023f 573a
00000170: a923 f5bd 67f9 19bd 2d34 bf3d 6bc8 c0bc
00000180: 7b97 f83c a6d4 c2bd ffe0 12bd a2f6 c83c
00000190: 93ab afbd bf89 69bd 6bb1 64bc d7e3 9abb
000001a0: 3fbd 053e a28f 3a3b 197e 0a3c 2e17 d4bd
000001b0: 7696 9fbc 596d bd3c 264a 853b eaee c23d
000001c0: dec8 3c3c d44e 00bd 3486 ec3c 5313 7b3c
000001d0: 0e19 1c3d 9f1c c1bd dbea 293c 8c8d d3bd
000001e0: 4e4c 313d 486e 703d 8d8b 923d e685 303c
000001f0: b716 a83d 2cbc 163e 201f 1bbd 305e d1bd
00000200: 7b26 42bd aa23 553c 3ea4 803d e38d d5bb
00000210: 3f92 a3bc f77d 243d c7ff 953d c2cb ec3c
00000220: a91b a23d eee0 59bd 9599 66bd a24f b93d
00000230: 0d1a f0bd 26a8 42bd c346 813d 1355 b13c
00000240: b948 cebd 3f4e dabc 4df6 c4bc 458a 9e3d
00000250: 2723 ab3d 0870 a1bc

2.weight f4 [100, 150]
0.016988786 0.049292717 -0.07111766 -0.08977969 -0.013163777 0.0591796 -0.00021939819 -0.07081998
0.067621574 -0.09034008 0.045457873 -0.070804685 -0.013779591 -0.046878032 0.028796058 -0.06846913
0.047560938 -0.04701614 -0.045980893 -0.09180202 0.029170392 0.11441289 0.026197972 -0.029963726
0.04443674 -0.053292435 -0.023187788 0.0100808535 0.013221781 -0.085103646 0.0028423893 -0.045465305
-0.038400237 -0.0442607 0.054025285 -0.028439676 -0.031639077 0.024541732 0.0142009845 0.01614562
-0.023129238 0.032955892 0.027765162 0.08940106 0.008776645 0.0076687476 0.043555394 -0.060012434
-0.067130946 0.0123235565 -0.07272713 0.05008263 0.05436534 0.047040515 -0.06735213 -0.06488851
0.0366116 0.041630816 0.016548134 0.04589527 -0.052889336 0.05801252 0.032934625 -0.04206186
0.044743493 0.0664432 -0.08261507 -0.033823803 0.013725132 -0.0141474735 -0.081739664 0.00022026223
0.026443131 0.0206408 0.08978132 0.038334753 -0.095518306 -0.031789172 -0.058353435 0.019642206
-0.057574857 0.04175636 0.05043362 0.008335877 0.00039175048 -0.008695964 0.011890025 -0.006189451
0.014459512 0.0019351778 0.044539005 0.038268466 0.015812233 0.032192703 -0.034955416 -0.04934227
0.06860344 0.05634927 -0.07943168 0.04334466 -0.08185957 -0.03320339 0.04324365 -0.0035786445
-0.016271805 0.051293407 -0.08302301 0.060519878 0.023168465 -0.10360683 -0.023040965 -0.08302532
0.022997081 -0.024426252 -0.069100186 -0.08715912 -0.055476762 -0.04246924 0.050409656 -0.023670577
0.019827573 -0.050363064 0.006574323 -0.045147985 0.0032332058 0.030441662 0.055658955 -0.07844968
-0.05378422 0.045236677 0.0049450523 -0.05946109 -0.09317063 0.06847251 0.015836779 -0.052793186
-0.10059688 0.063823566 0.075604595 -0.043038458 -0.072568715 -0.07168334 0.048440296 0.019798487
-0.0002586585 0.041655455 0.04569798 -0.0771235 0.105295636 0.032204334 -0.040083874 -0.08016866
-0.014675832 0.0071135177 0.07366413 -0.056743003 0.033929147 0.012333023 0.03953827 0.009579172
-0.023815075 0.038925476 -0.045958944 0.06154657 0.007873434 -0.06916489 -0.003634743 0.023289979
0.011347516 -0.0015287665 -0.04283911 0.018956123 -0.009609589 -0.07370485 -0.081472784 -0.07431679
-0.013424215 0.07610228 -0.042553987 -0.00586884 0.010571988 0.04675613 0.010379268 -0.06883054
-0.06003897 0.05625721 -0.07221511 0.043641753 0.03436524 -0.011033703 0.0076973755 -0.014993015
-0.04147208 -0.059917748 0.03667791 -0.07092879 -0.07349973 -0.0454108 -0.02410292 -0.030851047
0.07158306 -0.046227627 -0.009388749 0.07833336 0.03151895 -0.0069172145 0.0452078 -0.068838835
-0.071879864 0.011518873 0.0030430593 -0.059637833 0.03842691 -0.04541578 -0.06859419 -0.075448036
-0.050368086 0.07114478 0.01951736 0.06683402 -0.0016924433 0.038892265 0.035662908 0.031461224
-0.0048275804 -0.044868015 -0.025148463 -0.06659664 -0.07737155 -0.029726362 -0.024524279 -0.02857308
0.046269916 0.0249328 -0.05321601 -0.016409205 0.036354523 -0.023830902 0.007599078 -0.061009854
-0.08117929 -0.03245124 0.073799305 0.070444465 -0.07104802 0.033950247 -0.07781878 -0.005794973
-0.07829726 0.07045913 0.010131407 -0.009962114 0.023973778 0.0074772453 -0.0786866 -0.015882676
00000000: 112c 8b3c 29e7 493d 23a6 91bd 6ade b7bd
00000010: e2ac 57bc 4f66 723d 410e 66b9 110a 91bd
00000020: 2e7d 8a3d 3804 b9bd 0932 3a3d 0c02 91bd
00000030: cbc3 61bc 2e03 40bd b6e5 eb3c 8b39 8cbd
00000040: 42cf 423d ff93 40bd 7656 3cbd b302 bcbd
00000050: bff6 ee3c 4e51 ea3d 219d d63c 7d76 f5bc
00000060: 4d03 363d 2b49 5abd 51f4 bdbc 2a2a 253c
00000070: 2ba0 583c d24a aebd 6147 3a3b d439 3abd
00000080: 9149 1dbd b54a 35bd 9e49 5d3d 53fa e8bc
00000090: fa97 01bd be0b c93c 3fab 683c d243 843c
000000a0: 8779 bdbc c2fc 063d c473 e33c e717 b73d
000000b0: ebcb 0f3c 1e4a fb3b 2467 323d 99cf 75bd
000000c0: f37b 89bd bee8 493c f6f1 94bd 7223 4d3d
000000d0: 31ae 5e3d 8ead 403d eaef 89bd 44e4 84bd
000000e0: 0cf6 153d 1385 2a3d f48f 873c aefc 3b3d
000000f0: 7da2 58bd 899e 6d3d 75e6 063d 0f49 2cbd
00000100: f444 373d 5f13 883d 1732 a9bd d48a 0abd
00000110: 60df 603c ceca 67bc 2067 a7bd 31f6 6639
00000120: 449f d83c e516 a93c 45df b73d e704 1d3d
00000130: 1a9f c3bd 5d35 02bd 0304 6fbd b1e8 a03c
00000140: 9dd3 6bbd b808 2b3d 7c93 4e3d 3493 083c
00000150: dc63 cd39 8479 0ebc 61ce 423c e1d0 cabb
00000160: 97e7 6c3c cba5 fd3a 886e 363d 65bf 1c3d
00000170: a888 813c 7fdc 033d 692d 0fbd 1f1b 4abd
00000180: f67f 8c3d 7ece 663d 14ad a2bd 2c8a 313d
00000190: fea5 a7bd 4700 08bd 4120 313d b187 6abb
000001a0: 734c 85bc 0919 523d f807 aabd b1e3 773d
000001b0: cbcb bd3c d12f d4bd 68c0 bcbc 2e09 aabd
000001c0: 6064 bc3c 9019 c8bc 6684 8dbd 7b80 b2bd
000001d0: 9a3b 63bd 3af4 2dbd 5b7a 4e3d cce8 c1bc
000001e0: 6f6d a23c 8049 4ebd 6b6d d73b 18ed 38bd
000001f0: 31e4 533b cb60 f93c a5fa 633d 3aaa a0bd
00000200: d84c 5cbd 184a 393d 1b0a a23b 798d 73bd
00000210: 3ed0 bebd 513b 8c3d 22bc 813c ab3d 58bd
00000220: bd05 cebd eeb5 823d 95d6 9a3d 1849 30bd
00000230: e89e 94bd b7ce 92bd 5569 463d 7030 a23c
00000240: 8e9c 87b9 e99e 2a3d ce2d 3b3d edf2 9dbd
00000250: 3da5 d73d b1e8 033d fd2e 24bd 772f a4bd
00000260: e772 70bc 8318 e93b 38dd 963d 5a6b 68bd
00000270: 4af9 0a3d 7310 4a3c e2f2 213d f6f1 1c3c
00000280: d517 c3bc 5270 1f3d 723f 3cbd 4218 7c3d
00000290: 93ff 003c 52a6 8dbd de34 6ebb a0ca be3c
000002a0: efea 393c e460 c8ba 1078 2fbd df49 9b3c
000002b0: 8a71 1dbc 92f2 96bd 34db a6bd 6733 98bd
000002c0: 3df1 5bbc 83db 9b3d 174d 2ebd 664f c0bb
000002d0: 2236 2d3c 5b83 3f3d ce0d 2a3c 07f7 8cbd
000002e0: 6ceb 75bd f66d 663d 84e5 93bd b2c1 323d
000002f0: 91c2 0c3d b4c6 34bc 443a fc3b 43a5 75bc
00000300: a1de 29bd 506c 75bd 933b 163d 1d43 91bd
00000310: 0787 96bd ad00 3abd 7d73 c5bc 56bb fcbc
00000320: 249a 923d 2e59 3dbd 44d3 19bc 3e6d a03d
00000330: 041a 013d cda9 e2bb d02b 393d 60fb 8cbd
00000340: c035 93bd a8b9 3c3c 106e 473b cd46 74bd
00000350: 8965 1d3d e605 3abd 1c7b 8cbd 8084 9abd
00000360: c44e 4ebd 5bb4 913d dfe2 9f3c 46e0 883d
00000370: f9d4 ddba 7f4d 1f3d 4513 123d 7cdd 003d
00000380: ae30 9ebb 86c7 37bd 2604 cebc d263 88bd
00000390: fa74 9ebd b384 f3bc 24e7 c8bc 1812 eabc
000003a0: 8685 3d3d df3f cc3c 08f9 59bd 996c 86bc
000003b0: 7be8 143d 0639 c3bc b001 f93b 78e5 79bd
000003c0: 5441 a6bd 97eb 04bd 1724 973d 3045 903d
000003d0: a081 91bd 6a0f 0b3d 745f 9fbd c2e3 bdbb
000003e0: 505a a0bd e04c 903d 33fe 253c 2238 23bc
000003f0: a864 c43c ae03 f53b 7126 a1bd 631c 82bc

2.bias f4 [100]
0.05745193 -0.053229704 -0.094114296 -0.06591221 -0.057119798 0.15366113 0.07381277 0.10432316
0.0049826 0.009125586 -0.0038575479 0.018880196 0.021897718 -0.026880387 0.0152706625 -0.08896327
0.020444192 0.070817344 -0.057594407 0.095028795 0.08707453 -0.0054670777 0.039596375 -0.039569296
-0.068852715 0.018384084 -0.030212805 -0.010460704 -0.046611205 0.004419827 0.060834967 -0.07026816
0.022781871 0.008621748 -0.020823175 -0.020919327 -0.067719236 -0.005336319 0.0022980093 0.07775103
-0.019638706 0.046696275 -8.8246874e-05 0.04573184 0.040416837 0.024804464 -0.083063796 -0.034786727
0.000673315 -0.02583653 -0.07846053 0.076576784 0.07079043 0.06661264 -0.085771225 0.055817597
0.07489281 0.022946758 0.008260943 0.01728918 0.07440061 0.014508163 0.037422054 -0.072976016
-0.035848998 -0.06820525 -0.022396304 -4.6061097e-05 0.00785297 0.0867314 -0.07999975 0.073196664
0.021517571 0.042452563 -0.052202888 -0.026479363 0.03563876 -0.06888081 -0.0037932203 -0.054001573
0.0723946 -0.047723792 -0.023718491 -0.0834719 -0.042170104 0.005781886 0.0814609 0.0022117188
0.010228044 -0.010476742 -0.06967856 -0.06594847 0.03450215 0.038569003 0.042610724 0.026445722
0.08340441 0.057348203 0.036039416 -0.05124278
00000000: b752 6b3d 6407 5abd ffbe c0bd fbfc 86bd
00000010: 73f6 69bd 5859 1d3e 262b 973d 62a7 d53d
00000020: 1445 a33b 7b83 153c eace 7cbb a4aa 9a3c
00000030: d862 b33c 4234 dcbc cd31 7a3c 6032 b6bd
00000040: 947a a73c af08 913d 1de8 6bbd 759e c23d
00000050: 2254 b23d 2c25 b3bb cf2f 223d 6a13 22bd
00000060: a702 8dbd 389a 963c d880 f7bc 5f63 2bbc
00000070: 64eb 3ebd 32d4 903b 162e 793d c1e8 8fbd
00000080: 0ca1 ba3c 3b42 0d3c 5d95 aabc 025f abbc
00000090: 62b0 8abd 4adc aebb 339a 163b ef3b 9f3d
000000a0: 5ae1 a0bc 9844 3f3d 2e11 b9b8 4f51 3b3d
000000b0: 208c 253d bb32 cb3c 5a1d aabd 877c 0ebd
000000c0: 6881 303a 21a7 d3bc eaaf a0bd 4ad4 9c3d
000000d0: 93fa 903d 356c 883d d3a8 afbd fea0 643d
000000e0: 6761 993d d7fa bb3c e858 073c 0aa2 8d3c
000000f0: 595f 983d a5b3 6d3c de47 193d 7374 95bd
00000100: 66d6 12bd 32af 8bbd 7478 b7bc ba31 41b8
00000110: bea9 003c 3ba0 b13d e9d6 a3bd 22e8 953d
00000120: 9e45 b03c bde2 2d3d b2d2 55bd 40eb d8bc
00000130: f3f9 113d 6211 8dbd ad97 78bb c130 5dbd
00000140: 9f43 943d 067a 43bd 484d c2bc 51f3 aabd
00000150: 8fba 2cbd fa75 bd3b f9d4 a63d 7cf2 103b
00000160: 8793 273c a4a6 2bbc a2b3 8ebd fe0f 87bd
00000170: 2052 0d3d 88fa 1d3d 9588 2e3d b3a4 d83c
00000180: eecf aa3d f3e5 6a3d 119e 133d f3e3 51bd

4.weight f4 [7, 100]
-0.0593381 0.04249816 0.0064030904 -0.062217448 -0.048647154 -0.056234196 0.015579848 0.028122097
0.0125909485 0.013065801 -0.07031539 0.012265245 -0.04220731 -0.033697955 0.08529602 -0.030146051
-0.02987628 0.04468563 0.035647497 -0.017455384 0.04847193 -0.08314769 0.02556323 -0.11594993
0.018976275 -0.025746217 -0.015478733 -0.023845825 -0.028344398 -0.045334205 -0.028751237 0.033777975
0.041442342 -0.04837373 0.04375782 0.060168218 -0.02849402 -0.035468616 0.09245429 -0.006942885
0.08728991 -0.029071812 -0.009054691 -0.073142655 -0.028533299 -0.07809307 -0.053214334 -0.008115307
-0.073297836 -0.07934833 -0.035207473 -0.065024815 0.009422859 -0.05463915 -0.12001765 0.08516166
0.08759837 0.041444242 -0.10118889 0.04087909 0.055828203 0.011506206 0.05675603 -0.10302558
-0.06860368 0.056338336 0.0435451 -0.0400654 0.018073387 0.040298644 0.0305995 -0.06747437
0.029432511 -0.038373783 -0.05605947 -0.008777811 -0.0048944694 -0.014477495 -0.113106415 0.05519913
-0.04291694 -0.015304724 0.037522595 0.05960181 0.07471641 -0.023755228 0.01391974 0.026303712
-0.061054457 -0.004324913 -0.031228932 0.067615554 -0.0642932 0.035826385 0.019598715 0.037255522
0.06913023 0.012721644 -0.06873199 0.027900053 0.037943073 0.09044039 -0.020299373 0.14963746
0.08254819 0.0020465082 0.08317504 0.014191382 -0.13969828 0.112168156 0.098075345 0.029624531
0.051790863 -0.015690517 -0.014052905 0.06151916 -0.06493117 0.01770715 -0.11674082 0.082754426
-0.1112666 0.08400554 -0.06810401 0.115047485 0.07260406 0.03826424 -0.10960733 0.09956037
-0.13861665 -0.06334151 -0.023526713 -0.10343574 0.07558197 0.094784945 0.0033218046 0.08894974
-0.13898122 -0.019876745 0.050620127 0.09481656 -0.015986007 0.023922965 0.025177801 0.07475854
0.014861948 0.00638887 0.07844785 0.0016102119 -0.020948797 -0.07734939 0.04362334 -0.056248795
-0.0032697087 -0.023875644 0.061377205 0.081934586 0.002134716 0.08629588 0.06886604 -0.03585331
0.033785004 0.007389393 -0.02039922 0.056976393 0.10235109 0.03188694 0.05824434 -0.042025063
-0.08953474 -0.04002088 -0.027794847 -0.059134167 -0.06170877 -0.062275276 -0.009510911 -0.072221495
-0.06228585 0.0066096345 -0.07775664 0.08876749 0.07381624 -0.03160157 0.04578924 -0.09710551
0.06556827 -0.07042672 0.033336245 0.08720142 -0.08033464 -0.048443906 -0.18055853 -0.06723609
-0.109010845 0.06728754 -0.039560348 -0.08142666 0.033740796 -0.074935146 -0.086546525 0.004644998
0.010749368 -0.027861966 -0.0925645 -0.0071603884 -0.084679246 0.1627517 0.091873735 -0.057905983
0.14857057 0.13092873 0.11838207 -0.047693696 -0.012393966 -0.090651944 -0.03935322 0.06156369
0.12650633 0.09730842 0.06217917 0.13909638 0.14082994 -0.07341159 -0.05036976 0.075970225
-0.08242677 0.12226389 -0.018265363 -0.026783982 0.05371895 0.01994753 0.13035353 -0.07274122
-0.04509174 0.07923249 -0.045124482 0.1254121 0.08472635 -0.085324965 -0.110590115 0.07189016
0.05018056 0.095109835 -0.08111806 -0.12389106 -0.0009566494 -0.058095068 0.07380656 -0.032709792
0.0136503065 0.11895445 0.036409434 -0.037598494 0.019255761 -0.027513605 0.1215486 0.0056946836
00000000: 820c 73bd 8d12 2e3d 04d1 d13b b9d7 7ebd
00000010: 3d42 47bd d455 66bd 9e42 7f3c 5060 e63c
00000020: 444a 4e3c f111 563c 8401 90bd 2bf4 483c
00000030: 93e1 2cbd de06 0abd aeaf ae3d daf4 f6bc
00000040: 1abf f4bc 4708 373d 1c03 123d 98fe 8ebc
00000050: 818a 463d 5649 aabd fb69 d13c 2877 edbd
00000060: 2274 9b3c bbe9 d2bc 839a 7dbc 5258 c3bc
00000070: 8332 e8bc 5cb0 39bd b787 ebbc c65a 0a3d
00000080: 72bf 293d 8823 46bd 663b 333d f372 763d
00000090: 4b6c e9bc 8a47 11bd ad58 bd3d 2481 e3bb
000000a0: 0dc5 b23d 0228 eebc 205a 14bc d1cb 95bd
000000b0: aabe e9bc 42ef 9fbd 46f7 59bd 11f6 04bc
000000c0: 2d1d 96bd 6181 a2bd b635 10bd bb2b 85bd
000000d0: 5662 1a3c 4dcd 5fbd d0cb f5bd 3d69 ae3d
000000e0: c666 b33d 70c1 293d 1f3c cfbd d570 273d
000000f0: 1dac 643d 8784 3c3c 0379 683d 13ff d2bd
00000100: 1680 8cbd 07c3 663d 595c 323d 9e1b 24bd
00000110: a40e 943c 3110 253d cdab fa3c 0130 8abd
00000120: 731c f13c d42d 1dbd 9d9e 65bd cfd0 0fbc
00000130: c961 a0bb 0433 6dbc 56a4 e7bd 7c18 623d
00000140: acc9 2fbd aac0 7abc 4bb1 193d 0721 743d
00000150: eb04 993d 539a c2bc 9f0f 643c e27a d73c
00000160: 3d14 7abd 00b8 8dbb d1d3 ffbc 067a 8a3d
00000170: 27ac 83bd b0be 123d 7c8d a03c 3f99 183d
00000180: 2694 8d3d 716e 503c 5cc3 8cbd a78e e43c
00000190: 326a 1b3d d038 b93d df4a a6bc 903a 193e
000001a0: 070f a93d b61e 063b ad57 aa3d f882 683c
000001b0: 110d 0fbe 6bb8 e53d badb c83d 25af f23c
000001c0: a822 543d 6689 80bc 283e 66bc 84fb 7b3d
000001d0: a2fa 84bd 960e 913c d015 efbd 277b a93d
000001e0: bedf e3bd 190b ac3d 1d7a 8bbd 049e eb3d
000001f0: 70b1 943d f7ba 1c3d cf79 e0bd 4fe6 cb3d
00000200: 86f1 0dbe 32b9 81bd 18bb c0bc 1ed6 d3bd
00000210: b8ca 9a3d 9c1e c23d a2b2 593b 482b b63d
00000220: 1851 0ebe 8ed4 a2bc 0d57 4f3d 2f2f c23d
00000230: 16f5 82bc 18fa c33c ad41 ce3c 011b 993d
00000240: 877f 733c ba59 d13b 44a9 a03d bf0d d33a
00000250: d09c abbc 5b69 9ebd 63ae 323d 2365 66bd
00000260: 9c48 56bb db96 c3bc aa66 7b3d 52cd a73d
00000270: 97e6 0b3b e5bb b03d a309 8d3d ecda 12bd
00000280: 2562 0a3d b922 f23b 441c a7bc 1460 693d
00000290: 739d d13d e19b 023d 9e91 6e3d 7922 2cbd
000002a0: fd5d b7bd efec 23bd 05b2 e3bc ab36 72bd
000002b0: 56c2 7cbd 5c14 7fbd a7d3 1bbc dde8 93bd
000002c0: 731f 7fbd a295 d83b e03e 9fbd bbcb b53d
000002d0: f82c 973d a670 01bd 808d 3b3d 41df c6bd
000002e0: a848 863d e23b 90bd 968b 083d a896 b23d
000002f0: 7d86 a4bd 1e6d 46bd 56e4 38be 13b3 89bd
00000300: 1441 dfbd 0dce 893d 080a 22bd 05c3 a6bd
00000310: ca33 0a3d 9977 99bd 4e3f b1bd 1135 983b
00000320: 1e1e 303c c73e e4bc 7592 bdbd b1a1 eabb
00000330: 506c adbd 62a8 263e 4c28 bc3d d32e 6dbd
00000340: e222 183e 2e12 063e 4c72 f23d 775a 43bd
00000350: 1010 4bbc baa7 b9bd d830 21bd 352a 7c3d
00000360: e08a 013e a349 c73d 96af 7e3d 486f 0e3e
00000370: b935 103e d158 96bd 8550 4ebd 4796 9b3d
00000380: 5ecf a8bd 7e65 fa3d 3ea1 95bc 156a dbbc
00000390: 6708 5c3d 0169 a33c 657b 053e 59f9 94bd
000003a0: 1eb2 38bd a544 a23d 73d4 38bd 086c 003e
000003b0: 0285 ad3d dbbe aebd 127d e2bd 263b 933d
000003c0: 228a 4d3d f2c8 c23d 3a21 a6bd 99ba fdbd
000003d0: a8c7 7aba 18f5 6dbd e527 973d b4fa 05bd
000003e0: 89a5 5f3c 649e f33d 0f22 153d e100 1abd
000003f0: 42be 9d3c 3664 e1bc 79ee f83d 789a ba3b

4.bias f4 [7]
0.07362115 0.06592947 0.0059310123 -0.078437254 0.029558236 -0.02113908 -0.008549528
00000000: afc6 963d 0806 873d f058 c23b b6a3 a0bd
00000010: 1d24 f23c dd2b adbc 5213 0cbc
