models/date-06-19-2025-11-21p1-RLbotp2-RLbotself_play-Falseexp_dir-RLbotepochs-50p1_win_rate-0.0p2_win_rate-1.0is_test-False/model.pth (torch, 117053 bytes, 6 tensors)

0.weight f4 [150, 84]
0	0xbdd42c19	-0.103599735
1	0x3db8fe14	0.090328366
2	0xbb8cff34	-0.0043028835
3	0xbc6b83a4	-0.014374647
4	0x3d12091e	0.035653226
5	0x3dab22d4	0.08356252
6	0xbd339d12	-0.043850966
7	0xbd6218e1	-0.055199508
8	0xbd367a85	-0.044550437
9	0x3d152590	0.036412776
10	0x3d72531f	0.0591613
11	0x3ca56eba	0.0201944
12	0x3caaeb34	0.020864107
13	0x3c4ced07	0.012507684
14	0x3cd3931c	0.025826983
15	0x3d9750cd	0.073884584
16	0x3ddbb929	0.10728676
17	0xbda43e37	-0.08019679
18	0x3d31566f	0.04329532
19	0x3d1363db	0.0359839
20	0x3d87f7f8	0.06639093
21	0x3ccbacc5	0.024862656
22	0x3db338f2	0.08751096
23	0x3d19ec4c	0.037578866
24	0x3dacc3a8	0.08435756
25	0x3d9b4c78	0.07582945
26	0xbcf3dc80	-0.029768229
27	0xbdd1cd8b	-0.10244282
28	0xbb72e5a3	-0.0037063144
29	0xbb448a04	-0.002998949
30	0xbc8ce2b4	-0.017197944
31	0xbc2564a9	-0.0100948
32	0x3d894dae	0.06704269
33	0xbda43aaa	-0.08019002
34	0x3d1fafc7	0.038985994
35	0xbcf58c96	-0.029974263
36	0x3dc78a47	0.09743171
37	0xbc231748	-0.009954281
38	0x3d9fc701	0.07801629
39	0x3d5b78c2	0.05358196
40	0x3c893070	0.01674673
41	0x3d716ff6	0.058944665
42	0xbda32c3c	-0.079674214
43	0xbbbc07cb	-0.0057382337
44	0x3cc9fbbc	0.02465617
45	0x3d0e3488	0.034718066
46	0xbd05e76a	-0.032691397
47	0xbd82b977	-0.06383031
48	0xbd5f3eab	-0.054503124
49	0xbdc0601f	-0.09393334
50	0xbc839a63	-0.016064828
51	0x3bc8c4f2	0.0061269933
52	0x3ce07dab	0.027403673
53	0xbd9a8c10	-0.07546246
54	0x3c88d3ca	0.016702551
55	0xbd7a241d	-0.061069597
56	0xbd5f8765	-0.05457248
57	0xbd03d750	-0.03218776
58	0xbd884e0a	-0.0665551
59	0xbab15216	-0.0013528492
60	0x3ce67429	0.028131561
61	0xbdd9e216	-0.106388256
62	0xbdbb9cf9	-0.091607995
63	0x3cc4eda0	0.02403909
64	0x3d97f9d2	0.07420696
65	0xbd916fe7	-0.07101422
66	0x3c4f2957	0.0126441335
67	0xbd9f457a	-0.077769235
68	0xbdbd352a	-0.09238656
69	0xbdc8a07c	-0.09796235
70	0x3db7a0f3	0.089662455
71	0x3c908cba	0.017645229
72	0xbdbce79c	-0.092238635
73	0x3d641709	0.05568603
74	0xbc9c6d3d	-0.019095058
75	0x3d44b696	0.04802569
76	0x3d93990a	0.07206924
77	0x3db6e7e3	0.08930948
78	0xbc491415	-0.012272854
79	0x3d8e45e0	0.06946921
80	0x3d099b07	0.03359511
81	0x3da02aa8	0.07820636
82	0xbdde0423	-0.10840633
83	0xbd81a630	-0.06330526
84	0x3ddf591b	0.109056674
85	0x3d2b5e75	0.041838128
86	0x3dc1c14c	0.094606966
87	0x3d88c57e	0.06678294
88	0x3c27b8b7	0.010236911
89	0x3dafb8dd	0.08580182
90	0x3da9324d	0.08261547
91	0x3d2305f8	0.039800614
92	0xbdcf69f8	-0.10127634
93	0xbdbaf577	-0.0912885
94	0x3d3fe7b5	0.046851832
95	0xbdc5f639	-0.09666104
96	0x3d3c37ac	0.04595153
97	0xbc8e9da6	-0.017409157
98	0x3cd0b326	0.02547605
99	0x3c15d9b4	0.009146143
100	0x3d1d49fa	0.038400628
101	0x3d6bf300	0.05760479
102	0x3b86085d	0.0040903524
103	0xbdbc5408	-0.09195715
104	0xbddcf840	-0.107895374
105	0xbca631b2	-0.020287368
106	0x3d2ee1c3	0.042695772
107	0xbd95a5d2	-0.07307018
108	0x3d3b0bef	0.045665678
109	0x3d9619a3	0.073291086
110	0x3d05705c	0.032577857
111	0x3dbf8929	0.09352333
112	0x3c88a93a	0.016682256
113	0xbda3afe1	-0.079925306
114	0xbd9e10fa	-0.07718082
115	0xbd837596	-0.06418912
116	0xbd5dfdff	-0.054197308
117	0xbd63f219	-0.055650804
118	0xbda58ece	-0.080838785
119	0xbc532963	-0.012888285
120	0xbb98df7e	-0.004665314
121	0xbd8276e4	-0.06370333
122	0xbda71295	-0.08157841
123	0xbdb14867	-0.08656388
124	0xbd9b8622	-0.07593943
125	0xbde442df	-0.11145567
126	0x3d1106fb	0.035407048
127	0x3cd866de	0.026416238
128	0xbdc4ca1e	-0.09608863
129	0x3dda8a19	0.10670871
130	0xbb5543b7	-0.0032541582
131	0xbd26fb01	-0.04076672
132	0x3dcff34a	0.101538256
133	0xbdc2ec9e	-0.095177874
134	0x3d497a91	0.049189154
135	0x3d517756	0.0511392
136	0x3be2b929	0.0069190455
137	0xbdb70c1e	-0.08937858
138	0xbd04341c	-0.032276258
139	0x3c06b23e	0.008221207
140	0xbc97a7c6	-0.018512618
141	0x3dd8ac6c	0.10579762
142	0x3d8c372b	0.0684646
143	0x3deab0ef	0.11459529
144	0x3b026025	0.0019893732
145	0x3d96461a	0.073375896
146	0x3d3f06ab	0.04663722
147	0xbceded15	-0.029043714
148	0x3d9dd8c8	0.07707363
149	0xbd946190	-0.07245171
150	0xbdbf4127	-0.09338599
151	0xbc8f4f0c	-0.017493747
152	0xbd12b11b	-0.035813432
153	0x3d8faf44	0.07015851
154	0x3d8d30db	0.06894084
155	0xbd3ad2a4	-0.04561104
156	0xbda372de	-0.079808936
157	0xbb826bc1	-0.0039801304
158	0x3dacc122	0.08435275
159	0xbd8da59a	-0.069163516
160	0x3dd0d285	0.101964034
161	0x3da503e8	0.08057386
162	0x3d920f80	0.07131863
163	0x3dc05ffd	0.09393308
164	0xbc422012	-0.0118484665
165	0x3dd5ec12	0.104454175
166	0xbd7d2aef	-0.061808523
167	0xbc59e2ba	-0.013298685
168	0x3da528fb	0.08064457
169	0x3d6abcd1	0.057308976
170	0x3d1ece2f	0.03877085
171	0x3cf7b3aa	0.030237038
172	0x3d3f39ed	0.0466861
173	0xbd3891d2	-0.04506094
174	0xbc00e516	-0.007867118
175	0x3dd34028	0.10314971
176	0xbbe90a00	-0.007111788
177	0x3d2d2076	0.042267285
178	0xbde2a68d	-0.11066923
179	0xbcbd15d4	-0.023081698
180	0x3d9d04d2	0.07666935
181	0x3d1cafd9	0.03825364
182	0xbcf19625	-0.02949054
183	0x3d695291	0.056963507
184	0xbc231b31	-0.009955213
185	0x3ce3442d	0.02774247
186	0x3dce8b4d	0.10085163
187	0xbc8be3c4	-0.01707638
188	0x3cffed7e	0.031241175
189	0xbd2f189e	-0.042748086
190	0xbd89da7b	-0.06731125
191	0x3d9bdf9b	0.07611009
192	0x3d05b89b	0.032646757
193	0x3da2ab22	0.07942797
194	0xbd95792e	-0.07298504
195	0xbdae1332	-0.08499755
196	0x3dd4bf04	0.10387996
197	0x3d8f1a46	0.06987433
198	0x3dbca641	0.09211398
199	0x3d983f9f	0.0743401
200	0xbd34e05b	-0.044159275
201	0xbce061e1	-0.027390422
202	0xbd563d73	-0.052304696
203	0x3daa1353	0.08304467
204	0x3ac10261	0.001472544
205	0xbd50a5e8	-0.05093947
206	0x3ca5ce20	0.02023989
207	0xbdb6ebe6	-0.08931713
208	0xbd28154e	-0.041035943
209	0xbc99c4a5	-0.018770525
210	0xbdbff62f	-0.09373128
211	0x3d136c4b	0.035991948
212	0x3c8a2640	0.016863942
213	0xbd9002d7	-0.07031792
214	0xbd227311	-0.039660517
215	0xbdb871bf	-0.0900607
216	0x3c88161a	0.016612101
217	0x3c7cc92e	0.015428824
218	0xbcad6936	-0.021168333
219	0xbd075c70	-0.03304714
220	0x3d5508d9	0.05201039
221	0x3df326f7	0.11872666
222	0x3bcb31a2	0.006200985
223	0xbd6d8381	-0.05798674
224	0xbd1cf6c0	-0.038321257
225	0xbd1bfbb5	-0.038081843
226	0x3db5ef45	0.08883528
227	0xbd221527	-0.039570954
228	0xbd37555a	-0.044759132
229	0xbc7abdbd	-0.015304026
230	0xbdd62a32	-0.10457267
231	0x3c98b1ba	0.018639434
232	0x3cdde446	0.027086388
233	0xbd228e4a	-0.03968648
234	0x3d04778a	0.032340564
235	0xbd7f0d1a	-0.062268354
236	0xbd76d3da	-0.06026063
237	0xbd49a823	-0.049232613
238	0xbb9ef813	-0.00485135
239	0xbda4115e	-0.08011125
240	0xbd065815	-0.032798845
241	0xbdb0c4b8	-0.08631271
242	0xbdbc5212	-0.09195341
243	0x3dbe2342	0.09284069
244	0x3aac6fae	0.0013155842
245	0x3d046778	0.032325238
246	0xbcd04f00	-0.025428295
247	0xbdd211a0	-0.10257268
248	0x3d4b4045	0.04962184
249	0x3d9a7185	0.075411834
250	0xbd0d4134	-0.03448601
251	0x3da42a5e	0.080158934
252	0xbd12e2b9	-0.03586075
253	0x3c4f16d6	0.012639722
254	0x3db47f81	0.08813382
255	0x3c82b74e	0.015956547

0.bias f4 [150]
0	0xbb5d700b	-0.0033788707
1	0xbd8c2351	-0.068426736
2	0x3ca41130	0.020027727
3	0x3dbb1b35	0.09136049
4	0x3db73056	0.08944766
5	0x3d8261af	0.06366288
6	0x3abd6676	0.0014450091
7	0x3d35b899	0.0443655
8	0xbdedf8f1	-0.116197474
9	0x3db02423	0.086006425
10	0xbdd1c7da	-0.10243197
11	0xbdebaf89	-0.1150809
12	0xbd67a667	-0.056555178
13	0x3d99ce2e	0.07510029
14	0x3b4ecf28	0.003155658
15	0x3c00a454	0.007851679
16	0xbdc1a45f	-0.094551794
17	0x3dc7a3e2	0.09748055
18	0xbd4cf1eb	-0.0500354
19	0x3dd94528	0.10608894
20	0xbda57c51	-0.08080352
21	0xbda02655	-0.07819811
22	0xbd01bc32	-0.031673618
23	0x3dd7d8eb	0.10539421
24	0x3da8a1ef	0.082340114
25	0x3d8ff91c	0.07029936
26	0xbd7c7d61	-0.06164301
27	0xbd410208	-0.047121078
28	0xbd2430eb	-0.040085714
29	0xbdc25acb	-0.09489974
30	0xbd99d730	-0.07511747
31	0x3d10f2f5	0.035387952
32	0xbd981d72	-0.07427491
33	0x3d490ee7	0.049086478
34	0x3d51ed18	0.0512515
35	0xba311ec4	-0.00067565986
36	0x3d644f10	0.055739462
37	0x3d875ee7	0.06609898
38	0x3cb891fa	0.022530545
39	0xbd4cc0da	-0.049988605
40	0x3d4ee443	0.050510656
41	0xbc274212	-0.0102086235
42	0xbdbdc9f0	-0.09267032
43	0xbd9c8029	-0.07641632
44	0xbc2177db	-0.009855236
45	0xbdd7540f	-0.1051408
46	0xbdd6a916	-0.10481469
47	0xbc94c883	-0.018162018
48	0xbd479179	-0.048722718
49	0x3d98fa57	0.074696235
50	0x3ccc0a8d	0.024907375
51	0x3d72b807	0.059257533
52	0x3d256f38	0.04038927
53	0xbd485148	-0.04890564
54	0xbdb0b23a	-0.08627744
55	0xbbac0451	-0.005249538
56	0xbd64e78d	-0.055884887
57	0xbd910cc7	-0.07082515
58	0x3cdace8f	0.026709823
59	0xbc7c3e30	-0.015395686
60	0x3d72a6b6	0.05924102
61	0x3d9f1cd3	0.0776917
62	0xbd9a03f6	-0.07520287
63	0xbd75a951	-0.059975926
64	0xbb6a6931	-0.0035768265
65	0xbb0f66cc	-0.002188134
66	0xbcc090fe	-0.023506638
67	0x3dc6766c	0.09690556
68	0xbc906126	-0.017624449
69	0x3db87ea5	0.090085305
70	0x3d74736b	0.059680384
71	0xbc9a1144	-0.018807061
72	0x3d941423	0.07230403
73	0xbdaa222b	-0.08307298
74	0xbcc15c98	-0.023603722
75	0x3de74058	0.112915695
76	0xbd9acbcb	-0.07558402
77	0x3d19a45d	0.037510265
78	0xbd383cfa	-0.044980027
79	0xbdddedc5	-0.108363666
80	0xbda7a691	-0.08186067
81	0xbde2a9fa	-0.11067577
82	0x3d40c358	0.047061294
83	0xbd15992b	-0.036523025
84	0xbcd02184	-0.025406606
85	0x3ad58c2f	0.0016292388
86	0xbde8fb01	-0.11376
87	0x3d70df1f	0.058806535
88	0x3c5b2965	0.013376568
89	0x3db08c8a	0.08620556
90	0x3d811aa1	0.06303907
91	0x3d27317f	0.040818688
92	0x3d35ac87	0.044353988
93	0xbcd105c2	-0.02551544
94	0x3d117bd2	0.035518475
95	0xbd901261	-0.070347555
96	0xbd9b89ce	-0.075946435
97	0x3b8f0a13	0.0043652146
98	0xbd67a114	-0.0565501
99	0xbd31cb0b	-0.043406527
100	0x3dcb851d	0.09937499
101	0x3d55aed5	0.052168686
102	0xbd22ec59	-0.03977618
103	0x3c59b962	0.013288828
104	0xbdb9e62e	-0.090771064
105	0xbdbcf9a0	-0.092273
106	0xbc85c5b6	-0.016329627
107	0xbcf91c39	-0.030408965
108	0x3dc058be	0.09391926
109	0xbd9edfe9	-0.07757551
110	0x3d416ebd	0.04722475
111	0xbd083b1e	-0.033259504
112	0x3dc8408a	0.09777935
113	0xbda50fbc	-0.08059642
114	0x3dbed692	0.0931827
115	0x3dd2bbc5	0.102897204
116	0x3d932cb4	0.07186261
117	0xbbadc0e2	-0.0053025344
118	0xbd0ea66f	-0.034826692
119	0xbdcb77e7	-0.09934979
120	0x3cc33143	0.0238272
121	0xbd1553c8	-0.036456853
122	0xbd5ebe42	-0.054380663
123	0x3daedd48	0.085383
124	0xbdad83f0	-0.08472431
125	0xbcc63021	-0.024192872
126	0x3c9b2a27	0.018940998
127	0x3d142d7c	0.03617619
128	0xbc2fda7d	-0.010733244
129	0xbd1e0dfe	-0.038587563
130	0xbc9ac6ce	-0.018893626
131	0xbd3db51a	-0.04631529
132	0xbdbb00a3	-0.09130981
133	0xbc64c331	-0.013962553
134	0x3d3377c8	0.043815404
135	0xbcb9d3ec	-0.02268406
136	0x3b04c0ec	0.0020256592
137	0x3dc74068	0.097290814
138	0xbc7566bd	-0.014978108
139	0xbdd365df	-0.10322165
140	0xbd96f497	-0.073708706
141	0x3b858f46	0.0040759174
142	0x3d81ce81	0.063382156
143	0xbdc40560	-0.09571338
144	0xbd36e481	-0.044651512
145	0x3d2ebc9b	0.042660337
146	0x3ce40361	0.027833642
147	0xbc96dde0	-0.018416345
148	0xbd4fdaa0	-0.050745606
149	0x3d8fa4de	0.07013868

2.weight f4 [100, 150]
0	0x3d1ba984	0.03800346
1	0xbc8403cc	-0.016115092
2	0xbc1d4b4a	-0.00960047
3	0xbd2b906c	-0.04188578
4	0xbc21862a	-0.009858647
5	0x3d60f52f	0.054921325
6	0x3cf58715	0.029971639
7	0x3d35635a	0.044284202
8	0xbd95211e	-0.07281707
9	0xbc201ba7	-0.009772218
10	0xbd5c72ed	-0.05382054
11	0x3ca26664	0.019824214
12	0x3d860e9b	0.065457545
13	0xbca52a94	-0.020161904
14	0x3d44a031	0.048004333
15	0x3d98a7a3	0.07453849
16	0xbaf0d1a6	-0.0018373027
17	0x3c9e28cd	0.019306565
18	0xbda54b65	-0.08071021
19	0x3c5a6bf4	0.013331402
20	0xbd8f887d	-0.07008455
21	0x3d301839	0.04299185
22	0xbc8fd423	-0.01755721
23	0xbb10e0ac	-0.002210657
24	0xbd16232f	-0.036654647
25	0xbd911612	-0.07084288
26	0xbd80d729	-0.062910385
27	0x3ccb85d0	0.02484408
28	0x3d23a1b6	0.03994914
29	0xbd8b0073	-0.06787195
30	0x3d319a51	0.04336006
31	0x3d324a02	0.04352761
32	0xbcd8ae4f	-0.026450304
33	0x3cc41ab2	0.02393851
34	0x3d221fbb	0.03958104
35	0x3d317bb0	0.04333085
36	0x3c2c8391	0.010529415
37	0x3c18d188	0.0093273
38	0xbb98afd1	-0.004659631
39	0x3d85ade2	0.06527306
40	0xbd51fa81	-0.05126429
41	0xbceb05d7	-0.028689308
42	0xbd351d48	-0.044217378
43	0xbd58a630	-0.052892864
44	0xbcf3a87a	-0.029743422
45	0x3d665cf3	0.056240987
46	0x3d8930fb	0.066987954
47	0xbc88799d	-0.016659552
48	0x3d881ad4	0.06645742
49	0x3d30a7e7	0.043128874
50	0xbcea10a3	-0.028572386
51	0x3d28c562	0.041203864
52	0xbbed71c4	-0.007246228
53	0xbc7436bc	-0.014905628
54	0xbba27505	-0.0049577975
55	0xbd0eba23	-0.034845483
56	0xbdb6d250	-0.08926833
57	0xbd716c04	-0.058940902
58	0x3d55cd88	0.052197963
59	0x3d7532ab	0.059862774
60	0x3d6fa97e	0.05851125
61	0x3d3c6a97	0.04600009
62	0xbd24338b	-0.040088218
63	0xbcef11ed	-0.029183352
64	0xbcc0cfd3	-0.023536598
65	0xbc4f4be8	-0.012652375
66	0x3cb7de1a	0.022444773
67	0xbc04a322	-0.0080955345
68	0xbb0ed775	-0.0021795903
69	0xbd31ca67	-0.043405917
70	0x3d44999e	0.047998063
71	0x3b2dc8ff	0.0026517508
72	0xbbddb2fd	-0.006765722
73	0x3cf0c42f	0.029390423
74	0x3c39ec7f	0.011347889
75	0x3ce7d7d3	0.028301155
76	0x3d225d53	0.039639782
77	0xbd85f1d5	-0.065402664
78	0x3d50397b	0.050836068
79	0xbd2ec42d	-0.042667557
80	0xbd5aba6f	-0.053400453
81	0xbd6eb543	-0.058278333
82	0xbcdc881f	-0.026920376
83	0x3d8c09d5	0.06837813
84	0x3b3012f8	0.0026866775
85	0xbbd7cb7c	-0.0065855365
86	0xbd36ae39	-0.044599745
87	0xbd9bae7b	-0.07601639
88	0xbc49a84e	-0.012308193
89	0xbd5e5ae4	-0.0542859
90	0xbd7ef7fc	-0.062248215
91	0xbd9e0100	-0.077150345
92	0xbd254c61	-0.040356044
93	0xbd9fdfe5	-0.07806376
94	0x3d1c55de	0.038167827
95	0x3ca49792	0.020091806
96	0x3d921ac3	0.07134011
97	0x3c9b88d7	0.018986149
98	0xbd6beaaf	-0.05759686
99	0x3d89c9a7	0.06727915
100	0xbc91d131	-0.017799946
101	0x3c6ede98	0.014579438
102	0xbc667fc1	-0.014068545
103	0x3d942613	0.072338246
104	0x3b2a3886	0.0025973632
105	0xbc9f1328	-0.019418314
106	0xbd849309	-0.06473357
107	0xbcb1585b	-0.021648576
108	0x3d11e6d2	0.035620518
109	0xbd98112b	-0.074251495
110	0xbd9c7beb	-0.07640823
111	0xbd5efb96	-0.05443915
112	0x3d5cf276	0.053942166
113	0x3ba23fc9	0.0049514514
114	0xbbd07c2e	-0.0063624596
115	0xbceb59ec	-0.028729402
116	0x3d4c33ee	0.04985421
117	0x3b919c02	0.0044436464
118	0x3d77c3e2	0.060489543
119	0xbd77436c	-0.060367033
120	0xbd01e5f0	-0.031713426
121	0x3d124aae	0.03571575
122	0x3cd504d9	0.026003288
123	0x3d23e69d	0.04001485
124	0x3d861582	0.06547071
125	0x3d20076c	0.039069578
126	0xbd087844	-0.03331782
127	0x3d7e7a3b	0.062128287
128	0x3d5fc5b1	0.054631893
129	0x3c89ee53	0.016837275
130	0x3d358dad	0.044324566
131	0xbc2e78de	-0.010648934
132	0x3da6363d	0.08115814
133	0xbbbd73be	-0.00578162
134	0xbbeb6ebb	-0.007184831
135	0xbd2e00c4	-0.0424812
136	0x3d2e4c18	0.042553037
137	0xbc2e641a	-0.010643983
138	0xbd8ed1d6	-0.06973617
139	0x3c1a4654	0.009416182
140	0x3d9086da	0.07056971
141	0xbd63183e	-0.05544304
142	0x3d441df2	0.04788012
143	0x3da33f77	0.07971089
144	0xbca554c1	-0.020182015
145	0xbda7238e	-0.081610784
146	0x3d39ce42	0.04536272
147	0x3d557ad4	0.05211909
148	0x3d8e4818	0.069473445
149	0x3d61a978	0.05509326
150	0xbd710d69	-0.05885068
151	0xbc4bd8aa	-0.012441793
152	0x3d8b2453	0.06794038
153	0xbd957f28	-0.07299644
154	0x3d2fbd03	0.042904865
155	0xbbaa3aa4	-0.005194979
156	0xbc50589f	-0.012716441
157	0x3d5c0fc3	0.05372597
158	0xbd3a1eb9	-0.045439456
159	0x39f9ee55	0.00047670552
160	0xbd4f885d	-0.050667156
161	0xbdc392f5	-0.09549514
162	0xbd3b9a37	-0.045801368
163	0xbd9dc581	-0.077036865
164	0x3bf29bd6	0.007403831
165	0xbd05bb61	-0.0326494
166	0xbbd1b252	-0.0063994313
167	0x3c8f5d73	0.017500615
168	0xbd8f077b	-0.06983849
169	0xbd94a0c7	-0.07257228
170	0x3d84020a	0.064457014
171	0x3d2cddbe	0.042203657
172	0xbd6e90a9	-0.058243427
173	0x3cc41c95	0.02393941
174	0x3d9f1902	0.07768442
175	0x3d1bb5ee	0.0380153
176	0x3d9995dc	0.074992865
177	0x3d7e11d3	0.062028717
178	0xbd80aa46	-0.06282477
179	0x3da187db	0.078872405
180	0xbd0a7d64	-0.033810988
181	0x3c7a0b0f	0.015261426
182	0xbac67ce3	-0.001514342
183	0xbd7e8bc3	-0.062145006
184	0x3d352d38	0.044232577
185	0x3c7307f2	0.014833437
186	0x3d453c70	0.04815334
187	0x3b84a5c1	0.0040480797
188	0xbcc4b68c	-0.024012826
189	0xbcea6b24	-0.028615542
190	0x3d382b10	0.044962943
191	0x3c200df8	0.009768955
192	0xbd044639	-0.032293532
193	0xbd1ccee8	-0.03828326
194	0x3da95042	0.08267261
195	0xbd055e78	-0.032560796
196	0xbd689966	-0.056786917
197	0xbda47259	-0.080296226
198	0xbd4af075	-0.049545724
199	0xbd88a1ff	-0.06671523
200	0x3d4f0d0a	0.050549544
201	0xbd87ddf8	-0.06634134
202	0xbd487431	-0.048938934
203	0xbd85d045	-0.06533865
204	0x3cb7fd0c	0.02245953
205	0x3d890aeb	0.066915356
206	0xbd548bd7	-0.051891174
207	0xbc81d74b	-0.01584973
208	0xbd1e5aef	-0.03866094
209	0x3d47fdf0	0.048826158
210	0xbdafda3e	-0.08586548
211	0x3da10696	0.07862584
212	0x3d935f4d	0.071959116
213	0xbd92d0ec	-0.07168755
214	0x3d7f5d7d	0.062345017
215	0xbc938e76	-0.018012267
216	0x3ccacf26	0.02475698
217	0xbd5e8eed	-0.054335523
218	0xbc0db46a	-0.008648971
219	0x3d96e796	0.0736839
220	0x3d7218e5	0.059105773
221	0xbb2ab9d8	-0.0026050713
222	0x3d3195ac	0.04335563
223	0xbd5f792d	-0.05455892
224	0xbc03fa8e	-0.008055342
225	0x3d876fac	0.066130966
226	0x3d74f8ec	0.059807703
227	0x3cb6d2a9	0.022317247
228	0xbcafde63	-0.021468347
229	0x3d6fa685	0.058508415
230	0xbd56fa22	-0.05248464
231	0xbd289378	-0.041156262
232	0x3d366955	0.044534046
233	0x3d43cd2e	0.047803096
234	0xbd9d7982	-0.076891914
235	0xbd517b79	-0.051143143
236	0xbb212c89	-0.0024593195
237	0x3bc23c37	0.0059275883
238	0xbd12e04d	-0.03585844
239	0x3d133e7d	0.035948265
240	0xbd389c80	-0.045071125
241	0x3bd92600	0.0066268444
242	0xbd46020f	-0.048341807
243	0x3d97be51	0.07409347
244	0xbd77b30f	-0.060473498
245	0xbc7481da	-0.014923537
246	0xbd8544eb	-0.06507286
247	0xbd7a7de4	-0.061155215
248	0x3c59d4a0	0.013295323
249	0xbd30afdd	-0.043136466
250	0xbda148b8	-0.07875198
251	0x3c8960d0	0.016769797
252	0x3d06b437	0.03288671
253	0x3ca8ca3d	0.020604247
254	0x3cf6d742	0.03013194
255	0xbc02117c	-0.007938739

2.bias f4 [100]
0	0xbd86da3c	-0.06584594
1	0x3abd03e9	0.0014420721
2	0xbbfa5255	-0.0076392093
3	0x3d412fe9	0.04716483
4	0x3d815610	0.06315243
5	0x3d660269	0.056154642
6	0xbbcd367e	-0.0062625995
7	0x3bb945a5	0.005654054
8	0x3be50b53	0.0069898753
9	0x3d3d4a48	0.04621342
10	0xbd85dcdb	-0.065362655
11	0xbd66949c	-0.05629407
12	0xbd795d73	-0.060880136
13	0xbcf9c598	-0.030489728
14	0xbb282558	-0.0025657024
15	0xbda20bd3	-0.079124115
16	0xbd3ee13b	-0.046601515
17	0xbae3a5a9	-0.0017368096
18	0xbd838d31	-0.064234145
19	0xbd3a6613	-0.0455075
20	0x3c2e5557	0.010640464
21	0x3cbc0766	0.022952747
22	0x3d3da715	0.04630192
23	0x3d190a82	0.037363537
24	0xbd5c1134	-0.053727344
25	0x3b9f106b	0.004854252
26	0x3d4bf1f8	0.049791306
27	0xbd5c9c21	-0.053859834
28	0x3d490e81	0.049086098
29	0x3d8079a8	0.06273204
30	0xbbe5c4de	-0.007011994
31	0xbc49c403	-0.012314799
32	0x3d7b5d46	0.06136825
33	0xbd75f3c6	-0.060046934
34	0x3cb6433f	0.022248862
35	0x3d3eaec8	0.046553403
36	0xbc2bbeb2	-0.010482477
37	0x3cbab607	0.022791876
38	0x3c87839b	0.016542247
39	0x3d89d26b	0.06729587
40	0xbda1ef9d	-0.07907031
41	0x3d917395	0.07102124
42	0xbd88445d	-0.06653664
43	0x3c01c8fc	0.007921454
44	0x3c1c25c8	0.009530492
45	0x3d88888f	0.066666715
46	0xbd6e473f	-0.058173414
47	0xbd244e8f	-0.04011398
48	0xbd785daa	-0.0606362
49	0x3d8ffb81	0.070303924
50	0xbd9dda3c	-0.077076405
51	0x3d858c9a	0.06520958
52	0x3d37b8bc	0.04485391
53	0xbd84cc7d	-0.064843155
54	0x3d9fd376	0.07804005
55	0x3d1836ba	0.037161566
56	0x3d847db3	0.06469288
57	0xbd29e9e2	-0.041482814
58	0x3c9d4d5c	0.019201927
59	0xbdb7657e	-0.08954905
60	0xbc40c0b3	-0.011764693
61	0x3c12cd56	0.008960089
62	0xbd2151a3	-0.039384495
63	0x3d3fd76d	0.046836305
64	0xbd061ddb	-0.032743316
65	0xbc1e6f47	-0.009670085
66	0x3d0de0dc	0.03463827
67	0xbd1ee87f	-0.038795944
68	0xbd900b55	-0.070334114
69	0x3cee5bf8	0.029096588
70	0x3cb252d8	0.021768019
71	0xbd92422f	-0.0714153
72	0x3d56a3fc	0.05240248
73	0xbc924eed	-0.0178599
74	0x3d5a5edd	0.053313125
75	0xbd22a0ec	-0.03970425
76	0xbdb74fe8	-0.08950788
77	0x3d5ac160	0.053407073
78	0xbd873827	-0.06602507
79	0x3d2e4d46	0.042554162
80	0xbcdd4371	-0.027009698
81	0x3da0e67d	0.07856462
82	0xbd45f118	-0.048325628
83	0xbd6d5358	-0.05794081
84	0xbc8672dd	-0.016412193
85	0xbdab6deb	-0.083705746
86	0x3c7d592e	0.015463157
87	0xbd9e65cc	-0.0773426
88	0xbceb0ce0	-0.028692663
89	0x3d3304b5	0.04370566
90	0xbd6bb9b2	-0.05755014
91	0x3d63b42e	0.055591755
92	0xbd71a2b8	-0.05899307
93	0x3d257845	0.0403979
94	0x3ca4cd0b	0.020117303
95	0xbc08584e	-0.008321835
96	0xba55f464	-0.0008161722
97	0xbd664ee6	-0.056227587
98	0xbd0cf8e9	-0.034417067
99	0x3ccbf4c2	0.024896983

4.weight f4 [7, 100]
0	0xbd33add0	-0.043866932
1	0x3cd4c590	0.025973111
2	0xbd480b78	-0.048839062
3	0xbdd44368	-0.10364419
4	0x3dbb24d1	0.091378815
5	0xbc5d1eff	-0.01349616
6	0xbdbcb9c2	-0.09215118
7	0xbccc290d	-0.024921918
8	0xbc0cfb17	-0.008604786
9	0x3d226f83	0.039657127
10	0x3d4a9fe9	0.04946891
11	0x3d03d743	0.03218771
12	0x3d5059b0	0.050866783
13	0x3c983f5b	0.018584898
14	0x3d9753b5	0.07389013
15	0x3d797f9c	0.060912713
16	0xbdb984b2	-0.09058513
17	0xbc77c042	-0.015121521
18	0xbdccb28c	-0.099949926
19	0xbd1a29bc	-0.037637457
20	0x3d7c8a24	0.06165518
21	0xbcf11eb7	-0.029433591
22	0x3d677a53	0.05651314
23	0xbd819f22	-0.0632918
24	0x3d3dcc77	0.04633757
25	0xbd056797	-0.032569494
26	0x3dbb0748	0.09132248
27	0x3d807c1e	0.062736735
28	0x3d67c2cc	0.056582257
29	0x3bc19f7e	0.0059089055
30	0x3d2e3b42	0.04253698
31	0xbcde56b7	-0.027140958
32	0xbc0e3827	-0.00868038
33	0xbd8c4d1b	-0.06850644
34	0xbd034738	-0.03205034
35	0xbd0729c0	-0.0329988
36	0x3d54fac2	0.051996954
37	0x3d3a189a	0.045433618
38	0x3cd95c7c	0.026533358
39	0x3d5caba8	0.05387464
40	0x3cb44f51	0.022010477
41	0x3d446829	0.047950897
42	0x3cb2e967	0.02183981
43	0xbd7c18c4	-0.061547056
44	0x3d84726a	0.06467135
45	0x3d016bea	0.031597055
46	0x3d2687f5	0.040657002
47	0xbd51aee8	-0.051192194
48	0xbdc77e0a	-0.09740837
49	0xbc327d18	-0.0108940825
50	0x3cd3bcd3	0.025846874
51	0xbb4beb73	-0.003111568
52	0x3d98c902	0.07460214
53	0x3be3a04d	0.0069465996
54	0xbd47ce7e	-0.04878091
55	0xbd923b74	-0.07140246
56	0x3ced691a	0.02898078
57	0x3dc8a9a7	0.097979836
58	0xbdae86bc	-0.08521792
59	0xbda8228a	-0.08209713
60	0xbdb6b917	-0.08922022
61	0x3d9d1300	0.076696396
62	0x3d9972fb	0.07492634
63	0x3cf58841	0.029972197
64	0xbdbf2f93	-0.09335246
65	0x3d9dd8dc	0.07707378
66	0xbcb6b667	-0.022303773
67	0x3cf35122	0.029701773
68	0x3da14c0a	0.078758314
69	0xbd2385b2	-0.039922424
70	0xbd058f92	-0.032607622
71	0x3d034f3b	0.032057982
72	0xbddae23d	-0.10687683
73	0xbd882c88	-0.06649119
74	0xbd80dcac	-0.0629209
75	0xbdab2ef5	-0.08358566
76	0x3d9f28bb	0.077714406
77	0x3c3fb2d9	0.011700355
78	0x3d8881b5	0.06665365
79	0x3dabb5a7	0.08384257
80	0x3d98c64e	0.074596986
81	0x3dbb45c8	0.09144169
82	0x3d48339d	0.048877347
83	0xbd9a5118	-0.07534999
84	0x3c102ed7	0.00880023
85	0x3c89f0b4	0.016838409
86	0xbdbb08bf	-0.091325276
87	0x3d8a05a8	0.0673936
88	0xbddc804a	-0.10766657
89	0x3d2cc64e	0.042181306
90	0xbda97610	-0.08274472
91	0xbcc79109	-0.02436115
92	0xbcdba787	-0.026813282
93	0x3d313a33	0.043268394
94	0x3dbbcef8	0.091703355
95	0xbb405ec9	-0.0029353371
96	0xbc99dccf	-0.018782048
97	0xbdbd0d1d	-0.09231017
98	0x3da6b4c0	0.08139944
99	0xbd976983	-0.07393172
100	0xbc00b560	-0.007855743
101	0x3ce99a60	0.028515995
102	0x3cd7c1e7	0.026337577
103	0x3d74b6c3	0.059744608
104	0xbd0fdce1	-0.035122756
105	0x3cbd2f27	0.023093773
106	0x3be29e00	0.0069158077
107	0x3ce79d2d	0.02827319
108	0xbbbe185f	-0.005801245
109	0xbd5d542e	-0.054035358
110	0x3bc4ce96	0.0060060723
111	0xbdd9998a	-0.106249884
112	0x3d645aa0	0.05575049
113	0xbcac5a30	-0.021039099
114	0x3d480404	0.048831955
115	0xbd8da408	-0.06916052
116	0xbd2b0c53	-0.0417598
117	0xbddd30bf	-0.10800313
118	0x3c3657e5	0.011129354
119	0x3ce0351b	0.027369073
120	0x3c5cd257	0.013477883
121	0xbd298300	-0.041384697
122	0x3cf81c6e	0.030286994
123	0x3db16590	0.0866195
124	0x3d8c2d4a	0.06844576
125	0x3d2a45ac	0.04157035
126	0x3db0a3b3	0.08624973
127	0x3d675001	0.056472782
128	0xbc07a7fa	-0.008279795
129	0x3c7a0152	0.015259104
130	0x3c6fe442	0.014641823
131	0xbd1920e2	-0.037384875
132	0x3ceb282f	0.028705684
133	0xbd8f2a60	-0.06990504
134	0xbb51e89c	-0.0032029515
135	0xbd40168a	-0.046896495
136	0xbd304515	-0.04303463
137	0x3d91e370	0.071234584
138	0x3d60d82c	0.054893658
139	0x3dad5f70	0.08465469
140	0xbda4630c	-0.08026704
141	0x3aa3b7b9	0.0012490667
142	0xbcccb280	-0.02498746
143	0xbd9b88ea	-0.07594474
144	0x3a9861ab	0.0011625787
145	0xbd1f15aa	-0.03883902
146	0x3d702096	0.058624826
147	0xbc3ef31e	-0.011654643
148	0xbd015783	-0.0315776
149	0x3d3d71ad	0.046250988
150	0x3d124297	0.035708036
151	0x3d56798a	0.052362002
152	0xbc6c7579	-0.014432305
153	0x3d9a3e13	0.07531371
154	0x3da5faee	0.08104502
155	0xbd96e2ab	-0.07367452
156	0xbd95de29	-0.07317764
157	0x3d244507	0.040104892
158	0x3db5fe5f	0.08886408
159	0xbc3a9527	-0.0113881
160	0xbd5399ad	-0.05166023
161	0x3cfb093f	0.030644057
162	0xbdb82cdb	-0.089929305
163	0x3d55bb66	0.05218067
164	0x3d683af3	0.056696843
165	0x3ba59659	0.005053323
166	0x3dbc1796	0.09184186
167	0x3d08a6cd	0.0333622
168	0xbd9143c7	-0.070930056
169	0x3db6e7a7	0.08930903
170	0x3ccef054	0.025261082
171	0x3d08763a	0.033315875
172	0x3d5e6122	0.05429185
173	0xbdc915ed	-0.09818635
174	0xbc8c3758	-0.017116234
175	0x3dbda30a	0.09259613
176	0xbdbac38c	-0.09119329
177	0xbd84cf91	-0.06484903
178	0xbd58ecc7	-0.052960183
179	0xbc1de9cf	-0.009638264
180	0x3b117bcd	0.0022199035
181	0x3d80f574	0.062968165
182	0xbc4ffb9a	-0.012694264
183	0x3d84dbc6	0.06487231
184	0xbc0d9e1f	-0.008643656
185	0xbd53c0df	-0.051697608
186	0x3c5ac336	0.013352206
187	0xbc9b610e	-0.018967178
188	0xbdb803f3	-0.08985128
189	0x3df8b561	0.1214397
190	0x3dadce73	0.08486643
191	0xbdb5b43f	-0.0887227
192	0xbc9817f5	-0.018566111
193	0xbd5bbcca	-0.05364684
194	0xbc7c8ccc	-0.015414428
195	0x3d9cfecd	0.07665787
196	0xbcfcaf11	-0.030845197
197	0xbda9b17b	-0.08285805
198	0xbd01dc5c	-0.03170429
199	0xbc9fd511	-0.019510778
200	0x3c94c768	0.01816149
201	0xbdb42f2f	-0.08798062
202	0x3db972df	0.09055113
203	0x3c0eb7b6	0.008710792
204	0x3d5ef3c4	0.05443169
205	0x3d1deeb7	0.038557734
206	0x3d4d81cf	0.050172623
207	0x3dbedda5	0.09319619
208	0x3d2acfae	0.041701965
209	0xbd8e99a8	-0.06962901
210	0xbdc0d157	-0.094149284
211	0xbd8547a0	-0.06507802
212	0x3c858907	0.016300691
213	0xbc2a09c0	-0.010378301
214	0xbd8b77b9	-0.06809945
215	0x3d1c754d	0.038197804
216	0xbc6fca03	-0.014635566
217	0xbd00835f	-0.031375285
218	0xbc9808e3	-0.018558925
219	0xbc261900	-0.010137796
220	0xbda7197e	-0.08159159
221	0x3d1fa1ef	0.03897279
222	0xbb494992	-0.0030714017
223	0xbdc2ab4a	-0.09505327
224	0x3d9b251f	0.0757544
225	0xbdcaddca	-0.09905584
226	0x3c9a0105	0.018799314
227	0x3cebf7a0	0.0288046
228	0xbda3207b	-0.079651795
229	0x3b0f867b	0.0021900225
230	0x3d843b17	0.06456583
231	0x3a79de5a	0.0009531729
232	0xbdd986f6	-0.10621445
233	0x3db2bc8c	0.08727369
234	0xbbf3c798	-0.007439565
235	0xbc463bbf	-0.0120992055
236	0x3d811274	0.06302348
237	0xbd87c570	-0.06629455
238	0x3ce6c495	0.02816991
239	0x3c8cf0e9	0.017204719
240	0xbd895e47	-0.06707435
241	0xbd3372c1	-0.04381061
242	0xbd625d50	-0.05526477
243	0x3ccc0c28	0.02490814
244	0x3d8c84c0	0.068612576
245	0xbd5f73ea	-0.054553904
246	0x3d6addf5	0.05734058
247	0xbdb5bd58	-0.08874005
248	0x3caba5e5	0.020953128
249	0xbdb8f28a	-0.09030636
250	0x3d3c5abb	0.045984965
251	0xba497e89	-0.0007686397
252	0x3d4dc2f9	0.05023477
253	0x3db6c8dd	0.089250304
254	0x3b86b19a	0.004110527
255	0x3d09aa5c	0.033609733

4.bias f4 [7]
0	0x3c3585a5	0.011079227
1	0xbd0c75b2	-0.03429193
2	0x3d734c32	0.059398837
3	0xbc38b30c	-0.011273157
4	0xbd52e60e	-0.05148893
5	0xbc91728e	-0.01775482
6	0x3dbdf7f4	0.09275809
