models/date-06-19-2025-15-33p1-RLbotp2-RLbotDDQNself_play-Falseexp_dir-RLbotepochs-50p1_win_rate-0.04p2_win_rate-0.96is_test-False/model.pth (torch, 117053 bytes, 6 tensors)

0.weight f4 [150, 84]
000000 94 8b 14 3d 77 11 a5 3d 51 63 d3 bd 1f fe e0 3c
       0.036265925 0.08059972 -0.103216775 0.027464924
000010 d9 60 bf bd 19 c6 69 3d d5 81 f0 bd 3a ca d3 bd
       -0.09344644 0.057073686 -0.117435135 -0.10341306
000020 21 b6 bc bd 36 fa 8f bd 2a 36 8a bd c3 11 44 bd
       -0.09214426 -0.07030146 -0.06748612 -0.0478685
000030 be a5 94 bd a3 36 85 bd 98 8f c3 bd 57 4a e3 bb
       -0.07258175 -0.06504562 -0.09548873 -0.0069363522
000040 63 6e 7e bd cd 56 20 3d 3e 47 7e 3d ca 0f 6a 3d
       -0.06211699 0.03914528 0.06207966 0.057143964
000050 f7 e7 fa 3a a9 f2 58 3d d2 0a 98 3d b4 9f b9 3d
       0.0019142617 0.052965794 0.07423939 0.09063664
000060 f3 1e ab bd ed bc 5d 3d b3 bb 8c 3d c7 93 b5 3d
       -0.083555125 0.05413525 0.06871738 0.08866077
000070 74 00 1e bc 1a 75 78 3d 61 b9 9a bd ec 35 bd bd
       -0.009643663 0.06065855 -0.075548895 -0.092388004
000080 a2 93 d5 3c 6b 28 aa 3d 5c f3 0c bc 71 8f 3d bd
       0.026071373 0.0830849 -0.008602943 -0.046279375
000090 d4 bf c4 3d 99 73 a5 bd b8 17 88 3d be e2 01 bd
       0.09606901 -0.08078689 0.06645149 -0.03171038
0000a0 45 6c 96 3c 49 01 1f bd 45 85 29 bd 8e 55 90 bd
       0.018362174 -0.038819585 -0.04138686 -0.07047568
0000b0 26 8c 5f 3d aa 94 ba 3c 78 98 e3 3d a3 15 42 3d
       0.054577015 0.022775967 0.111130655 0.047383916
0000c0 73 4e 51 3d 7e 68 65 3b 21 cd 59 bd f6 d3 7d bd
       0.051100206 0.003500491 -0.05317414 -0.06196972
0000d0 a7 60 01 bd 2d 71 b4 3c 2b ab c4 3c ac 70 2d bd
       -0.031586315 0.022026623 0.0240074 -0.04234378
0000e0 df 4a 87 3c 53 9f ad bd c5 71 b4 bd 73 b3 a0 bd
       0.016515194 -0.08477654 -0.08810762 -0.07846727
0000f0 b7 b0 8e 3c ff 3e aa 3d 8f 44 93 3d 58 7b 1b bd
       0.017418249 0.08312797 0.07190811 -0.037959427
000100 ee 34 98 3d 3e 4a d5 3d 1e 31 30 bd 62 5c ed 3d
       0.074319705 0.10414551 -0.04301559 0.11589886
000110 91 46 56 b9 e2 fe cb bd a8 a8 46 bc c9 e3 b8 bd
       -0.00020434918 -0.099607244 -0.012125172 -0.090278216
000120 7c 8a 75 3d f6 bd 0d 3c 31 91 97 3d 06 73 a7 3d
       0.059946522 0.008651247 0.0740074 0.08176236
000130 d6 15 c4 bc 10 83 5b bd f7 2a 6f bd c8 5f 83 bc
       -0.023936193 -0.053591788 -0.058390584 -0.016036883
000140 c0 4e 4d 3c dc cd 02 3d ae 90 77 bd f0 11 a0 3d
       0.0125309825 0.031934604 -0.06044071 0.07815921
000150 23 ba e3 bc 6e f0 de 3d f3 a7 1c bd 99 05 fb bc
       -0.027798718 0.10885702 -0.038246106 -0.030642318
000160 5e 62 f2 bb 03 22 cc 3d c8 57 09 3c 51 9b 4d 3d
       -0.00739698 0.09967425 0.008382745 0.05019695
000170 47 76 1c 3c 25 29 a7 bd 70 f5 fd bc a2 9e 3f 3d
       0.009549684 -0.081621446 -0.031000823 0.046782143
000180 f4 81 95 3d 86 44 46 3d 66 66 08 3d ae 96 af 3d
       0.07300177 0.048405193 0.03330078 0.08573662
000190 7f d1 1a 3c 31 bc 4f bc 70 ea 32 bd 10 a9 b7 3d
       0.009449362 -0.012679146 -0.04368061 0.08967793
0001a0 cf 58 3a bd 9d d8 5d bd 7d ef f9 3d c8 92 ad bd
       -0.04549485 -0.054161657 0.12203882 -0.08475262
0001b0 93 30 7e bd 87 93 cb 3d 3e 10 e1 bc ca 2a eb 3d
       -0.062058043 0.09940248 -0.027473565 0.11482771
0001c0 42 17 88 3b a5 e5 a4 3d d5 ca c9 bd 13 aa 9d bd
       0.004153163 0.08051614 -0.0985314 -0.07698455
0001d0 26 81 c1 3d 44 32 84 3d a7 7b bf 3d f1 7e 8a bc
       0.09448461 0.064549 0.09349757 -0.016906234
0001e0 50 6d ac bd fb 39 9a 3d 77 0d 24 bd de 78 74 3c
       -0.08419287 0.0753059 -0.040051904 0.014921395
0001f0 94 69 91 bd 97 c1 38 3d 83 4e e5 3c fc 56 a2 bd
       -0.071002156 0.045106497 0.027991539 -0.07926747
000200 71 6d a6 3d 16 d5 6f 3c 0e 87 26 bd b5 60 a5 3d
       0.08126343 0.014638206 -0.040656142 0.08075086
000210 db 20 d8 bd ca 31 e7 bc e7 0e a5 bc 17 43 03 bd
       -0.10553142 -0.028221983 -0.020148708 -0.032046404
000220 c5 12 42 3c cd 55 3d bd 19 0e e3 3c 11 23 86 bc
       0.011845295 -0.046224404 0.027716683 -0.016374143
000230 8c 7e 05 be 45 92 15 3d cf 89 7f bd d0 02 aa 3d
       -0.13036555 0.036516447 -0.062387284 0.08301318
000240 21 0d 48 3d 08 05 c4 bd 09 60 ec 3d 37 f3 4e bd
       0.048840646 -0.09571272 0.11541755 -0.050524916
000250 65 d5 1f 3d 4c 9d 92 bd 1e e9 4a 3d 80 2e 06 bd
       0.03902187 -0.07158908 0.049538724 -0.03275919
000260 09 23 a7 3d bd da c6 bd f1 3d 8d bd a8 7d 21 3d
       0.08160979 -0.0970969 -0.0689658 0.039426476
000270 01 7b b1 bc 6e 65 04 3d c7 65 69 3d c3 86 95 bd
       -0.021665098 0.032323293 0.056981828 -0.073010944
000280 d1 17 d0 bd 24 6d e8 3d 2d d0 d7 bc 5e a6 4e bd
       -0.101607926 0.11348942 -0.026344383 -0.05045163
000290 5e 75 03 bd aa d9 a3 3d 0f 1d b1 bd ee b0 ab bc
       -0.032094352 0.080005005 -0.086481206 -0.02095839
0002a0 5e b0 a1 bd 18 16 55 bd 9a 42 5d 3d 49 93 6a bd
       -0.078949675 -0.052023023 0.054018594 -0.05726937
0002b0 14 93 8a 3d 1a 98 cc bd 4d 13 c4 bd 0f 25 bc bd
       0.06766334 -0.099899486 -0.09573994 -0.09186756
0002c0 c8 38 dd 3d 03 8d 59 bd 74 43 84 bc 13 7d 94 bd
       0.10801846 -0.053112995 -0.016145445 -0.072504185
0002d0 d7 35 6d 3c 60 07 d8 3d 12 e6 7a 3c d0 4b 5a bd
       0.014478168 0.10548282 0.015313642 -0.053294957
0002e0 a1 b0 dd 3d 9d 8e 12 3d e1 67 98 bd 02 da d9 bd
       0.10824705 0.035780538 -0.07441688 -0.10637285
0002f0 2a 81 07 bd 52 24 c4 bd 73 44 55 bd bb 81 c4 3d
       -0.033082165 -0.0957724 -0.05206723 0.095950566
000300 19 78 b8 bb 50 7c 79 3d 7d c9 83 bd 03 39 af bd
       -0.005629551 0.06090957 -0.06434915 -0.08555796
000310 fa 5e ed 3c ee 6e 00 3d ff cd a1 3c 93 37 c3 bd
       0.028975952 0.03135579 0.019751547 -0.09532084
000320 5a af a4 3d c5 ba 7c 3d e8 30 cd 3c 21 15 6a 3d
       0.08041258 0.061701555 0.025047734 0.057149056
000330 f3 88 62 3b 8b e4 c1 bd a7 db b3 bc 5d 8c 84 bd
       0.0034566491 -0.09467419 -0.021955324 -0.06472085
000340 e9 81 84 bd c8 a2 a2 bd ce 97 60 3d 32 61 be 3d
       -0.06470091 -0.07941204 0.054832272 0.09295882
000350 91 4c 94 bc 00 39 31 bd b2 79 43 bd 2f a0 1d 3d
       -0.018102916 -0.04326725 -0.04772348 0.03848284
000360 aa b4 2c 3d f7 c5 99 bd b7 0a 72 bd ca b5 aa bc
       0.042164482 -0.07508462 -0.05909225 -0.020838637
000370 c8 fd 64 bc db e5 94 3d 6a c5 fa 3c 97 61 42 bd
       -0.013976522 0.07270404 0.030611712 -0.04745635
000380 77 89 6b bc f7 16 da bd 76 3e 27 bc 83 f5 7b 3d
       -0.014376036 -0.106489114 -0.010207763 0.061513435
000390 89 45 00 3d 30 d1 15 bd d2 48 c7 3c 4d fb 07 bd
       0.031316314 -0.03657645 0.024326716 -0.033198643
0003a0 12 71 34 bc 20 f1 7e bd f7 c3 a9 bd ba 07 d3 3d
       -0.011013286 -0.062241673 -0.082893305 0.10304208
0003b0 a1 4e d5 3b 4b 71 f9 3c d9 4a 17 3d 66 67 94 3c
       0.0065096174 0.03044953 0.036936615 0.01811571
0003c0 c0 7f 86 3d 9c 33 2a bd 40 e5 bd bd 23 df 1b bc
       0.06567335 -0.041553125 -0.092722416 -0.009513649
0003d0 86 b3 c5 3c 2e 2c 9b bd fc 06 9a 3c 9b 7c 2a bb
       0.024133455 -0.07576786 0.018802159 -0.0026014212
0003e0 41 1e 72 bd a7 bc e4 3d b7 b9 af bd 91 0d 79 bd
       -0.059110884 0.11168795 -0.08580344 -0.060803954
0003f0 f9 52 95 3d 37 b5 c7 bd 55 0c b2 3d 93 80 be 3d
       0.072912164 -0.09751361 0.086937584 0.09301867

0.bias f4 [150]
000000 d5 1c eb bc 71 15 8b 3d c0 14 a6 3d 1a 5a 26 3b
       -0.028700272 0.06791199 0.081094265 0.0025383295
000010 a2 b7 11 3d 06 47 68 3d 8f 2b 67 bd d5 7d b6 3c
       0.035575517 0.05670836 -0.056438025 0.022276798
000020 78 e2 cf 3c ef 85 4a bc af 9f bc bd f7 c2 af bd
       0.025376543 -0.012361034 -0.09210145 -0.085821085
000030 2b b6 84 3d a1 c2 ca bb 52 e1 c9 3d 1f 5e da 3d
       0.06480058 -0.0061877524 0.098574296 0.106624834
000040 f8 e8 4e bd 0e e7 28 3d 23 7f 90 3d 36 f6 37 bd
       -0.050515145 0.041235976 0.070554994 -0.04491254
000050 e2 49 77 bd 46 f3 b0 bc b8 eb 7d 3d c4 5b 45 bd
       -0.060373195 -0.021600377 0.061992377 -0.048183218
000060 e5 c3 a8 3d b2 c0 b0 bd 83 ab 77 3d b1 b8 46 bd
       0.08240489 -0.08630504 0.0604663 -0.04851598
000070 a2 64 b3 3d 10 ce 06 bd 47 3b ab bc 54 d0 b0 bd
       0.087594286 -0.03291136 -0.02090229 -0.086334854
000080 07 21 f6 bc 02 66 f3 3c 5a c7 4b 3d db 46 c9 3d
       -0.030045046 0.029711727 0.049750663 0.09827968
000090 1f 13 51 bd b0 02 42 3d b7 8a c3 3d e1 85 e7 bd
       -0.051043626 0.047365844 0.09547942 -0.11304832
0000a0 0a 22 f8 bc ac 9a d8 bd 50 b5 03 3e e2 bd f1 bd
       -0.030289669 -0.10576376 0.12862134 -0.118037954
0000b0 16 fa 06 3d ea d3 d3 bc e7 eb 77 bd b5 b7 9f 3d
       0.032953344 -0.025857884 -0.06052771 0.07798711
0000c0 9c 6e 4a 3d 7c 15 20 bd 14 51 fb 3c 38 14 ec bc
       0.04942189 -0.03908299 0.03067831 -0.028818235
0000d0 28 db d2 3d a8 ae 0c 3c fa 94 f9 3d 75 3e 4a 3d
       0.10295707 0.008586563 0.12186618 0.04937597
0000e0 e3 68 9e 3d 7f 73 b4 bd 1e 44 c3 3c 9d bc 1f 3d
       0.07734849 -0.08811092 0.023836192 0.038998235
0000f0 e6 0c 46 bd 6b 89 95 3c aa 17 79 3d 98 ac c3 bc
       -0.048352145 0.018254003 0.060813583 -0.02388601
000100 37 73 7a bd 3d 0c e0 3b 22 fa c1 bd c3 5a c9 3c
       -0.061145034 0.0068373964 -0.09471537 0.024579411
000110 4b 3b a8 3d de 20 9d 3d b1 9a 8c 3b 85 50 94 3d
       0.08214434 0.076722845 0.0042909016 0.072419204
000120 d9 6d 21 3d 40 5d b5 bd 73 1f 92 3d a0 e6 37 3d
       0.0394114 -0.08855677 0.07134905 0.044897676
000130 3b 8d 1f bd 6f 3b 29 bd aa 5a 36 bd 7e 09 ef bc
       -0.038953047 -0.041316446 -0.044520058 -0.02917933
000140 2a 72 cf 3d fe 33 4f 3c 48 b1 89 bd 09 4e a5 3d
       0.10129197 0.012646673 -0.06723267 0.08071525
000150 bf 15 f1 3d 86 4f c5 bd e2 87 6b 3d c1 af f8 bc
       0.11771726 -0.096343085 0.057502635 -0.030357243
000160 88 98 2e 3d 14 46 a4 3d 72 b4 aa bd 06 86 7f 3d
       0.042625934 0.08021179 -0.083351985 0.062383674
000170 13 89 14 bc 52 0e 95 3d 6b 4e 0a bd 8a c7 f0 bd
       -0.009065884 0.07278122 -0.03376619 -0.11756809
000180 6b a0 c1 3d 07 bb c4 3d 87 aa e0 bd be 95 dd 3d
       0.094544254 0.09605985 -0.109700255 0.10819577
000190 e7 07 0a bd bc 38 ba 3d c4 74 9b bd 29 20 9d 3c
       -0.033698943 0.090928525 -0.07590631 0.019180374
0001a0 b2 52 26 3d 69 e2 8c 3d e6 2e 94 bd 76 f9 0b 3a
       0.04060621 0.06879122 -0.07235508 0.0005339602
0001b0 60 5f 81 3d 51 dc f1 3b b7 86 c1 bd a3 8a 01 3d
       0.063170195 0.007381 -0.09449523 0.031626355
0001c0 db 42 c3 bd ea f4 d4 3d f5 26 b7 bc 46 58 a4 bd
       -0.09534236 0.10398276 -0.022357443 -0.08024649
0001d0 08 36 76 bd 81 dd 8a 3d 70 da 6b 3d 0d 5a 4f 3c
       -0.060110122 0.0678053 0.057581365 0.012655747
0001e0 a9 09 b6 3d 2b 85 be bd 3a 02 15 3c 6f 3f d2 bc
       0.08888561 -0.093027435 0.009094769 -0.025665013
0001f0 c9 61 9b 3c a4 2e c6 bd c4 a9 42 bd 14 8e b6 bd
       0.018967526 -0.09676865 -0.047525182 -0.08913818
000200 f7 a4 98 3d 87 63 69 3c e9 e5 ad 3c 81 96 85 bd
       0.074533395 0.014244921 0.021227794 -0.06522847
000210 49 1e 90 bd d1 a0 01 3e 5d 62 a2 3d 69 42 0c bd
       -0.070370264 0.12659003 0.079289176 -0.03424302
000220 b9 63 d4 3d 9a 72 52 3d d0 c8 5a 3c 3a ee ef 3d
       0.10370583 0.051378824 0.0133535415 0.1171536
000230 4b ff 99 bb 7a ad d2 bd 34 6f c9 3d 6d 7b 0c bd
       -0.0046996227 -0.10286994 0.098356634 -0.034297395
000240 49 74 4e bd e5 18 70 3d be ee 85 3b 3a 5b 6b 3b
       -0.050403867 0.05861749 0.004087298 0.003591253
000250 0c bd 03 3e 8f 35 1a 3d
       0.12865084 0.037648734

2.weight f4 [100, 150]
000000 26 c3 14 bd fe f4 20 3b 3e 77 c0 bc 60 f5 19 3d
       -0.03631892 0.002456009 -0.02349436 0.037587523
000010 0a 93 d3 bb 1a 7a b3 bc 12 f4 86 3d 64 26 57 3d
       -0.0064567374 -0.021908808 0.065895215 0.052526847
000020 df bd 99 bd 25 b2 0c 3d f7 d1 8e 3d ab b8 b8 bc
       -0.07506918 0.03434958 0.06973641 -0.022548994
000030 f5 fb 83 3c be 10 88 3d cb e5 87 3d ee d7 85 bd
       0.016111353 0.06643818 0.066356264 -0.06535326
000040 de ab 9f bd 4e e7 01 bd 0f 91 5c bd 1b 74 ad bb
       -0.07796453 -0.03171473 -0.053849276 -0.005293382
000050 22 82 1c 3d b5 76 d8 3c 56 6b 80 bb e6 87 7e 3d
       0.03821004 0.026423791 -0.0039190454 0.06214132
000060 37 70 83 bd 0f bd 58 3d 70 f9 39 bd cd ee 07 bd
       -0.06417888 0.052914675 -0.045403898 -0.033186723
000070 d4 b1 87 bd d6 30 be bc 90 fe 73 bd 2c cb 6a bc
       -0.06625715 -0.023216646 -0.05956894 -0.0143306665
000080 9e ac 66 bd b8 52 8c bd fd 2b a2 bd c9 83 81 bd
       -0.056316964 -0.06851715 -0.07918546 -0.06323964
000090 d1 ff 9a bc c6 6f 40 3d 4d f2 72 bd 7e b6 2f 3d
       -0.01892081 0.046981595 -0.059313107 0.042898647
0000a0 00 61 94 bd b9 be a4 bd d9 60 3e bd 07 5e a0 bd
       -0.07245064 -0.0804419 -0.04647908 -0.07830434
0000b0 cb 25 31 bd 00 7b d2 3c 3e 0b 87 bd f6 7b 84 3b
       -0.043248933 0.025693417 -0.06593941 0.0040430976
0000c0 7f 9c 07 3d ec c1 d1 3c 36 3d 85 bd 75 69 8a 3d
       0.03310823 0.025605164 -0.06505816 0.067583956
0000d0 28 f4 fd bc 9b 95 2e 3d e7 8b 7e bc 56 33 84 bd
       -0.031000212 0.042623144 -0.015536285 -0.06455104
0000e0 39 d2 64 bd ff 23 9f 3c ac 35 8d bc 20 32 05 bc
       -0.055864546 0.019426344 -0.017237507 -0.0081296265
0000f0 4a be 2f 3d f9 d0 a0 3d 17 4c 9f bd 73 3c 47 3d
       0.042906083 0.07852358 -0.07778185 0.048641633
000100 e6 dc 21 bd 0c 4a 96 bd 3d df c1 bb 13 5a c0 bc
       -0.039517306 -0.07338342 -0.0059165047 -0.02348045
000110 00 44 27 bd 4c 98 e6 bb fe 79 16 bd b0 eb 4a bd
       -0.040836334 -0.007037198 -0.036737435 -0.049541175
000120 f1 6b 83 3d aa c4 3f 3d 58 0a a3 3d b3 bc 65 3d
       0.064170726 0.046818413 0.07960957 0.05608816
000130 77 13 da bb 2d 13 11 3d 18 95 83 3d c0 54 7c bd
       -0.0066551524 0.035418678 0.06424922 -0.06160426
000140 8b 61 63 3d ee 43 a5 bd 35 c8 99 bd 0b e9 84 3d
       0.055512946 -0.08069597 -0.075088896 0.06489762
000150 c8 ba ff bc 9a fc 89 bd 01 ee 21 bd 11 8c 2b bd
       -0.031216994 -0.06737633 -0.03953362 -0.041881625
000160 16 14 09 bc a9 67 a2 bd db ed 1a 3d ec db 30 bc
       -0.008366605 -0.07929928 0.037824493 -0.010794621
000170 1e 8e 26 3d 43 06 83 bd f1 15 1a bd 7c c8 67 3d
       0.040662877 -0.06397679 -0.03761858 0.05658768
000180 c9 cf 4f 3d 1a d7 46 bd ea f9 0b bd e9 79 d8 3c
       0.05073527 -0.04854498 -0.034173883 0.026425319
000190 3c 33 73 3d d1 1e 21 bd 2b 6f 8e bc dd 0c 71 3d
       0.059375033 -0.03933603 -0.017386993 0.058850158
0001a0 a3 ab 98 3d 6a c0 41 bc 20 d6 12 bd 80 20 7a 3d
       0.07454612 -0.01182566 -0.035848737 0.06106615
0001b0 e2 18 48 3d 91 46 8c bd 28 1b 8e bd f9 7e 57 3d
       0.048851855 -0.06849397 -0.069387734 0.052611325
0001c0 bb 65 5f bd 94 8a 65 bd b4 b7 7d 3d 05 7b bb bc
       -0.054540377 -0.05604036 0.06194277 -0.022885809
0001d0 cf 8e 1c 3d 36 5d 97 bd 0f 07 d7 3c a1 8f 4e 3c
       0.03822213 -0.073908255 0.026248483 0.012607486
0001e0 d5 89 10 bb 9f b5 b6 bc 60 3a f6 bc 51 32 9b bd
       -0.002205481 -0.0223034 -0.030057132 -0.075779565
0001f0 68 40 bc 3c 09 2c 3c bc f6 a4 8b bd be 34 ab 3c
       0.02297993 -0.011485108 -0.06818573 0.020899173
000200 1f 7e df 3b 95 77 8b bc 2d 27 a5 bd fd fb d7 bc
       0.0068204547 -0.017024795 -0.08064113 -0.026365275
000210 73 df 6c bc 1a 5e 16 3c 37 72 16 3d e3 d1 e5 bb
       -0.014457571 0.009177709 0.036730018 -0.007013546
000220 db 55 32 3d 4c 7d 76 3d 38 6a bb 3c ca 26 93 bd
       0.04353891 0.060178086 0.022877797 -0.07185133
000230 48 eb 65 bc 48 1b 29 3d 30 ae a7 bc 76 49 84 bc
       -0.014033146 0.041285783 -0.020468801 -0.01614831
000240 ce 41 fe ba 78 cb 96 3d 06 cb 78 bc 9c ee 15 3c
       -0.0019398273 0.07363027 -0.015185123 0.009151127
000250 14 ba b5 bc b7 44 3c bd ff 57 22 bd f6 84 ac bc
       -0.022183456 -0.04596397 -0.0396347 -0.021059494
000260 66 a4 95 bc 47 ea 59 bc 00 aa 3b 3d 8d 20 80 3d
       -0.018266868 -0.013300485 0.04581642 0.062562086
000270 83 5a bb 3c 58 1a c1 bc 31 5f 08 bd 9e fe 86 3d
       0.022870308 -0.023572132 -0.033293907 0.06591533
000280 6a 00 8c bb b8 aa 47 bc 60 8b 5b bb c0 84 e9 3c
       -0.0042725103 -0.012186699 -0.0033499822 0.028505683
000290 0d b1 57 3b 0c e5 5f 3d f9 bc 09 3d 1d 41 df bc
       0.0032911927 0.054661795 0.033627484 -0.027252728
0002a0 39 97 9d 3d 94 1e 7b b9 8b e7 0f bc 30 15 7b 3c
       0.07694859 -0.00023948617 -0.0087832315 0.015324876
0002b0 c9 01 6e bd a2 ca c7 bb 48 b8 60 bd 80 1c dd 3c
       -0.05810717 -0.0060971538 -0.054863244 0.026991129
0002c0 a7 ba 35 3d 58 c2 3d 3a 10 a7 a8 3d 2a e0 70 bd
       0.04436746 0.00072387373 0.0823499 -0.05880753
0002d0 90 21 12 3b f1 2d b7 3c 7e 54 39 3d af a1 0f 3d
       0.0022297837 0.022360774 0.045246594 0.035066303
0002e0 24 5a b0 3c eb 5e 73 bd 28 95 e6 bc a9 09 77 bb
       0.021527357 -0.059416693 -0.028147295 -0.0037694967
0002f0 08 3f 31 3b 64 30 8a 3d 58 32 96 bd 16 ba 86 bc
       0.0027045626 0.06747511 -0.07333821 -0.016446155
000300 40 02 b0 3c 6e 47 fe 3b 75 9f db 3c 7a de 94 3d
       0.021485448 0.00775998 0.026809433 0.072689965
000310 a8 75 f8 3c 67 88 4f 3d 13 f3 66 3d 73 e6 28 3c
       0.03032954 0.050667193 0.056384157 0.01030885
000320 75 f3 81 bc dd 28 98 bb 17 e4 70 3d 6a cb e2 bc
       -0.01586316 -0.004643543 0.058811273 -0.027684886
000330 f9 f8 c9 bb 45 07 00 bd ff b9 66 bd 00 48 89 3d
       -0.006163713 -0.031256933 -0.056329723 0.06703186
000340 4e 84 2b bd 21 cd 82 bc 37 bc 09 3d 5a d5 d8 3c
       -0.041874222 -0.015966954 0.03362676 0.026468921
000350 b9 07 a2 bc 89 22 5c bd 64 10 a7 3d d2 49 7e 3d
       -0.019779073 -0.053743873 0.08157423 0.06208212
000360 31 ad ca 3d 6d d4 b7 3d 3a 2b 2f 3c cb b3 87 3d
       0.09896315 0.08976064 0.010691458 0.0662609
000370 25 ab 56 bd 36 af 82 bd 66 1f 03 3d ba 0f 62 bd
       -0.05240931 -0.06381075 0.032012366 -0.05519078
000380 35 96 09 3d b0 23 b3 bc 72 c7 ba 3c 75 a1 b6 3d
       0.033590514 -0.021867603 0.022800181 0.08917514
000390 0d 00 51 3d 2a 6a 7e bd 23 0a 10 bd aa be 20 bd
       0.05102544 -0.062112965 -0.035165917 -0.03924433
0003a0 38 94 a5 3c 81 3f a2 bd 8b c0 1b 3c 18 ee 61 3d
       0.020212278 -0.07922269 0.009506355 0.055158705
0003b0 3e 59 28 bc 27 52 b8 3c 8a e4 9d 3d d9 df 49 bd
       -0.010275183 0.02250011 0.07709606 -0.049285743
0003c0 62 50 0d 3d 7b 31 8f bd f0 9d 9b bd be 08 7e bd
       0.034500487 -0.069918595 -0.075984836 -0.062020056
0003d0 05 b7 50 bd 19 be c4 3c 8f 42 d8 bc a1 84 7a bd
       -0.05095579 0.024016427 -0.026398925 -0.06116164
0003e0 5f cc 3a bc e1 eb 8a 3a bd b6 03 3d eb 0b 39 3d
       -0.011401265 0.0010598862 0.032156695 0.04517738
0003f0 47 4c cf 3c 43 04 95 bd 65 7a 9f bd 78 38 e3 bc
       0.025304927 -0.072762035 -0.07787017 -0.027736887

2.bias f4 [100]
000000 6c 67 4c bd 63 53 85 bc a6 e1 dd 3a 7f c4 aa 3d
       -0.04990332 -0.016275113 0.001692821 0.0833826
000010 b7 ed 13 3d a6 80 85 3d 07 f2 11 bd 73 7f e3 bb
       0.036115374 0.06518678 -0.035631206 -0.0069426834
000020 81 87 08 bd 3e b7 0f bb d5 74 84 bd e6 02 26 3b
       -0.03333235 -0.002192929 -0.064675964 0.0025331317
000030 ab 32 c2 3d c1 10 8b 3d 1a 4f be 3d cf 8d d2 bc
       0.094823204 0.06790305 0.09292431 -0.025702385
000040 6b d7 96 bd 27 e3 85 3c 30 32 8c bd a8 43 a5 3d
       -0.073653065 0.016343666 -0.0684551 0.08069545
000050 45 ba 02 3c 80 cd 9a 3d e5 c0 49 3c 43 62 f7 3c
       0.00797898 0.07558727 0.012314056 0.030198222
000060 9f f3 5a 3d a3 c7 99 3c 0b 5f 84 bd 6e eb ae 3d
       0.05345499 0.018771952 -0.064634405 0.085409984
000070 67 02 ab 3d 94 9e 7c bd 1f e2 1f bd 7e 52 b1 3d
       0.083500676 -0.06167467 -0.039034005 0.08658312
000080 1d ff d3 bc 04 28 10 3d c3 e0 d5 ba 33 bb 97 bd
       -0.025878483 0.035194412 -0.0016317595 -0.07408752
000090 0c c8 8b 3d 67 fe 92 3d 88 1c 9f 3d ce 16 b7 3d
       0.06825265 0.0717743 0.07769114 0.089398965
0000a0 36 ad 12 bc cc 3e 71 3d 79 6e 5d bd 82 f7 96 bd
       -0.0089524295 0.05889778 -0.054060433 -0.07371427
0000b0 d0 d0 82 bc b8 4d 1d 3d fe c3 8d bd 9a a0 5b bd
       -0.01596871 0.038404197 -0.06922148 -0.05361996
0000c0 1c 81 de bb a5 f8 a9 3d 94 ee ca 3c 3c f3 63 bd
       -0.0067902934 0.08299378 0.024771966 -0.05565189
0000d0 72 e8 69 bb 2f 0d 98 3d ee 68 95 3a f2 d6 6c 3d
       -0.0035691527 0.074243896 0.0011399069 0.057822175
0000e0 0f 8e 95 3d 32 34 99 3b d4 71 d6 3c 2c ca 51 bd
       0.07302486 0.0046754116 0.026177324 -0.051218197
0000f0 15 72 e7 bc 89 de 96 3d bc 84 8b 3d 3f df b6 bd
       -0.02825264 0.07366664 0.068124264 -0.089292996
000100 ab 6e 84 3c 70 6d 1a 3d 19 d7 47 3d b0 4c 54 bd
       0.016166052 0.037702024 0.048789117 -0.051830947
000110 09 5e f2 bc 4a b2 ac bd 4c 54 29 bb f3 68 07 3d
       -0.029585855 -0.084324434 -0.0025837598 0.03305907
000120 bc 0f 93 bc 0c b4 99 bd d2 ac dc bc fa 66 04 3d
       -0.017951839 -0.07505044 -0.026937876 0.03232477
000130 67 3f 43 bd d1 0b b7 3d 0d 2c 98 bd ac db 87 bd
       -0.047667887 0.08937801 -0.07430277 -0.06633696
000140 d2 41 5c 3d a1 ce 6b bd f6 33 8d bd 78 50 59 3d
       0.05377371 -0.057570104 -0.068946764 0.053055257
000150 cb e0 28 bd 51 b5 4a bd 31 e0 84 3c ce c5 86 3b
       -0.041230004 -0.049489323 0.016220184 0.0041129356
000160 1a 6f 48 3d e7 18 80 bd 3f 5e 5d 3d ed 8d e2 bc
       0.04893408 -0.0625475 0.05404496 -0.027655566
000170 df 0c 48 bd b9 1c b0 3d 48 5e 6a bd b6 c4 78 bc
       -0.0488404 0.085992284 -0.05721882 -0.015183618
000180 f1 d6 00 bd 81 7f a3 bd a2 e9 ca bb a5 d5 3f 3d
       -0.031454984 -0.07983304 -0.006192402 0.046834607

4.weight f4 [7, 100]
000000 48 5c 86 3d f1 f0 70 3d 66 57 67 3d ba da c9 3b
       0.0656057 0.05882353 0.056479834 0.0061601074
000010 bd 91 14 3c 98 c7 63 bd f0 64 2f 3d d3 e6 39 3d
       0.00906795 -0.05561027 0.04282087 0.045386147
000020 0b f8 ca 3c f2 61 92 3c c9 dd e0 bc 36 c7 4e bd
       0.02477648 0.01786897 -0.027449505 -0.05048295
000030 b5 3c 10 3c 59 b1 f5 3c 35 5d b8 bd e7 f2 b7 3c
       0.008803536 0.029991793 -0.09002153 0.022454692
000040 31 04 c5 3d 4b 86 c5 3d a2 81 92 bd 98 61 da bc
       0.0961994 0.09644755 -0.07153632 -0.026657864
000050 c7 d4 44 3d 68 58 d8 bc 16 86 5f bb 5a 6c 02 bc
       0.048054483 -0.026409343 -0.003410702 -0.007960403
000060 53 a2 91 bd ed 69 5f bd df 98 13 bd c6 50 6e 3d
       -0.07111039 -0.054544378 -0.03603446 0.0581825
000070 01 23 93 3c 2a f1 11 bd 62 b5 4b 3d b6 80 ad bd
       0.017961027 -0.035630383 0.049733527 -0.08471815
000080 0d 58 0c 3b d9 00 27 3d 56 43 5b 3d bd 11 16 bd
       0.0021414787 0.040772293 0.053531013 -0.03663801
000090 bc 55 18 3d 2b 2d 9b bc cd 4b a6 bc e8 f9 44 3d
       0.037191138 -0.018942436 -0.020299817 0.04808989
0000a0 a0 6e b1 3d 6a 5e 5d bd c1 20 69 3d 80 27 dc bc
       0.08663678 -0.05404512 0.056916002 -0.026874304
0000b0 f8 78 5a 3a 9e 8e ee bc c2 d7 0f 3d bf b7 c2 3d
       0.0008334066 -0.02912074 0.035117872 0.09507703
0000c0 af 1f 29 3d 4c c0 a0 3d 7c ec 58 bc bd 78 14 3d
       0.04128998 0.07849178 -0.013239976 0.036247957
0000d0 90 f4 98 3c 44 70 38 3d 44 4a 9b bd 40 54 69 3d
       0.018671304 0.04502894 -0.075825244 0.056965113
0000e0 43 a4 9f bc 2b fa ae 3c 52 29 8b 3d 10 b2 b0 bd
       -0.019487506 0.021359524 0.067949906 -0.08627713
0000f0 a4 7f ce 3d da c6 84 3d 78 00 b7 3d 70 7a 02 bd
       0.10082939 0.064832404 0.08935636 -0.031855047
000100 b0 ef 9e 3c 20 96 b9 3b 30 74 14 bd 5a 1c c9 bd
       0.019401401 0.0056636482 -0.036243618 -0.09819861
000110 5e 80 8e 3d d7 39 75 bd 03 06 2c 3d 2d c7 94 3c
       0.06958078 -0.059869613 0.04199792 0.01816138
000120 2c 13 a0 bb cc 19 fb 3c fd e7 a7 3d c6 60 be bd
       -0.004885098 0.03065195 0.08198545 -0.09295802
000130 cf 7f 8b 3d 4c 56 d8 bb a0 5c 1b bd b3 ce 29 3c
       0.06811487 -0.0066020843 -0.03793013 0.010364222
000140 61 89 86 bc af a2 b5 bd 9f fa 06 bd 69 f2 c0 3c
       -0.01642293 -0.0886892 -0.032953855 0.02355309
000150 3d 9a 34 bd 60 0c 94 bd 66 5d 12 3b f6 5c 60 3d
       -0.044092406 -0.07228923 0.0022333502 0.054776154
000160 72 86 ac bd 5b 16 c6 3d fd cc bc 3d fb 76 a0 bd
       -0.08424081 0.09672233 0.09218786 -0.07835194
000170 43 86 d5 bc e2 38 df bc b0 73 34 3c c2 56 2d bd
       -0.026064998 -0.027248804 0.01101391 -0.042319067
000180 4c 44 5c bb 51 66 55 3d 8c e3 54 3d 30 af c0 3d
       -0.0033610044 0.05209953 0.051974818 0.09408414
000190 dd ba b6 3d 81 dc 7b bd 4a c3 24 bc 4b 95 06 bd
       0.0892236 -0.061489586 -0.010056326 -0.03285722
0001a0 7c 67 9a bd 8a ba c3 3d d8 27 30 bd 21 e1 ce 3b
       -0.07539269 0.09557064 -0.043006748 0.0063134586
0001b0 a6 3c d5 bc 77 bc 79 3d 98 c6 7a bd 17 b5 29 3a
       -0.026029896 0.06097075 -0.06122455 0.0006473823
0001c0 c6 db 85 3c 63 a4 94 3d 9b dd d8 3b ad 2b df bc
       0.016340148 0.07257917 0.0066182143 -0.027242506
0001d0 9f 88 b3 bd 4f 52 0a 3d 23 0f a7 bd ef ad 92 bd
       -0.08766293 0.0337699 -0.08157184 -0.071620815
0001e0 42 6a 88 3d 38 b7 6f bd f3 63 b9 3d 62 f4 8a bd
       0.06660892 -0.05852434 0.09052267 -0.067848936
0001f0 95 32 8d 3d 3d 9b 41 3d ab da c2 3c 5c b5 d0 3d
       0.068944134 0.047267187 0.02378591 0.101908416
000200 d7 5c ab bd e7 5e 25 bc 6b 79 3e 3d 15 75 3c 3d
       -0.08367317 -0.010093427 0.046502512 0.046010096
000210 93 86 94 3d e5 24 f5 bc 85 ca 1e bd c5 7e a2 3d
       0.072522305 -0.02992482 -0.038767356 0.079343356
000220 21 df 68 bd 56 d2 13 3d ab eb 8e bc f0 11 dc 3c
       -0.056853417 0.036089264 -0.01744636 0.026864022
000230 c9 c7 4b 3d 98 5c 73 bc 9e 16 5f bd 94 3b 8a 3d
       0.049751077 -0.014853619 -0.05446493 0.06749645
000240 2c 59 a5 3d e6 99 f2 bc 0e 0b 17 bd 87 60 c8 bd
       0.08073649 -0.0296144 -0.036875777 -0.09784036
000250 6a 92 76 bd 2d 52 29 bc 48 f7 0c bd e0 66 70 3d
       -0.060198225 -0.010334534 -0.034415513 0.05869186
000260 a2 81 9d bd 40 72 af bd 25 d5 a8 bd 58 ef 54 3c
       -0.07690741 -0.08566713 -0.08243779 0.012996517
000270 13 f4 2f bc 9a f1 24 bb 83 4e 8c 3d 6c 55 6e 3d
       -0.010739344 -0.002516842 0.068509124 0.058186933
000280 f6 dc 51 ba e0 57 24 bd 38 5f e6 3b 95 db 5c bd
       -0.0008005643 -0.040122867 0.007030394 -0.053920347
000290 7c ff 99 bc 21 18 c7 3d 06 77 80 bd 07 e5 23 bd
       -0.018798582 0.09721399 -0.06272702 -0.04001334
0002a0 32 68 96 3d 7f ab 77 bb 5b 91 81 bd 08 c5 f7 3c
       0.073440924 -0.0037791429 -0.063265525 0.030245319
0002b0 ba 31 99 3d a4 93 4a bd 3b 9e 95 bc a6 3c aa bd
       0.07480188 -0.049457207 -0.018263927 -0.08312349
0002c0 e6 e5 1a 3b d5 3f 90 bd ba 5b 0c 3c 2d f1 8b bc
       0.0023635565 -0.07043425 0.008566791 -0.017082775
0002d0 af 43 b6 3d ae bf d6 3b 39 0d 3a 3d 1c 5b 9c 3d
       0.08899628 0.0065536117 0.045422766 0.07634565
0002e0 33 cb 89 bd 4c e0 44 bd f9 44 96 3d 06 8a c6 bc
       -0.0672821 -0.04806547 0.07337374 -0.024235737
0002f0 35 ee c3 3d da 06 ae 3d 20 8c 1d bd ba ae e2 3c
       0.09566919 0.084974006 -0.03846371 0.027671207
000300 68 11 a3 bd bc cf b4 bd b7 0d d2 bc d3 d1 45 3c
       -0.07962304 -0.08828685 -0.025641305 0.012073952
000310 b8 2e 6d 3d 10 9f b6 3d 08 bc 6b bd 05 cb 85 3d
       0.057905883 0.089170575 -0.057552367 0.065328635
000320 e0 55 35 bd 63 53 99 bd 50 bd 83 3d c7 94 4f 3d
       -0.04427135 -0.07486608 0.06432593 0.050678995
000330 f7 f3 6c bd a0 5a 6c bc 85 11 b2 3c 21 63 b4 bd
       -0.05784985 -0.014425904 0.02173687 -0.0880797
000340 3e 08 2b 3d 61 ec aa 3d e7 50 ae 3c 62 ac d2 bc
       0.041755907 0.08345867 0.021278812 -0.025716964
000350 e3 7c 0b 3d d1 25 c5 3d 57 fc 19 3d f1 23 cb bc
       0.034054648 0.096263535 0.037594166 -0.024797412
000360 ac d2 69 bd 04 6a 12 bd 1c 71 80 bc c6 4f f9 bc
       -0.057085678 -0.035745636 -0.015678935 -0.030433547
000370 f5 4b d3 3c aa b7 31 bd 02 08 38 bd 3b 96 61 3d
       0.025793055 -0.043388046 -0.04492951 0.05507491
000380 14 10 64 bd 3e 14 67 bd 1a ed e2 bc 14 c4 b5 3d
       -0.055679396 -0.05641579 -0.02770095 0.088752896
000390 ac 2c 57 3c 82 ba 97 3d 18 78 3d 3d c1 b3 05 bc
       0.013133209 0.074086204 0.04625711 -0.008160532
0003a0 eb d0 82 3c 8b d4 57 bd 30 b4 e1 ba 33 d2 48 bd
       0.01596876 -0.05269293 -0.0017219838 -0.049028587
0003b0 e4 ee 83 3c a3 6c 9c bd c3 b8 2e 3b bf a2 11 bd
       0.016105123 -0.07637908 0.002666042 -0.035555597
0003c0 ba 89 94 bd 24 f9 89 bc 11 29 a3 bd 29 19 34 3d
       -0.07252832 -0.016842432 -0.07966817 0.043969307
0003d0 7f 10 8b bd f1 62 a0 bd 8d 66 2c 3d fb 3f ab bd
       -0.06790256 -0.078313716 0.042089988 -0.08361813
0003e0 99 13 87 3d e8 e8 6e 3c 6f 0d 56 bc 2d 3d d9 bc
       0.06595535 0.014581896 -0.013064726 -0.026518429
0003f0 d4 fc c5 3d f9 cd 73 3c b9 87 b9 bc 8e ca 74 bd
       0.09667364 0.014880651 -0.022647725 -0.059763484

4.bias f4 [7]
000000 a1 e9 b1 bd 42 7b a9 39 e4 c2 92 3c 18 21 9c bd
       -0.08687139 0.00032326026 0.017915197 -0.076235
000010 65 80 c6 3c 82 89 10 bc b5 7d 1a 3d
       0.024231145 -0.008821847 0.03771754
