models/date-06-19-2025-20-19p1-RLbotp2-RLbotDDQNself_play-Trueexp_dir-RLbotepochs-50p1_win_rate-0.65p2_win_rate-0.35is_test-False/model.pth (torch, 117053 bytes, 6 tensors)

0.weight f4 [150, 84]
0.07938997 0.15015697 -0.115380056 0.22448896 -0.040079325 0.08251309 -0.07796406 0.027948296
-0.0023093736 0.09738081 0.12801087 -0.048387617 -0.0580054 -0.06416226 0.09148776 0.013152579
0.07405388 0.014054872 0.0795174 0.04251795 -0.09929865 0.04990409 0.10959728 -0.020069633
0.016482191 -0.07053013 -0.021499407 0.017607989 -0.05089864 0.03762942 0.18436202 0.13383836
-0.0034588967 -0.09913693 -0.09140965 -0.1894912 0.03254075 0.014508448 -0.037092037 0.05789718
0.11917253 0.14168069 -0.023536576 0.059740663 -0.09968479 -0.17543814 0.038874082 0.10552592
-0.06891065 0.08938292 -0.04411261 -0.08796258 0.02863635 -0.009887814 -0.036293596 0.06407506
-0.1173548 0.0059711407 -0.07358585 0.037918065 0.10322857 0.10259012 -0.03421941 0.17239854
0.042953 -0.06678042 0.08062169 -0.107950546 0.12314531 0.14571372 0.022842426 0.010227843
-0.04822459 0.053006135 -0.10964418 0.119392894 0.1571405 0.04292772 -0.041614484 -0.08381022
-0.097747535 0.06893116 0.0773857 -0.12587082 0.019109849 0.015430277 0.037134938 0.07843308
-0.044057537 0.14784196 0.0363614 -0.115305655 -0.041483853 0.12311991 -0.076766364 0.05176773
-0.07446201 0.123988815 -0.029990885 0.01754357 -0.048205987 0.03689856 0.025895627 0.0646822
0.036734127 -0.06284697 -0.10847177 0.009369352 0.09760268 0.037958216 0.14727674 0.109269485
-0.09653728 -0.07296592 0.0029363553 -0.04420203 -0.10930981 0.081327915 0.07375649 0.040223934
0.053905338 0.005566305 0.09832181 0.077333465 -0.06550747 -0.0018144661 0.021645047 -0.045646165
-0.11452123 0.10993746 0.00969034 -0.03679892 -0.07799362 -0.08409722 0.11577598 -0.15342504
-0.013569767 0.08686421 0.034403674 0.0346357 -0.10910483 0.11521701 -0.14734942 -0.011970493
-0.024188498 -0.05107866 -0.14658944 0.09289483 -0.09561965 0.058690302 0.01252567 -0.0928127
-0.116818406 -0.01764944 -0.107503414 0.047339335 0.039626636 0.037738647 -0.079884835 0.06557002
-0.058865957 0.13897307 0.04066522 -0.04060536 -0.06941606 -0.060124867 0.025347456 -0.007369868
0.0020648031 0.13660198 -0.15010904 -0.016973352 0.13297664 0.0456571 -0.058827735 0.09059653
0.038723692 -0.20708983 -0.046969656 0.064966306 -0.15158814 0.095622346 -0.10836602 -0.09807247
-0.061429158 -0.09579673 0.06413564 -0.080846116 -0.15731975 -0.088407 0.023107912 -0.070375316
-0.045588396 0.16032039 0.06369115 0.024291728 -0.061162677 0.0049253944 -0.018522235 -0.138122
-0.0023185406 -0.14624105 0.058416322 -0.03133871 -0.15943886 0.14212608 0.06716938 0.18557645
0.12506297 0.13973005 -0.09506369 -0.111274764 -0.06681921 0.024653286 0.012691627 0.052466445
0.105018 -0.06760797 -0.03935752 -0.11070835 0.062387556 -0.16051279 -0.03863113 0.032413688
0.045834396 -0.059737742 -0.08014703 -0.015923569 -0.07377033 -0.03689642 0.1504575 0.02809495
0.10392105 -0.058923032 0.070987344 -0.09390552 0.10093878 0.0011275011 -0.102276854 0.01995416
0.06901425 -0.0039148848 -0.19029033 0.089420915 0.03561891 -0.04607438 0.06408672 -0.005121998
-0.1514676 -0.16437802 -0.03616948 -0.11147533 0.07652205 -0.07806969 -0.11733244 0.05017785
00000000: 3597 a23d c0c2 193e 614c ecbd 6fe0 653e
00000010: 382a 24bd 9ffc a83d 9fab 9fbd d3f3 e43c
00000020: dc58 17bb 976f c73d 4815 033e 1832 46bd
00000030: 1297 6dbd 8167 83bd ef5d bb3d ea7d 573c
00000040: 90a9 973d 6846 663c 05da a23d 4d27 2e3d
00000050: 175d cbbd 3b68 4c3d 8a74 e03d 1269 a4bc
00000060: a905 873c 1a72 90bd 861f b0bc a13e 903c
00000070: 187b 50bd 4f21 1a3d 66c9 3c3e ec0c 093e
00000080: a8ae 62bb 4e08 cbbd fc34 bbbd fb09 42be
00000090: 7349 053d d7b4 6d3c d2ed 17bd 9825 6d3d
000000a0: ba10 f43d be14 113e c7cf c0bc a0b2 743d
000000b0: 8a27 ccbd 0ea6 33be 6e3a 1f3d f91d d83d
000000c0: 0721 8dbd 640e b73d 6daf 34bd ba25 b4bd
000000d0: c796 ea3c 7f00 22bc 98a8 14bd c939 833d
000000e0: b757 f0bd 8fa9 c33b 2eb4 96bd f94f 1b3d
000000f0: 8069 d33d c51a d23d a729 0cbd 3e89 303e
00000100: 7cef 2f3d 2cc4 88bd fc1c a53d 2d15 ddbd
00000110: 9c33 fc3d fa35 153e 0a20 bb3c af92 273c
00000120: 2687 45bd f61c 593d 218d e0bd 4384 f43d
00000130: 70e9 203e fad4 2f3d f373 2abd b1a4 abbd
00000140: dc2f c8bd c82b 8d3d 657c 9e3d 48e4 00be
00000150: 428c 9c3c 46cf 7c3c ce1a 183d 86a1 a03d
00000160: ad75 34bd e263 173e b1ef 143d 5f25 ecbd
00000170: f9ea 29bd 4b26 fc3d af37 9dbd 660a 543d
00000180: 8a7f 98bd d9ed fd3d 72af f5bc 88b7 8f3c
00000190: a473 45bd f222 173d 1123 d43c 1a78 843d
000001a0: 8676 163d eab5 80bd 7326 debd e981 193c
000001b0: eae3 c73d 137a 1b3d b7cf 163e aec8 df3d
000001c0: 56b5 c5bd 286f 95bd de6f 403b 300d 35bd
000001d0: d2dd dfbd 408f a63d a50d 973d dac1 243d
000001e0: d8cb 5c3d 8d65 b63b f25c c93d 0261 9e3d
000001f0: c828 86bd 61d3 edba f450 b13c 79f7 3abd
00000200: 1b8a eabd e426 e13d 3bc4 1e3c 77ba 16bd
00000210: 1ebb 9fbd 2a3b acbd f51b ed3d 741b 1dbe
00000220: ba53 5ebc dde5 b13d deea 0c3d 2ade 0d3d
00000230: 5a72 dfbd e5f6 eb3d c4e2 16be e31f 44bc
00000240: f526 c6bc db37 51bd 8b1b 16be a53f be3d
00000250: 3cd4 c3bd 3e65 703d 7838 4d3c 9614 bebd
00000260: 7d3e efbd 8f95 90bc c02a dcbd e4e6 413d
00000270: 8a4f 223d d793 1a3d a99a a3bd 9349 863d
00000280: 6e1d 71bd f54e 0e3e 9390 263d ce51 26bd
00000290: 022a 8ebd 7e45 76bd 78a5 cf3c ef7e f1bb
000002a0: a651 073b 64e1 0b3e 2fb6 19be b30b 8bbc
000002b0: 072b 083e f002 3b3d 5af5 70bd ac8a b93d
000002c0: bc9c 1e3d 5b0f 54be 4163 40bd 0e0d 853d
000002d0: ec39 1bbe a6d5 c33d 01ef ddbd 38da c8bd
000002e0: 249d 7bbd 1331 c4bd 8c59 833d a692 a5bd
000002f0: 6e18 21be bb0e b5bd ce4c bd3c ef20 90bd
00000300: e6ba 3abd 072b 243e 8170 823d 72ff c63c
00000310: b785 7abd 3465 a13b f1bb 97bc db6f 0dbe
00000320: a8f2 17bb 37c0 15be f445 6f3d 055d 00bd
00000330: f143 23be 8089 113e 1a90 893d c107 3e3e
00000340: 8210 003e 6515 0f3e c0b0 c2bd 06e4 e3bd
00000350: 83d8 88bd b0f5 c93c 8bf0 4f3c 0ee7 563d
00000360: ad13 d73d 0c76 8abd 5a35 21bd 0fbb e2bd
00000370: 188a 7f3d 775d 24be ad3b 1ebd 37c4 043d
00000380: d9bc 3b3d 90af 74bd 2024 a4bd 2572 82bc
00000390: e614 97bd b320 17bd 8811 1a3e 6127 e63c
000003a0: 8fd4 d43d 4759 71bd d061 913d 8a51 c0bd
000003b0: feb8 ce3d a9c8 933a 8776 d1bd e876 a33c
000003c0: 5857 8d3d 6f48 80bb 78db 42be 5022 b73d
000003d0: 22e5 113d 7db8 3cbd e63f 833d 6fd6 a7bb
000003e0: 531a 1bbe b652 28be 7326 14bd 2e4d e4bd
000003f0: 98b7 9c3d 00e3 9fbd fe4b f0bd 4a87 4d3d

0.bias f4 [150]
0.004032042 0.054481156 0.0014076683 0.03806043 0.12507074 0.08729252 -0.041038815 -0.074706845
0.08306598 -0.032778844 -0.08271884 0.03900488 0.057918295 -0.06664467 0.08912887 -0.09286073
0.062716745 -0.055316176 0.0885709 0.13499668 0.034880467 -0.05057075 0.13354844 -0.0410035
0.13952363 0.091289476 0.10248574 0.026275247 -0.093776815 0.08879599 -0.019126566 -0.0824793
0.10719563 0.20587848 0.049964603 0.020681126 0.12604094 0.112798445 -0.008570355 -0.09041372
0.0030732546 0.06624274 -0.040129017 0.01040195 0.15519814 -0.043836955 0.039066806 0.05110183
0.03623538 -0.07690427 0.04454297 0.11480692 0.06762797 -0.056632567 0.058707733 -0.0103949355
0.008012087 0.0636871 -0.040259108 0.0758909 0.040287137 0.08559768 0.1105806 0.13260017
0.008845658 0.09919635 0.17394479 -0.054722186 0.005284311 0.1210379 0.08464419 -0.0047779665
-0.022087634 0.027263513 -0.11075735 0.075276166 -0.0815662 0.019488098 0.03359099 -0.037697025
0.12722084 0.015539091 0.06276435 0.048157327 0.11682884 0.09707826 0.09688206 -0.030041873
-0.00358832 -0.01944348 0.032812223 0.019116277 0.04812029 0.11562141 -0.066448756 -0.05160197
0.018919291 -0.027172923 0.056563966 0.053837553 -0.044844378 0.12948146 0.08175977 0.033583127
0.032439638 0.065013304 -0.03736377 0.059179895 -0.075452425 0.09558356 0.08251698 0.1038855
-0.053561326 0.15105353 0.02154501 0.07079371 0.101865634 0.09203718 0.03312769 0.10611985
0.05023898 0.100908406 -0.0073000104 -0.00872361 0.06279986 0.032576814 -0.063899085 0.077282995
0.0013473087 -0.10699804 0.019433757 -0.062714495 0.031988297 -0.07326793 0.02662752 -0.014444067
0.0400228 0.052859332 0.09760483 0.02722197 -0.019052122 0.08198209 0.01116776 0.031772893
0.065669216 -0.03558295 -0.06452884 -0.049018476 0.08127219 0.06253317
00000000: 381f 843b a227 5f3d 8381 b83a 41e5 1b3d
00000010: 8b12 003e 6cc6 b23d 5118 28bd e7ff 98bd
00000020: 7f1e aa3d 1c43 06bd 7f68 a9bd 95c3 1f3d
00000030: bc3b 6d3d 007d 88bd 3289 b63d c42d bebd
00000040: a371 803d 3793 62bd a964 b53d 923c 0a3e
00000050: d2de 0e3d 4623 4fbd ecc0 083e 49f3 27bd
00000060: 48df 0e3e faf5 ba3d 0be4 d13d 303f d73c
00000070: 0f0e c0bd acda b53d 51af 9cbc e8ea a8bd
00000080: 6289 db3d cfd1 523e afa7 4c3d 776b a93c
00000090: e010 013e df02 e73d ad6a 0cbc d42a b9bd
000000a0: a868 493b 46aa 873d 535e 24bd f16c 2a3c
000000b0: 43ec 1e3e 618e 33bd 8404 203d 2750 513d
000000c0: 8d6b 143d fc7f 9dbd b072 363d e41f eb3d
000000d0: 8880 8a3d 8df7 67bd 8577 703d 854f 2abc
000000e0: 2145 033c 626e 823d bce6 24bd b06c 9b3d
000000f0: 2004 253d d64d af3d 1578 e23d 57c8 073e
00000100: 61ed 103c 7527 cb3d 951e 323e 5f24 60bd
00000110: 0328 ad3b b8e2 f73d ef59 ad3d 7d90 9cbb
00000120: 20f1 b4bc bb57 df3c c0d4 e2bd 642a 9a3d
00000130: 2e0c a7bd 81a5 9f3c b596 093d 3268 1abd
00000140: 2e46 023e ac97 7e3c 988a 803d 9e40 453d
00000150: f543 ef3d f7d0 c63d 1a6a c63d 601a f6bc
00000160: 052a 6bbb ef47 9fbc 1c66 063d bd99 9c3c
00000170: c819 453d ebca ec3d 4916 88bd 965c 53bd
00000180: a1fc 9a3c c099 debc 9eaf 673d c484 5c3d
00000190: bdae 37bd ca96 043e ab71 a73d 768e 093d
000001a0: 6ddf 043d b225 853d c10a 19bd 9e66 723d
000001b0: cd86 9abd 50c1 c33d aafe a83d ecc1 d43d
000001c0: 1f63 5bbd c7ad 1a3e 297f b03c 4bfc 903d
000001d0: ee9e d03d fd7d bc3d e7b0 073d 5d55 d93d
000001e0: 64c7 4d3d 11a9 ce3d ed34 efbb 79ed 0ebc
000001f0: 379d 803d 446f 053d 86dd 82bd 8c46 9e3d
00000200: 2e98 b03a ca21 dbbd 8b33 9f3c 7570 80bd
00000210: 2906 033d 7f0d 96bd f521 da3c cfa6 6cbc
00000220: f3ee 233d 0783 583d 0be5 c73d 9c00 df3c
00000230: 3213 9cbc 3ae6 a73d fbf8 363c 4b24 023d
00000240: 957d 863d 6dbf 11bd b227 84bd 99c7 48bd
00000250: 0972 a63d 6411 803d

2.weight f4 [100, 150]
0.041958705 0.06843077 -0.022355767 -0.0366784 0.11107574 -0.026322793 0.05647913 -0.058496617
0.12926887 -0.019946652 -0.11557187 -0.068444535 -0.029889017 0.029015293 0.017309006 0.107614174
0.007912563 -0.12571155 -0.09918196 -0.08936479 0.017979952 0.018513896 -0.117323756 -0.0652521
-0.12058588 0.0015383315 -0.088081956 -0.09291899 0.047135096 -0.10817243 -0.09094179 -0.120596655
-0.038686607 -0.0611417 0.08496258 0.019341238 -0.121793576 0.07277226 0.06874505 -0.092393786
0.028735034 0.054031502 0.091601945 0.0068235705 0.037498463 0.03672001 -0.157147 -0.03370471
0.08895668 0.04760086 0.12449373 0.09802008 0.037788045 -0.065799996 0.031226382 -0.009368947
-0.06720655 -0.026043972 0.0038988306 -0.072108395 0.026867842 -0.027797287 0.04221765 -0.0130984
0.108146876 -0.10683634 -0.071211256 0.074262425 -0.11168228 0.0007810383 -0.06632513 0.06857735
0.03798163 -0.063037105 0.17471898 -0.07552483 0.07739984 0.011116431 -0.11994448 -0.07521699
0.021263838 0.08801897 -0.083435096 -0.0546236 0.026843255 -0.0013488008 -0.07014163 0.060662095
-0.18670696 0.02376086 -0.038886692 -0.026400086 0.045063064 0.06246628 0.03361171 -0.07180974
-0.055985935 -0.105997615 -0.094378024 -0.050882906 -0.13056292 -0.06911688 -0.112906516 -0.1623159
0.021637667 -0.069302276 0.098887265 0.0045520505 -0.040249527 -0.021599527 0.065155 0.0038106213
0.065201834 -0.00046775374 0.011481733 0.009086897 0.006902946 -0.07889642 0.009130245 -0.013186073
-0.09886889 -0.063165866 0.018831171 -0.11601832 0.017027225 -0.101766825 0.043637313 -0.11786186
-0.06736868 0.054751076 -0.0241079 -0.06164107 -0.01561756 0.021327266 -0.09538703 0.045941643
0.032913268 -0.08193227 -0.007893111 -0.06962005 -0.050154187 -0.08035011 -0.028851407 0.024698365
0.03370164 0.044854417 -0.13898037 -0.011907242 0.04404565 -0.06363963 0.06721187 -0.15735663
-0.009147399 -0.041247033 0.043346673 0.02379093 0.05873179 -0.053707667 0.046123337 -0.030080277
-0.058817748 -0.08367712 0.0103063015 0.0035006166 0.07792805 -0.1038569 -0.074344225 -0.05888246
-0.06666297 0.047752865 -0.031216422 0.032343958 0.06213966 0.035742473 -0.02854145 -0.053813543
0.06063558 0.05727483 -0.052778035 -0.06207404 -0.02685242 -0.05672207 -0.07100123 0.029739575
0.034125574 -0.04931843 0.06865077 0.035980407 -0.058880772 -0.07257105 -0.054616395 0.07518111
-0.022392632 0.056434445 0.00971084 -0.02024952 0.010907826 0.065756 -0.015702099 0.049985766
0.012922688 -0.0763525 0.03265362 -0.07384364 -0.01583315 -0.055216014 -0.0073719705 -0.015025854
-0.11920011 0.093081966 -0.035261527 0.018487848 0.000495754 0.07803955 -0.055883385 0.09146863
0.05346554 0.0027245055 0.060355857 -0.016606102 -2.7744682e-06 -0.015079707 0.074634165 -0.007614597
0.02514059 0.05126838 0.015418735 -0.06823209 0.09647201 0.047340415 -0.022896336 0.029995851
-0.006729198 0.11156972 -0.018496346 0.05659612 -0.07396178 -0.1260799 0.028185185 0.014868657
-0.035406187 0.0069732964 -0.08076952 -0.040973622 0.0118898 0.02568784 0.042106126 -0.038584705
0.121903874 -0.016239561 0.054665938 -0.03403789 -0.076198265 0.042210594 0.032829635 0.11591849
00000000: e4dc 2b3d 6e25 8c3d 7123 b7bc 173c 16bd
00000010: ad7b e33d e6a2 d7bc a956 673d 269a 6fbd
00000020: 0f5f 043e 2967 a3bc f2b0 ecbd a62c 8cbd
00000030: d0d9 f4bc 7bb1 ed3c 9ecb 8d3c d264 dc3d
00000040: b2a3 013c 87ba 00be e91f cbbd e304 b7bd
00000050: b14a 933c 74aa 973c 7047 f0bd e5a2 85bd
00000060: bbf5 f6bd d7a1 c93a 5064 b4bd 504c bebd
00000070: bb10 413d 8289 ddbd b03f babd 61fb f6bd
00000080: d975 1ebd b86f 7abd dc00 ae3d 8471 9e3c
00000090: e96e f9bd 9f09 953d 34ca 8c3d f438 bdbd
000000a0: bc65 eb3c 2350 5d3d cd99 bb3d 4298 df3b
000000b0: fd97 193d b967 163d 25eb 20be f30d 0abd
000000c0: eb2e b63d 1ff9 423d 92f6 fe3d c0be c83d
000000d0: a3c7 1a3d 26c2 86bd 78ce ff3c 3680 19bc
000000e0: 96a3 89bd 2b5a d5bc 8683 7f3b 91ad 93bd
000000f0: f319 dc3c 23b7 e3bc 6aec 2c3d ac9a 56bc
00000100: 1c7c dd3d 03cd dabd 35d7 91bd e616 983d
00000110: aeb9 e4bd 98be 4c3a 78d5 87bd 4872 8c3d
00000120: a092 1b3d 9919 81bd 88e9 323e c3ac 9abd
00000130: cf83 9e3d b121 363c 74a5 f5bd 5e0b 9abd
00000140: 8031 ae3c 4a43 b43d 05e0 aabd ffbc 5fbd
00000150: 63e6 db3c 3fca b0ba 6aa6 8fbd d178 783d
00000160: 1c30 3fbe 23a6 c23c a747 1fbd fe44 d8bc
00000170: 0c94 383d a4dc 7f3d 6fac 093d fc10 93bd
00000180: 8251 65bd 4715 d9bd 4449 c1bd 986a 50bd
00000190: 49b2 05be 278d 8dbd 883b e7bd 2436 26be
000001a0: 7a41 b13c 5aee 8dbd 6885 ca3d 5e29 953b
000001b0: b0dc 24bd 7ef1 b0bc fc6f 853d 9ebb 793b
000001c0: 8a88 853d d83c f5b9 e11d 3c3c 35e1 143c
000001d0: 1c32 e23b 7294 a1bd 0697 153c 660a 58bc
000001e0: c67b cabd 1b5d 81bd d443 9a3c 039b edbd
000001f0: ae7c 8b3c 206b d0bd 0abd 323d 8f61 f1bd
00000200: 97f8 89bd aa42 603d ee7d c5bc 597b 7cbd
00000210: cbe0 7fbc 85b6 ae3c 465a c3bd 4e2d 3c3d
00000220: 10d0 063d 1bcc a7bd 1b52 01bc f594 8ebd
00000230: 7a6e 4dbd 998e a4bd c959 ecbc 3a54 ca3c
00000240: bb0a 0a3d 44b9 373d df50 0ebe 9816 43bc
00000250: 3669 343d 7f55 82bd 60a6 893d 1922 21be
00000260: f9de 15bc a6f2 28bd 488c 313d 32e5 c23c
00000270: bf90 703d 92fc 5bbd d3eb 3c3d ea6a f6bc
00000280: e1ea 70bd e95e abbd c3db 283c 9a6a 653b
00000290: be98 9f3d edb2 d4bd c941 98bd bc2e 71bd
000002a0: 9886 88bd 8298 433d 95b9 ffbc 197b 043d
000002b0: 2886 7e3d b366 123d c2cf e9bc 976b 5cbd
000002c0: 045d 783d 0399 6a3d c82d 58bd 5941 7ebd
000002d0: 9bf9 dbbc 6755 68bd 1869 91bd 69a0 f33c
000002e0: 42c7 0b3d 1f02 4abd c698 8c3d 3160 133d
000002f0: f72c 71bd 21a0 94bd 71b5 5fbd 8ef8 993d
00000300: c170 b7bc ce27 673d 371a 1f3c 52e2 a5bc
00000310: bdb6 323c 15ab 863d b0a1 80bc e0bd 4c3d
00000320: afb9 533c b35e 9cbd cdbf 053d 563b 97bd
00000330: 86b4 81bc 302a 62bd 9290 f1bb 002f 76bc
00000340: 301f f4bd c2a1 be3d 646e 10bd d473 973c
00000350: 7df5 013a 33d3 9f3d fae5 64bd e853 bb3d
00000360: affe 5a3d 9e8d 323b b437 773d 8509 88bc
00000370: 0031 3ab6 e010 77bc ccd9 983d df83 f9bb
00000380: a3f3 cd3c cbfe 513d dd9e 7c3c 44bd 8bbd
00000390: 1e93 c53d 06e8 413d 1991 bbbc dcb9 f53c
000003a0: 9b80 dcbb aa7e e43d a685 97bc 55d1 673d
000003b0: 4679 97bd 171b 01be 9ee4 e63c ab9b 733c
000003c0: 1406 11bd 4080 e43b 7d6a a5bd f5d3 27bd
000003d0: 70cd 423c 4e6f d23c 7977 2c3d ff0a 1ebd
000003e0: bda8 f93d d408 85bc 64e9 5f3d 516b 0bbd
000003f0: d60d 9cbd 04e5 2c3d 5e78 063d ac66 ed3d

2.bias f4 [100]
-0.07592186 0.069682956 0.007411945 0.12505439 -0.024067907 0.085314795 -0.018426491 -0.048547145
0.11296151 -0.016083768 0.028961528 -0.00624902 0.001716692 0.039813988 -0.053569783 0.039069597
-0.037173476 0.050974723 -0.034946 0.07731524 0.1743494 0.008694953 0.025513431 0.11491404
0.0006229951 0.052925475 -0.016332397 -0.11223407 0.09473556 0.02097926 -0.0038363812 -0.053309485
0.03948955 0.036231674 0.04222239 0.02793719 -0.0149255935 -0.036794927 0.06417756 0.031066807
-0.025734717 -0.04456123 -0.040182825 -0.029997637 0.036277372 0.052973606 -0.077255964 0.09982839
0.12994494 0.07870086 0.03520128 -0.033383507 -0.049721256 -0.0053115846 0.027505226 0.12385515
0.06070107 -0.01352416 0.019435821 -0.010389915 0.047129326 0.07533894 0.014921678 -0.004358977
0.051081523 0.03926335 -0.015646636 -0.010365361 0.004769784 0.07715126 0.034638662 -0.008893037
0.06448464 -0.073919155 0.03550167 0.03924408 0.100600325 0.034851987 -0.022442494 0.08475925
0.04772848 -0.051414594 -0.0546765 -0.06432681 -0.0126741715 -0.011807464 -0.042498343 0.032471973
0.06970835 0.047541104 -0.018892646 -0.017096223 0.024042359 -0.03118047 0.024172684 -0.061772805
-0.05357106 -0.08387078 -0.010745036 0.079400465
00000000: ec7c 9bbd f0b5 8e3d e7df f23b 420e 003e
00000010: 0f2a c5bc 86b9 ae3d 27f3 96bc 5fd9 46bd
00000020: 5d58 e73d 1bc2 83bc ba40 ed3c 94c4 ccbb
00000030: a002 e13a fe13 233d fd6b 5bbd 7107 203d
00000040: 3743 18bd dfca 503d 8923 0fbd 7457 9e3d
00000050: a688 323e 4775 0e3c 8b01 d13c 0d58 eb3d
00000060: 7e50 233a 62c8 583d 85cb 85bc fada e5bd
00000070: b804 c23d b2dc ab3c cc6b 7bbb 0c5b 5abd
00000080: cbbf 213d aa67 143d 63f1 2c3d 89dc e43c
00000090: 7a8a 74bc 47b6 16bd 866f 833d d17f fe3c
000000a0: 9dd1 d2bc d685 36bd bf96 24bd 9bbd f5bc
000000b0: 9597 143d dafa 583d 6038 9ebd d472 cc3d
000000c0: 4910 053e eb2d a13d 382f 103d 25bd 08bd
000000d0: 84a8 4bbd cd0c aebb a452 e13c c5a7 fd3d
000000e0: afa1 783d 7094 5dbc df37 9f3c 763a 2abc
000000f0: ae0a 413d 4d4b 9a3d 0e7a 743c c0d5 8ebb
00000100: dc3a 513d 9bd2 203d 602d 80bc 7ad3 29bc
00000110: d94b 9c3b 7b01 9e3d 45e1 0d3d 1ab4 11bc
00000120: 8610 843d ed62 97bd 336a 113d 67be 203d
00000130: 8b07 ce3d f5c0 0e3d 52d9 b7bc 4296 ad3d
00000140: f07e 433d 1c98 52bd 77f4 5fbd c6bd 83bd
00000150: 54a7 4fbc 1874 41bc be12 2ebd 5501 053d
00000160: 40c3 8e3d 76ba 423d c0c4 9abc 610d 8cbc
00000170: 7bf4 c43c 2f6e ffbc cb05 c63c 7b05 7dbd
00000180: 546d 5bbd 72c4 abbd f30b 30bc b69c a23d

4.weight f4 [7, 100]
0.12334614 -0.039056197 0.044562485 0.031003673 -0.027269425 0.11064872 0.1243083 0.050977927
0.056043252 -0.11152373 0.10133963 0.09780837 0.06609423 0.008738668 -0.054916564 -0.012278568
0.13608405 -0.13911308 -0.047973692 0.029174363 0.037997227 -0.0017623665 0.05764409 -0.044042695
-0.008865013 -0.09115795 -0.053881526 0.044972077 0.06129208 -0.03257425 -0.046394143 -0.096707396
0.012239414 -0.04835649 0.04099612 -0.08587135 0.086450405 -0.09795886 -0.0032045445 0.03556918
0.107417256 0.028484404 -0.081182845 -0.011669558 -0.05690086 0.04350654 0.013642901 -0.041734815
0.016943881 -0.06018101 -0.059091203 0.037063736 0.018068302 0.009405292 0.10895417 0.061040584
0.0088801 0.0050234315 -0.036285195 -0.018300874 0.14947721 -0.08269732 0.09606868 -0.117235884
0.016700761 0.0025127763 -0.06118283 0.11006876 0.037070863 -0.013974223 -0.006173364 0.04135016
-0.08034479 0.08351629 0.041987035 0.049998496 0.09849846 0.039047416 -0.048824117 0.001206643
-0.10688531 0.025499638 -0.020962017 0.07656802 0.15268701 0.11297127 0.075479254 0.052957635
0.044384982 0.12441157 -0.016922304 -0.09849805 -0.03580081 0.06445272 -0.035338115 -0.054563507
-0.08495376 -0.0036427174 0.021452691 0.04254099 0.13486421 0.023906248 -0.10494815 0.06934737
0.029552612 0.07793234 0.12632178 -0.08459561 0.09439323 -0.14867608 0.054617643 -0.06650231
-0.0001566406 0.009349496 -0.06650496 -0.011656001 -0.021782383 -0.090719245 -0.028407343 0.055624414
0.06842505 0.029122617 -0.07288695 0.016412614 -0.06923052 0.053432647 0.053997308 0.05835362
0.010971956 0.019215357 -0.058057968 0.04448831 -0.0073454063 0.09306064 0.0137978075 -0.035979003
0.071405485 0.040752128 0.017306939 0.030892994 -0.0101482775 0.08241197 0.08087418 0.027623355
-0.0057748463 0.11239035 -0.09496685 -0.042283107 -0.11909698 0.02380261 0.02995298 0.03786642
-0.09840689 0.067640275 0.08025509 0.14330833 0.026706465 0.18322653 -0.012741726 -0.016104288
-0.0072667757 0.00096927915 -0.10504693 0.032289132 0.079323396 -0.038116995 -0.030885343 0.035213273
0.07193586 -0.0170807 -0.0033338752 0.08742733 -0.027602198 0.0693356 0.00532595 0.0062615257
-0.003941462 0.049226936 0.073467575 0.07793972 0.083959326 0.0622572 0.12995715 -0.056893986
-0.05434718 0.049663246 -0.03502667 -0.03517634 0.026683647 0.0921056 0.10421045 -0.057873927
0.058278464 0.00078931433 0.07628001 0.022858093 0.056569517 -0.11710777 -0.04009803 -0.04428537
0.06649302 -0.06621685 0.16299798 0.10158695 0.0812649 0.13931434 -0.041006498 -0.030032435
0.09343851 0.074621536 0.079548374 -0.032190595 -0.018671812 -0.01199747 0.13516304 -0.09547421
0.12928337 0.102365285 -0.06631105 0.07591491 0.041289322 0.1464357 0.071293175 0.13447163
-0.083529904 0.027796414 -0.06868611 -0.023025181 0.0906922 -0.030605612 -0.08825402 -0.055454005
0.1505119 0.08298553 -0.05310876 0.06534014 0.047731165 0.08547964 -0.052706905 -0.03430425
-0.074008755 -0.057715073 -0.061324894 0.1898833 0.08921633 -0.028201254 -0.058573678 0.098406486
0.03938803 0.12479328 -0.07300884 0.14833511 0.056757238 -0.06496977 0.012755736 0.10760252
00000000: e79c fc3d 64f9 1fbd 2787 363d 6afb fd3c
00000010: 2164 dfbc cc9b e23d 5a95 fe3d 3bce 503d
00000020: 9c8d 653d 8e66 e4bd 278b cf3d c14f c83d
00000030: 695c 873d a12c 0f3c 31f0 60bd 0c2c 49bc
00000040: 9e59 0b3e a973 0ebe 1080 44bd 13ff ee3c
00000050: fba2 1b3d 35ff e6ba 361c 6c3d 1d66 34bd
00000060: 8f3e 11bc 05b1 babd e0b2 5cbd a434 383d
00000070: 670d 7b3d 946c 05bd c907 3ebd 870e c6bd
00000080: d387 483c 7411 46bd 8ceb 273d 51dd afbd
00000090: e90c b13d a89e c8bd 5603 52bb fdb0 113d
000000a0: 94fd db3d 2058 e93c 3143 a6bd ac31 3fbc
000000b0: e010 69bd ea33 323d 7986 5f3c 20f2 2abd
000000c0: e5cd 8a3c 5d80 76bd 9e09 72bd 25d0 173d
000000d0: fa03 943c a718 1a3c 5d23 df3d b105 7a3d
000000e0: d77d 113c 999b a43b c99f 14bd b7eb 95bc
000000f0: 8e10 193e 365d a9bd a8bf c43d 5e19 f0bd
00000100: 09d0 883c 64ad 243b d99a 7abd bb6b e13d
00000110: 9ed7 173d 24f4 64bc ee49 cabb c95e 293d
00000120: cf8b a4bd 970a ab3d 99fa 2b3d 39cb 4c3d
00000130: 90b9 c93d 2ff0 1f3d ccfb 47bd 3828 9e3a
00000140: afe6 dabd 9ee4 d03c 89b8 abbc b2cf 9c3d
00000150: fc59 1c3e 7b5d e73d de94 9a3d 1bea 583d
00000160: 07cd 353d 7ecb fe3d a5a0 8abc 58b9 c9bd
00000170: dfa3 12bd caff 833d b3be 10bd fc7d 5fbd
00000180: 3dfc adbd a8ba 6ebb 8ebd af3c 763f 2e3d
00000190: d819 0a3e 09d7 c33c 0eef d6bd fe05 8e3d
000001a0: 5218 f23c fe9a 9f3d 7f5a 013e 7740 adbd
000001b0: 3d51 c13d 8b3e 18be c0b6 5f3d 5d32 88bd
000001c0: e43f 24b9 a12e 193c c133 88bd d0f8 3ebc
000001d0: f870 b2bc 03cb b9bd 84b6 e8bc 6dd6 633d
000001e0: 6f22 8c3d 8e92 ee3c c145 95bd bf73 863c
000001f0: bbc8 8dbd 31dc 5a3d 482c 5d3d 3504 6f3d
00000200: b8c3 333c 8669 9d3c 31ce 6dbd 6039 363d
00000210: bcb1 f0bb 9496 be3d 3310 623c b85e 13bd
00000220: 0a3d 923d b4eb 263d 48c7 8d3c 4e13 fd3c
00000230: f644 26bc 9bc7 a83d 5da1 a53d 604a e23c
00000240: ec3a bdbb e92c e63d fb7d c2bd 0d31 2dbd
00000250: 1ee9 f3bd b1fd c23c f45f f53c d219 1b3d
00000260: 8d89 c9bd fc86 8a3d c85c a43d 6bbf 123e
00000270: 84c7 da3c bc9f 3b3e acc2 50bc 24ed 83bc
00000280: 221e eebb 3917 7e3a d822 d7bd 9c41 043d
00000290: 4e74 a23d 9120 1cbd 4203 fdbc cb3b 103d
000002a0: 1c53 933d d3ec 8bbc 257d 5abb 1a0d b33d
000002b0: 011e e2bc d3ff 8d3d 4f85 ae3b 7c2d cd3b
000002c0: 6127 81bb 2fa2 493d 2b76 963d dc9e 9f3d
000002d0: def2 ab3d 6801 7f3d 7d13 053e ab09 69bd
000002e0: 269b 5ebd b06b 4b3d 2078 0fbd 1115 10bd
000002f0: aa97 da3c dca1 bc3d 4a6c d53d 360d 6dbd
00000300: 66b5 6e3d fde9 4e3a b238 9c3d e540 bb3c
00000310: 70b5 673d 33d6 efbd d53d 24bd 9364 35bd
00000320: 7e2d 883d b39c 87bd f1e8 263e d20c d03d
00000330: 366e a63d 6ba8 0e3e 6ef6 27bd 9506 f6bc
00000340: b15c bf3d 2dd3 983d 42ea a23d 49da 03bd
00000350: a1f5 98bc 0991 44bc 2e68 0a3e fc87 c3bd
00000360: dc62 043e e4a4 d13d 16ce 87bd 4779 9b3d
00000370: fe1e 293d 3df3 153e 2802 923d eeb2 093e
00000380: ba11 abbd 4eb5 e33c 4eab 8cbd 4e9f bcbc
00000390: d5bc b93d 9fb8 fabc 86be b4bd bd23 63bd
000003a0: cb1f 1a3e 51f4 a93d 9288 59bd 0dd1 853d
000003b0: c181 433d f30f af3d 32e3 57bd 9d82 0cbd
000003c0: e791 97bd a466 6cbd d02f 7bbd c570 423e
000003d0: 0db7 b63d 5106 e7bc f4ea 6fbd 5789 c93d
000003e0: 5855 213d 9f93 ff3d a985 95bd 29e5 173e
000003f0: 477a 683d df0e 85bd 6ffd 503c b65e dc3d

4.bias f4 [7]
0.07063456 0.082395956 -0.0021971338 0.0046197176 0.06039647 0.025706433 0.022906687
00000000: daa8 903d 36bf a83d cafd 0fbb 0061 973b
00000010: 4a62 773d 4c96 d23c cea6 bb3c
