models/date-06-19-2025-15-23p1-RLbotp2-RLbotDDQNself_play-Falseexp_dir-RLbotepochs-50p1_win_rate-0.04p2_win_rate-0.96is_test-False/model.pth (torch, 117053 bytes, 6 tensors)

0.weight f4 [150, 84]
00000000: b2ff 103d 167b b53d 3bc0 d73c 7c38 923d
00000010: fa48 1a3d a0d8 d5bd 6082 b43c 872c 903c
00000020: 5dab 603d afba 70bd fe7d 2a3d cb97 ce3d
00000030: 77ef ea3d c363 0dbd 48e6 cf3c df81 43bd
00000040: 1018 b63d c9e7 d6bd 62d9 d83d e626 4fbd
00000050: 8324 263d b772 b23c af7a cbbb 702f a33d
00000060: 6932 8dbc f726 e0bd dcf1 9abd 85f2 3fbc
00000070: 9fcd f33b 1b25 d13d 30c3 a9bd 1229 cb3b
00000080: d96e c23c 90bd d43c 12b0 d63b 14f7 11bd
00000090: 7434 5cbb 5269 b7bd 7e2f aebb 310e d0bd
000000a0: 194f 0fbd 2458 7a3d 9b6e 963c 6ede cfbd
000000b0: 9f69 013c 19d5 b53c f433 acbd 15ec c73d
000000c0: c99d b3bc fce1 de3c c94b 5abd af87 aabd
000000d0: 1c55 c93d a97f 3f3c 5b8f c4bd 6925 623d
000000e0: 8584 ad3c f1aa 89bd cc84 933d 7d59 423d
000000f0: ef49 d3bd 6bb8 c73d 7c2f ae3d a23f c5bd
00000100: 4033 263d 8169 64bd 2474 80bd 8244 053c
00000110: 130a 3ebd dca9 d03d f919 283d 6e52 d13d
00000120: f52b 51bd 8a68 9aba 8b6b 2a3d 1aa1 b23d
00000130: 924f d9bc e6d8 59bc 2c03 763c 539c 95bd
00000140: 0d06 4ebd 4cd2 74bd a999 a73d 7e40 d93d
00000150: 96e9 6cbd c0ee 163c 0a44 bd3d ea21 89bd
00000160: 94ff 61bd c890 c33d 1a85 543d bcfa 1abd
00000170: bb11 c33d af77 7fbd 2f0c 4f3d f1e6 b7bd
00000180: 98cb 0d3d 83ed 68bd cd29 f5bc c5ec afbd
00000190: 7af4 c33b 29e5 bf3d d277 b9bc 6ef8 edbc
000001a0: 17ab dfbd bd36 89bd 31da 673d f74b 68bd
000001b0: b89e 033d 0c8b 9fbd ab81 cc3d a85f aabd
000001c0: c645 d7bd 0fdc c2bd a68d 283c d9fc 373d
000001d0: 742b 393c 72a8 20bc 1ead d0bc 0178 573d
000001e0: 67f2 cabb fc6e 81bc 6363 dc3c 292a 15bc
000001f0: b399 c4bd cd95 2f3d 7649 ab3d 2910 2abc
00000200: 947d 7fbd 9674 b3bd 0bf1 cabd fe41 b1bd
00000210: 3f42 d2bd 9029 9fbd da63 a5bd bd05 63bd
00000220: d538 b1bc 1737 a0bd b1ee ba3d 1d8a a7bd
00000230: 298d 1a3d 64ea 8fbd 5f3f 243d e094 bd3a
00000240: 2f62 533d 4637 32ba 1338 c2bb 141d babd
00000250: ceaf 023e 6cc2 99bd c198 d43d b246 c5bc
00000260: 7792 d5bd 5ee2 8d3a a0a2 ac3b 6cec cc3b
00000270: 0a68 94bc 828d 9c3d 6e73 883c daa1 7f3c
00000280: 2afd d9bd 227a 0ebc 573c 9b3d 666b 9abd
00000290: c160 a43d ad8f b63d 17d5 99bd 8805 9dbd
000002a0: 2b48 05bd 4f4a 353d 8ae0 a8bc daad 44bd
000002b0: c627 193d 0ac1 67bd 09c2 8c3d 1fc4 b53c
000002c0: 1348 9e3c 9b79 593d 9376 a53d f1cb 313c
000002d0: 4a5e efbb f6e3 9f3c 705f 36bd 3d62 4d3c
000002e0: 5a7c 9e3c 6e78 c7bd 8632 9a3d 80df 91bd
000002f0: 9d99 da3d 62cc 293c 227f e43c b375 d23c
00000300: de42 9dbd 5a94 1abc 55ee cabd f889 cd3d
00000310: 766d 8ebb 341e 8f3d 5c62 d7bb 3466 383b
00000320: fb6e 803d 73b3 9bbd c2b4 9bbd e33c 24bd
00000330: ef33 92bd ad7f 693d 205d f4bd 412e a0bd
00000340: feb2 c63d 68d7 303d e590 d73c d229 7bbd
00000350: 174b 4b3d 14c9 94bd 0148 65bc e9b2 c1bd
00000360: 1e42 0cbc d9d5 2a3d 40df ccbd c91c 793d
00000370: 5291 b23d 524b d13d 2657 8e3d c80e 193d
00000380: dde5 03bd 3578 89bd c40a c33d 88d1 133d
00000390: 4dd5 6bbd 779d b33c 2004 9d3d 7447 09bd
000003a0: ca67 c73d 870f 6dbd 4555 a53d 9654 29bd
000003b0: e170 8f3d e8be cf3d 72b8 0abc 9d2e cebd
000003c0: a22a 973c efb8 af3d 3de8 92bd 18d4 17bd
000003d0: 8504 d83d 476f 51bd a8ae b5bd 3e53 aa3d
000003e0: 1838 b9bd 1e23 51bd a3fa b83d e182 183d
000003f0: 2eab 063d e3d8 3abd a098 c6bc 923e 88bd
0.0354001 0.088613674 0.02633678 0.0713968 0.037667252 -0.104417086 0.022034824 0.017599357
0.054850925 -0.058771785 0.04162406 0.10087546 0.114714555 -0.03451897 0.025378361 -0.047731277
0.08891308 -0.10493428 0.105883375 -0.050574206 0.040562164 0.021783216 -0.0062096934 0.07968032
-0.017235951 -0.10944932 -0.07565662 -0.011715536 0.0074402834 0.102121554 -0.08289182 0.0061999643
0.023734497 0.025969297 0.006551751 -0.035636023 -0.00336006 -0.08955635 -0.00531572 -0.10158957
-0.034987543 0.061119214 0.018363288 -0.10149847 0.007898717 0.02219634 -0.08408347 0.09761826
-0.021925824 0.027207367 -0.05329493 -0.08326661 0.098306865 0.011688151 -0.095976554 0.05521146
0.021181354 -0.067220576 0.07203063 0.047448624 -0.10316836 0.09751972 0.08505151 -0.096312776
0.04057622 -0.05576468 -0.06272152 0.008134009 -0.046396326 0.10188648 0.041040394 0.102208
-0.05106731 -0.0011780423 0.041606467 0.08722134 -0.0265272 -0.0132963415 0.015015405 -0.07305207
-0.05029874 -0.059770867 0.08183605 0.10608004 -0.057839952 0.009212196 0.09241493 -0.06695922
-0.05517538 0.09549099 0.051884748 -0.037836775 0.09524866 -0.06237 0.05054873 -0.089795955
0.03461799 -0.056867134 -0.029927159 -0.08590082 0.0059800716 0.09369881 -0.022640143 -0.029049125
-0.10921305 -0.066998936 0.056604568 -0.05671307 0.032133788 -0.07790193 0.0998567 -0.08319026
-0.10511355 -0.09514629 0.010287678 0.04491887 0.011301864 -0.0098057855 -0.025473174 0.05260468
-0.0061934474 -0.015799992 0.02690286 -0.00910429 -0.09599628 0.04286747 0.08363621 -0.010379829
-0.06237562 -0.087624714 -0.099092565 -0.08655165 -0.10266542 -0.07771599 -0.08075686 -0.055425394
-0.021633545 -0.078230076 0.09127558 -0.0818064 0.037732277 -0.07027128 0.040099498 0.0014463924
0.051607307 -0.00067983975 -0.0059270947 -0.090875775 0.12762377 -0.07507786 0.10380698 -0.024081562
-0.104283266 0.0010824909 0.00526841 0.0062537696 -0.018116016 0.07644178 0.016656604 0.015602553
-0.1064399 -0.008696111 0.07579868 -0.07540016 0.08026267 0.08914123 -0.07511347 -0.076670706
-0.032539528 0.04426032 -0.020614881 -0.04801736 0.037391447 -0.05658058 0.06872947 0.022188244
0.019321477 0.053094488 0.08079257 0.010851846 -0.0073049413 0.01951788 -0.04452461 0.012535629
0.019346405 -0.09739767 0.07529168 -0.07122707 0.10673831 0.01036367 0.027892653 0.025690889
-0.076787695 -0.009434784 -0.099087395 0.10036081 -0.004346545 0.06988183 -0.0065730046 0.002813709
0.06271168 -0.076025866 -0.07602836 -0.04009713 -0.07138812 0.057006527 -0.11931825 -0.07821322
0.09702109 0.043174177 0.026314208 -0.06131918 0.049632158 -0.07264915 -0.013994218 -0.094579525
-0.008560685 0.041707847 -0.10003519 0.060818467 0.08719124 0.10219444 0.06950216 0.037367612
-0.032201637 -0.06712381 0.09523538 0.036088496 -0.057576466 0.021925671 0.076668024 -0.03351541
0.09736593 -0.057876136 0.080729045 -0.041340433 0.07003952 0.10143834 -0.008466827 -0.100674845
0.018452946 0.08580195 -0.07173202 -0.037067503 0.10547737 -0.051131513 -0.08871204 0.083166584
-0.09043902 -0.05105888 0.0903218 0.03723419 0.032878093 -0.045616996 -0.0242427 -0.06652559

0.bias f4 [150]
00000000: 2748 9abc d67c 96bd 3036 8a3d 5203 083d
00000010: b3ec 9c3d 8e9e 933d c181 e13c 62c8 b63d
00000020: cd9b 673c ccde aabd c8a4 98bd cf73 b6bc
00000030: e160 83bd c519 61bd 9950 d2bc 66d6 af3d
00000040: 9dea df3c 237f 373d bdd0 773d d967 96bc
00000050: a729 ecbc 92f0 b23d 8e5a a83d 6dd2 37bd
00000060: 2a7b 043d eeb5 793d eb5e 923d 9998 c8bd
00000070: d11e d3bd 4da8 713d 16f4 0bbd 88b7 71bc
00000080: 1eae a5bd bc17 b03b c923 643d ef11 ce3d
00000090: 1a57 ae3d c954 6a3d ee0e dd3d 61e9 86bd
000000a0: 8d2b 0e3d 140a d7bd 18c4 a0bd b913 45bc
000000b0: ce47 9abc 6227 bfbb 05d3 45bd 6d39 013e
000000c0: 2e88 4dbd 89e1 47bb bd3c 433d 00db e5bd
000000d0: 406a 1bbd 6f0d 0b3d 0511 9abd f4c2 d63d
000000e0: f8c6 ce3d eab4 a53d a312 b3bd 0b3d b6bd
000000f0: 1e40 463d aa87 e7bc 88ef 033e 9567 61bd
00000100: 3379 48bd 63a8 9dbd 31e1 fc3c 6821 043d
00000110: 4a8b babd 64f7 9dbc 1a21 ce3d 3601 143c
00000120: df34 4c3d e3a0 4abd 7c5a 81bd a018 d5bd
00000130: b5ee 843d 0240 8a3d 78f4 b1bd be45 073e
00000140: 0e6f 7fbc db41 36bd 8044 a1bb 3082 8dbd
00000150: c37e 5b3c 8ee9 d5bc ddc3 9e3c ff39 d13d
00000160: 1b89 68bd 5a23 ca3d 6ca8 db3d 569c 223d
00000170: a857 cb3d 7b2b 71bd b731 7f3d 999d 8c3d
00000180: 2175 b73d 2fe1 79bd 9bd6 c63c d494 d03d
00000190: 2fb4 b0bd 5aea be3b 3812 453d 18d6 d63d
000001a0: eaf6 8f3b 49d7 bdbd 6697 3d3d e657 acbd
000001b0: 00e6 fdba ecfa edbd 03d0 5b3d 474e abbc
000001c0: 7543 dfbd 6cb2 07bd b4fc afbb 39f7 e7bc
000001d0: 4434 ab3c 0a25 22bd 5abe d33c b949 c63c
000001e0: 0f70 493c 6267 c7bd 94bc 33bc 640c 293d
000001f0: 7fc1 f83b 87d4 073d ed10 20bd 8b5b a43d
00000200: e09f 73bd 0662 d8bd 2ade 7fbc 584c 66bd
00000210: 9194 1f3d 343f cb3d 28a5 edbc aa93 b73d
00000220: 95bd d0bd 54f1 a0bd e1bf a9bd 3534 a23d
00000230: 9976 80bd 0b97 bd3d 568d 753d 8c7c db3d
00000240: a0ad 8d3d 65a6 5e3d 528f 003e 2e5c 063e
00000250: c8f4 a33d 034c c3bc
-0.018833233 -0.07348029 0.06748617 0.03320629 0.07662334 0.07207976 0.027527692 0.08924939
0.014136267 -0.083432764 -0.074533045 -0.022272019 -0.064149626 -0.054956216 -0.025673198 0.08585815
0.027333552 0.04479898 0.060501803 -0.018360065 -0.028828455 0.087372914 0.08220397 -0.044878412
0.03234402 0.060964517 0.071470104 -0.09794731 -0.10308612 0.058998395 -0.034168325 -0.01475323
-0.08089851 0.005373923 0.05569819 0.10062014 0.08512707 0.057209764 0.10793863 -0.06587482
0.034709502 -0.10499969 -0.07849902 -0.012028628 -0.018833067 -0.005833552 -0.048296947 0.12619562
-0.0501787 -0.003049942 0.047665346 -0.112234116 -0.037943125 0.03394836 -0.075227775 0.10486403
0.10096544 0.08091147 -0.08743789 -0.08898362 0.04840099 -0.028262932 0.12884343 -0.055030424
-0.04894371 -0.07698133 0.030869098 0.03225842 -0.091085985 -0.019283004 0.10064907 0.009033492
0.04985511 -0.04946984 -0.06316087 -0.104050875 0.06490842 0.0675049 -0.08689207 0.13210198
-0.015590442 -0.0444964 -0.004921496 -0.06909597 0.013396922 -0.026112344 0.019380504 0.1021614
-0.05677138 0.09870024 0.10725483 0.039699875 0.099288285 -0.058879357 0.06230327 0.06865997
0.089578874 -0.061005767 0.024272254 0.10184637 -0.08628117 0.0058262767 0.048113078 0.10490054
0.004393448 -0.09269578 0.046286963 -0.08415203 -0.0019370914 -0.11620125 0.053665172 -0.020911349
-0.10901538 -0.03312914 -0.0053707007 -0.028316127 0.020898946 -0.039586104 0.025847603 0.024205076
0.012294783 -0.097365156 -0.0109702535 0.041271582 0.007591426 0.033161666 -0.03907864 0.08025273
-0.05947864 -0.105655715 -0.015616933 -0.05622515 0.038960043 0.099241644 -0.029009417 0.089637116
-0.1019241 -0.0785853 -0.08288551 0.07920114 -0.06272621 0.09257325 0.05994924 0.10717115
0.06917882 0.054357905 0.12554672 0.13121101 0.08005673 -0.023839956

2.weight f4 [100, 150]
00000000: 4246 a6bc 6b44 b63c b144 87bd 105f 48bd
00000010: 08c7 973d a424 393b c0a8 a33d 2bb0 1c3d
00000020: 6a10 033b 35c2 023d 634a 923d bbeb 563c
00000030: 2744 88bd 4b5f 8f3d 7927 49bd 9999 c03d
00000040: 93a8 1c3d 3f9a 0e3d e2a2 c9bc aef9 5abc
00000050: 8915 b03d a47f da3d a6fe 46bd aee0 89bc
00000060: 56c7 8b3a f609 423d 29c9 9fbd d9f5 a6bd
00000070: 524a a8bc 3d37 d83d 9c78 633d 3c72 a13c
00000080: 9ad6 a93d a715 6e3c 4740 b8bd 9c2e c93d
00000090: 7cbb 57bb 1d5a d83d ac58 7b3d d326 c9bc
000000a0: e21d 963d 24bc 84bc 92a1 38bc d792 95bb
000000b0: b262 ee3c e66b 0d3d dc70 7a3d a4a1 4a3d
000000c0: abb0 913d c30f c73c edc1 fcbc 0f9d 993d
000000d0: 975c b6bc 3d69 16bd 9285 d3bd db08 4c3d
000000e0: a614 01bd f659 94bd 7261 e13c 8ab7 713c
000000f0: 22e7 48bc 38db 053d 3a58 543d 44e3 843c
00000100: eabc 8f3c 9756 923c 9a54 3fbc e30d 16bd
00000110: 3b1e 533d e198 31bd 743f 8c3d b6cb 81bd
00000120: 5045 3cbd 7e0d e63c 7190 5abd 5870 93bd
00000130: 43aa b9bc e3be 573d fcef abbd 9a25 b1bc
00000140: 857c 0e3d 3ff2 353d daed 4cbd 0794 903d
00000150: 737a d73b cda0 623d f24d cfbd 130a fdbc
00000160: 6db5 85bd 1122 a3bd 7d4a 9ebd 5a9f 4dbd
00000170: 7996 47bd 4da0 c03d 1135 923d 2711 11bd
00000180: 6df7 833d 4ada 8e3c 41b7 cebd 521a 4abc
00000190: f25e d73d fb18 05bc 9155 fa3a f45b 03bd
000001a0: d1a3 f4bc ba3c f43b dbd0 023d 9b1a 323d
000001b0: 6fdf 8a3d 7691 103d 34f9 0e3d 721d b33c
000001c0: 8f01 63bd d541 ec3c b76a 7d3d ca44 bcbb
000001d0: 7377 4c3d 4cd2 bf3c 81fa 873d 7efb 41bc
000001e0: ef9e 48bd d74f b8bd 6241 53bd df5d dc3c
000001f0: 942a e1b9 131f d4bc aa59 813d 383b 0d3d
00000200: 4dde 463d 2a4b 6abb 3d07 6dbd 430c 4f3d
00000210: 150c 4d3d e3c5 a33d 086d 303c f27d 363d
00000220: 4288 553d 58da 07bc cbc9 73bd f9bd 0ebd
00000230: 1d4b b73c c903 dbbc 0318 cfbd 5e6a a23b
00000240: 6a53 afbc 17ad 603c e782 d33d 172b 9b3d
00000250: ff45 933d 451a 11bd db11 643d df90 16bd
00000260: 578d 9dbd e15b 2f3d dbaa ce3d e27c aa3d
00000270: cd87 9e3c cd95 493d 3cd1 21bd 7b73 52bd
00000280: fc23 d93c 5c98 16bd 6c79 853d 26a3 4bbd
00000290: 3dc9 d53b 5a56 e33c 3bca 88bd aa0a 193d
000002a0: a97d 943c 8bfb c53d 9a97 23bd d341 febc
000002b0: 5917 a0bd 43e2 913d d01a 90bc 9247 dd3d
000002c0: da50 49bc 94fa 91bd 196f 913c 91d0 363d
000002d0: ac04 efbc 74a3 aabc ccce fdbb bea8 203d
000002e0: d238 85bd 37c9 d33d ddb1 91bd d0ca c4bc
000002f0: 08ca 9e3d 6f77 d03c ed03 eb3c ccfd 673d
00000300: 28ea 2abd ebbf c43c f5e8 003d 6481 43bd
00000310: d6ab e9bc 04c9 5cbd 7777 99bc 3d22 213d
00000320: c625 3a3d 0afd 2e3c 3c5b 063d aa71 c23d
00000330: e65a 07bd 3194 463d 331e 37bd 4480 65bd
00000340: 61c5 8a3c c5c7 2bbd 8b84 873d 7f5f 8abd
00000350: a93a 9c3d 2b69 e8bc 73f5 93bd d335 aa3d
00000360: 3a21 b5bb 312a 9e3c 8c7e 1bbd 9a86 77bd
00000370: ddad 923c e277 1d3c c7d8 83bc 29ce 92bc
00000380: e4f5 83bd ad10 9b3b 0a3c 3abd 535f 99bc
00000390: 9450 35bb 4743 8d3d 2346 4c3d 0d8d ce3d
000003a0: a9f5 7f3d 6c76 683d 227a c83d 6ea9 a6bd
000003b0: 2136 b93b d5ab c0bc ab96 88bd e1f7 82bb
000003c0: e673 80bd a6b7 06bd e639 81bd b30d 7abd
000003d0: 3a3f 0b3d 0c45 643d 4edb 833d e18d 273c
000003e0: 7685 b6bd 688f dcbc d05e 66bd ccc9 37bd
000003f0: b11c 653d 6831 163b 78aa 34bc 67a0 ac3c
-0.020297173 0.022249421 -0.06604899 -0.048918784 0.07411009 0.00282506 0.07991171 0.038253944
0.0019998797 0.03192349 0.071430944 0.013117726 -0.06653624 0.070005976 -0.04910991 0.094042964
0.038246702 0.03481507 -0.024613801 -0.013365192 0.085978575 0.10668877 -0.048582695 -0.016830768
0.0010664265 0.04737278 -0.0780204 -0.081523605 -0.020543251 0.10557411 0.055534944 0.019707792
0.08292885 0.0145315295 -0.08996635 0.09823343 -0.0032918146 0.10564063 0.06136386 -0.024554646
0.073299184 -0.016202994 -0.01126899 -0.004564624 0.029099796 0.034526728 0.061142787 0.04947056
0.07113775 0.024299508 -0.03085419 0.0750066 -0.022260947 -0.036721457 -0.10328211 0.049813133
-0.031513833 -0.07243721 0.027512286 0.014753232 -0.012262138 0.032679766 0.051841952 0.01622165
0.017546136 0.017863555 -0.011677885 -0.036634337 0.051542502 -0.043358687 0.0684804 -0.06337683
-0.04596454 0.028082605 -0.053360406 -0.07199162 -0.022664195 0.052672278 -0.08395383 -0.021624375
0.03478672 0.044420477 -0.05003152 0.07059484 0.0065758764 0.055329133 -0.10122289 -0.030888593
-0.06528745 -0.07965482 -0.07729051 -0.050200798 -0.048727486 0.09405575 0.07139028 -0.03541675
0.06443677 0.017438073 -0.10093547 -0.012335377 0.10516156 -0.008123632 0.0019098987 -0.032070115
-0.02986327 0.0074535282 0.03193746 0.043482404 0.06780898 0.035294972 0.034905627 0.021864627
-0.05542141 0.028839985 0.06186935 -0.005745505 0.049918603 0.023415707 0.06639577 -0.011839746
-0.048979696 -0.08999603 -0.051576026 0.02690023 -0.00042947067 -0.025893724 0.0631593 0.034480304
0.048551846 -0.0035750368 -0.05786823 0.050548803 0.05006035 0.07996728 0.010768183 0.044553705
0.0521319 -0.008291803 -0.059518617 -0.03484914 0.022374684 -0.026735203 -0.10112002 0.0049565276
-0.02140208 0.013713143 0.10327702 0.07576578 0.07191085 -0.035425443 0.05568109 -0.036759254
-0.07692974 0.042812232 0.10091182 0.08324601 0.019351864 0.049215127 -0.039506182 -0.051379662
0.026506416 -0.036766395 0.065173 -0.049716137 0.0065242336 0.027751137 -0.066791974 0.037363686
0.018126326 0.09667119 -0.0399395 -0.031037247 -0.07816953 0.07123234 -0.01759091 0.108046666
-0.012287343 -0.07127872 0.01775317 0.0446325 -0.029177032 -0.020829894 -0.0077455994 0.039223425
-0.06504978 0.10341113 -0.07114003 -0.02402249 0.07753378 0.025447575 0.028688395 0.056638524
-0.041727215 0.024017295 0.031472165 -0.04773082 -0.02852432 -0.05390264 -0.018733723 0.039339293
0.04544618 0.010680446 0.03280185 0.09494336 -0.033045672 0.04848117 -0.044706535 -0.056030527
0.01693982 -0.041938562 0.066170774 -0.06756496 0.07628376 -0.02837046 -0.0722455 0.083110474
-0.0055276426 0.019307228 -0.03796248 -0.0604311 0.01790517 0.009611102 -0.016094578 -0.01792057
-0.06443384 0.0047322125 -0.045467414 -0.018722212 -0.0027666437 0.06897598 0.049871575 0.10085497
0.06249014 0.05675356 0.0978892 -0.08137785 0.0056522046 -0.023519436 -0.06669363 -0.0039968346
-0.06272106 -0.032889985 -0.063098714 -0.06104822 0.033995844 0.05572991 0.064383134 0.010226698
-0.089121744 -0.02692385 -0.056242764 -0.044870183 0.055935565 0.0022917632 -0.011026971 0.02107258

2.bias f4 [100]
00000000: 4cfe b13d 123a 683c 1040 913c 7b3a 6e3d
00000010: ecc5 5c3d a9ed ba3d 79e0 963d fae4 7aba
00000020: d38a 9c3d cea2 d23d 485e 5f3d 5dc2 223d
00000030: d076 33bd 99d9 e03c 08ce 50bd 3e6f acbd
00000040: 31eb a7bd c55f 543c 08e5 16bc 41d5 b7bc
00000050: 3d67 d13d 23df 08bd fa1d 1bbd 5898 19bd
00000060: 8bb1 d93c 0053 10bd 091e 09bd eaed 903c
00000070: f4d8 253d 3b98 523d d625 9cbd f9ef 633d
00000080: 565d 95bd 5748 143d 4920 98bd cdec 813c
00000090: 7222 8fbd 818d 483c 902f 373d 9cc4 003d
000000a0: a396 5abd 71a0 323c f258 d4bc fff6 213d
000000b0: 6bdd 753c 7f68 45bd 58a2 72bd 9ca8 893d
000000c0: 5613 9eb9 5a0e 2b3d b754 a63c e98c 28bc
000000d0: 751c b13d f83e ba3d 6937 023d d2d7 5dbd
000000e0: d43b 25bd e8ce 94bc a541 473d 3285 24bd
000000f0: 3e67 a0bd bebe 0d3c d6bc 4e3c c26a 41bd
00000100: 81ed 64bd 5d85 abbb 13ec 16bd dc50 833d
00000110: 7b81 00bc bcce 7dbd 4925 1abd 9922 38bd
00000120: 8e66 9fbd 323c 57bd 59e4 353c 446f 983d
00000130: d40e 36bc 9043 04bd 1665 38bc 55c1 9a3d
00000140: d6b8 d13d a17c 94bd ca8f 643d f24d b9bd
00000150: b78c 0fbd 1993 02bd 052d 763d 4504 a93d
00000160: f034 3d3d 5578 a63c 707d 283b 2c1c a63c
00000170: 7808 863d 2019 42bd 3196 093d 1215 16bc
00000180: 0e0a 263c 90ee 0ebd 30b1 1cbc df3c 273d
0.086910814 0.014174001 0.017730743 0.05816124 0.05389969 0.09127361 0.073670335 -0.00095708633
0.07643666 0.10284959 0.054533273 0.03973614 -0.04381448 0.027447509 -0.050977737 -0.08419655
-0.08199156 0.012962286 -0.009209879 -0.022440555 0.10224769 -0.033415925 -0.037870385 -0.037498802
0.026573917 -0.035235405 -0.03347591 0.017691571 0.040490106 0.05141471 -0.07624404 0.055648778
-0.07293193 0.0362018 -0.07428033 0.015859986 -0.06988992 0.012240768 0.044723094 0.0314375
-0.053366315 0.01090251 -0.025921319 0.039542194 0.015006403 -0.04819536 -0.059236854 0.06721613
-0.00030150515 0.041761734 0.020304067 -0.010287502 0.08648006 0.090940416 0.031791124 -0.0541609
-0.04034026 -0.018165067 0.048646588 -0.040166087 -0.07832192 0.0086514335 0.012618264 -0.047220953
-0.055890564 -0.005234404 -0.03684623 0.06411907 -0.007843371 -0.061964735 -0.037633214 -0.04495487
-0.07783233 -0.05254764 0.011101806 0.07443097 -0.011111934 -0.032290995 -0.0112545695 0.075564064
0.10240333 -0.072503336 0.05580119 -0.0904807 -0.035046306 -0.031878565 0.060101528 0.082527675
0.046193063 0.02032105 0.0025709532 0.020277105 0.06544584 -0.047387242 0.0335905 -0.009160297
0.010134233 -0.03489548 -0.009563729 0.040829536

4.weight f4 [7, 100]
00000000: 12e0 163b 328e 383d b545 a33d 095a 88bb
00000010: cf13 bc3c 253f a7bc e54b 48bc 819f b03d
00000020: fd0b 3a3d a155 a6bd a970 8a3d cf82 02bd
00000030: 2312 813d b0a1 423d 85ea 8f3c 820d e6bb
00000040: 91b2 713c 749e db3c 6a6b 80bd 5646 033d
00000050: b239 dfbc 575b 43bd 7143 d9bc 2532 72bd
00000060: 179b 943d 2c9a 69bc 21f8 23bd ee64 513d
00000070: 13fa bf3d 1c0e 0f3d 76ff 213d f6ce bb3c
00000080: 7a45 bcbd c819 c9bd 2767 5b3d a7c1 51bb
00000090: 42ca c33c 557b 08bd 5b8b a53d d02d 72bd
000000a0: 6789 d23c 8d75 6a3c 8470 203c 1fbb 74bd
000000b0: 7a07 8fbc a660 febb 1369 a83d af7a 383c
000000c0: 934d 3b3d c5a0 6b3d 2c26 70bd c883 9d39
000000d0: 87fb 923d 1463 0a3d 8bce 1dbd 26cc 1bbd
000000e0: df30 c1bd 7d8f 22bd 8309 9d3d 1a1a db3d
000000f0: 0a03 503d b181 28bd 200c 54bd 9b27 973d
00000100: c0c2 b23d 4578 00bb 0a06 3a3d 6a70 09bd
00000110: 8a24 873c 8d29 5e3d 4a85 953d cd29 453c
00000120: 3323 3c39 eb74 403d 2e3f 483d 3c8f 173c
00000130: e964 58bd 8737 c23d b6d7 abbd f08f 2dbb
00000140: 513a e73c 9254 c7bd 4812 863d 123a 83bd
00000150: ba25 b73d af6c 193c 40f3 22bc d9f1 6bbd
00000160: d26b 0bbd 2214 79bd a083 bdbc b20e 7b3d
00000170: b00d e43c d9af 683d af80 0e3d 8382 c1bd
00000180: baf9 56bd 6aaa aebb 8950 7e3d a840 4ebd
00000190: ae9b 58bd 1d3d 153c 2e6b c53d 5cc3 a4bd
000001a0: 6a9c 753d b80e 9f3c 7683 963d 000a 21bd
000001b0: bda0 b8bc 7113 dbbc 33fa 8d3d ab8b 8ebc
000001c0: 6d15 8ebc 0799 0ebd 4528 bd3d 2601 283d
000001d0: 0fb2 923d 5082 923d 7355 8bbd f961 6dbd
000001e0: 17f9 bd3d 5052 3f3b 52b7 8f3a 3bba 3ebd
000001f0: 822b 843c 8349 633d 9e1e 41bd 4fa2 8abd
00000200: 68fc d2bd 488a 78bd accc 9dbd 8606 2b3d
00000210: 77c1 9c3d 8f51 b63c 6713 f93c 779a 9f3d
00000220: e265 15bd fe5a 2a3b 5e35 b93d 3241 98bd
00000230: f3e3 7e3d 7f51 01bc e495 2fbd 1eaf 94bd
00000240: ee53 42bd c088 573d 5669 b33d f30c 33bc
00000250: ff76 65bc 7a29 99bc 8f23 793d 58dc 69bc
00000260: 00a1 d0bd c2aa a83c 802a bdbd d039 d93c
00000270: 758d bc3d 2cb3 b63d f7a0 1b3d d50b f1bc
00000280: 0fc4 b2bd 250c b33d 5d75 003d c7cf 1e3d
00000290: ecc7 123d f52b c0bd 1ab6 c73c 2393 85bd
000002a0: 2604 753d 87f7 eabc e112 d5bc a868 b63b
000002b0: cbe5 8ebd b036 01bd 0ceb 0b3d 531f 07bd
000002c0: 33e4 ba3d 0155 903d 8bf9 a63c 80be 6d3d
000002d0: d98a 5cbb 1fa5 8cbd c866 8a3a a64b 60bc
000002e0: 2b6c 843d d6d5 5a3d f092 6d3c 29d6 073d
000002f0: e0a6 92bd fb3e 7fbc 6692 78bc b3e8 ae3d
00000300: f3fa 803d ceea a4bd 788a c83b 9627 a3bd
00000310: fef6 87bd de5c 67bc 7168 b6bc a904 343d
00000320: b339 a1bc 38d9 0c3d 68b9 96bd bdc8 46bd
00000330: 1ac3 abbd d82c 75bd a33e be3c 7199 8a3d
00000340: a30c 87bc 24e7 3f3d 5955 06bd 4d40 083d
00000350: 1dd9 933d 5a75 a7bc 5e82 80bc dd9e ddbb
00000360: 4f02 2b3c 9f03 953c 16a5 27bd 36c8 6fbd
00000370: 6838 1b3d 886d e1bc d5a3 a53d c5b7 d63c
00000380: 3193 893d 5a29 babd 19b2 c53d 59a8 8f3d
00000390: 933e bc3c 0017 c63d 8849 c3bd a35e 233d
000003a0: 57e0 14bd 0f99 57bd 0de0 633d 0bcd 8abd
000003b0: 3c43 19bd baae bc3c 6cdc b63d 0585 b63d
000003c0: 273c c0bd 0204 2f3d 8086 cabd cecd aa3d
000003d0: 6689 eabc e502 2cbd f3f6 4ebd b3fa a33c
000003e0: fa35 87bc 99b3 96bd 1ef9 7ebc 94f2 203d
000003f0: 73f9 4c3c e881 8fbc 710b c9bc 688b 00bd
0.002302174 0.045057483 0.0797228 -0.0041611237 0.022958664 -0.020415852 -0.012225126 0.08624173
0.04542159 -0.08121801 0.067597695 -0.03186303 0.063022874 0.04751748 0.017567882 -0.007020653
0.014752046 0.026808955 -0.062704876 0.0320495 -0.027249191 -0.04769453 -0.026521416 -0.059129853
0.072561435 -0.014257949 -0.040031556 0.051121645 0.0937387 0.034925565 0.039550267 0.022925835
-0.09192939 -0.098193705 0.05356517 -0.0032006295 0.023900155 -0.033320744 0.080832206 -0.05912572
0.025700284 0.014310253 0.009792451 -0.059748765 -0.01745962 -0.0077629862 0.08223166 0.011259719
0.045728277 0.05752637 -0.058630154 0.00030043558 0.07176881 0.033785895 -0.038527053 -0.038036488
-0.094331495 -0.039687622 0.0766783 0.10698338 0.05078415 -0.04113931 -0.051769376 0.07380601
0.08728552 -0.0019602936 0.045415916 -0.033554472 0.016496915 0.054238845 0.073008135 0.012033892
0.0001794219 0.0469865 0.048888378 0.009250458 -0.05283061 0.09483247 -0.08390753 -0.0026483499
0.02822605 -0.097329274 0.065464556 -0.064075604 0.08942743 0.009364291 -0.009945691 -0.05760369
-0.034038372 -0.060810216 -0.023134053 0.06129331 0.027838558 0.056808326 0.03479069 -0.09448721
-0.05248425 -0.0053303735 0.062088523 -0.05035463 -0.052882843 0.009108809 0.096395835 -0.08045074
0.05996362 0.019416198 0.07349293 -0.039316177 -0.022537583 -0.026742669 0.06932487 -0.017400583
-0.017344201 -0.034813907 0.092361964 0.04101672 0.07162868 0.071537614 -0.068034075 -0.057954762
0.09276026 0.002919335 0.0010964668 -0.046564322 0.016134027 0.055490028 -0.04714834 -0.06769239
-0.10302049 -0.06067875 -0.07705054 0.041754268 0.07654088 0.022255687 0.03040476 0.07793134
-0.036474116 0.0025994177 0.09043382 -0.0743431 0.062229108 -0.007892965 -0.042867556 -0.072599635
-0.047443323 0.05262065 0.087603256 -0.01092838 -0.014005422 -0.018696535 0.060824927 -0.014273725
-0.10186958 0.020589236 -0.09236622 0.026516825 0.09206668 0.08920893 0.037995305 -0.029424587
-0.087288015 0.08742551 0.031361926 0.03877237 0.03583519 -0.09383384 0.024378825 -0.06522205
0.05981841 -0.028682483 -0.026009979 0.005566675 -0.06977423 -0.031546295 0.034159705 -0.032988857
0.09125557 0.07047463 0.020382663 0.058043003 -0.0033652096 -0.06867432 0.0010559196 -0.013689911
0.06465944 0.053426586 0.014500365 0.033163223 -0.07160735 -0.015578981 -0.015171623 0.085404776
0.06297865 -0.08052598 0.0061200224 -0.07966535 -0.06638907 -0.014121262 -0.022266598 0.043949757
-0.019680833 0.034386843 -0.07359582 -0.048531283 -0.08386822 -0.05985722 0.023223227 0.06767548
-0.016485518 0.046851292 -0.032796238 0.033264447 0.072191454 -0.0204417 -0.015687164 -0.0067633227
0.010437562 0.018190203 -0.040928923 -0.058540545 0.03789559 -0.027518049 0.08087889 0.026210675
0.06717528 -0.090899184 0.0965311 0.07014532 0.022979056 0.09672356 -0.09535509 0.039885174
-0.03634676 -0.052636202 0.055633593 -0.0677739 -0.037417635 0.023032535 0.08928761 0.0891209
-0.09386473 0.04272843 -0.09888935 0.083400354 -0.02862997 -0.041994948 -0.050528478 0.020017004
-0.01650523 -0.07358474 -0.015562324 0.03929384 0.012510645 -0.017517999 -0.024541589 -0.03138295

4.bias f4 [7]
00000000: 0c7f e7bc 3432 0abd e1d7 60bc 0102 353d
00000010: 72c9 123d 074a 633c a870 b93d
-0.028258823 -0.033739284 -0.013723345 0.044191364 0.035836644 0.01387263 0.090546906
