models/date-06-19-2025-16-45p1-RLbotp2-RLbotDDQNself_play-Trueexp_dir-RLbotepochs-50p1_win_rate-0.0p2_win_rate-1.0is_test-False/model.pth (torch, 117053 bytes, 6 tensors)

0.weight f4 [150, 84]
00000000: 7dea 0b3d 00b4 ce3d f0c9 913d f8e4 4b3d
00000010: 3628 433d 3596 dc3d 37ce 03bc 61c8 0fbd
00000020: 144a a1bd e652 983d a413 9e3d a126 20bd
00000030: b18f f5bc 8477 66bc 16af 1f3d 899f b6bd
00000040: e503 b0bd 2dbb a8bd acc1 593c 942c 05bd
00000050: 221a 74bc 572f 67bd 296d 7dbc a98c bbbd
00000060: c2a4 fb3b eed5 a73d 3ba6 1abc 36b4 a8bd
00000070: ed2d 063d 774a fdbc c210 6f3d e8b7 abbd
00000080: 35cb d2bd b2d9 6e3d 11cd d63c 2459 3d3a
00000090: 998b 74bc bb2a 973b 227d cbbd a162 f33c
000000a0: 6be7 37bd ddf1 67bd 0a18 1fbd 004f 2c3b
000000b0: 675f de3c f665 ca3d 0eec a13d ac27 f93c
000000c0: debb 223c 2de0 83bd d1b4 413c 31f5 f5bc
000000d0: d094 763d 56c1 243d 4f5f 823d c6c6 6ebd
000000e0: 5495 f93c 615e a5bc 85b9 b93d 57c4 e5bc
000000f0: b1a6 be3b 128a 4abd 9039 16bd 6878 d2bd
00000100: 54b5 183d d365 adbd d6ba 1ebd c2e7 ee3b
00000110: b1a9 74bd 6231 c2bd 86d7 343d c5b2 a93d
00000120: 9c98 643d bb99 a03d 5583 c53c 1460 913d
00000130: 1450 6dbb 18b7 883d 7b16 a2bd e944 233c
00000140: 1d8c bf3d 57ca b7bd 3ebe 5bbd 6964 023d
00000150: df40 c73c e202 adbd 2644 3bbd ea79 cd3d
00000160: a950 c8bc 8e53 3abd ec90 d83d fd51 2b3d
00000170: 3cdb f1bc d61a c83d 841b ac3d b4e7 b6bd
00000180: 9e56 48bc 38d6 6f3d d7e2 403d da25 77bd
00000190: a3cb d33d cc6f 36bd d386 053d 5179 a33d
000001a0: b006 82bc 2c8f 5cbd 9147 cb3c 7250 6c3c
000001b0: 5c99 99bd f366 97bd 81af 9c3d 6adb 2abc
000001c0: 77a5 3f3d 33fd 0f3d 94a8 d9bd 4597 503d
000001d0: 73c1 8bbd e0c8 1dbd 3baa 543d 840b 453d
000001e0: 8fda 053d 5c6d cc3d 1e14 00bd 6deb dabc
000001f0: cfed 19bd 3c02 6dbd 10d0 33bd 0a3d 9fbd
00000200: edda 9d3c 4b04 c3bd 7f29 4cbd 7101 0f3d
00000210: 3287 8ebc 1994 0ebd a204 98bd 45bf 3fbd
00000220: e892 3f3c 0a0b ecbb a1f5 7abd 8360 45bd
00000230: dc99 b83d 8980 a63d 5215 84bd 440f 583c
00000240: 0783 a93c d3ee c8bd 4410 69bd 7d20 b43d
00000250: 69c5 adbd 443c b83d 0fe0 2dbd 4424 c9bd
00000260: 6fb3 c4bd 139b 28bc 65f5 7ebd 7455 25bc
00000270: 61d6 893c 6164 4abd 5454 463b 69fb 183d
00000280: c41a a53d 17dc 7dbd 1123 eebd dcd0 e3bc
00000290: 5d67 0bbd 90de 55bd 35ff a0bd 784d 3ebd
000002a0: 7e40 343d 0a04 c33d ade6 b7bd 0cfe 33bd
000002b0: ad95 d4bd 3935 9bbd bd78 df3c bf85 713d
000002c0: 0ded 08bc f833 f73d a9fc e53c a04c 733a
000002d0: 1a31 91bd d88d bf3c 8879 e73a ffd2 e23b
000002e0: 1112 a23d 8e9a 0fbd 6f5d d3bd cf1c 1b3d
000002f0: 40ab 403d 2c0d 863d 8f6c a9bc 0f2f c63c
00000300: 5be7 3fbd 9938 91bd 2aa5 fc3b e109 d2bd
00000310: 9ee6 32bd 86b8 f03b c561 de3b 39f5 cabd
00000320: 7d88 05bc 6f9f 0bbb a444 1a3c 8bb2 b7bd
00000330: 4b24 fc3b 34f4 183d 004e 9f3d 9dfe 8bbd
00000340: 713c cfbd fbb5 923d b2f2 d63d d2fd 683c
00000350: febe dbbc aedb bb3d bfaf ee3c b52b 513d
00000360: 9da3 9e3b f833 8c3d 4e04 a43d 7265 07bd
00000370: 1698 d03d c15f 7fbd 4565 bbbc 23d5 b8bd
00000380: 987f dcbd ae9d 2c3d 725c 6abd 3c26 a4bd
00000390: d012 a5bd c6db 823d aab3 adbd 3054 213c
000003a0: 26b5 b63d 16e7 0ebc d668 b9bd 802b 82bd
000003b0: 0811 823d 862e 04bc 5ac7 adbd 714d 8abc
000003c0: ef0d caba 3c4e 5cbd a87a c83c 219f 933d
000003d0: aecc 853b 4051 cdbd e432 563d 159c aebc
000003e0: bc84 4d3d 2cc5 6cbd a44e a73a c64c a23d
000003f0: 45b5 b5bd 626a d33d 3d8c babc cc18 bfbc
0.034159172 0.10092926 0.07118595 0.04977891 0.04764577 0.10770837 -0.008044771 -0.035103206
-0.078754574 0.074376866 0.0771859 -0.03909934 -0.029975744 -0.014066581 0.038985334 -0.08917148
-0.08594493 -0.08238826 0.013290804 -0.032513216 -0.014898809 -0.05644163 -0.01546792 -0.09157688
0.007679553 0.08195101 -0.0094390465 -0.082374975 0.032758642 -0.030919297 0.05836559 -0.08384687
-0.10292665 0.05831308 0.02622083 0.0007223061 -0.014925861 0.004613248 -0.099359766 0.029710116
-0.04489843 -0.056627143 -0.038841285 0.0026292205 0.0271451 0.09882729 0.07906352 0.030414425
0.009932486 -0.064392425 0.011822895 -0.030024143 0.060200512 0.040223442 0.06365835 -0.058295034
0.030466713 -0.020186605 0.09068588 -0.028047724 0.005818211 -0.04944808 -0.03667599 -0.10276872
0.037282303 -0.08466687 -0.0387524 0.0072908113 -0.059732143 -0.09482075 0.04415085 0.08286051
0.055809602 0.07841822 0.024110476 0.070984036 -0.003621106 0.06675547 -0.07914444 0.00996516
0.09352896 -0.0897414 -0.053648226 0.03183404 0.024322925 -0.084478155 -0.04571929 0.10033019
-0.024452524 -0.04548984 0.10574517 0.041826237 -0.029523484 0.097707435 0.08403686 -0.089309126
-0.012227682 0.058553904 0.04709133 -0.060338832 0.10341575 -0.04454021 0.03259928 0.07982124
-0.01587233 -0.053847477 0.024814399 0.0144234765 -0.07499954 -0.07392683 0.07650662 -0.010428289
0.04678866 0.03515358 -0.10627857 0.050925512 -0.06824007 -0.038521647 0.051920157 0.048106685
0.032679137 0.09981796 -0.031269185 -0.026723588 -0.037580308 -0.05786346 -0.043899596 -0.07775314
0.019269431 -0.09522303 -0.04984426 0.034913484 -0.01739845 -0.034809206 -0.07422759 -0.04681327
0.01169274 -0.0072034644 -0.061269406 -0.048187744 0.09013721 0.08129985 -0.06449379 0.013187233
0.020692362 -0.09811177 -0.056900278 0.08795259 -0.084849186 0.0899587 -0.042450007 -0.0982137
-0.09604537 -0.010290879 -0.062245745 -0.010091174 0.016825857 -0.049412135 0.0030262666 0.03734914
0.08061746 -0.061977472 -0.11627782 -0.027809553 -0.03403412 -0.052214205 -0.07861177 -0.0464606
0.044006817 0.09522255 -0.08979545 -0.04394345 -0.10380111 -0.07578511 0.027279252 0.05896544
-0.008357299 0.12070459 0.02807458 0.00092811324 -0.070894435 0.023383066 0.001766012 0.0069221254
0.07913602 -0.035059504 -0.103205554 0.03786927 0.047038317 0.06545481 -0.020681648 0.024192361
-0.046851497 -0.07090873 0.007710119 -0.102557905 -0.043676965 0.0073462157 0.0067865574 -0.09910054
-0.008150217 -0.0021304747 0.009415779 -0.08969601 0.007694756 0.037342265 0.07778549 -0.06835673
-0.1011895 0.07163616 0.10495509 0.014220672 -0.02682447 0.0917276 0.029136537 0.051067073
0.0048412816 0.0684585 0.080086336 -0.03305573 0.10185258 -0.062347177 -0.022875438 -0.090250276
-0.10766524 0.042142563 -0.05721707 -0.08015105 -0.08060229 0.06389575 -0.08481534 0.009846732
0.0892127 -0.008722087 -0.09053199 -0.06355953 0.06350905 -0.008067733 -0.08485289 -0.01688263
-0.001541553 -0.053785548 0.02447255 0.07208086 0.0040832376 -0.10025263 0.052294627 -0.02131466
0.050175413 -0.057805225 0.0012764526 0.079247996 -0.08872465 0.10323025 -0.022771949 -0.023327254

0.bias f4 [150]
00000000: fc89 cebd ecb4 5a3b e185 eabd ca48 b43d
00000010: 5cf4 cfbd 06d7 d13c d814 823d d33b 3a3d
00000020: a032 3bbd 5a06 91bd 6657 8c3d db25 d2bd
00000030: cbc5 013e 288e 923d 3f39 533c 7644 45bd
00000040: cf49 b3bc 8ca7 b3bd 7f5a ef3d 52b4 a83c
00000050: 0e5e d23c 1b96 dd3c 87ca 223d b30a e23d
00000060: 34e3 b93d 0628 cabd 58aa 913d 95b9 dcbd
00000070: 91e9 b2bc 5aca 5d3d 5b3c 263c 4de2 3b3d
00000080: d832 6d3d 1c70 4b3d 8b94 c83d a2f5 2bbc
00000090: fb96 8a3d 6454 9cbd 4e4e c5bd 999d 14bc
000000a0: 51eb 3c3d 2aa8 d9bd fd70 803d d701 a33d
000000b0: a7a3 a83c 5ab0 54bd ed0f ad3d e592 d3bd
000000c0: b808 c6bb 94ad b6bd 4439 ed3c 6f84 9b3d
000000d0: 80e0 963d 2105 c43d 34dc c13d 330b b33d
000000e0: 5e76 033d 9287 d1bd 6a57 663d 14a1 74bd
000000f0: 7fba 9d3d 79d6 fa3c 8d0c 383d 4eee a33d
00000100: 550e 5f3d d060 6cbd 8c03 673d 6d12 02bd
00000110: 8566 0c3e 70fe 46bd 13f2 833d 7ea6 6a3d
00000120: 1476 513d 533b ae3d f9a1 e63c beb6 b1bd
00000130: 41b7 06bd e7b6 393d 5afd 58bd b632 f43d
00000140: 592e 9fbd becf 8ebd 013f b4bd 5c84 67bb
00000150: 553e 663d fb65 ecbd 5fff 233d 72d8 c1bd
00000160: dfb7 943c 6c54 f3bc 8c59 743d d381 3fbd
00000170: 2116 75bd d0e0 bf3d 1286 43bc c900 d7bd
00000180: bf3f 0dbc 047d 9bbd 1f64 6dbd 416d dabc
00000190: 266a d1bd 59b0 773c fc08 89bd c45b cfbd
000001a0: f21c 933d 14c5 a4bc 58b0 aebd 463f 91bd
000001b0: 82bf e9bd 55a8 45bd 5e30 1b3d 6c85 b03c
000001c0: 965a a1bc 9dd4 ccbd f858 88bc 2266 23bc
000001d0: a27d 8fbd 835e e3bd dea4 91bd 5402 20bc
000001e0: 10ef 8b3d 7aaa ea3c a849 03bd f586 aa3d
000001f0: c5cd b8bd 9a62 1cbd 493e 9ebd f595 d2bc
00000200: 8e3a fb3d eb70 c0bd 82b5 5c3d c40b b8bd
00000210: d86a 1a3d 86eb 483d 1b7b 7f3d 6744 873d
00000220: 11a7 8dbd e2ad 4c3d 8ae1 a3bd 239a e7b9
00000230: 2f68 e83d ced5 9bbb 48c0 e5bd cc35 c13c
00000240: 1de0 9fbc e1d8 d4bc 59b4 de3c a40a 0b3c
00000250: 0f06 053c c168 ce3c
-0.10084912 0.0033371998 -0.114513166 0.08802946 -0.1015403 0.025615226 0.06351632 0.04546721
-0.045702577 -0.070812896 0.068526074 -0.102611266 0.12673108 0.071560204 0.0128920665 -0.048160993
-0.02188578 -0.087721914 0.11687183 0.020593796 0.025679614 0.027049115 0.039743926 0.11037197
0.09076539 -0.09870915 0.071125686 -0.107775845 -0.021839889 0.054148056 0.010146226 0.045870114
0.057909817 0.049667463 0.09793957 -0.010495575 0.067670785 -0.07633284 -0.09634076 -0.009070777
0.046122853 -0.10627778 0.06271551 0.07959335 0.020585848 -0.051925994 0.08450303 -0.10330752
-0.00604352 -0.08919826 0.02895797 0.07593619 0.07367039 0.09571291 0.094658285 0.087423705
0.032095306 -0.10230936 0.05623571 -0.05972393 0.07701587 0.030619847 0.044933844 0.080044374
0.054457027 -0.057709515 0.056399867 -0.031755853 0.13710983 -0.048582494 0.06442656 0.057287686
0.051138 0.08507409 0.028153406 -0.086774334 -0.03288961 0.045340445 -0.05297599 0.11923735
-0.07772512 -0.069732174 -0.088010795 -0.0035326695 0.05621179 -0.11542889 0.040038463 -0.09465112
0.018154083 -0.029703341 0.05965571 -0.04675467 -0.059835557 0.093690515 -0.01193382 -0.10498197
-0.008621155 -0.07592204 -0.05795681 -0.026663424 -0.10225324 0.015117728 -0.06691167 -0.10124925
0.07183255 -0.020113505 -0.08529729 -0.070921466 -0.1141348 -0.048256237 0.037887923 0.021547996
-0.019696515 -0.1000149 -0.016643986 -0.009973081 -0.070063844 -0.11102011 -0.07111524 -0.00976618
0.06832707 0.028645743 -0.032052666 0.08326522 -0.090236224 -0.03817997 -0.07726724 -0.02570627
0.12267028 -0.093965374 0.053884037 -0.08986619 0.03769955 0.049052738 0.062373262 0.066048436
-0.06916631 0.049970515 -0.080020025 -0.00044174594 0.113479964 -0.004755712 -0.11218315 0.023585223
-0.019516045 -0.025982322 0.027185606 0.008486424 0.00811912 0.025196435

2.weight f4 [100, 150]
00000000: 8774 223c 23ec 833d 1345 1abd e3c2 94bc
00000010: 5648 9cbc 5e28 423d fa19 98bc d755 8abd
00000020: 8904 24bd 3c1d 1a3c 0717 b0bd 9dbb 093d
00000030: 441e 6dbd 6b6b 5dbd c5a0 3a3d c43e e2bc
00000040: 575d 8dbd 6f9b c83b c5c3 d5bc 77c4 5c3d
00000050: b946 8fbd 5964 0fbd fc41 6b3d a454 a5bd
00000060: 84d1 a3bd 9b73 edbc 89b9 b0bd bf2e 903d
00000070: 151c f2bc fcd6 eabc 5340 de3c 56dd 793d
00000080: 16f1 7fbd 96ed a7bd ed46 a63a 58f0 e6bc
00000090: 33ee 013d fe6d 9bbd a308 013c 46a7 103d
000000a0: 5de2 523d 17c4 003d e941 053d 209f 583d
000000b0: 4291 25bc d46f 9abd 8a5d 0ebd 5d3d 03bd
000000c0: 589c c13b e8a6 9b3b 9d80 94bd 557d 70bd
000000d0: f3a4 ac3c 00a8 583c b992 3fbd 7fb1 773d
000000e0: aaa7 3f3d bd8f 37bd 54e1 6b3d da26 063c
000000f0: f8aa d83c bf20 873d 023a 92bd 007c 853d
00000100: b555 a43c e2ef 84bd 8de9 2f3d bcda 16bd
00000110: 64ec b63c 15d1 a13c 6516 9fbc c3c0 9a3d
00000120: 8ae3 b1bd 08a6 1fbc f5d8 9fbd 231b f73b
00000130: 4403 2a3d e212 aebd 353e c83c a580 47bd
00000140: 76fc 47bd fd02 223d f822 4dbd 74c5 143c
00000150: 449d a5bd bbea 16bd 696d 843d a043 0cbb
00000160: 4403 90bd b316 1dbd 7e5f 273d 1bfc 8dbd
00000170: 1e30 d23c 1ff6 5ebd c831 91bd 0717 a9bd
00000180: 0201 753c 4045 01bd e8e7 e8bc 6e71 9dbd
00000190: 4611 39bd 3158 5a3c b0b1 f93c 7c3d 7d3d
000001a0: 823c 6dbc 9f31 0b3d a830 5bbd 142b b43b
000001b0: 056b e13c 69d7 a1bd 00d0 e53c 85ee 623d
000001c0: e60c d0bc 5ad4 a8bb eddc 633d 8241 43bc
000001d0: b13c 4ebd 3700 94bd 777a 2ebd 8bae 2dbd
000001e0: 87cd 483d 5ab2 8dbd 16d4 8abd b816 903c
000001f0: 631f 88bd a3b5 773d 6a2b 953d 2002 4cbd
00000200: 58b9 6abc 7130 6fbd 4bee 3ebd 4eeb 3e3d
00000210: 0dc5 133c 583e 783d d3c7 553c 53f8 92bd
00000220: 8017 28bd 4056 31bc 12b2 1b3d a429 bbbb
00000230: 34c0 243d 1367 bbbb f0c8 173d 2f24 c53c
00000240: 891a b1bd 2c28 d4bc b718 9f3c 2e6e 5e3d
00000250: c58f 503d dfc1 5abd a07f 353d e744 e33c
00000260: f8be 1bbd 09a0 883d 7ad9 db3a 67b9 21bd
00000270: 3832 81bc 14dd 3cbd f0ef 853d 1e93 9d3c
00000280: 3f0f 8c3c 4342 253d 3d51 a03d f9b7 b2bd
00000290: 308e 0fbd 69c6 0d3d 2811 a8bc b679 cc3a
000002a0: f04a 83bd 0602 fa3c 581c 23bd fc91 fa3c
000002b0: 3a65 713d 5440 82bd d958 1f3c 4869 323d
000002c0: f916 6cbc 4a6c 643d 70fb 33bd 84b4 a93d
000002d0: 86bc b3bb 3bac 863c 739c 743c 5b6a a33c
000002e0: 86ce 5bbd 56f1 4dbd b71a 5f3d 301d 343c
000002f0: f6ec 273d 92be 243c 1518 8e3d 130c 6abc
00000300: daba 37bc 50aa 713d 3fa4 99bd b6ee 083d
00000310: ac6d 3cbc af30 1bbd 8752 1d3d 75a0 e8bc
00000320: 84e9 12bd e5ef e73c a5ff 44bb 9417 253d
00000330: 8171 803c 3013 6a3b 9b6c e7bc f085 51bd
00000340: ed9f 7e3d ec05 8d3d b8b7 30bd 8fac 923c
00000350: 4b8a 873d 0f69 05bd 523d 843d d45c 7f3b
00000360: 6dec 833d 27e2 f83b 4d33 7fbd c8e5 29bc
00000370: 3777 d93c 7680 223c 3196 973c a04a 0d3d
00000380: 82e4 34bd 7314 223c a5fc 2cbd e9ea 6cbd
00000390: 7548 6ebd 0d4f 423c 19ac 9b3c 968d 903d
000003a0: 6d46 523d e012 87bd 97a0 833d 1520 30bd
000003b0: dd43 093d f2c3 2f3d 9f92 ec3a fbe8 5d3d
000003c0: 10ec ed3c a9ff 863d 10ee 2f3d b584 20bd
000003d0: 6aff 68bc 3951 a6bd 8f4f 3cbd e0d3 36bd
000003e0: f884 b6bc bcdb fa3c 1299 943d f715 96bb
000003f0: 9e05 10bd 07d0 193d 245b c43c 1d4d 50bd
0.009915478 0.06441524 -0.03766353 -0.018159335 -0.019077461 0.04740178 -0.018567074 -0.06754654
-0.040043388 0.009406384 -0.08598142 0.033626188 -0.05789019 -0.05405752 0.045563478 -0.02761782
-0.06902569 0.0061220448 -0.026094327 0.0538983 -0.06995911 -0.03500781 0.057435974 -0.080727845
-0.07998946 -0.028985789 -0.08629138 0.07040166 -0.029554406 -0.028666966 0.027130282 0.061002098
-0.062485777 -0.08199613 0.0012685932 -0.028190777 0.031721305 -0.07589339 0.007875594 0.035315774
0.051485408 0.031437006 0.03253356 0.05288613 -0.010105433 -0.07540861 -0.034757175 -0.032040942
0.00590853 0.0047501214 -0.072510935 -0.058713276 0.021074748 0.013223648 -0.046770785 0.060472008
0.046790756 -0.044814814 0.057587937 0.008187974 0.026448712 0.06598043 -0.0713997 0.06517792
0.0200604 -0.064910665 0.04294734 -0.036829695 0.022329517 0.019753018 -0.019419858 0.07556298
-0.08685978 -0.009744175 -0.07805053 0.0075410767 0.04150702 -0.08499695 0.024443725 -0.04870667
-0.04882475 0.03955363 -0.050082177 0.00908028 -0.08086637 -0.03684495 0.06466181 -0.0021402612
-0.07031873 -0.038351726 0.040862553 -0.06932851 0.02565771 -0.054433938 -0.07089573 -0.08256345
0.014953854 -0.031560183 -0.028430894 -0.076876506 -0.04518249 0.0133266905 0.030480236 0.061826214
-0.014479758 0.03398287 -0.0535132 0.0054982994 0.027516851 -0.07902414 0.028053284 0.05540325
-0.025396775 -0.0051522674 0.055630613 -0.011917474 -0.05035085 -0.072266035 -0.04259726 -0.042402785
0.04902413 -0.069187835 -0.067787334 0.017588958 -0.066466115 0.060475957 0.07283671 -0.049806714
-0.014326416 -0.058395807 -0.046613973 0.046611123 0.009019149 0.06060633 0.01304813 -0.0717627
-0.041038036 -0.010823786 0.038011618 -0.005711751 0.04022236 -0.0057190745 0.037056863 0.024065105
-0.08647639 -0.025898062 0.019420965 0.054304294 0.05091836 -0.053407546 0.044311166 0.027742816
-0.03802392 0.06671149 0.0016773187 -0.039483454 -0.015771016 -0.046109274 0.06539905 0.01923519
0.017097114 0.040346395 0.07827995 -0.08726496 -0.03504771 0.034613047 -0.020515993 0.0015600238
-0.064107776 0.030518543 -0.039821953 0.030587189 0.058934428 -0.06359926 0.009725773 0.043557435
-0.014409774 0.055767335 -0.04394096 0.08286384 -0.00548512 0.016439548 0.0149298785 0.019948175
-0.053663753 -0.050278984 0.054468837 0.010993287 0.040997468 0.010055201 0.06938187 -0.014285105
-0.0112139825 0.059000313 -0.075020306 0.033430777 -0.011500757 -0.037888225 0.038408782 -0.028396824
-0.03586723 0.028312633 -0.0030059603 0.04030569 0.015679123 0.0035717003 -0.02825003 -0.051153123
0.062164236 0.06885895 -0.043143958 0.017904548 0.06618174 -0.032570895 0.064570084 0.0038965242
0.06441579 0.007595319 -0.062304784 -0.0103697255 0.026546104 0.009918323 0.018504234 0.034494996
-0.044163235 0.009892571 -0.042233128 -0.057841215 -0.05817457 0.0118596675 0.019002961 0.070582554
0.051336695 -0.06595397 0.064271145 -0.042999346 0.033511985 0.042911477 0.0018049068 0.054177266
0.029043227 0.06591732 0.042951643 -0.03918906 -0.014221052 -0.08120961 -0.04597431 -0.044635653
-0.022280201 0.030622356 0.07255758 -0.004580255 -0.035161607 0.037551906 0.02396924 -0.05085479

2.bias f4 [100]
00000000: 5bcd 39b8 2fe7 95bd 9109 1d3d 8cbd 3b3d
00000010: 60f5 5e3d 0ab5 95bd 9d39 b2bd 4dfe a13c
00000020: 39a7 743d 2142 483d 4843 a23c fced 2b3c
00000030: 2cea aabd 606d 3d3d 8eeb 05bd b566 33bd
00000040: 41f7 923d c03e 6c3d 2295 4b3d 6458 cebc
00000050: f238 953d c56c 393d 5f96 6dbc 1548 27bd
00000060: 12c0 733c f6f5 13bc c340 903d 1267 2abd
00000070: 2bc7 b03c 861e a5bd f1ca 053d a20e b13d
00000080: 39bc dabb a552 9fb9 5e07 3c3c 863e 0abd
00000090: c424 6f3b 3027 3cbd 9e39 773c 3484 89bd
000000a0: a1e5 7bbc c7eb 323d e404 3e3d 681c dabc
000000b0: cea5 50bd 6aa9 973d a4a2 ddbc 2e48 383d
000000c0: f8d4 28bd f04f 403c b696 e5bc fbc2 33bd
000000d0: 109a d13c 29ed 2f3d 0d1c 183d 21a6 20bc
000000e0: 05a6 ad3d e799 ccbc 4a8f 8bbd d52f 5c3b
000000f0: 61b3 e03c 6645 b1bd d983 743c 093c c0bc
00000100: aecd 4ebd 8cb4 023c 206c 503d 9248 f33c
00000110: d905 aa3d 0ee6 a83d ee68 67bc f6c8 0bbd
00000120: 81f3 ac3c 2e67 a8bc e62d 1b3d 201a 8f3b
00000130: 5dea a9bc 28bd 0e3d 8217 d73c 269e 523d
00000140: a677 3fbd c98f 6bbc becc be3c c1f5 763b
00000150: fa43 98bd b9b2 363d b3e9 593d 7853 10bd
00000160: 35b5 283d a289 8b3d 8fe4 63bd 7d00 aa3c
00000170: cae0 ecbb 12df 8abd abd0 52bd 7dae febb
00000180: 0c36 133d baaf 6a3c 9f9d 743d 75c0 f7bc
-4.429869e-05 -0.073194854 0.0383392 0.045835063 0.054433227 -0.07309921 -0.08702395 0.01977458
0.05972979 0.04889119 0.019807473 0.010493752 -0.08345446 0.046246886 -0.032695346 -0.04379912
0.07176066 0.05767703 0.04970277 -0.025188632 0.07286252 0.045269746 -0.014501183 -0.040840227
0.014877336 -0.00903081 0.07043602 -0.0416022 0.021579346 -0.080624625 0.032664243 0.08645369
-0.00667527 -0.00030388418 0.011476366 -0.033751033 0.003649042 -0.04593581 0.015089421 -0.06714669
-0.015374572 0.043681886 0.046391383 -0.026624873 -0.050939374 0.0740536 -0.027055092 0.04499071
-0.041218728 0.011737809 -0.028025966 -0.04388712 0.025586158 0.042950783 0.037136126 -0.009805233
0.08478931 -0.02497573 -0.068144396 0.0033597846 0.027429285 -0.08655815 0.014924013 -0.023466127
-0.05048912 0.007977616 0.050884366 0.02969769 0.083018966 0.082470044 -0.014124138 -0.0341272
0.021112205 -0.020557012 0.03788557 0.004367128 -0.020741636 0.034848362 0.026256327 0.051420353
-0.046744965 -0.014377543 0.023290988 0.0037683102 -0.074348405 0.044604037 0.05320139 -0.035235852
0.041188437 0.06813361 -0.055637892 0.020752186 -0.0072289454 -0.067808285 -0.051468533 -0.0077722655
0.035940215 0.014324123 0.05972063 -0.030243138

4.weight f4 [7, 100]
00000000: 6313 91bc 3d04 d8ba cdac f33b 219f 9ebd
00000010: d354 383d 4705 2ebd 103c 9a3d 7c80 f53b
00000020: 8239 c03d 6fb9 49bc dfa6 46bd 5cb8 113d
00000030: a7d3 a4bd dfdf 88bd 0e16 5e3c aad3 803d
00000040: d1ef 96bd 5d33 9f3d 7d42 f53c c2a9 96bc
00000050: e31b 96bd d834 993d 6aff 933d 7b09 b8bd
00000060: 1d83 73bd 3273 c53d d1b1 2ebc 2948 babc
00000070: 9cd6 503c 1a35 62bc 7993 543d 2a29 65bd
00000080: b8c8 8fbc 0cb0 cb3b 7dca ad3d a889 383c
00000090: 9a94 03bd cdff 69bd 1e4a 903a 66d9 b1bd
000000a0: ffa1 7dbd c915 ca3c 019a 403b 2cef b03d
000000b0: a1c9 a9bd d663 b7bd 0745 613d efa9 9cbc
000000c0: f9f3 edbc 96ef 9b3d 6fad 96bd 9047 a4bd
000000d0: 497d afbd 9c0d a2bd 2585 9f3c 5652 a7bd
000000e0: 516a 853c f0f0 91bd 07bc 193d 2ceb bcbd
000000f0: b595 683d 70ee b2bd 1c2c 6ebd 0bd6 9ebd
00000100: 68fa 593d a0ae b0bc 6803 febc 00c8 3fbd
00000110: 6cae de3d 333c a03c 0a35 a03c 3b55 7d3d
00000120: 25d3 103d fe39 aa3d 20b4 a6bd d41e b93d
00000130: da33 91bd 3d9b 883d dca8 a53d 6b0d cd3d
00000140: 5363 903c 517b c2bc 2d0d 32bd 814a 53bd
00000150: 266d afbd 512e 0ebd d767 9fbc 79f0 373d
00000160: 9f65 8abd 9971 bb3d 2d28 743d 458f 62bd
00000170: 54bc 9dbd 1a07 4cbd 533c 943d 34f8 7bbd
00000180: 8879 73bd 8379 0f3a fb46 403d 5831 bf3c
00000190: fddf c2bd d4ba 16bd 42c9 303d bdba 9a3d
000001a0: c34f cb3d 3a57 f8bc aee7 55bd 52f6 603d
000001b0: 01b4 b73d 3e8f a2bd 7986 89bd 7abe 003d
000001c0: 1a46 fabb bb67 733d 4426 273c e04d 6e3d
000001d0: 5a29 2fbd b3d5 2f3d f237 9e3b 9118 a9bd
000001e0: f052 07bd b3e7 9dbd 9cfb 77bd f318 1a3d
000001f0: 6e55 52bd a7e8 423d f827 5c3d 7730 6f3b
00000200: 8100 bd3d 9f5b a9bd 99fa 003c 97e9 633d
00000210: 665e 29bc a601 b03c ecd0 4dbd b341 8abd
00000220: b837 22bd d315 abbc 0efc 21b9 b9ae 2fbd
00000230: 3b41 3b3c 8e80 89bc a574 403d 6b09 9f3c
00000240: 9d8a c3bc f572 23bd 8540 b5bd 2e9e 383d
00000250: 7afa 9c3c 66b6 a53d 515d 85bb 8b77 35bd
00000260: 9851 86bd e5f2 7bbd 2488 5b3d 86f3 1fbd
00000270: 9b04 f33d 47c5 283d af37 aabd 9c98 cb3d
00000280: 1523 2cbd b0eb 48bd 8b10 1b3d cddc 01bc
00000290: a01c aabd 92e5 86bd b5f8 8f3d c032 a4bd
000002a0: bf16 0abb ecee c63c 0a31 a53d fd51 863b
000002b0: 734b d23b 8578 843d 5973 58bd 8cd7 b23d
000002c0: 4091 9cbd ba7b a13d 2f29 f0bc 4f70 a53d
000002d0: b391 01bc d2b7 9cbd 176d 763d 26c0 803c
000002e0: 98c0 953b ce20 263d 0951 463d cf70 b73d
000002f0: dbdc 71bd bb4c b83d 1147 ce3c 4f32 27bd
00000300: 3a3f 62bd cd99 3abd 4ada 0cbc 08f0 993d
00000310: 7f42 b13d 2c8f 1a3d 7993 593c 6319 8dbd
00000320: 8221 a6bd 8b7d 24ba 7756 a23d f001 29bd
00000330: 2e37 9c3c 7d49 7fbd a29d 2fbd d353 9bbd
00000340: 0871 9d3d df49 30bc 7fdb 56bd 6c69 6d3a
00000350: de28 9d3c dce8 bbbd 0a82 a63d f9c1 8a3d
00000360: 3176 553c 9e19 cfbc bc3e 893c 193b 953b
00000370: 2c41 833d 78a1 a7bd 3f97 313c adf6 ba3d
00000380: 8c3d 3b3d 037b 653c 0e8a 843d 274a 92b9
00000390: 1a50 cc3d 4db4 ca3d 9bb3 babd e9d4 c0bc
000003a0: dcb2 bebd 5f3e 31bd 295b 69bd 5162 0fbd
000003b0: 82e2 ac3b fd01 de3b fedb b5bd 771a 893d
000003c0: 44d4 883d a2a6 393d 35a4 093d 071b 98ba
000003d0: 4696 38bd c362 28bc f2c3 523d f12a b83b
000003e0: 23fe c4bc 14b9 4a3c 52e8 aa3d a8ac 9b3d
000003f0: 8fcd b83d 5b01 b9bd 43cf 2e3d 10fb 753d
-0.01770944 -0.0016480755 0.007436371 -0.07745195 0.04500277 -0.0424855 0.07530987 0.007492123
0.09385969 -0.012312277 -0.048498984 0.03557621 -0.08048182 -0.06683325 0.013555063 0.06290372
-0.0736996 0.07773469 0.02993893 -0.018391494 -0.07329538 0.07480782 0.07226451 -0.08986183
-0.05945121 0.096411124 -0.010662512 -0.022739487 0.012746479 -0.013806606 0.051898453 -0.05594746
-0.017551765 0.006216055 0.08485887 0.011263289 -0.03212414 -0.057128716 0.0011008417 -0.086840436
-0.06192207 0.024668591 0.0029388668 0.086393684 -0.08290411 -0.08954589 0.05499747 -0.019124
-0.029047 0.07614057 -0.073572986 -0.08021462 -0.08568818 -0.07912752 0.019472668 -0.08170001
0.016286047 -0.07126033 0.037532832 -0.09224543 0.056783397 -0.087368846 -0.058147535 -0.07755669
0.05321732 -0.021567643 -0.031007484 -0.046821594 0.10873112 0.019559955 0.019556541 0.06184886
0.035357613 0.083118424 -0.08139825 0.09039083 -0.07089968 0.06670234 0.08088848 0.10012325
0.017625486 -0.023740442 -0.043469597 -0.051584724 -0.0856574 -0.03471214 -0.019458694 0.044907067
-0.06757664 0.091525264 0.059608627 -0.055312414 -0.07701936 -0.04981146 0.072380684 -0.061516
-0.059442073 0.0005473124 0.046942692 0.023338959 -0.095153786 -0.036799267 0.043160684 0.07555149
0.09927323 -0.03031503 -0.0522229 0.05492241 0.0896988 -0.079374775 -0.06715102 0.031431653
-0.0076377513 0.059425097 0.010201994 0.058179736 -0.042764045 0.04292841 0.0048284465 -0.08256639
-0.03303808 -0.07710209 -0.060542688 0.03762145 -0.051351003 0.047585156 0.053749055 0.0036497393
0.09228612 -0.082694285 0.007872247 0.05564269 -0.010337448 0.021485161 -0.05024807 -0.067508124
-0.03960392 -0.02088443 -0.00015448054 -0.042891238 0.011429126 -0.016784932 0.04698624 0.01941367
-0.023869807 -0.039904553 -0.08850197 0.045072727 0.019162405 0.0809143 -0.004069962 -0.04430346
-0.065585315 -0.06151094 0.05359663 -0.0390506 0.11866113 0.041203763 -0.08311402 0.09941217
-0.042025644 -0.049052894 0.037857573 -0.007926178 -0.08306241 -0.06586756 0.07029859 -0.08017492
-0.0021070687 0.024283849 0.08065994 0.0040991292 0.0064176857 0.064683 -0.05284438 0.087325186
-0.07644892 0.07884927 -0.029316513 0.08078062 -0.007908273 -0.076522484 0.06016263 0.015716624
0.004570078 0.04055863 0.048417125 0.089570634 -0.059048515 0.0899901 0.025180371 -0.040819462
-0.05523608 -0.045556832 -0.008596966 0.075164855 0.08655261 0.037734196 0.013279789 -0.06889608
-0.0811186 -0.0006274811 0.07926648 -0.041261613 0.01906928 -0.062325943 -0.04287494 -0.075843476
0.076875746 -0.0107598 -0.05245542 0.00090565416 0.019184526 -0.09175274 0.08130272 0.067752786
0.013028667 -0.02528077 0.016753547 0.004554164 0.06408915 -0.081850946 0.010839283 0.09129081
0.045712993 0.014006379 0.06471644 -0.00027902538 0.09976216 0.09897671 -0.09116288 -0.023539023
-0.093114585 -0.043272372 -0.056971703 -0.03500587 0.0052760253 0.0067751394 -0.08879851 0.06694501
0.066811115 0.04532493 0.033603866 -0.0011604734 -0.045065187 -0.010277453 0.0514564 0.0056203534
-0.024046963 0.012373228 0.08345093 0.07601291 0.09023582 -0.09033462 0.04267813 0.060053885

4.bias f4 [7]
00000000: 4c5e 1a3d e036 86bd 8dfb 873d a095 8fbd
00000010: 4c6c 70bd bc91 773d 468c 10bc
0.037687585 -0.06553435 0.066397764 -0.070109606 -0.05869703 0.060441718 -0.008822506
