models/date-06-19-2025-10-44p1-RLbotp2-RLbotself_play-Falseexp_dir-RLbotepochs-50p1_win_rate-0.14p2_win_rate-0.86is_test-False/model.pth (torch, 117053 bytes, 6 tensors)

0.weight f4 [150, 84]
000000 e0 93 b2 3c ab 3f 9c 3c e2 21 b1 bd 3b e1 89 3d
       0.021799028 0.019073328 -0.08649041 0.067324124
000010 d8 2f 37 bd 0c f0 92 3d cb 78 08 bd e2 50 81 bd
       -0.04472336 0.071746916 -0.033318322 -0.06314255
000020 05 df 2f 3d 56 b9 6c 3d e5 e0 e4 3b ca 0d cf bd
       0.042937297 0.057793938 0.0069848173 -0.10110052
000030 18 44 01 ba 85 97 0b 3d b7 c7 0a 3d 24 93 87 3d
       -0.0004931106 0.034080047 0.03388187 0.06619862
000040 01 0a e0 bd 0a b7 f9 bc c4 e1 b3 3c ff c7 ea 3d
       -0.10939408 -0.030482788 0.02195824 0.114639275
000050 d4 7f d8 3c 02 3e 79 bd 9c cd 48 3d d2 2e 3c bd
       0.02642814 -0.06085015 0.04902421 -0.04594309
000060 b1 df ed bd 25 c4 c9 3d 1b f1 cc bc 03 9c b2 bd
       -0.116149314 0.09851865 -0.025017312 -0.08721163
000070 c7 c1 88 3d d7 7a 46 3d 19 9c ef 3d 71 99 0b 3d
       0.06677585 0.048456993 0.11699695 0.03408188
000080 53 33 3a 3d eb 7e d5 3c 65 21 8b bd 95 10 17 3e
       0.045459103 0.026061496 -0.06793479 0.1475242
000090 52 3b 0e 3c 39 04 07 bd 37 6b 37 bd f0 ff 18 bd
       0.008681135 -0.03296301 -0.044779982 -0.037353456
0000a0 32 ff 00 3e 4a f9 83 bc 3e e0 b9 bc 57 bb cc 3d
       0.1259735 -0.016110081 -0.022689935 0.0999667
0000b0 6a b9 59 3c 41 9d e3 3d 6f 5c 50 bd 30 48 01 bc
       0.013288835 0.11113978 -0.0508694 -0.007890746
0000c0 54 b3 2d bd b6 9b 10 3d d6 b1 f0 3c 1c dc a4 3d
       -0.04240735 0.035304748 0.029381674 0.08049795
0000d0 7c 25 b6 3d a6 05 42 bd dc 7b fb 3c f6 87 41 3c
       0.08893868 -0.047368668 0.03069871 0.011812201
0000e0 38 95 cd bd 6e 95 c9 bd 9a 3b 04 3d 6c 54 82 3d
       -0.10038227 -0.098429546 0.032283403 0.063637584
0000f0 c2 cb c3 3d f0 4c ff 3c 78 4c 2b bb 18 52 eb 3c
       0.09560348 0.031164616 -0.0026138108 0.028725669
000100 62 eb 09 3d 92 44 f2 bb 3f a8 0b 3d fd 44 47 3d
       0.033671744 -0.007393428 0.034096 0.048649777
000110 9e b1 44 3b 98 fa d9 3d e6 0e fb 3b c4 b0 b6 bd
       0.0030013095 0.106435 0.007661688 -0.08920434
000120 13 4f eb 3c ca 52 16 3e ed 41 ee 3c 0d 14 ad 3d
       0.028724229 0.14680019 0.02908417 0.0845109
000130 6d d7 31 bd 2a c4 6c 3d 8b a9 e4 3d ef 1c 2f 3d
       -0.043418337 0.057804264 0.1116515 0.042752203
000140 6f 6d ad bd 26 fa d3 bb c7 ea 0a 3d df 21 b4 bd
       -0.084681384 -0.006469029 0.033915307 -0.08795523
000150 92 e8 95 bd e2 1c 3d 3d 2b 52 ce bd ad 48 8f bd
       -0.0731975 0.046170123 -0.10074266 -0.06996284
000160 7b dc 63 bc 05 e6 8a bd 3f 4d c7 3d 70 36 6b bb
       -0.013907547 -0.06782154 0.097315304 -0.0035890602
000170 1a 3c 64 bd 7a 0e dc bb 1a 72 7c bc e4 69 4d bd
       -0.05572138 -0.006715593 -0.015408063 -0.050149813
000180 e7 7b c1 bd 74 4e dd 3d fc e5 90 3d 63 28 82 3d
       -0.094474606 0.10805979 0.07075116 0.063553594
000190 93 f2 b5 bd 70 77 b8 bd 82 20 0e 3c 5a fb d1 bd
       -0.08884158 -0.09007156 0.008674743 -0.1025302
0001a0 23 43 00 3d c2 66 80 3d 46 2d 39 bd fe bd 8d bd
       0.031314027 0.062695995 -0.04520919 -0.06921004
0001b0 53 95 cd 3d e7 17 ed 3c c0 87 e3 3d 43 74 a0 3c
       0.10038247 0.028942062 0.11109877 0.019586688
0001c0 35 e0 6b 3d 4b b0 90 3d 3f 8d 44 bd 5a b8 36 bd
       0.057586867 0.07064875 -0.047986265 -0.044609405
0001d0 86 e7 5b 3d 28 51 08 3d ad 8f 27 bd 44 71 3a bd
       0.053687595 0.03328052 -0.040908504 -0.045518175
0001e0 e1 69 da bc 3c 12 8f bd 2e 20 9e bd ab a4 71 bd
       -0.026661815 -0.069859 -0.077209815 -0.05899493
0001f0 f7 5e e5 bc ab 36 4e bc 0b d9 38 3c 81 bd 89 3d
       -0.027999384 -0.012586276 0.011282216 0.06725598
000200 0f 09 66 bd 8c f4 8e 3c 95 89 41 bd 9d 5a 52 bd
       -0.056160983 0.017450593 -0.04725035 -0.051355947
000210 56 35 df 3d f1 19 5b bc 15 a8 a5 3c 2e fc 21 bd
       0.10898845 -0.013372884 0.02022175 -0.039547138
000220 f4 d6 21 bb 0e 86 32 bd 46 46 57 bc e9 de f4 3b
       -0.0024694772 -0.043584876 -0.013139313 0.007472862
000230 d8 bc 43 3c b0 ee e5 bd 65 ef d0 bd 08 bd 34 bd
       0.011946879 -0.11227167 -0.10201911 -0.044125587
000240 e6 41 8f 3d c0 28 9e bc 2b 64 9d bd eb 7a e8 bb
       0.06994991 -0.01930654 -0.07685121 -0.007094731
000250 b5 6c 25 3c 11 ca 11 3d ff 91 4d 3d 52 fd 94 3d
       0.010096719 0.035593096 0.05018806 0.072748795
000260 dd a3 34 3c 62 ec 1b bd 45 38 51 3b 3a 92 36 bd
       0.011025396 -0.03806723 0.0031924408 -0.044573046
000270 2b c4 8e 3d 69 ac f4 3d 0a 55 a1 3d 95 57 bb bd
       0.0697101 0.11946947 0.07877548 -0.09147564
000280 08 83 83 bd 7a 42 ab 3d b6 e5 a7 3d bd 73 e5 3d
       -0.064214766 0.08362289 0.08198111 0.11203716
000290 02 b9 4f bc 21 a6 93 bd 81 74 98 bd 39 0f 76 3c
       -0.012678387 -0.07209421 -0.07444096 0.015018278
0002a0 0b ef 6d bd 92 ad c4 3d 6a e8 63 3d 80 6b 67 bd
       -0.058089297 0.096034184 0.05564157 -0.056499004
0002b0 d1 2c aa bd 0b 92 b7 3d d0 9e c2 bd 33 cf a6 3d
       -0.08309329 0.08963402 -0.09502947 0.08144989
0002c0 69 95 5a bd 70 ca 70 bd 63 6d 72 bd 22 ab 96 3d
       -0.053365145 -0.05878681 -0.05918635 0.0735686
0002d0 9a 9b 38 3d a8 fd 9f 3d ea f3 8d 3d 68 99 70 3d
       0.04507027 0.07812053 0.069312885 0.05874005
0002e0 ed d0 85 bd 76 e8 79 bd 57 77 3a bd 36 e0 a1 bb
       -0.0653399 -0.061012708 -0.045523968 -0.004940058
0002f0 21 d0 b7 3d 5b 50 2a 3d d8 eb 99 3d f6 9a a4 bd
       0.08975244 0.04158054 0.07515687 -0.08037369
000300 da 92 8c bd 5b 47 af bd bd 0e b1 bd 6f 7d af bc
       -0.06863947 -0.08558532 -0.08645389 -0.021422116
000310 f1 bc 2d 3d 48 74 60 bd 48 3e 38 3d 85 a1 93 bd
       0.042416517 -0.054798394 0.04498127 -0.07208542
000320 20 38 b2 3c 33 cf 60 3c 82 9d bd bd 81 36 95 3c
       0.021755278 0.013721275 -0.09258558 0.018214466
000330 58 eb 9e bd 9f b3 c0 bc cf 30 3b 3d 72 c6 ed bc
       -0.07759732 -0.02352315 0.045700844 -0.02902529
000340 4e 91 94 3d 21 18 70 bc a8 00 07 bd 19 8c 80 bd
       0.07254277 -0.01465419 -0.03295961 -0.062767215
000350 58 f4 5b 3c 88 e1 b6 3a c4 56 c2 3d af 9c 33 3d
       0.013424955 0.0013952712 0.094892055 0.043850597
000360 e5 5b a1 3d b4 9c b3 bd ea 8d f1 bd 68 af a4 bd
       0.078788556 -0.08770123 -0.11794646 -0.080412686
000370 8b 73 14 bd af 40 6c 3d dc 28 dd 3d 4f d5 01 3d
       -0.036243003 0.057678875 0.10798809 0.031697568
000380 40 8a a9 3d cd 48 f1 3c cf c1 b1 bc 4a fb 05 be
       0.08278322 0.02945366 -0.02169886 -0.1308414
000390 be 9e d4 bd 31 11 a5 3d d8 e5 ed bc 9e 22 71 bd
       -0.1038184 0.080599196 -0.029040262 -0.058870904
0003a0 db 85 d6 bd 45 72 be 3b 57 ea 85 3d 6d f1 0e 3d
       -0.1047475 0.005811962 0.065388374 0.03489821
0003b0 4a b8 6d 3c a0 ae ff bc 27 26 b8 3c a1 56 2c 3b
       0.01450927 -0.031211197 0.02247913 0.0026296752
0003c0 31 43 76 bd 9d a7 03 3d 95 f0 7a bc 5c 3a 2f bd
       -0.060122672 0.03214227 -0.015316148 -0.042780265
0003d0 d8 6c 8d 3d 02 e7 b8 bd bb 7e 15 3d 38 bb 9e bd
       0.06905526 -0.09028436 0.036497813 -0.07750553
0003e0 75 72 aa bd ff 6f ab 3b 38 d9 bc 3c f3 1f e4 bd
       -0.08322612 0.005231857 0.023052797 -0.11138906
0003f0 38 e4 54 3d df 02 90 3d 61 4b 2f bd 00 3b c0 3c
       0.05197546 0.070317976 -0.042796496 0.023465633

0.bias f4 [150]
000000 c1 c2 0c 3e 1b b4 75 bd c6 31 6b bd d0 f9 5e bd
       0.13746168 -0.059986215 -0.057420515 -0.05443746
000010 f4 f5 c4 bd 3c 6c 7a bd 96 1f 05 be 55 80 6d 3d
       -0.09617224 -0.061138377 -0.1300033 0.057983715
000020 e2 ef a5 3d ec bb 2f 3c 3c 5e 05 bd 5a 23 2d 3e
       0.08102395 0.010725956 -0.032560572 0.16908017
000030 85 57 6d bd 9d eb 33 bd b2 1d a1 bd b7 a1 91 bd
       -0.057944793 -0.04392587 -0.07866992 -0.07110923
000040 66 d2 21 3e 2b 12 24 bd 49 bb 66 3d b6 01 bb bd
       0.15802917 -0.04005639 0.056330953 -0.09131186
000050 4d ed f6 bb a2 64 9b 3d 4c e1 d9 bd 52 af ce bd
       -0.0075356127 0.075875536 -0.10638675 -0.100920334
000060 14 5c 3e bd 24 01 40 3d df d5 0a 3e 89 d0 ab 3c
       -0.04647453 0.046876088 0.13558148 0.02097346
000070 b3 e8 c6 bd 44 99 59 3d 39 26 e3 bb 39 16 0b 3e
       -0.097123526 0.05312468 -0.0069320467 0.13582696
000080 13 c1 c2 bd 0b 8e 8a bd 25 72 2f 3d cd 51 6d 3d
       -0.09509482 -0.06765374 0.042833466 0.05793934
000090 90 61 97 bd 55 61 2e bc ef 2e 19 3e 4b e8 6e 3d
       -0.073916554 -0.010643323 0.1495931 0.058327
0000a0 8d 93 c3 3c 96 64 0f 3d 8a aa 4f 3d f6 5c 24 bd
       0.023874069 0.035008036 0.050699748 -0.040127717
0000b0 58 ba 00 3e f5 4f be 3c 86 fd ad bd 46 55 97 3d
       0.12571084 0.023231486 -0.084956214 0.073893115
0000c0 94 1e b4 3b 97 48 34 bd 7b 7a a6 3c 67 51 de 3a
       0.0054968093 -0.04401454 0.020322075 0.0016961516
0000d0 94 b9 b9 bd 12 6d 00 3d 81 3d 31 3d 54 9d c9 3d
       -0.09068599 0.031354018 0.043271545 0.09844461
0000e0 59 ce 9f 3d 92 74 e8 3d 1f e5 b5 bd 0d c1 e4 bc
       0.078030296 0.11350359 -0.08881592 -0.027924085
0000f0 97 71 7f bb 2f fb eb 3c 7c 35 b5 bd 50 41 c9 bd
       -0.0038977617 0.028806297 -0.08848092 -0.098269105
000100 5e b8 c4 3b b6 b5 4e bc bb 33 c6 bd d1 3c 41 bd
       0.0060034236 -0.012616565 -0.096778356 -0.04717714
000110 37 c9 df 3d 33 9a 05 3e 90 14 b5 bd 56 c2 b3 bd
       0.109270506 0.13047104 -0.088418126 -0.08777301
000120 87 5b a7 3c 72 1c bc bd ac 06 0b 3e 6c 00 b5 bd
       0.020429386 -0.09185113 0.13576764 -0.08837971
000130 7d 20 7a 3d 4e c7 f3 bc 88 aa 2e bd 21 ee 89 3d
       0.06106614 -0.029758122 -0.0426431 0.067348726
000140 46 8e a7 3c ab bf 35 3c ea 2b ed 3d b7 dc 8d 3d
       0.020453583 0.0110930605 0.115806416 0.06926864
000150 3c 29 6c bd db 4b 49 bd d6 8d 87 3d 59 00 d9 3c
       -0.05765651 -0.049144607 0.0661885 0.026489424
000160 fc 87 b2 bd 2c 75 84 3c 21 2c ac 3d 15 fa 92 3d
       -0.08717343 0.016169153 0.084068544 0.071766056
000170 16 ee 8f 3c 5f 62 92 bd 34 ac e7 3d cf c8 57 bc
       0.017569583 -0.07147669 0.11312142 -0.013170435
000180 57 5d aa bd 7c c7 a3 bd 41 82 46 3d 33 08 af 3c
       -0.083185844 -0.07997033 0.048464064 0.021366214
000190 f1 29 a2 bd 5d c7 6c 3c 4f b7 0b 3e 03 4b 02 bd
       -0.07918156 0.014451829 0.13644145 -0.031809818
0001a0 fd ef b7 bd 5d 1e d9 bd ff 41 07 3e c7 78 87 bd
       -0.08981321 -0.106014945 0.1320877 -0.06614833
0001b0 90 68 ed bd 8a c5 0c bd e3 1f 06 bd 7e fb 6f 3c
       -0.11592209 -0.034368075 -0.032745253 0.014647363
0001c0 c6 3c d0 3c bd a1 a9 bd 80 0e c7 bd a1 05 05 3e
       0.025419604 -0.08282802 -0.097195625 0.12990429
0001d0 33 87 a2 bd ba 53 ec 3d 68 dc a2 3d 8e 0c 27 bd
       -0.079359435 0.11539407 0.079521954 -0.040783457
0001e0 3d 33 c6 3d 04 72 f8 b9 d6 41 e1 bd 19 77 d3 3a
       0.09677742 -0.00047387194 -0.10998885 0.0016133516
0001f0 b9 52 b0 bd 72 b3 f7 bd 7d a9 e7 bc 0f 92 16 3e
       -0.08609528 -0.12094773 -0.02827906 0.14704154
000200 93 a1 96 3d 18 20 f6 bd 32 8a ba bd bc 53 4c 3d
       0.073550366 -0.1201784 -0.0910839 0.049884543
000210 54 5e a5 bd 28 28 5d 3d a5 8c 9a 3c 2d b9 1c bd
       -0.08074632 0.053993374 0.018865893 -0.038262535
000220 93 bc d4 bd f9 65 3f 3d 7e 9e 8c bd c3 ff 29 bd
       -0.1038753 0.046728108 -0.068661675 -0.04150368
000230 58 bb 7a 3d 98 f8 76 3d d0 66 65 3b 8c b9 ce 3c
       0.06121382 0.06029567 0.0035003908 0.02523496
000240 da c8 bb 3d 9d 71 07 3d d5 53 0d bd b2 68 92 bd
       0.09169169 0.033067334 -0.034503777 -0.07148875
000250 50 e1 bc 3d 73 fc c9 bd
       0.092226624 -0.09862604

2.weight f4 [100, 150]
000000 21 56 d4 bc ed c7 6c bb 1b d5 7e bc f6 e9 b9 bd
       -0.025919976 -0.0036129907 -0.015553738 -0.09077828
000010 a4 cd ec bc 91 e9 7f bd f9 41 07 bd e5 8c 15 3d
       -0.02890665 -0.062478606 -0.0330219 0.03651132
000020 a2 14 d0 3c 9a 6c 06 3d 08 0a 1b 3d de 6d 5d bd
       0.025400463 0.032818414 0.037851363 -0.054059856
000030 14 5d 9d bd 08 3e 82 3d 64 64 62 bc 66 ba 39 bd
       -0.07683769 0.06359488 -0.01381788 -0.04534378
000040 27 4d 6c bd fa 99 9b 3d a9 89 0c 3c ea d4 5a 3d
       -0.057690766 0.07597728 0.008577743 0.053425707
000050 5d 58 92 bd c2 7f 06 bd 5c 58 9b bd e0 ce 09 bd
       -0.0714576 -0.032836683 -0.075852126 -0.033644557
000060 af 0b 90 3c 40 45 bd bd f8 7c 4e 3d 10 b0 96 bd
       0.017583696 -0.09241724 0.05041215 -0.073578
000070 fa 8b 99 bd 05 d5 2f 3d 85 5e cd bd 45 d6 40 3d
       -0.074974015 0.04292776 -0.10027794 0.047079343
000080 28 f2 76 3d 93 1f c3 3d fa 1c ac bd c7 20 40 3d
       0.060289532 0.09527507 -0.08403964 0.04690626
000090 bc fd 6d bc b4 94 b4 3d 7e 03 8e bd 0a eb a3 3d
       -0.014525827 0.08817425 -0.0693426 0.080038145
0000a0 cb 5d 40 3d 8b 2e cb 3d c0 41 1d bd 5e aa 84 3d
       0.046964448 0.09920987 -0.038392782 0.064778075
0000b0 b8 41 fc bc a2 57 77 bd 73 8c 7e 3d fd d6 96 3c
       -0.030793056 -0.060386308 0.06214566 0.018413061
0000c0 3b 0f 08 bd 99 63 cf bb b2 4f 8f 3d a7 79 86 bd
       -0.03321765 -0.0063290116 0.069976225 -0.06566172
0000d0 8e 3f 82 3d 06 4d e4 bc c6 b6 3b 3c 57 33 1d 3c
       0.06359778 -0.027868759 0.011457151 0.00959476
0000e0 a6 e8 53 bd 7a 5c 85 bd 61 94 ba 3d 14 b7 a6 bd
       -0.051735543 -0.06511779 0.09110332 -0.08140388
0000f0 3e fe da 3c f7 80 9d bc ef 10 d4 3c 8e 00 59 3d
       0.02673256 -0.019226534 0.02588698 0.052979045
000100 c7 65 a6 ba e1 32 62 bd f6 df 85 bd 12 5c 5c bd
       -0.0012695127 -0.055224303 -0.06536858 -0.053798743
000110 22 36 93 bd 84 1e 2a bd 74 a9 cf bc e2 86 63 3d
       -0.071880594 -0.04153301 -0.025349356 0.055548556
000120 b6 3d 6b bc 11 a3 19 bd 73 44 90 3d f1 79 bc 3c
       -0.014357975 -0.037509028 0.07044306 0.023007365
000130 d1 30 3c bd e3 44 17 bc a6 f3 c0 3a 64 d0 72 bd
       -0.045944992 -0.0092327325 0.001472105 -0.059280768
000140 2d a8 95 bd 23 ba 05 bd ff 08 9c bd 8e 3c 99 3d
       -0.073074676 -0.032648217 -0.07618903 0.07482253
000150 e9 bc 4d 3b 2b 15 e3 3b 1d 16 88 bc 27 07 78 bd
       0.0031393117 0.0069300137 -0.016612107 -0.060553696
000160 9c a1 a5 bc 81 50 a5 3d 3d 74 3c 3c 0b b8 c1 bd
       -0.020218663 0.080719955 0.011502323 -0.094589315
000170 2b 6d f5 bc 64 70 e1 ba 25 d9 b2 bd 68 9a 97 bd
       -0.029959282 -0.0017199633 -0.08732823 -0.074024975
000180 4d 77 36 bd 63 f5 23 bd 6f 0e 45 3d 3f e9 bf bb
       -0.044547368 -0.04002894 0.048109468 -0.0058566625
000190 b0 33 1f bd ef e7 e1 bc a5 5f 52 3d c1 96 f0 bc
       -0.038867652 -0.027576415 0.051360745 -0.02936876
0001a0 a1 0f 9b bd 52 7f 1e bd ef d4 ce bc 8e f5 97 bd
       -0.0757134 -0.03869564 -0.025248019 -0.07419883
0001b0 df cc 10 bd e7 9d 5b bd 43 4f e8 bc ac ea da 3c
       -0.03535163 -0.053617384 -0.028358107 0.026723228
0001c0 5c b8 83 bd 89 9a 70 3d 79 9b 66 bc 72 4a 6b bd
       -0.06431648 0.058741126 -0.0140751535 -0.057444043
0001d0 dd c3 31 3b 43 a2 64 3d 92 94 8d 3d 51 52 ab 3d
       0.00271248 0.055818807 0.06913103 0.0836531
0001e0 5f d6 65 bd 0f ee 62 bd de 2b 73 3d 02 95 30 3d
       -0.056112643 -0.05540281 0.059368007 0.043110855
0001f0 87 bc a1 3d 7b 3a 82 3d 3e c9 af bd b5 b3 2f bc
       0.07897287 0.063588105 -0.08583306 -0.010723998
000200 29 2e 4c 3b a2 6f b6 3c 39 71 11 bd 1c 58 8b bd
       0.0031155443 0.022270028 -0.03550837 -0.06803915
000210 65 78 be 3a ad 3e e6 3b fa e9 1c bd 58 b4 e9 3c
       0.001453173 0.0070265145 -0.038309075 0.028528377
000220 7e 7c 81 bd 29 5c 1a 3d 85 1a c5 bc 62 18 3c bc
       -0.06322573 0.037685547 -0.024060497 -0.011480423
000230 2c 91 4d 3d ad 0f 64 bd 4c 40 6c 3d a3 1f 65 3d
       0.050187275 -0.055679012 0.057678506 0.055938374
000240 95 2b d6 bc 46 81 47 3c 3d 36 24 bc 44 c4 40 3d
       -0.026143828 0.012176817 -0.010022697 0.047062173
000250 4a bb 2a bd 43 13 98 3c d0 48 bc 3b 1e 0c 2a 3c
       -0.04168252 0.018563872 0.0057459846 0.0103788655
000260 16 e3 28 3d b1 20 12 3d 13 ea 7a bb 84 f5 87 bb
       0.04123219 0.03567571 -0.0038286492 -0.004149141
000270 ef bc 5d 3d 58 60 b9 bc c6 c5 4b 3d 10 85 8f 3d
       0.05413526 -0.022628948 0.04974916 0.070078015
000280 3a e3 84 3c 43 07 d6 bd fa 14 f6 bc 21 ef 60 3c
       0.016221631 -0.10450604 -0.0300393 0.013728888
000290 59 df 9b bd 89 87 1a bd 24 c8 af 3c e1 9a 89 bc
       -0.076109596 -0.037726913 0.02145774 -0.016797485
0002a0 eb 82 91 bc 8c 7d 44 bd 75 a5 77 bd 43 11 58 3d
       -0.017762622 -0.047971293 -0.060460526 0.052750837
0002b0 e8 e7 48 bd 1b 54 d8 3b 9a aa 5d bd 57 0e 91 3d
       -0.049049288 0.006601823 -0.054117776 0.07082813
0002c0 7b f6 5c bd 7c 44 17 3d 12 ec b0 3c 1a e2 83 bd
       -0.053946 0.036930546 0.021596942 -0.0643961
0002d0 dd bb 8f bd 36 6c 42 bd 9a 63 fb 3c 42 00 08 ba
       -0.07018254 -0.04746648 0.030687142 -0.00051880267
0002e0 1e 2e a0 3b 1b 4c 19 3d 25 fa 77 3d 35 9a 8d bd
       0.00488831 0.037426095 0.06054129 -0.06914178
0002f0 94 90 98 3d 8a 64 82 bd 50 f0 cb bd 3f a8 30 3d
       0.07449451 -0.063668326 -0.09957945 0.043129202
000300 d9 ea db 3c 29 3c 99 bc ed 17 a7 3c a5 0e 5d bb
       0.026845383 -0.018705444 0.02039715 -0.0033730653
000310 14 f2 29 bd 51 c5 dc bd 60 13 a7 3c f3 37 7f bc
       -0.04149063 -0.107798226 0.02039498 -0.015577304
000320 d4 02 4c 3c 19 4b da bc 46 5d 27 3d 0e 6b d9 3c
       0.012451846 -0.026647137 0.040860437 0.026540305
000330 e6 a8 91 bd 62 f1 9e bc 2f ee 10 bd 96 17 01 3d
       -0.07112293 -0.01940221 -0.0353834 0.031516634
000340 fa dd 51 3d 45 63 4f 3d c7 4c 84 bc ee be 72 bd
       0.051237084 0.05063178 -0.016149892 -0.059264116
000350 aa 8b 44 bd 0b 08 99 bd 41 9f 4e 3d c9 85 62 3d
       -0.047984757 -0.07472237 0.050444845 0.05530337
000360 04 59 c5 bd 4f 74 86 3c c9 7b 42 3d 36 4c 5a bc
       -0.09636119 0.016412882 0.047481332 -0.013323834
000370 99 76 40 3d 4b 5b 55 bd eb 4f 6b bc aa 9d 60 bd
       0.046988104 -0.052089017 -0.014362316 -0.05483786
000380 06 2e c5 bc 10 b1 83 3d fb 9f a1 bd 42 13 32 bc
       -0.024069797 0.06430256 -0.07891842 -0.010868849
000390 16 e5 97 bc 7c ba 6c bd 81 ff f6 bc 9a a8 7d bd
       -0.018541854 -0.057795033 -0.03015113 -0.06192837
0003a0 01 e3 89 3d c0 fa d2 3c 02 f7 33 bc 45 f6 66 3a
       0.06732751 0.025754333 -0.010984184 0.0008810501
0003b0 04 fc 23 3c f5 e9 1d 3d ec e0 c1 3c c3 8d ca 3c
       0.010008816 0.038553197 0.023666821 0.0247258
0003c0 4c c1 51 bc 4f b0 1d 3d ef 34 8e 3d f8 6a b6 bd
       -0.012802433 0.03849822 0.0694369 -0.089071214
0003d0 70 56 2c bc 5d 36 03 3c 83 ad bd bd bd 2b 17 3d
       -0.010518655 0.008008567 -0.0926161 0.036906946
0003e0 99 c7 62 bd 1a dd 77 bc 5a 6e e2 3c d4 4e cb bb
       -0.055366132 -0.015128398 0.02764051 -0.0062044654
0003f0 8f 4a ab bc 20 ae 7d bd d9 55 0a bd 4a f2 dd ba
       -0.020909576 -0.061933637 -0.033773277 -0.001693317

2.bias f4 [100]
000000 12 7c 3c 3c 21 6c cf 3c e5 8d b6 3d 92 28 c0 3c
       0.01150419 0.025320115 0.08913783 0.023456845
000010 ee 42 8b 3d 77 2d 9c 3c 96 33 fb 3c 66 c4 6a 3d
       0.06799875 0.019064648 0.030664247 0.057316206
000020 f8 b8 86 bb b1 62 aa bd 61 61 33 3d e9 92 98 3b
       -0.0041114055 -0.08319605 0.04379404 0.004656185
000030 c3 95 0a bc 9e b5 29 3c 19 99 5f bc 27 a8 75 bd
       -0.008458558 0.010358242 -0.013647341 -0.059974816
000040 2e 88 dc bd 58 dd 34 3d 40 b7 b6 3c dc 30 86 3d
       -0.10768162 0.044156402 0.022304177 0.06552288
000050 1d 7d e7 bb 30 04 0a 3d de 0d c7 3c c1 4e 00 3e
       -0.007064475 0.0336954 0.024298605 0.12530042
000060 10 a7 1c bd b1 d8 92 bb ae 80 5c bd 41 9c 91 bc
       -0.03824526 -0.004481398 -0.053833656 -0.017774703
000070 87 83 29 bc 2c 19 68 bd 19 94 28 bc 1e b0 ad 3d
       -0.0103463 -0.05666463 -0.0102892155 0.08480857
000080 35 41 b6 3d 34 9e a7 3c 02 f5 58 bd 41 b0 2f bd
       0.08899156 0.02046118 -0.052968033 -0.0428927
000090 84 36 98 bd b9 22 69 3d 97 7d 53 bd 79 83 2b bc
       -0.07432273 0.05691788 -0.051633444 -0.010468357
0000a0 6d d0 23 3c 9e ca b7 bc 89 3f 14 3d e7 42 2f bd
       0.009998423 -0.022435483 0.036193404 -0.042788412
0000b0 e7 46 b0 bb 25 9a 58 bd ff 34 b8 3b e1 0d 9b bc
       -0.005379546 -0.05288138 0.005621552 -0.018927516
0000c0 8c fa ba 3c f3 4d 9e bc e0 7a a0 bd cd 78 4f 3d
       0.022824548 -0.019324278 -0.078359365 0.050652314
0000d0 4d 0c 86 bd 7f b9 88 3d 48 92 b3 bd 1f 3f 24 bb
       -0.06545315 0.066760056 -0.08768135 -0.0025062037
0000e0 d1 d5 b2 bd be 4d 80 bd 53 b8 ca bc 18 ac ad 38
       -0.087321885 -0.06264828 -0.024746096 8.281338e-05
0000f0 2e 33 3b 3d 04 bc 7c 3c bb eb bc 3c 65 46 b2 bd
       0.045703106 0.015425686 0.023061624 -0.08704833
000100 45 29 7a bd 99 34 30 3d 08 45 e5 3c c3 b1 4d 3d
       -0.061074514 0.04301891 0.027987018 0.050218355
000110 e5 f7 81 3d a8 0d 85 3c 2a 01 ec 3d cf 3e f2 3b
       0.0634611 0.016241863 0.115236595 0.0073927413
000120 dc ff 65 3c ee ba 13 bd 58 a4 36 3d c2 6f c1 bd
       0.014038052 -0.036066942 0.044590324 -0.09445144
000130 ce ce e5 ba fd 03 d7 3c 89 08 1b bc c0 d7 87 bd
       -0.0017532946 0.026247019 -0.009462484 -0.06632948
000140 19 cb af 3c 60 7c 82 3d c6 ba d8 3c 4f 9b ae bd
       0.02145915 0.06371379 0.026456248 -0.085257165
000150 bc 88 ea bc 6f dc 11 bd 79 e4 82 bd 43 76 c9 3c
       -0.028629653 -0.035610612 -0.06391234 0.024592524
000160 3d 07 82 bd aa 9d 2a 3d 08 56 1f bd a1 4a a1 3c
       -0.06349037 0.041654266 -0.038900405 0.019688906
000170 01 cb 18 3d 4e 43 92 3c ee 49 53 bc 2c ba 60 bd
       0.037302975 0.017854359 -0.012896044 -0.054865047
000180 d4 3d ca 3c eb d9 0d bd e9 16 cd 3c 14 52 25 3c
       0.024687685 -0.03463165 0.025035338 0.01009037

4.weight f4 [7, 100]
000000 1d 06 3e bd de bb 78 3d 67 ca 54 3c 24 7e 70 3d
       -0.04639255 0.06072604 0.01298771 0.058714047
000010 2f ad d3 bd 00 8f be 3d b2 50 36 bd 54 ac a6 3d
       -0.103357665 0.09304619 -0.04451055 0.08138338
000020 de ad 9b 3b f3 62 09 3c c0 8b 99 bd d6 64 c2 bd
       0.004750951 0.008385408 -0.07497358 -0.09491889
000030 d5 d7 11 3d eb bd b2 ba 78 b6 ad bd e8 10 9b bd
       0.035606224 -0.0013636922 -0.08482069 -0.07571584
000040 06 ec 37 bd a9 86 3b 3d ca 25 e7 bc cc 3d 9d 3c
       -0.044902824 0.04578272 -0.028216261 0.019194506
000050 f3 50 66 bd 1c d5 1d bd f2 5a 2e 3d ec 93 97 bd
       -0.056229543 -0.038533315 0.0425672 -0.07401261
000060 93 da 8b bd 4a b7 16 3d 44 11 2c 3b 57 5e 30 bd
       -0.06828799 0.03679589 0.0026255408 -0.04305872
000070 b2 c1 b1 3d d2 c3 ab 3d 33 e6 00 be 90 47 39 bd
       0.086795226 0.08386959 -0.12587814 -0.045234263
000080 ff 73 32 3d 27 54 9c 3d 91 8d 05 bd 2f b5 99 bc
       0.043567654 0.07633238 -0.03260571 -0.018763153
000090 e7 21 2d 3d 98 92 a1 bd 43 33 e5 bd d1 51 84 3d
       0.04226866 -0.07889289 -0.11191418 0.06460918
0000a0 c4 3f 9d 3d 1a 15 ad 3d 98 8b a0 3c 79 b2 81 3d
       0.07678178 0.084512904 0.019597813 0.06332869
0000b0 fc 97 17 3d fa eb 75 bd d9 62 93 bd 45 e3 5d 3d
       0.037010178 -0.060039498 -0.07196588 0.05417182
0000c0 42 40 37 3d 30 6b 91 3d 87 51 e1 bc b3 8e 24 3d
       0.044739015 0.071005225 -0.027504696 0.04017515
0000d0 6e 62 a0 ba cc 85 4c 3d 6f 34 c2 bd 52 93 d5 bb
       -0.0012236366 0.049932286 -0.09482657 -0.006517806
0000e0 17 fd 78 bd 57 f1 1d bd 5e e1 77 bd 44 48 92 bb
       -0.06078824 -0.038560238 -0.06051766 -0.004464181
0000f0 74 0b 65 3c 0d a1 a5 3d 4f 99 8f 3d 36 91 a7 bd
       0.013979781 0.080873586 0.07011663 -0.08181994
000100 a2 eb a7 bd 28 81 90 bd 1b 99 91 bc f6 c7 96 3d
       -0.0819924 -0.070558846 -0.017773202 0.07362358
000110 b6 07 a8 3c 2c ae 80 3a 26 c9 c3 bd 5e 56 c0 3d
       0.02051149 0.0009817532 -0.095598504 0.09391473
000120 f3 b1 a2 3d 6b 73 39 3b 44 f3 8f 3c b0 56 63 bd
       0.07944097 0.0028297554 0.017572053 -0.055502594
000130 78 c4 28 3d 58 6c 87 ba 78 1b c0 3d d2 5f b0 3d
       0.041202992 -0.0010331972 0.09380239 0.08612026
000140 15 74 02 3d ef e3 bd bd ce ed 58 3d 8d 84 7d bd
       0.031848986 -0.092719905 0.052961163 -0.06189399
000150 c5 ad 97 bd 7d 9b 88 3d a3 c7 a9 bd a8 40 72 bd
       -0.07406191 0.06670282 -0.08290031 -0.059143692
000160 46 5c 9c 3d dd 88 e3 bb 3d 35 1e bd 00 15 ae 3d
       0.07634787 -0.0069438056 -0.03862499 0.08500099
000170 2d 98 98 bc 81 86 32 3d 92 c1 c2 3d 5d 25 a7 bc
       -0.01862725 0.043585304 0.09509577 -0.020403558
000180 c8 1a 45 bc 52 26 94 3d 1e df 53 bc de c7 94 bd
       -0.012030311 0.072338715 -0.012931613 -0.07264684
000190 23 7b d0 3d 9a 41 fb 3c 85 0a 99 bd a0 54 6b 3d
       0.101797365 0.03067093 -0.074727096 0.05745375
0001a0 63 72 d8 bd d5 45 9e bd b0 d5 85 3d 76 d2 73 3c
       -0.105686925 -0.07728163 0.06534898 0.014881721
0001b0 24 40 89 bd 8d 89 60 bd 57 9c 05 3d 2d a7 64 bc
       -0.06701687 -0.05481868 0.0326198 -0.013955873
0001c0 c6 ac 2e bd 4f c9 20 bd 7a 26 d6 bd 80 b8 48 3d
       -0.04264524 -0.039254483 -0.104565576 0.049004078
0001d0 b3 92 09 bc a2 f9 12 bd b6 8d d1 bd ff 69 b7 3c
       -0.008396792 -0.0358826 -0.10232107 0.02238941
0001e0 5c cc 85 3d 82 2e eb 3b f1 94 d3 bd 7a b1 0a 3e
       0.06533119 0.007177175 -0.10331143 0.13544264
0001f0 34 07 70 bd 67 8a f0 bc cf d8 8d 3c 36 02 df 3c
       -0.05860062 -0.02936287 0.017315296 0.027222734
000200 53 13 66 bd 60 1e 38 bd 3c fc a2 3d 88 54 99 bd
       -0.056170773 -0.044950843 0.07958266 -0.07486826
000210 4a 52 54 bd 30 65 00 bd d0 79 24 3d af b1 5a 3d
       -0.05183629 -0.0313465 0.040155232 0.05339211
000220 45 fb 93 3d bc c8 9b bd fa 6a ab bc c0 43 69 bc
       0.0722566 -0.076066464 -0.020925034 -0.014237344
000230 33 46 00 3d 33 be c2 3d 5c ac 0b bd dc 9e 8b 3d
       0.031316947 0.09508934 -0.03409992 0.068174094
000240 c7 c5 ac 3c ca 83 37 bd a9 fc d1 3d be ec 09 bd
       0.021090401 -0.04480342 0.10253269 -0.03367304
000250 d1 44 1d 3d f3 03 aa 3d af 96 31 bc 8e 8f ca 3c
       0.038395707 0.083015345 -0.010839148 0.024726655
000260 f5 14 d4 bd 2c fc bb 3d 28 1d 07 3d b8 1a ca 3d
       -0.1035556 0.09178957 0.03298679 0.098683774
000270 91 ca c7 bb 5a 4c d7 bc e5 cb 01 3c 67 01 d4 bc
       -0.006097146 -0.026281524 0.007922147 -0.025879575
000280 35 2a 41 3d 33 87 d0 bb ea 3a b4 bd 5a a6 41 3d
       0.047159392 -0.0063637733 -0.088002995 0.047277786
000290 af 0e a5 bd 18 11 86 bd a0 31 79 bd 0f 0d a4 bd
       -0.08059441 -0.06546229 -0.06083834 -0.08010303
0002a0 30 63 87 3d e4 6c 4c 3c 5d 06 28 bc bc fd da 3c
       0.066107154 0.012477133 -0.010255423 0.026732318
0002b0 ed f5 2f 3d 30 11 68 bc d8 49 47 3d fc 91 93 3d
       0.042959142 -0.014164254 0.048654407 0.07205579
0002c0 96 34 9b 3d 62 6d 96 bc a7 fc 66 3d 93 3f 07 3c
       0.07578389 -0.018362705 0.05639329 0.008254903
0002d0 e9 f1 95 bd 63 93 6e bd 82 d5 ea bc 69 69 82 bd
       -0.07321531 -0.058246028 -0.028666262 -0.06367762
0002e0 e1 61 8a bc d1 39 83 3d 3d 3c 94 3d 0e 70 a6 3c
       -0.016892375 0.06407512 0.07238052 0.020317104
0002f0 f4 27 b6 bd ff 97 8e 3c a8 20 90 bb 20 cf 6a bb
       -0.08894339 0.017406462 -0.004398424 -0.0035829023
000300 4c 2f 20 3c 9c dc 23 bd ed c0 34 bd 23 55 4b 3d
       0.009776901 -0.04000531 -0.0441293 0.04964174
000310 7c 49 d4 3c 3a 99 a4 bd 83 31 52 3d ec 43 ff bd
       0.025913946 -0.08037038 0.05131675 -0.12464127
000320 0c 49 1a bd c2 5b f7 bd 09 8c 94 bd 9a 22 99 3b
       -0.03766732 -0.12078048 -0.07253272 0.0046733143
000330 4e 98 b5 3d 08 a0 b2 3d df bd 98 3d 53 0a 24 bd
       0.088669404 0.0872193 0.0745809 -0.04004891
000340 9c 42 a9 bd 7b 01 a8 bd 91 39 81 3d b1 23 60 3c
       -0.08264658 -0.082034074 0.06309808 0.0136803845
000350 d3 13 8c bd c9 4b e1 3c 89 0b 38 3d 6b 4d a2 bd
       -0.06839719 0.027501957 0.044932876 -0.079249226
000360 8f 27 78 3d 99 3f 30 bd 7c 64 a8 bd 9c e9 30 3c
       0.0605846 -0.0430294 -0.08222291 0.010797884
000370 a6 c4 3b 3d d0 54 84 3b ba b2 9d 3d 7c ee 08 3d
       0.045841835 0.0040384308 0.07700105 0.03343056
000380 4e bc 00 3d f0 36 4b 3d 88 e1 b7 bd 03 71 35 3d
       0.03142958 0.04961294 -0.089785635 0.04429723
000390 33 94 10 3b 70 08 c7 bd 0e f5 19 bd ff b9 17 bc
       0.002206099 -0.09718406 -0.037587218 -0.0092606535
0003a0 b5 b6 f9 bd cc df 6d 3d 75 89 67 bc 8f ae bd 3d
       -0.12193052 0.058074757 -0.014131893 0.0926181
0003b0 56 dc 98 bc c5 35 a7 3c f9 54 c0 bd 4f cd 8b 3d
       -0.018659752 0.020411381 -0.09391207 0.06826269
0003c0 b4 9b 96 3c 0d 43 9e 3c 07 63 fe bd 86 82 90 3d
       0.018384792 0.019319082 -0.12421232 0.07056145
0003d0 12 6f ef 3b 06 08 88 3d ab 7b 16 bd 42 8c 4a 3d
       0.007306942 0.06642155 -0.036739033 0.049450167
0003e0 33 02 67 bd da c4 a6 3d aa e7 b2 3d 15 64 42 bc
       -0.05639858 0.08143015 0.08735593 -0.011864682
0003f0 83 cd 60 bc 67 67 12 3b 9f 63 60 3d 58 85 e3 bd
       -0.013720873 0.0022339465 0.054782506 -0.11109418

4.bias f4 [7]
000000 eb eb 7e 3d b5 b1 1d 3d 49 48 11 3d c1 6a c5 bd
       0.062236708 0.038499553 0.035469327 -0.09639502
000010 70 b5 8c 3d 87 13 28 3d 34 59 14 bd
       0.06870544 0.041034248 -0.036217883
