models/date-06-19-2025-15-32p1-RLbotp2-RLbotDDQNself_play-Falseexp_dir-RLbotepochs-50p1_win_rate-0.0p2_win_rate-1.0is_test-False/model.pth (torch, 117053 bytes, 6 tensors)

0.weight f4 [150, 84]
00000000: c58e 983d 4b28 98bc 162a 383c 537d a1bd
00000010: bdfa d43d df6a b73c 4d66 913d 14cc d43c
00000020: 56d9 79bc 4518 da3c a35d 96ba 6d80 c7bc
00000030: cdc2 96bd dcab 703b 14fa 40bd 1a7d 49bd
00000040: 39ff 70bd a57f d13c d70a b4bd 98dd 763c
00000050: 8893 3abb ce2a b93d b866 053d 26eb b0bd
00000060: 9f55 a03d e525 83bd bde9 bebc e8ca aebd
00000070: 07f1 5cbd 4f97 3c3d 1611 13bd 197e a33d
00000080: 6c25 5b3d d8a7 253d f6e5 103d 9e73 be3d
00000090: 2e9b 5fbd 60e5 62bd f998 813b 87ea b73c
000000a0: d447 a5bd 8c02 87bd 69e8 d1bd 32da 05bd
000000b0: 9682 cfbb b0f6 ef3a 921b 453d b6c2 ae3c
000000c0: 4421 293d fcfb c03d 27a7 8cbd be9b 7ebc
000000d0: 367e a93d a8c4 f8bb 1e0f 803c e74e 6bbb
000000e0: f4b6 b0bd 5e89 2a3d 7b8b 293d 9992 b7bd
000000f0: 2f92 c6bd b61f d33c 33c8 c7bc ce1a 70bd
00000100: de96 1ebd c1c9 463d 1140 5d3d 962e bc3d
00000110: c33b cb3d f221 23bd 9064 503d a699 ec3b
00000120: bdd1 663d 4da3 d7bd 15d7 d33d db83 b0bd
00000130: 79a3 c3bd ae3a e83c e4a1 a5bc 4847 0dbd
00000140: 7ef8 fbbc 3b7b 4b3d 74e3 07bc 3069 363d
00000150: 9bc2 4e3c 6e9d 403d 0a5f d8bd b5a1 69bd
00000160: c0a5 70bc aa1b 8e3d cc82 9abd 0820 23bc
00000170: c9cb 4b3c aa05 31bd fa5c b8bd 8ced 9d3d
00000180: fd44 d0bc 367e a63b 8478 20bd 131a 643d
00000190: d3a2 37bd 295e 0bbd 2391 db3c e147 023c
000001a0: 636f 7d3d c747 b33c 9fdd 9ebd cb8a babd
000001b0: fd7f 0a3d 8570 5d3d 287c b8bd b793 8cbc
000001c0: a959 293d f143 833c d00b 873d 7e26 29bc
000001d0: 0665 babd da7c d0bd d2fb 66bc e226 2bbd
000001e0: 9b35 92bd 8072 a43d 8272 b2ba e58d a43c
000001f0: 0a81 ebbd fb5b ac3d f780 b7bc aae5 0e3c
00000200: f343 c9bd 65ce fbbb 1bc6 b03d 81f4 473d
00000210: b993 a7bd a393 70bb e20a 2fbd be77 51bd
00000220: 01a2 00bc 1c33 6aba a700 7bbd e92b 3f3d
00000230: dbca 043a 8d58 2bbd 83c5 bc3c 9693 78bd
00000240: 7da8 6ebd 71a4 193d befe c73d 0f46 27bc
00000250: 272f babd cbd9 193d 5769 993d f3e8 b5bd
00000260: 4b93 113c 8a8f 8ebd ed98 b9bd f21e af3d
00000270: 3b99 a5bd eab2 ce3d 7bd1 153c 51e5 c43d
00000280: 33ef 8c3d 5703 5c3c 92cf 54bc 29f2 823d
00000290: 620e 52bd 3f0f 7d3d 2032 5e3b 04ab 9c3d
000002a0: a146 b0bd 34c7 b43b 760e b53d 259b 7f3c
000002b0: de85 9bbd d215 5abd 8aa2 b23d 7484 cc3d
000002c0: 3af7 e8bd 573b c13b 1671 dcbc 2f21 b63d
000002d0: b341 ab3d 91ff 873d fa1e f03d 628e 31bc
000002e0: 5640 fb3b 7eda a43d 3fb4 c9bc d8de 73bd
000002f0: 366d 4b3c ceab 1abd aa89 763d 2422 37bc
00000300: 753c 52bd 32cc 52bd e711 53bd f670 b9bc
00000310: 08c0 d33d ab75 d6ba a386 b63c 868c a6bd
00000320: 78b8 c1bc 8878 9d3c d209 8d3d 194f 3cbd
00000330: bdf1 6abd fe21 c03d c476 cd3d c4e3 0c3c
00000340: 1a57 ccbc 0fad d73c dd3a 3abd 2d76 79bd
00000350: 6c2d b3bd 0d37 9ebc 29f1 1cbd 1adb bc3c
00000360: 4b55 7ebd f4f0 ad3c de4a cb3d 9769 d2bd
00000370: 9b07 d33c d13e 3b3c 2245 53bc 7e7a 8e3d
00000380: 81fb 733c 5d10 3cbd 8cf1 723d d5d8 be3c
00000390: cc9b 5fbc 20a1 aa3d 0364 163d 4bd5 483d
000003a0: 9529 3c3c 29bf b7bd c836 4a3d 2f77 11bd
000003b0: ec09 823c 1517 77bd cfd4 52bd 4b20 df3d
000003c0: cf5a 063c e639 cb3c 7a1a 263d 0e3f 673d
000003d0: d858 9fbd 33f8 7b3d 87a2 11bc 0604 ab3d
000003e0: 1c3e a63d 3315 0c3c 80ab d0bd 3395 a63d
000003f0: c30a d5b9 b024 1abd 19b9 c2bc d726 5b3c
0.07449106 -0.0185739 0.011240503 -0.07885232 0.10399387 0.022389827 0.070995905 0.025976218
-0.015249571 0.0266229 -0.0011471998 -0.02435323 -0.07361374 0.003672353 -0.047113493 -0.04919157
-0.05883715 0.025573561 -0.0879113 0.0150674805 -0.0028469283 0.090413675 0.032568663 -0.08638601
0.07828831 -0.06403712 -0.023304814 -0.08534795 -0.0539408 0.046042737 -0.035904966 0.079830356
0.053502485 0.04044327 0.035375558 0.09299396 -0.05459135 -0.05539453 0.0039550033 0.022450699
-0.08070341 -0.06592283 -0.10249407 -0.03267879 -0.0063327057 0.0018307772 0.048121996 0.02133308
0.04129149 0.09423062 -0.06867819 -0.0155400615 0.08276026 -0.0075918026 0.015632208 -0.0035905184
-0.086286455 0.04163491 0.041392785 -0.08963508 -0.09695851 0.025771957 -0.024387455 -0.058619313
-0.038718097 0.04853225 0.054016177 0.09188573 0.09923508 -0.039827295 0.050877154 0.0072204648
0.056352366 -0.10529194 0.10343758 -0.086188994 -0.09552664 0.028348293 -0.020218797 -0.034491807
-0.030758139 0.04967807 -0.008293975 0.04453391 0.01261964 0.047025137 -0.10565002 -0.05703898
-0.014687955 0.0693887 -0.07544479 -0.009956367 0.012438723 -0.043218292 -0.09002109 0.07711324
-0.025423521 0.0050809635 -0.039177433 0.05568893 -0.044833016 -0.034025345 0.026802605 0.007951708
0.061873805 0.021884812 -0.077571146 -0.09108504 0.033813465 0.054062385 -0.09008056 -0.01716028
0.041345272 0.016023608 0.0659405 -0.010324119 -0.091013 -0.101800635 -0.014098125 -0.04178513
-0.07139131 0.08029652 -0.0013614448 0.020087192 -0.114992216 0.084159814 -0.022400362 0.008721748
-0.098274134 -0.0076845163 0.086315356 0.04881716 -0.08182473 -0.0036709092 -0.042734988 -0.051139586
-0.007851125 -0.00089340075 -0.06127992 0.046672735 0.0005065628 -0.041832495 0.0230434 -0.060687624
-0.05826615 0.03751034 0.09765385 -0.010209574 -0.09091025 0.03756122 0.07490795 -0.08882322
0.008885215 -0.06960972 -0.090623714 0.08550824 -0.08085867 0.10092719 0.009144182 0.09614051
0.06881561 0.013428531 -0.012988942 0.06393845 -0.051283248 0.061782118 0.0033904389 0.07649806
-0.086072214 0.005516911 0.08840649 0.015600954 -0.075938925 -0.053243466 0.08722408 0.09986201
-0.1137528 0.0058969664 -0.026909392 0.08893048 0.083621405 0.06640542 0.11724658 -0.010837169
0.0076675816 0.080494866 -0.02462208 -0.059538692 0.012416175 -0.037761502 0.06018988 -0.011177573
-0.051327188 -0.051464267 -0.051530745 -0.022636872 0.103393614 -0.0016361972 0.022280997 -0.081322715
-0.023647532 0.019222513 0.06886639 -0.04597387 -0.057359446 0.093814835 0.10032418 0.008599225
-0.024943877 0.026327638 -0.045466293 -0.060903717 -0.08748898 -0.01931336 -0.038315926 0.023053695
-0.06209306 0.02123306 0.09926389 -0.10274046 0.025760463 0.011428551 -0.0128949005 0.06956957
0.014891506 -0.045914043 0.05931239 0.023296753 -0.013647985 0.083315134 0.036716472 0.049031537
0.011484523 -0.08972008 0.04936865 -0.035514053 0.015873872 -0.060324747 -0.05147248 0.10894831
0.008200361 0.024807882 0.040552594 0.056456618 -0.077806175 0.061515998 -0.008888847 0.08350377
0.08117315 0.008549976 -0.10188961 0.08133926 -0.00040634544 -0.037632644 -0.023769902 0.013375959

0.bias f4 [150]
00000000: e4d6 8f3d 21ef 31bd a112 edbd 0964 023d
00000010: d632 29bd abca debd 4289 febc a1cd 193d
00000020: b805 8e3d 33ca 1cbd f161 bf3d 325f de3d
00000030: 6e1e b93d 1105 d93d cdb7 143c ffde 3c3d
00000040: b88c 583d d6ac 81bc d4a9 ebbb 705e cabc
00000050: c608 c1bd d22c 3ebd f7a2 473c 5ab1 d43c
00000060: bad9 92bd 3e64 d1bc 29ed 3b3c 82c5 ab3d
00000070: 55ec 34bd fe15 203a de69 cb3d 44db 993d
00000080: d807 9f3d 5f4f 823d 610f b03d e875 9cbd
00000090: 0b19 d0bc b829 c6bd aee0 a73d 10f4 ab3c
000000a0: 222f 5c3d 23d5 72bd b0bc a2bd 3845 48bd
000000b0: b18c 663d b2ff beba 2770 a43a eb32 80bd
000000c0: deb2 c6bc 897e 73bd 9329 b43c 6fb8 8ebd
000000d0: 9384 bd3c 9831 93bd 22c3 b03c d738 ab3d
000000e0: b106 d4bc 780e d23b 50c3 263b 71c7 1bbd
000000f0: 7d20 e93c 2a22 6c3d e319 5abd 5b00 5abd
00000100: 9669 953d 4a3c 80bd 4c00 8e3c eb4e a43d
00000110: 89f5 9fbc 8fbc 95bd 3a5e ca3c acff 463d
00000120: 232c f6bc e983 a6bc 26a6 91bd 9742 b53d
00000130: 6573 5f3d 1ad4 bbbc dbf9 8c3c 6fea a6bd
00000140: 3447 b13d bd1f 833c 9f1d 663b 1149 cabd
00000150: ef08 a93c 2a78 1bbd 1cdf 8b3c 29e7 863d
00000160: ec22 7e3d 16df 31bd 3379 a93d c60a d1bd
00000170: 8351 a6bd 9112 b33d fe21 b8bd 5a1e c9bc
00000180: 4d3f a7bd 11cf a1bc 3f62 00bd ae0c c53c
00000190: 866b 5cbd 74d9 1d3c bc13 ecbd 05b7 a6bd
000001a0: 66ee a5bd f5ec 8e3c 2853 6ebd 2f79 953d
000001b0: 3599 c13d c114 3dbd 89eb f9bd 9f39 043d
000001c0: b0c4 57bd d9ec 423d b7fa 173d 0b42 cc3d
000001d0: ab8a cfbc 3d1b 84bc 9510 543d 8aa5 82bc
000001e0: 6917 d83b 79f3 8d3d d8a3 ec3d 066b b23d
000001f0: dcae 12bd 84a1 203d 36fe f3bc 4aca 8fbd
00000200: 6ebf 96bd 4123 e4bd eac1 75bd 1246 0dbd
00000210: ac50 d6bd a611 3e3d 826c a2bd 313d 47bd
00000220: 9bf3 353d 85ec 973c fb90 10bd 968c 95bd
00000230: 8bbc 73bd 22f9 cbbd f66a 6dbd d6b1 92bd
00000240: c695 d7bd 6627 47bd 15ce 70bd 1777 0f3d
00000250: 501b 2b3c b601 fe3c
0.07023409 -0.04344094 -0.11575819 0.031833682 -0.041308247 -0.108784996 -0.031071309 0.03754962
0.069346845 -0.03827877 0.09344853 0.10858001 0.09039007 0.105966695 0.009077025 0.046111103
0.052868575 -0.015829485 -0.007191876 -0.024703234 -0.094255015 -0.046429463 0.01218485 0.025963474
-0.07170434 -0.025560495 0.011470118 0.08387281 -0.044170696 0.0006106793 0.09932302 0.07512525
0.07765168 0.06362795 0.08596683 -0.07639676 -0.025402566 -0.09675926 0.08197151 0.020990402
0.053755887 -0.059285294 -0.079461455 -0.048894137 0.056286518 -0.0014572053 0.0012545631 -0.06259712
-0.024255212 -0.059446845 0.02199248 -0.06968772 0.023134505 -0.07187194 0.021577422 0.08360451
-0.025882097 0.006410416 0.0025446005 -0.038032 0.028457874 0.05764977 -0.053247344 -0.053222995
0.072955295 -0.06261499 0.017334126 0.08022865 -0.01952626 -0.07311355 0.024703134 0.04858367
-0.030050343 -0.020326572 -0.071117684 0.08850592 0.05455341 -0.022928286 0.017208984 -0.081501834
0.08656159 0.016006345 0.003511287 -0.098772176 0.020634143 -0.037956394 0.01707416 0.06587059
0.062045023 -0.043425642 0.0827507 -0.10207133 -0.08121016 0.08743776 -0.089908585 -0.024550606
-0.081663705 -0.019752057 -0.031343695 0.024053898 -0.05381348 0.009634364 -0.115272015 -0.08140377
-0.081021115 0.017446974 -0.058184773 0.072985046 0.0945305 -0.04616237 -0.12203128 0.032281514
-0.05267781 0.047589157 0.037104335 0.09973534 -0.025334677 -0.01612627 0.051773626 -0.015948076
0.0065945876 0.06931204 0.11554688 0.08711819 -0.03581129 0.039216533 -0.029784303 -0.070210055
-0.07360731 -0.11139537 -0.059999384 -0.034490652 -0.10464606 0.04640355 -0.079308525 -0.04864234
0.044421773 0.018545398 -0.035294514 -0.07302205 -0.05950598 -0.09959628 -0.057963334 -0.07162826
-0.10526614 -0.048621558 -0.058790285 0.035025682 0.0104435235 0.031006675

2.weight f4 [100, 150]
00000000: a3ab 82bd 954e 88bd 1178 8d3d 8a6b e03c
00000010: aa3b 8dbd 82d4 c4bc f033 55bd d4d0 aa3d
00000020: 5f13 723d aa46 8dbd 47b7 ed3c 2258 263d
00000030: 36b6 29bd fe3e 23bd 78ff 323d c7bd 23bd
00000040: c895 9c3c d24c b33d 4d03 963d cf9a ad3c
00000050: 55af 92bd 18fc 743d 00ad 9dbd 101b 93bd
00000060: a6dd 803d 696a d13c 4ab6 f83c 4d5a 813c
00000070: 1f35 50bc 9e13 963d 5359 9d3c ee94 0ebb
00000080: 1f54 b13c ed9b 463d c1f4 37bd 5e36 f5bc
00000090: 3c8f 073d e862 6ebd ea57 2dbd 6f51 a03d
000000a0: 84be 85bd f8cb 843d 81d6 3cbd 725c fdba
000000b0: 1f02 393d 53c2 60bc 0b25 68bd 3fdd 94bd
000000c0: 5019 3e3a 8d61 9a3c ab6e 853b ccbf 51bc
000000d0: 3efb 883d 0308 8ebd 1a4a b13b fe2c 313b
000000e0: 3e2c 043c de3f 5bbb c3a1 383c f4cc 9e3c
000000f0: 4fc7 023d bc96 8bbd d5ec 5a3d bbd7 043d
00000100: 01e1 d93c b078 71bd 112d 82bd 0a41 87bd
00000110: 9a8f ab3d 7d05 c3bb 03c6 aa3d a470 563a
00000120: 53c0 a9bd 3d90 3cbd 2067 1cbc 72be e9bc
00000130: 0e73 903d 924d 8f3d e486 53bd fe17 1bbd
00000140: 93b5 363a 34f7 993c a10f 84bd 8ec9 67bd
00000150: 6524 033d abb4 95bc 6027 323d fea3 11bd
00000160: 952d c53d 660c 5cbd f611 543d c77a 383d
00000170: 64fa 213c c388 4cbd 320f 0a3d ad4a f53c
00000180: 8e6e 01bd 907a 03bd 4137 d03c 8c6d 11bd
00000190: 171b a8bc bd54 8dbd 186d b3bc 1123 7a3c
000001a0: 71fb 8b3b 9ad6 42bc 9c49 92bd d33c 223c
000001b0: a36c 943d be34 213b e673 40bd 0640 83bd
000001c0: 6ff1 97bd b579 6abb 1589 a3bd 3f84 e3bc
000001d0: accc 843d 3a1a 47ba 0d17 d53c dd7e 1ebd
000001e0: 33ab 1abd 6304 493d 2aa4 8f3d 9335 a73d
000001f0: 2c4c 283d 4499 913c 41b1 143d e93b a33d
00000200: 22ec 893c 7ca9 8e3d 5133 6e3d 54cf 903d
00000210: 0abe 853c 7bdb 03bd e542 96bd d86d 0e3d
00000220: f5b4 5a3b 827a 13bd f032 5e3d b41c fabc
00000230: aeb2 9cbc cdf3 97bd 09f9 47bc 56c7 993d
00000240: 8795 04bd 652c 6dbd eb8b 303d d913 4f3d
00000250: f544 9d3d 2e90 813d 964b c7bc 6115 153c
00000260: 5938 fc3c 12a0 6ebd 75d0 4ebc cfa1 36bd
00000270: 8486 8a3d 6135 353c 08de 15bd 04ba b5bc
00000280: 5614 d6bc a49f 9e3a 6231 b4bc 586e c53c
00000290: 7eab edbc e9a6 83bd 8c12 4dbd ffa8 253b
000002a0: 816c 2ebd 2b73 43bd 0f91 6abd e6d2 95bd
000002b0: c71c 33bc e91a 223d 71f8 babc fe50 a6bc
000002c0: 186e 123d 97fe a7bc e444 31bd ecd5 05bd
000002d0: 994a 12bd 6475 86bd 9dee b6bc 6591 903d
000002e0: 8327 32bd 2c18 9d3c a672 3abd 8acd e0bc
000002f0: a74d 6cbd 20f1 dabc ef1d 80bc f2b6 b1bc
00000300: 40e4 23bc 59a8 38bd ec1e 7fbd 31fb 69bd
00000310: 30ac 313d dba6 4d3d d99d a3bc fc2c 403d
00000320: f2cc 97bd 4340 513d 12ce 9a3c 4a48 6a3c
00000330: 92a7 7e3d c0ab 78bc 82e7 973d 0ee6 b43c
00000340: 0090 8a3d b34a 85bd d76c b53c 9f3f a4bd
00000350: bec4 27bd 1b47 3dbd 0fb0 e6bc fe05 86bd
00000360: 40ce a33d 9cc3 963c 4550 353d 8e12 84bc
00000370: 0108 0abd 2f1e ec3c ccfc 97bc 90c9 ddbc
00000380: 3691 4f3d 0429 4a3d de1f a0bd aec1 90bc
00000390: 144e 013d 1d10 8e3d 49cb 2b3c 6d78 5abd
000003a0: 994a 62bd 6cf9 56bd 1140 913d fb01 fdbc
000003b0: e371 493c 1ce3 a4bd 8283 fc3b c063 07bd
000003c0: c193 9abd 3927 a33d 4ae1 82bd 6ecc 303d
000003d0: 2470 4d3d 400b 023d f8bc b13c f632 87bd
000003e0: b76f b53c 7d42 ff3c 155c 513d ab25 6dbc
000003f0: 074d d03c ca32 023d 2215 103d 43c6 80bd
-0.06380393 -0.06655613 0.069076665 0.027395029 -0.06896146 -0.024027113 -0.052051485 0.08340612
0.059100505 -0.06898244 0.029018058 0.040611394 -0.041433536 -0.039854996 0.043700665 -0.039975908
0.01911439 0.08754887 0.07324848 0.021191983 -0.07162348 0.059810728 -0.07699013 -0.07182896
0.06292276 0.025563436 0.03036036 0.01579013 -0.012707978 0.073279604 0.019207632 -0.002175625
0.021646557 0.048488546 -0.04491115 -0.02993315 0.033095583 -0.058199793 -0.04232017 0.07828032
-0.065304786 0.064842165 -0.046103004 -0.0019329919 0.04516804 -0.0137182055 -0.056675952 -0.07268762
0.00072516967 0.018845344 0.0040720305 -0.012802076 0.06688546 -0.06935122 0.005410445 0.0027034874
0.008067189 -0.0033454816 0.011269036 0.019384839 0.031928357 -0.0681586 0.053448517 0.0324323
0.026596548 -0.058952987 -0.06356252 -0.06604202 0.08376999 -0.005951582 0.08338549 0.0008180237
-0.08288636 -0.046035994 -0.009546071 -0.028533194 0.07053195 0.06997217 -0.051642314 -0.037864678
0.00069698057 0.018794633 -0.064482935 -0.056588702 0.03201713 -0.018274626 0.043494582 -0.035556786
0.09627835 -0.05372276 0.05177494 0.045038965 0.009886358 -0.049935114 0.033705898 0.029942835
-0.031599574 -0.032099307 0.025416972 -0.035504863 -0.02052073 -0.06900928 -0.021902606 0.01526715
0.0042719175 -0.011891985 -0.07142946 0.009902197 0.07247283 0.0024598087 -0.04698553 -0.06408696
-0.07419097 -0.003577811 -0.07985131 -0.02777302 0.064843506 -0.00075951556 0.026011968 -0.038695205
-0.037760925 0.04907645 0.07013734 0.08164515 0.04108827 0.017773278 0.036301855 0.07970411
0.01683623 0.0696592 0.058154408 0.07070795 0.01632597 -0.032191735 -0.07336978 0.034772724
0.003337202 -0.036005504 0.054247797 -0.030531265 -0.01912817 -0.07419548 -0.012205371 0.075087234
-0.032369163 -0.057903666 0.043102186 0.050556038 0.07679168 0.06326328 -0.024328034 0.009099335
0.030788587 -0.058258124 -0.012622942 -0.044587906 0.06763938 0.01106009 -0.0365887 -0.022183426
-0.026132744 0.001210202 -0.021996204 0.024100468 -0.029012438 -0.0642832 -0.050066516 0.0025277731
-0.042583946 -0.047717255 -0.057267245 -0.07315616 -0.010932154 0.039576445 -0.022823544 -0.020302292
0.035749525 -0.02050714 -0.04327859 -0.032674715 -0.035715673 -0.06565359 -0.022330577 0.07058982
-0.043494713 0.019176565 -0.045519494 -0.027441759 -0.057691243 -0.026726305 -0.015639273 -0.02169368
-0.0100031495 -0.045082424 -0.06228535 -0.05712432 0.0433771 0.050207954 -0.019972729 0.0469179
-0.07412137 0.051086675 0.01889709 0.014299462 0.062171526 -0.015177667 0.074172035 0.022082355
0.06765747 -0.06508388 0.022146625 -0.08019947 -0.040959112 -0.04621039 -0.028160123 -0.06544112
0.079983234 0.01840382 0.044266004 -0.016122129 -0.03369904 0.028822986 -0.01855316 -0.027073652
0.050675593 0.04935552 -0.07818578 -0.017670479 0.0315686 0.06936667 0.010485479 -0.053337503
-0.055246923 -0.05248396 0.07092298 -0.030884733 0.012295219 -0.0805113 0.0077061066 -0.033054113
-0.07547713 0.079664655 -0.06390627 0.04316371 0.050155774 0.03174901 0.021696553 -0.06601517
0.022147996 0.031159634 0.051113207 -0.014474313 0.025427354 0.031786717 0.035176404 -0.062878154

2.bias f4 [100]
00000000: cf4f ad3c bac4 a0bd b8dc 09bd 0700 8abc
00000010: fd79 483d 8a8f 803d 8c92 dc3c 0f02 483d
00000020: 3013 903d 2597 453d 03db a1bd d393 b93c
00000030: 6238 6ebc dbde 543d 0528 a33d cc3c 3b3d
00000040: de53 99bd fc33 70bd b06a a13d 8671 8bbd
00000050: da5e 6f3d 7f26 3dbd 380d 8ebd e857 6fbc
00000060: 137e ea3c fe35 753d ec71 f3bc d8b5 37bc
00000070: af9f 003b effe ba3c d714 cd3c 8217 133d
00000080: a1f7 97bb e3e8 4cbd bc03 97bd 98ab 3abd
00000090: ae68 70bd af2a 4c3a 2a7a 9b3d 3daa 79bc
000000a0: 9e5d 4c3d 321a 303d 5387 75bc 1091 5d3c
000000b0: 8c92 24bd 4164 67bd 87c4 1f3c 35f7 2cbd
000000c0: 3334 b53d fb4d a1bd 0db5 933d 6545 89bb
000000d0: 5695 6d3d 4407 4f3c 56fe 62bd 3ba1 393d
000000e0: b087 d43c bce7 ae3c 237c fc3c 4375 193d
000000f0: 43d1 a1bd 2361 5e3d b2b5 a83d 0826 60bc
00000100: 0501 16bc 70c1 18bc a3d6 c03a b928 6f3c
00000110: 91b1 323d 9708 2a3d b198 b5bb 31bd a63c
00000120: 5c3d f5bc c0a5 103d c437 41bd e74e a5bb
00000130: ca2d 623d 76d7 c2bc 8105 67bc 0b1b 79bc
00000140: 0b15 80bd 9ac6 633d c029 87bc e565 d93c
00000150: c93b 3e3d 2b3b e33b 003d 8e3d 37dd 92bd
00000160: f65f 4b3d 0690 73bd 0801 783d 9ac3 7bbd
00000170: dfa1 c73c a20b 32bb 2ab9 aa3c d156 983d
00000180: 6e68 353d ab75 e83c 9f76 dc3b bae3 853d
0.02115622 -0.078500226 -0.03365776 -0.016845716 0.048944462 0.06277378 0.026925348 0.04883009
0.0703491 0.048239846 -0.07903101 0.022653496 -0.01453981 0.051970344 0.079666175 0.045712277
-0.074866995 -0.058643326 0.07881677 -0.06808762 0.058440067 -0.04617929 -0.06936115 -0.014608361
0.02862457 0.059865944 -0.029717408 -0.0112127885 0.001962643 0.02282664 0.025034351 0.03591109
-0.004637674 -0.050026786 -0.07373759 -0.0455738 -0.05869358 0.0007788343 0.0759166 -0.015238342
0.049893968 0.04299373 -0.014985877 0.013523355 -0.04017882 -0.056492094 0.009751446 -0.042227942
0.08847847 -0.07876202 0.07212267 -0.0041891807 0.058003746 0.01263601 -0.055418335 0.045319777
0.025943607 0.021350734 0.030820912 0.037465345 -0.07901242 0.054291856 0.08237781 -0.013680942
-0.0091555165 -0.009323463 0.0014712404 0.014597111 0.04362637 0.0415121 -0.005541884 0.020353885
-0.029936485 0.03531432 -0.047172323 -0.0050448063 0.05521945 -0.02378438 -0.014100433 -0.015204201
-0.06254014 0.055609323 -0.0164994 0.026537845 0.046443734 0.0069345436 0.069452286 -0.071711
0.049652062 -0.059463523 0.06054786 -0.061465837 0.024369178 -0.0027167578 0.020840246 0.07438434
0.044289045 0.028376421 0.006728008 0.06537576

4.weight f4 [7, 100]
00000000: b45f a43d da65 2bbd 7090 f33d 676a 803c
00000010: 3a00 aabc f808 b83d 2446 6fbd 7ce1 ba3c
00000020: d2d4 52bb 6430 c33d 404e 98bc 0891 6abd
00000030: a5c9 97bd 2c1e e23c efae 273b 913b 913d
00000040: a8d2 0abd f922 bb3b d345 97bc 086e 67bd
00000050: 06e4 abbd 9eec 60bc 95af 463b 326e 5dbd
00000060: f768 89bd f7e9 96bd 571a 0abd 5470 6a3c
00000070: 8e92 463d 1809 9fbd cc64 6bbd 172f b93c
00000080: 7064 d13c d757 e23c 3ae1 093d add9 ebbc
00000090: 28e6 a03d bbd6 043d 8bab aabd 3301 c3ba
000000a0: 27b7 ab3d c5e4 663d b454 823d 6258 92bd
000000b0: 9884 b83d 95ba 233c 7421 c43d ecff 1bbc
000000c0: 8cb0 33bc a77f 0abd e778 9abd 43da b83d
000000d0: fb17 c03d 1656 953d 7c11 313c f8b5 96bd
000000e0: d0ad c53d afc9 2b3c 1aaf ae3d 04cf 3c3d
000000f0: 3e23 8cbd 98cc b9ba 7329 0abd 3a00 96bd
00000100: a160 c4bb 6def 033d a70d 263d 294d 18bd
00000110: df88 d83d 39c6 103c 6089 883a 0c92 ddbc
00000120: deea 7e3d ac2a cf3d 84ea 8abd 60e4 733d
00000130: 56dc 65bd 0b61 763d b999 00bd 5065 a73b
00000140: cd42 4f3d a361 af3c 96db eebc 0e21 453c
00000150: 23e7 53bc 2cca b53d a4f9 6ebc 205d b93c
00000160: a09e 4cbc 22c2 db3c f552 a83d 8fbd b8bc
00000170: 9c8c a03d 62b8 8ebc 2ecf ad3c 302e aa3b
00000180: e0d1 a23d de9b 23bd 061d 89bd 66f0 cf3b
00000190: 6b02 8a3d 9725 a33d a663 82bd 783a c93d
000001a0: 4dde 21bd f661 3ebd 124b aa3d 539c a23d
000001b0: 9546 a7bd 4936 8dbd 0c5a ae3d 787c e73c
000001c0: 7868 db3c fc15 413c 28fb 6ebc 2993 ac3d
000001d0: 1482 353d 64ad 543d 17e4 903d 2067 023d
000001e0: 662f 20bc 4c73 093d 1f03 d7ba 3fe2 a63c
000001f0: c207 90bd e209 60bd cb22 ae3c 2442 3bbd
00000200: 912e 76bd a962 d53c b45b 50bd 71aa adbd
00000210: 31c3 e9bc b56a 333d a9ae a33d 2063 9bbd
00000220: bbfe cb3c 22a7 26bd 943f 42bd f902 483d
00000230: 43d7 97bc 9a3b 013d 7e54 4f3d f16a 673c
00000240: b32a 593d 3a37 bbbd 04f8 5e3d 015e a23d
00000250: 5a31 a03c 6769 a7bb 001f 4c3d 00b6 5c3d
00000260: 77ab f43c 79b4 8abc 3bf4 a7bd e901 52bd
00000270: 2772 90bd c321 c83b 0e39 b63d 035a 9e3d
00000280: e8fa 9fbd 82ff 02bd fd51 693d 57f3 9ebd
00000290: ddd5 753d a99a 4e3d d139 073d 3505 3b3d
000002a0: 99bf 7fbd 4456 33bd 188e 85bd 4b38 b8bd
000002b0: d6b9 8e3d 2111 c13d 9fe2 db3c 7722 a13d
000002c0: ff05 123b d247 f6bb 3d02 483d cf9d b33d
000002d0: 071e 1fbd ffd2 0a3d 1b69 f63c 6805 21bc
000002e0: f6a5 9f3d 8c50 01bd efc2 4dbd 2d4c 9abc
000002f0: 6244 823d 6d0d e83c 12ac b53d 823e ac3d
00000300: d5b2 04bd 418e a7bd 6e94 8d3c b843 b2bd
00000310: bb5d b93d 25e2 9f3d e495 1c3d 2add d9bd
00000320: 26bd 783c a3f0 203d 3080 d53c 7309 c03c
00000330: d2bd 3fbb 66d4 26bd 5616 8abd d2da 92bd
00000340: 805e 7bbd d902 973d 27f9 6dbc 1a5b eb3b
00000350: 8b3c a7bd dcf3 a03d 3a05 ae3b 424d b8bc
00000360: 8154 abbd 3a77 30bd 1f83 c33d 7533 99bd
00000370: c881 0cbd cfd9 053d dafa 5b3d 8761 af3d
00000380: 3d95 bebc 3b07 1dbc 929c b23d a6c4 913c
00000390: 2855 85bd 9080 0bbd 5b8b c43d 2c0a 063d
000003a0: 7d7b 28bc 5f55 80bd 1f7a 893c cdf1 7ebc
000003b0: 2ca7 093c ecaf 293d 69d1 88bd 40ed 0ebc
000003c0: 7c8e 2dbd e567 8a3d 9305 573b c1f8 113d
000003d0: 6ac0 b13d 90af 983d e599 b0bd af55 9dbc
000003e0: fc9c d83c 5a2d 5cbd 08f2 1b3d af6c 063d
000003f0: a891 b13d b55f b43d d7fd 873d c1f6 82bd
0.080260664 -0.04184518 0.11892784 0.015675737 -0.020752061 0.08986086 -0.0584165 0.022812597
-0.0032170308 0.09530714 -0.018592 -0.05726722 -0.074115075 0.027602278 0.0025586446 0.070914395
-0.033892304 0.005710956 -0.018465912 -0.05650142 -0.083931014 -0.013728289 0.0030317057 -0.05406017
-0.067094736 -0.07368844 -0.033716526 0.014309008 0.04847961 -0.07765406 -0.057469174 0.022605462
0.025560588 0.027629776 0.03366206 -0.02879032 0.07856399 0.032431345 -0.083335005 -0.0014877677
0.08384543 0.056370515 0.06363812 -0.07145764 0.09009665 0.009993215 0.09576693 -0.009521466
-0.010967385 -0.033813145 -0.075425915 0.09026005 0.09379574 0.0729181 0.010807391 -0.073589265
0.09652293 0.010485097 0.08529492 0.046095863 -0.068426594 -0.0014175354 -0.033730935 -0.07324262
-0.0059929644 0.032210756 0.040540364 -0.03718296 0.10572981 0.008836322 0.0010416918 -0.02704718
0.062235706 0.10115561 -0.067830116 0.059543967 -0.05611833 0.06015114 -0.0313966 0.005108513
0.050600816 0.021408862 -0.029157441 0.012031807 -0.012933525 0.08876452 -0.014585886 0.022627413
-0.012488991 0.026825968 0.08218948 -0.022551326 0.07839319 -0.017421905 0.021216955 0.0051934943
0.07950187 -0.03994357 -0.06694989 0.0063457964 0.067387424 0.07966154 -0.06366663 0.09825605
-0.039518643 -0.04648014 0.083151 0.07939973 -0.08167759 -0.0689512 0.08513269 0.028257594
0.026783213 0.011785027 -0.0145862475 0.08426506 0.044313505 0.05192317 0.07074755 0.03183663
-0.009776926 0.03355722 -0.0016404128 0.020371554 -0.0703273 -0.054696925 0.021256825 -0.045717373
-0.060103003 0.026048021 -0.050868705 -0.08479775 -0.028535457 0.043802936 0.07992298 -0.07587266
0.024901738 -0.040686734 -0.047423914 0.04883096 -0.018535262 0.03155098 0.050617687 0.014124618
0.053019237 -0.09141393 0.054435745 0.07928086 0.019554783 -0.0051090005 0.04983425 0.053884506
0.029866917 -0.01693176 -0.0820088 -0.051271353 -0.07053023 0.0061075403 0.08897601 0.07732012
-0.078115284 -0.031981952 0.056962956 -0.07761257 0.06001841 0.050440464 0.033014122 0.045659263
-0.06243858 -0.04378344 -0.06521243 -0.08995112 0.06969039 0.09427095 0.02684146 0.07867902
0.0022281406 -0.007515886 0.04883026 0.08770334 -0.038846996 0.033892628 0.030079415 -0.009827949
0.077953264 -0.031570956 -0.05023473 -0.018835152 0.06360699 0.028326714 0.088707104 0.0841036
-0.03239711 -0.0818143 0.01728269 -0.087043226 0.09051081 0.078068055 0.038228884 -0.10637887
0.015181815 0.03929199 0.026062101 0.023442006 -0.0029257429 -0.040729903 -0.067425415 -0.07170643
-0.06136942 0.0737359 -0.014524735 0.007182491 -0.081658445 0.078590125 0.0053106816 -0.022497777
-0.08365727 -0.043082453 0.09546494 -0.07480518 -0.034303457 0.03267842 0.053706028 0.08563524
-0.023264522 -0.009584243 0.0872127 0.017793965 -0.06510383 -0.034058154 0.095968924 0.032724544
-0.010283348 -0.06266283 0.016781865 -0.0155605795 0.008401673 0.041427538 -0.06680567 -0.008723557
-0.04237221 0.067580976 0.003280972 0.03563762 0.08679278 0.07455361 -0.08623103 -0.019205896
0.026442043 -0.053754188 0.038072616 0.032818493 0.0867036 0.08807317 0.06640213 -0.06394721

4.bias f4 [7]
00000000: c043 7abc b92e b43d d65a c43d c6f6 21bd
00000010: 8ecb 203d e1a6 303d c8bc 4ebc
-0.015274942 0.08797974 0.09587638 -0.039541982 0.039256625 0.043127898 -0.012618251
