models/date-06-19-2025-11-20p1-RLbotp2-RLbotself_play-Falseexp_dir-RLbotepochs-50p1_win_rate-0.0p2_win_rate-1.0is_test-False/model.pth (torch, 117053 bytes, 6 tensors)

0.weight f4 [150, 84]
000000 23 1a 35 bc be c6 c0 3b 7e e6 63 3c 06 85 89 bd
       -0.011053595 0.005883067 0.013909934 -0.06714825
000010 90 f1 1e bc 0b 68 11 3c 7a 1d a2 bd 40 8e b7 3d
       -0.009701148 0.008874903 -0.079157785 0.08962679
000020 fa 89 93 bd d0 70 62 3d ac 43 fa bc 16 1b 96 3d
       -0.07204051 0.055283368 -0.030549847 0.07329385
000030 60 14 3f bd 7e 5a ca bd aa 7b cc 3d ac 92 17 3d
       -0.04665029 -0.09880541 0.099845245 0.03700511
000040 6a be be bc 1c 82 d6 bd 2c bb 9f bd 43 43 5b bd
       -0.023284156 -0.10474035 -0.07799372 -0.053530943
000050 17 85 8b bd 22 6e cb bd 71 ea 1e 3d 6f 58 43 3d
       -0.06812494 -0.099331155 0.0387978 0.04769176
000060 79 74 04 3d 44 b6 9f 3d 31 1e 54 3d 26 e4 dd bd
       0.03233764 0.07798436 0.051786605 -0.108345315
000070 46 6e b5 bd 9f 50 15 bd 29 b2 4c bc 24 4d c9 3d
       -0.088589236 -0.03645384 -0.012493649 0.098291665
000080 f9 d9 0a bd 6a 6f c9 bd 91 de 86 3d 2c ab d1 bd
       -0.03389928 -0.09835704 0.0658542 -0.102377266
000090 a7 f2 86 bd d1 d6 88 3c fe a7 b2 3c 9b 6d ed bd
       -0.06589251 0.016703995 0.02180862 -0.11593171
0000a0 54 11 91 3c 2f 30 a0 3d 6a 5d 89 bb b1 5d fa 3b
       0.017708458 0.0782169 -0.004192044 0.0076405634
0000b0 08 45 86 3d 8a 85 ee 3c ba c2 fc bc b1 1f f2 bc
       0.065561354 0.02911641 -0.030854572 -0.029556127
0000c0 84 ea 95 bd 2d b7 01 3d ae 57 ae bd dd c9 e6 bd
       -0.07320121 0.03166883 -0.08512817 -0.11268971
0000d0 ae 76 1a 3d 84 e5 ab 3d e1 b6 21 bd 53 31 e7 bd
       0.037710838 0.08393386 -0.039481048 -0.11288705
0000e0 51 26 84 3d 8e 92 4c bd 41 98 9f bd 39 d7 82 3b
       0.06452621 -0.049944453 -0.07792712 0.0039929417
0000f0 b8 57 a2 bd b5 fc 7f bc 04 43 e7 3d d7 d3 c8 bd
       -0.07926887 -0.015624215 0.11292079 -0.0980603
000100 dc 92 a1 bb ef 4d 04 3d e6 59 2f bb 99 6a ea 3d
       -0.004930837 0.032300886 -0.0026756465 0.11446113
000110 0a 8f aa bd c1 ad b6 bd b9 a6 6d 3d c5 94 22 3d
       -0.08328064 -0.0891986 0.058020327 0.03969266
000120 cb c6 7b bc 65 15 fb 3c cf 51 14 3d 71 34 62 3d
       -0.01536722 0.03064985 0.03621083 0.055225793
000130 43 87 59 3d c6 9d ff bc 84 5c 2a bd ba 32 90 bc
       0.05310751 -0.031203162 -0.041592136 -0.017602313
000140 f2 84 98 bd 93 b6 1a bd fa d4 ce 3b a1 8f ed 3c
       -0.07447232 -0.037771773 0.00631201 0.028999152
000150 7d 0f 64 3c 59 81 14 bd 47 59 b7 bc 87 98 57 bd
       0.013919708 -0.036256168 -0.022381438 -0.052635696
000160 25 99 d7 bd 89 dc d6 3d d4 d6 c2 bd 56 ae 80 bc
       -0.10527257 0.104912825 -0.095136315 -0.01570813
000170 e3 9a 1f 3d 0f 12 3b bd 37 c0 81 3d fa d6 58 3c
       0.03896607 -0.04567152 0.0633549 0.013234848
000180 93 4c 17 3c 09 42 c1 bd 7a ff 1e 3c e0 f0 ca bd
       0.009234565 -0.09436423 0.009704465 -0.099092245
000190 6c e2 40 bd 73 79 c7 3d 2f fa af bd 76 d3 7f bd
       -0.047090933 0.097399615 -0.085926406 -0.062457524
0001a0 2f 18 48 3d e7 51 56 3c b5 7c bf bd 9d 5c 48 bc
       0.04885119 0.0130810505 -0.09349958 -0.012229112
0001b0 3b 86 a3 3d 2a af 38 bd fb f0 18 3c aa 96 17 bd
       0.07984587 -0.045088924 0.009334798 -0.03700892
0001c0 a5 10 e7 bd 43 af b0 3c e4 4f 89 3d 11 ea 91 3d
       -0.112824716 0.021567946 0.06704691 0.07124723
0001d0 7f 20 fd bd dc 1f 25 bb 1e fb ae bc 24 f9 d8 bc
       -0.12359714 -0.0025195992 -0.021359976 -0.026485987
0001e0 39 2b f4 bd 3e 73 92 bc 4f 77 9b 3c 71 64 04 be
       -0.119223066 -0.017877217 0.01897779 -0.1292894
0001f0 f1 f5 b5 bd 30 a5 c7 bd 3e 8c 8c bc b5 eb 27 3d
       -0.088848 -0.09748304 -0.017156716 0.040996272
000200 65 3d 13 3d 08 dc 99 bc 7a 5c 3e 3d 61 2a 14 3d
       0.035947222 -0.018781677 0.04647491 0.03617323
000210 54 e0 6d bd 2b 06 c0 3c ba 67 91 bd dc 83 b9 bc
       -0.058075264 0.023440441 -0.070998624 -0.022645883
000220 62 ee 80 3d ba af 6a bd 3d 7b 50 bd 26 33 ae bd
       0.06295468 -0.057296492 -0.05089878 -0.085058495
000230 b4 55 3a bd df e4 89 3d c2 64 83 bd ac f8 37 bd
       -0.04549189 0.06733107 -0.064157024 -0.044914886
000240 a5 b0 01 bd 26 10 81 3d 88 89 b3 bd 01 53 ee bb
       -0.031662602 0.06301908 -0.087664664 -0.0072730784
000250 59 c7 17 be d5 37 61 bd 89 db 1a 3d 1a 2e b2 bc
       -0.14822139 -0.054984886 0.03780702 -0.021750499
000260 c7 21 1b 3d 70 7a 88 bc 24 10 a9 3d 88 37 81 bc
       0.03787401 -0.016659945 0.08255032 -0.01577355
000270 c5 4f aa 3d 13 9c bf 3c c4 95 99 bd 0a c9 bb 3d
       0.08315996 0.023389852 -0.07499269 0.091692045
000280 c8 c8 33 bd f2 b9 a1 3d ad 4c 15 3d 73 94 de bd
       -0.04389265 0.078967944 0.036450077 -0.10868158
000290 32 48 81 3d 51 5e c9 3d 34 1c 15 bc 51 cf 94 3d
       0.06312598 0.098324426 -0.009100962 0.07266105
0002a0 ac da e5 bc 32 bd dc 3d 45 99 9f bd 5b b6 70 3d
       -0.028058372 0.10778274 -0.07792906 0.058767658
0002b0 d8 e4 78 3d 4d 69 11 3d 6f f2 1b bd 6a f1 91 3d
       0.060765117 0.035500813 -0.038073 0.07126124
0002c0 46 70 44 3d 1b 19 12 bd 2b c1 8e bb 69 49 2b 3c
       0.047958635 -0.035668474 -0.0043565235 0.010454514
0002d0 2e 53 11 3e d0 dc ab 3d 7d 85 c0 3d aa 79 ad bd
       0.14191887 0.08391726 0.09400461 -0.08470471
0002e0 c5 c1 7e bd 01 c9 67 bd 4b bd 11 bd 31 0b db 3d
       -0.06219651 -0.056588177 -0.035580914 0.10695494
0002f0 5e 4c f8 bd 93 54 b8 3b d0 a4 9d 3d 16 8c d4 3c
       -0.12123941 0.0056253164 0.07697451 0.025945704
000300 1d 0c 9c bd 6d 21 56 bd 92 23 a3 bd a8 4c 0e 3d
       -0.07619498 -0.05227797 -0.07965769 0.034741074
000310 eb b3 c8 bd e1 e3 15 bd bc 92 03 3d 9f 0a 64 bc
       -0.09799942 -0.036594275 0.03212236 -0.013918548
000320 de 1a 96 3d 92 b5 20 bd d1 22 8b 3d 31 e7 5b bd
       0.07329343 -0.03923566 0.0679375 -0.05368728
000330 cd 49 0b bd c1 cc 80 3a 92 4a 3b 3d b4 81 0b bd
       -0.03400593 0.0009826646 0.045725413 -0.03405924
000340 92 fe e1 3c 6b 99 f4 3c 9c 90 8e 3c 35 1b a5 3d
       0.027587209 0.029858312 0.01740294 0.0806183
000350 05 fd af 3d 61 a1 a1 bd ec 47 c9 bd be 44 eb bc
       0.085931815 -0.07892109 -0.09828171 -0.028719302
000360 fe ad b6 bd b9 e0 9f bd 39 ff 33 3d bf af 9f bc
       -0.08919905 -0.07806534 0.04394457 -0.019492982
000370 f6 e5 5b bd 83 7e 98 3d 2f df 7d bd fb 48 a6 bd
       -0.053686105 0.07446005 -0.061980423 -0.08119389
000380 1c 8b dc 3d c0 7a 6f 3d 49 c2 86 3d c2 78 b7 bc
       0.107687205 0.058466673 0.06580026 -0.022396449
000390 97 c6 80 3d cc 9a cd 3b 62 dd 27 bc c5 45 26 bd
       0.06287878 0.0062745567 -0.010245653 -0.04059388
0003a0 06 89 2b 3d 60 7e e4 3d 02 c6 a1 3d 75 fd 64 bc
       0.041878723 0.111569166 0.07899095 -0.0139764445
0003b0 f0 9d 2b bc bb 98 91 bd 6c 99 97 bd d9 5f 4d bd
       -0.010474667 -0.07109209 -0.0740231 -0.050140236
0003c0 f1 92 ef bb 73 f8 7e bd 9a 45 a6 bd 2a 2e be bd
       -0.007311218 -0.06224866 -0.08118744 -0.09286149
0003d0 23 98 2e 3d f5 87 80 3c 21 9a d4 bd 37 b0 9c 3d
       0.042625558 0.01568983 -0.1038096 0.07650798
0003e0 5f 60 27 bd c9 50 6f 3d 8b df ab bc a6 0b e1 bc
       -0.04086339 0.058426652 -0.020980617 -0.027471375
0003f0 af ae cb 3d e3 05 04 3d 66 d4 43 3d e1 b5 6d 3d
       0.099454276 0.032232177 0.04780998 0.05803478

0.bias f4 [150]
000000 01 2d 85 3d 64 bb 8f bd 85 ca 31 3c 4f 8f a3 bd
       0.065027244 -0.07018164 0.010851507 -0.07986318
000010 a3 93 b9 bd 1d 97 6b bd d5 5b 12 be 8a 6e fd 3d
       -0.090613626 -0.05751716 -0.14292844 0.12374599
000020 50 a1 8a 3d 57 35 83 bd cc 8b a2 bd 94 a8 ab bd
       0.06769049 -0.06406658 -0.079368204 -0.08381763
000030 23 3f 96 3d 1f 86 30 3c b5 15 dc bc 35 35 e0 3c
       0.07336261 0.010774164 -0.02686582 0.027369121
000040 40 c0 28 3c 7f 98 b2 3d 4a 43 11 3d b2 6e c1 bd
       0.010299742 0.087204926 0.035464562 -0.094449416
000050 d6 8b b4 3c bb fe 38 3d 7b 58 96 bd 7c 64 54 3d
       0.022039335 0.045164805 -0.07341095 0.051853642
000060 0a 3f c2 bd 9c d4 01 3e d6 7c 6d 3d 86 f4 ac bc
       -0.0948468 0.1267876 0.05798038 -0.021112692
000070 17 c1 46 bc 08 c0 81 3c c4 a8 e0 bd 15 53 1b bd
       -0.012130997 0.015838638 -0.109696895 -0.03792103
000080 be fa 76 bd e4 f9 fc bb ba 66 82 3d a0 89 af 3d
       -0.06029772 -0.007720219 0.0636725 0.08571172
000090 05 4a 51 3d a2 7c c0 3a 3a 99 dd 3d 45 c6 8e 3d
       0.05109598 0.0014685581 0.10820241 0.06971411
0000a0 9c bf e1 3d 0a 1c 95 bd ab b6 67 3d 9e 21 85 3d
       0.11022875 -0.07280739 0.05657069 0.065005526
0000b0 3f 01 9d 3d 33 b0 f2 bd d1 5d 62 bd ee a5 97 bd
       0.07666253 -0.118500136 -0.05526525 -0.074046955
0000c0 b1 6f 6d bd c7 73 02 bd c4 aa 71 bd cf 99 31 3c
       -0.057967845 -0.031848695 -0.059000745 0.0108398935
0000d0 53 08 16 3d 8b 94 6f bd 51 da f2 3c a8 a0 b6 3d
       0.036629032 -0.05849127 0.029645117 0.089173615
0000e0 79 98 d3 bd eb c6 82 bd 48 88 71 3d d3 ed 87 3d
       -0.10331816 -0.06385597 0.05896786 0.06637158
0000f0 ce 9c 7f 3d f4 0b ba 3c 5c 4b 9b 3d f7 61 95 bc
       0.0624054 0.022710778 0.07582733 -0.01823519
000100 9c 1d c0 bd f9 6b c9 bd b8 2e ac 3d 05 86 50 3d
       -0.093806475 -0.09835047 0.084073484 0.05090906
000110 36 02 29 bd 8a f2 91 bd f3 a0 e6 bd 51 2c 01 3e
       -0.041261874 -0.07126339 -0.112611674 0.12614562
000120 c0 2f 59 3c b2 1f 6e bc 10 f3 48 bd b9 7f 64 3c
       0.013256013 -0.014533924 -0.049059927 0.013946467
000130 23 6c 24 3d 00 a3 d8 bb 1d 0e d8 3c 07 a6 23 bd
       0.04014219 -0.006611228 0.026373917 -0.039953258
000140 a9 4b 6b bd 47 99 ea bd 21 eb e6 bc 88 de e7 3b
       -0.057445202 -0.114550166 -0.02818829 0.0070760883
000150 4e d5 d8 bd 89 e0 01 3d 38 08 e2 bd 8d 90 a8 3a
       -0.1058756 0.031708274 -0.11036724 0.0012860462
000160 51 d6 ac bd 46 86 a4 bd ae 14 95 bd 5e f5 c2 3c
       -0.08439315 -0.08033423 -0.07279335 0.02379864
000170 0e c1 a0 bd de 2a e8 bc 64 ad 61 3d 55 93 c8 3d
       -0.07849322 -0.028340753 0.055097 0.09793726
000180 83 d4 2f bd 98 82 c4 bc ba e3 ca bd d6 3b 10 bd
       -0.042927276 -0.023988053 -0.09906717 -0.035213314
000190 e6 52 b0 3d c9 12 f9 bd 92 63 3b 3d 29 3f b2 bd
       0.086095616 -0.12161786 0.045749255 -0.08703453
0001a0 f1 9e a1 bd 19 23 59 3d 51 1e ce 3c 87 01 b4 3d
       -0.07891644 0.053011987 0.02516094 0.08789354
0001b0 8d c6 a4 3d f5 88 32 ba e3 ec 75 bd ba e6 ac bc
       0.08045683 -0.00068105693 -0.060040366 -0.021106113
0001c0 59 6d 9e 3c 70 58 0f 3d ad 75 ee bd 82 a2 77 3d
       0.01933925 0.03499645 -0.116435386 0.060457714
0001d0 0b 4d 91 3d 25 dd 96 bd c0 68 b9 3b e0 61 5a 3d
       0.07094773 -0.07366399 0.005658239 0.053315997
0001e0 ea f6 c5 bb 4c 64 eb 3d 6d ce 0d bd 74 3d ea bd
       -0.0060413973 0.114937395 -0.03462069 -0.114375025
0001f0 28 ac 56 3b e6 7d a4 3d 17 ee 4c bc 91 ca f5 bc
       0.0032756422 0.08031826 -0.012507937 -0.030003818
000200 78 ed aa 3d 61 79 33 3d 1c cd 95 3d 1a 74 b8 3d
       0.08346075 0.043816928 0.07314512 0.090065196
000210 b0 5f 20 3d 7b e3 b9 bd 1c 98 5c 3d 6b 71 26 3d
       0.039153755 -0.090765916 0.053856 0.040635508
000220 15 8a 10 3d 22 ce 1b 3d 54 ce 7e 3c 58 aa f4 bb
       0.035287935 0.03803838 0.015552122 -0.0074665956
000230 93 2c b6 bd 73 1a 94 3c bc 37 88 3d 67 47 34 3d
       -0.088952206 0.018079018 0.066512555 0.044013407
000240 6b 5e f7 bd a9 29 5b bd 71 57 f0 3c 54 3c 7f bb
       -0.12078556 -0.053506527 0.02933857 -0.003894587
000250 3a 7a e3 bd 4a 38 aa bd
       -0.11107297 -0.083115175

2.weight f4 [100, 150]
000000 34 2d 3a bd 8e 12 2b 3c b2 03 3b 3d 81 02 2d 3d
       -0.045453265 0.0104414355 0.04565782 0.042238716
000010 5b 1a 1e bd 4e 48 93 3d f8 59 ae bb 19 1c be 3c
       -0.038599353 0.071915254 -0.0053207837 0.023206757
000020 f3 11 8d bd a7 3f e3 3b 64 01 07 bd e3 30 94 bc
       -0.06888189 0.006935078 -0.03296031 -0.018089717
000030 97 bf 6b bd 7e 08 87 3d ab 4b 67 bd a8 d7 98 bd
       -0.05755576 0.06593417 -0.056468647 -0.07463008
000040 ed 44 82 3d a3 54 88 3c 65 eb 0f bd c1 a1 45 bd
       0.06360803 0.01664192 -0.0351366 -0.048249964
000050 b2 ca 94 bc 40 f1 49 3c 77 76 08 bd 00 77 13 3c
       -0.018163059 0.012325585 -0.033316102 0.00900054
000060 d5 f7 83 3d 55 e6 c0 bc 6a 09 9d 3a f2 74 87 3c
       0.064437546 -0.02354733 0.0011980955 0.016535256
000070 17 f0 5a bd d4 aa e1 bc 8d 00 26 bc a2 3a 84 3d
       -0.053451624 -0.027547278 -0.010131967 0.06456496
000080 fb 3c 4d 3d 0e 59 72 bc b5 83 4f 3d b7 cb 0f 3d
       0.050106984 -0.01479174 0.050662715 0.035106387
000090 b7 97 64 bc 1c f1 47 bd 3b a9 be 3c 87 12 3f 3d
       -0.013952187 -0.048813924 0.023274055 0.04664853
0000a0 dc c8 0c 3d 71 1e 9b 3d 9f f3 aa bd 52 1c ba bd
       0.034371242 0.075741656 -0.08347248 -0.09087433
0000b0 1a 7b 55 3d 4f f7 29 3d 2c 09 a8 3d be 31 1d 3d
       0.052119352 0.041495617 0.082048744 0.038377516
0000c0 b8 13 9f bd 4d dc 55 3d 9c 7d 11 bc 90 9d 92 bd
       -0.07767433 0.05221205 -0.008880045 -0.07158959
0000d0 cc be a4 3d 8e 47 27 3d c8 21 29 bd 5f d0 d7 3b
       0.08044204 0.040839724 -0.041291982 0.006586119
0000e0 f6 6f 80 3d 32 c5 37 bd 44 e6 dd bb 7d f8 97 bb
       0.06271355 -0.044865794 -0.0067718346 -0.0046377764
0000f0 6a f3 57 bd 0b 9c 3b bd c2 49 fd 3c d8 0d 59 3d
       -0.052722372 -0.04580311 0.03091896 0.052991718
000100 e5 06 99 3b 47 9e 3b 3d 95 fb 6a 3c 50 01 82 3b
       0.0046700113 0.045805242 0.014342208 0.0039674416
000110 9e 1b 69 3c b5 76 6d bd a8 1f 26 3d 02 6c 8b 3d
       0.014227776 -0.057974536 0.040557534 0.0680771
000120 5d 05 85 3c e8 a1 5e bd 1a 17 d5 bd 8b d3 75 3d
       0.016237909 -0.054353625 -0.10404797 0.060016196
000130 3f ae 2a 3d 67 ab 87 3d 12 c5 56 bd 9b db d6 bc
       0.04167008 0.06624489 -0.052434035 -0.026227763
000140 01 97 e2 3b 33 ad b5 ba 91 69 7a bd ab 50 c5 bc
       0.0069149737 -0.0013860821 -0.061135832 -0.024086317
000150 90 48 02 3d e8 12 86 3c 83 cb 70 bd fc e8 69 bd
       0.031807482 0.016366437 -0.058787834 -0.057106957
000160 d5 86 b4 bb e7 c2 7e bd a5 ea 9b bc c6 c9 28 bd
       -0.0055092373 -0.062197592 -0.019032786 -0.04120805
000170 0a f4 6e 3d 62 7b 8c 3d 21 8c 67 bd 48 c1 a1 bd
       0.058338203 0.06859471 -0.05653012 -0.078981936
000180 ef 55 93 3c 14 8d 9a bc f6 cd 9f bd 51 1c 18 bd
       0.017985312 -0.0188661 -0.07802956 -0.03713638
000190 35 db 96 bc a5 85 89 3d 45 dc 91 3d f3 f2 4f 3d
       -0.018415073 0.06714944 0.07122091 0.050768804
0001a0 e0 8f d5 bb 76 13 ff bc ff c7 66 3a 3e cb 06 3d
       -0.0065173954 -0.03113721 0.00088036055 0.03290867
0001b0 2a d1 8c 3d c5 1b 98 bc 02 2e 02 3c b7 77 94 bd
       0.068758324 -0.018567929 0.007945539 -0.07249396
0001c0 ae 5c 5b 39 96 6b 26 3d c0 59 01 3d 51 e5 af bd
       0.00020919993 0.040629946 0.031579733 -0.085886605
0001d0 40 51 5b 3d 01 35 18 3d 8a d4 2c 3d c8 a6 a1 3c
       0.053544283 0.037159923 0.04219488 0.019732848
0001e0 cd ee d1 3c e4 ab d5 bc bc 8d 14 bd fd 92 82 bd
       0.025626564 -0.02608294 -0.03626798 -0.06375692
0001f0 d1 12 a0 bd 48 23 61 3d d8 c0 1e bd cb c5 ef 3c
       -0.07816089 0.054965287 -0.03875813 0.02926912
000200 3a e5 a1 bd 2c c4 3d bd e9 91 2f bd e4 16 86 bc
       -0.079050496 -0.046329662 -0.04286376 -0.016368337
000210 8b 51 22 3d d9 5a 57 bd 73 da d0 3c 67 3c 39 bd
       0.039628547 -0.052576873 0.02549479 -0.04522362
000220 ca 9b 29 bd c0 e8 63 3c bd a0 b0 3c e8 84 2d 3d
       -0.041408338 0.013910472 0.021561021 0.042363077
000230 b0 0f 31 bd d0 04 80 bd 0d 51 61 3d 47 62 7f bd
       -0.04322785 -0.06250918 0.055008937 -0.062349584
000240 d8 15 63 39 bc ab c6 bd 8b c1 76 bd 38 51 7c 3c
       0.00021656544 -0.097007245 -0.06024317 0.015400223
000250 56 fd 44 bb 2f 09 f0 bb b8 bb d8 3c 7a 6a d7 3b
       -0.0030058227 -0.0073253135 0.026456699 0.0065739723
000260 0a df 22 3d cd e2 fb bc b0 b7 17 bd 92 1d ba bd
       0.039763488 -0.030747795 -0.037040412 -0.09087671
000270 7d 30 75 bd f9 e5 aa bc 3b f6 99 3b fd 89 6f 3d
       -0.059860695 -0.020861613 0.0046985424 0.058481205
000280 10 ca 80 bc 2a aa 7a 3c 35 87 aa 3c 43 36 56 3d
       -0.01572135 0.015299359 0.020816425 0.05229784
000290 2b b6 84 3d 03 0d 21 3d fa b7 93 3c 7d 9b 65 3d
       0.06480058 0.03931905 0.018032063 0.05605649
0002a0 28 6f 90 3c 75 a6 a0 3d dd 65 03 3c ba 13 1e 3d
       0.017631128 0.07844249 0.008019892 0.03859303
0002b0 f9 93 d9 3c b8 59 a8 3d 8c 12 08 3b 37 32 90 3c
       0.026559817 0.082202375 0.0020763008 0.01760207
0002c0 15 20 0d 3c ab 0c 2d bd 73 c7 11 be 06 4d 66 3c
       0.008613606 -0.04224841 -0.1423624 0.01405645
0002d0 df 20 f8 3c 01 20 03 bd 84 58 15 3d 60 ca 90 bc
       0.030289112 -0.032012943 0.03646137 -0.017674625
0002e0 77 b4 72 3c 31 60 07 bd 72 01 3b 3d 02 a7 93 3d
       0.014813534 -0.03305072 0.045655675 0.072095886
0002f0 61 80 71 bd 72 0e f7 3c 04 a9 8a 3d c7 20 25 3d
       -0.058960322 0.030158255 0.067705184 0.040314462
000300 de 39 ae bd 53 29 6e 3d 0d 86 5b bd 5d 03 b7 bc
       -0.08507131 0.05814488 -0.053594638 -0.02234047
000310 39 d7 02 3d df d2 78 3d 22 42 79 bd 33 f4 c7 bd
       0.031943534 0.060747977 -0.060854085 -0.09763374
000320 d5 48 aa bc 4c 16 d7 3b a5 c1 d2 bd 32 66 30 bc
       -0.020786682 0.0065639373 -0.10290841 -0.010766553
000330 eb c5 8d 3d 4f 71 d8 3c a7 e9 2a bc 2e 58 a5 3d
       0.069225155 0.026421217 -0.010431684 0.080734596
000340 55 92 33 bd 4c 6e 55 3d 4e bb 3c 3d 3b 32 78 3c
       -0.043840725 0.05210714 0.046077065 0.015148695
000350 2a fb a4 bd 7b cf 6a bd 47 9f a9 bd b5 4f 6f 3d
       -0.08055718 -0.057326775 -0.08282333 0.058425624
000360 55 64 6a 3d 0d c1 04 3d c7 f5 8a bc 21 bb 5a 3d
       0.05722459 0.03241067 -0.016962899 0.053401116
000370 8d 4b 68 3d d8 a0 61 3d 75 f5 e2 3c d5 58 c0 3c
       0.056712676 0.055085033 0.027704934 0.023479858
000380 8e 08 16 3d dd 8c d2 3c f8 58 d8 3b ef fe f4 bc
       0.036629252 0.025701934 0.006602403 -0.029906718
000390 f8 0d 27 3c 5b 41 c9 3c 34 30 1a 3d 3f d3 a6 3c
       0.0101962015 0.024567297 0.037643626 0.020364402
0003a0 8f f7 7e 3d f8 41 d1 bd 06 8d 9b bd 99 9d a4 3d
       0.06224781 -0.10217661 -0.075952575 0.08037872
0003b0 af 80 64 bb 14 3c 9c 3a 0a ac e2 3c a0 60 11 bd
       -0.003486674 0.001191976 0.027669925 -0.03549254
0003c0 e1 20 61 bb 71 d6 4e bd b5 15 05 3d 8a 07 15 bd
       -0.0034351873 -0.050497476 0.032491405 -0.036384143
0003d0 3b 04 9c bd 8c e9 a5 bc 3f f0 8c bd bb a6 72 bc
       -0.076179944 -0.020252965 -0.06881761 -0.014810259
0003e0 41 1f 64 3d a2 fb 77 bc 64 a2 1f 3d 02 56 c5 3c
       0.05569387 -0.0151356775 0.038973227 0.024088863
0003f0 e3 c1 dd 3c 59 29 c8 3c bb c9 06 bc e6 65 e8 bc
       0.027069991 0.024433779 -0.008226807 -0.028368901

2.bias f4 [100]
000000 29 4f b0 3c 16 f9 35 3c e2 1c 66 bd 57 89 3b bd
       0.021522122 0.01110675 -0.05617989 -0.045785274
000010 34 3c ef bc 4e 91 fb 3b 8a df 62 3d d6 b6 84 3d
       -0.029203512 0.007677234 0.055388965 0.06480186
000020 e1 06 46 3d 73 b7 d7 3c d3 0d d0 bc 29 77 18 3d
       0.048346404 0.026332593 -0.025397217 0.037223015
000030 3a 80 82 3d 36 37 b7 3d ae 76 bd bd a5 bd bd bc
       0.063721135 0.089460775 -0.09251152 -0.023161719
000040 6d 54 e6 3c a6 88 94 3c 02 53 32 bd 5c ab bd 3d
       0.02811643 0.018131565 -0.043536194 0.092612
000050 20 ce af bd 34 eb 74 3d f6 94 88 bd 12 7b 11 3c
       -0.08584237 0.05979462 -0.06669037 0.00887944
000060 21 cf 9d bd 9f 68 88 3d ec 33 02 bc 14 a7 ba 3c
       -0.07705522 0.0666058 -0.007946949 0.022784747
000070 1f ed 33 bd 6e be 4f 3d 30 e9 98 bc 83 5e de 3c
       -0.04392731 0.050718717 -0.01866588 0.027144676
000080 25 1f 60 bd dd e7 a9 3c 9e 68 7b bc 2b 2d 99 bd
       -0.0547172 0.020740444 -0.015344767 -0.07479318
000090 9f 04 8a bd 64 4c bb bc 29 02 be 3c fe 6d b9 bd
       -0.06739163 -0.022863574 0.02319439 -0.090541825
0000a0 b0 c5 82 bd fa a6 74 bd dd c2 68 3c bb 07 e6 3c
       -0.06385362 -0.059729554 0.014206615 0.028079858
0000b0 07 1b 63 bd 19 01 21 bd be 55 86 bb 47 cb 8a bd
       -0.055445697 -0.039307687 -0.0040995767 -0.06777053
0000c0 39 92 63 3d 63 a7 24 3d db 52 82 3c 9c bc 5f 3d
       0.05555937 0.040198695 0.01590865 0.05462323
0000d0 91 1b b9 bd 7c 14 a7 bd 62 82 22 bc a6 b9 55 3d
       -0.09038461 -0.08158204 -0.009918781 0.052179
0000e0 2c b7 8e 3c cb da 7d bd 6d 82 76 3d 42 b9 df 3c
       0.017421328 -0.061976235 0.060182977 0.027310017
0000f0 b5 06 6b bd ce fd ec 3c 08 64 5c bd 85 f6 7d 3d
       -0.057379443 0.028929617 -0.053806335 0.062002677
000100 69 a9 81 3d 2d d5 45 bd 5f aa 29 3c ba ef 4f 3d
       0.063311405 -0.048299003 0.010355561 0.05076573
000110 95 12 ec 3c 57 8b fc 3c a2 97 59 bd 71 1d 76 bd
       0.028817454 0.030828161 -0.053123124 -0.06008667
000120 1d 1b 74 bd 39 ef 38 3d 55 94 c9 3c 3a 19 25 bc
       -0.05959617 0.045150016 0.024606863 -0.010076815
000130 21 5a 1a 3c 8d 5c 5e bd a9 d0 cb 3c 79 1d 3f 3c
       0.0094209025 -0.054287482 0.02487977 0.011664742
000140 4c 7f a2 bd 43 db 42 bd 8b af ad bd 5c e4 7d 3d
       -0.07934436 -0.047572386 -0.08480748 0.06198536
000150 43 2b 97 bc 8c 8c da 3b 30 e7 86 3d ef 7f 87 bd
       -0.018453246 0.0066695865 0.06587064 -0.06616198
000160 4e 22 28 bc cb aa 8d bd 63 d4 c4 3c 88 53 8f 3d
       -0.010262085 -0.06917342 0.024027055 0.06998354
000170 d5 b8 3f bd 34 df 4c bd 3a 71 78 3d c6 c1 a0 3d
       -0.04680713 -0.05001755 0.060654856 0.07849459
000180 dd 99 70 bd 10 d5 a6 3c 1d 91 02 bd 3c c3 eb ba
       -0.058740485 0.020365268 -0.031876672 -0.0017987262

4.weight f4 [7, 100]
000000 b4 03 99 bc 5a ff a5 3d 64 b7 ee 3b 30 43 88 bd
       -0.018678524 0.08105345 0.0072850455 -0.0665344
000010 30 f0 c8 3d 8a 6a cf 39 73 b8 ac bc ea 64 d7 bc
       0.09811437 0.00039561494 -0.021084046 -0.026293237
000020 ad e4 0d 3d 13 7d 74 bc f9 98 b5 bc b2 52 27 bd
       0.03464191 -0.014922398 -0.02216767 -0.04085035
000030 25 6e 9c bd 24 39 a9 3d ed 89 c3 3d 9a 73 74 3d
       -0.07638196 0.08262852 0.09547792 0.05968056
000040 ed 54 95 bb f0 29 5b 3c 3a 0b 8f bc 48 b6 9d bd
       -0.004557243 0.013376698 -0.017461408 -0.07700783
000050 da 50 26 3d ac bd 7d 3d 70 ec 54 3d 07 d5 82 3d
       0.04060445 0.061948463 0.051983297 0.06388288
000060 44 10 c4 bd 1a 08 ab bc 4d 83 32 3d ef 7e 74 bd
       -0.09573415 -0.020877887 0.04358225 -0.059691366
000070 22 a7 c2 bd 7c 61 ae 3a 2e 29 aa bd 96 ca 2d 3d
       -0.09504534 0.0013304199 -0.08308636 0.04242953
000080 5d 44 ad bd b8 72 3b bd 7a f4 c1 bd 9a 2f a6 3b
       -0.08460305 -0.0457637 -0.09470458 0.0050715925
000090 cd b9 67 3b 32 9e bb 3d 40 1a 38 bc 73 7c b3 bd
       0.0035358549 0.09161033 -0.011236727 -0.08763971
0000a0 a4 ec ec bc e2 cd a3 3d 94 b6 2f 3b e2 1d 83 3c
       -0.028921433 0.079982534 0.0026811706 0.01600546
0000b0 13 04 89 3c 87 56 0e 3c 23 26 04 3d 8d 88 b8 bc
       0.016725576 0.008687622 0.032262933 -0.02252605
0000c0 61 0e 72 3d 90 cb 67 3d 32 ea 80 bc 45 7c b3 bd
       0.059095744 0.056590617 -0.015736673 -0.08763937
0000d0 60 1c cc bc 33 17 7c bc 81 ba 13 bd 45 1d 4b bc
       -0.024915874 -0.0153863905 -0.036066536 -0.012397115
0000e0 14 9c c1 3d fb 42 5a bd f4 d8 1a bd d9 7b 92 3d
       0.09453598 -0.053286534 -0.03780456 0.07152528
0000f0 c5 49 c0 3d f3 88 35 3d 5b fa 0b bc 9b a2 1a 3d
       0.093890704 0.044320058 -0.008543576 0.03775273
000100 9d 2b ee 3c a9 8e 7b bd 6b 54 82 bd 67 95 4b bc
       0.02907353 -0.06141535 -0.06363758 -0.012425757
000110 b1 45 04 bd d3 28 d5 bc 74 6a 8e 3d 75 b0 8b 3d
       -0.032293025 -0.026020443 0.06953898 0.06820766
000120 26 63 e7 3c 3e b1 17 3d 90 6a 43 3d 5a f7 57 3d
       0.02824552 0.037034266 0.047709048 0.052726127
000130 92 22 9e 3c 01 ec 8b 3d 1e c1 3e bd 89 15 d5 3c
       0.019303594 0.068321235 -0.04657089 0.026011245
000140 78 32 ae 3d 19 3d 5e 3d d2 f9 65 3c a3 e4 3d bd
       0.0850572 0.054257486 0.014036613 -0.046360623
000150 a7 ae 8e 3d 3f d3 6d bc 4d 2b 02 3d e1 32 d5 bc
       0.06966906 -0.014515697 0.031779576 -0.026025238
000160 44 bd 05 3c 46 7c 2a bd 0d 26 89 3c ed c1 71 bd
       0.0081628 -0.041622423 0.016741777 -0.059022833
000170 87 bd 9a bd 22 2e ad bd 69 3e 90 bc 51 7d 8d 3c
       -0.07555681 -0.08456065 -0.017607884 0.01727167
000180 9a 0d 2a ba db fa fd 3b 17 cc 45 bd 48 10 8b 3d
       -0.0006487012 0.0077508516 -0.04829034 0.06790215
000190 e5 60 91 bc ee 61 15 bd 22 00 ae bc 8a ce a8 bc
       -0.017746398 -0.036470346 -0.021240298 -0.020606298
0001a0 f6 fc 43 bb 78 ee 82 bd f5 3d ad bc 18 73 1e 3d
       -0.0029905415 -0.063931406 -0.021147707 0.03868398
0001b0 5b a8 a7 3d 8d b2 8b bd 92 80 82 bd 32 d3 d5 3c
       0.08186408 -0.06821165 -0.06372179 0.026101682
0001c0 fd 66 3f 3d 43 eb a2 bd 2d e9 70 bd 18 39 98 bd
       0.046729077 -0.07955029 -0.058816124 -0.07432765
0001d0 5b b4 a0 bd 9e 5c 1e bc ed 1b 8a bd 96 d2 18 3d
       -0.078469 -0.009665636 -0.06743608 0.037310205
0001e0 fb e9 2c 3d d0 c3 cb bc 20 5c 30 bd f4 3d 91 bc
       0.04221533 -0.024873644 -0.043056607 -0.017729737
0001f0 57 89 9e 3d 68 28 7e ba 9a 71 ce 3c f3 5f 9f bc
       0.07741039 -0.0009695352 0.025200654 -0.019454932
000200 78 c1 ac 3c b2 9e 4a bd 35 0c 91 bd 15 79 5e bc
       0.021088347 -0.04946775 -0.070824064 -0.013578673
000210 b9 23 57 3c 55 9b fe 3c 09 a7 70 3d a6 e9 49 bd
       0.013131076 0.031079927 0.058753047 -0.04929509
000220 1e 4f ab bd 37 3e 5c 3d 89 87 95 3d 6d 55 5f 3d
       -0.083647 0.05377027 0.07301242 0.054524828
000230 e8 5d 5a 3d c7 1f c8 3c b2 d4 5d 3c 35 e7 aa bd
       0.053312212 0.024429215 0.01353948 -0.083448805
000240 ec 4a cc 3d ab b2 29 bd f0 42 aa bd 8f 7a 79 3c
       0.09975228 -0.041430157 -0.083135486 0.015226974
000250 90 62 6f 3c 67 41 75 bb ae 75 2e 3d 8e d1 7d bd
       0.0146109015 -0.0037423016 0.042592697 -0.061967425
000260 73 9f 35 3d 15 d1 b3 bd c0 0e 51 bd 28 c3 79 3d
       0.044341516 -0.087801136 -0.051039457 0.06097713
000270 4b 8e b2 bd 27 bc 72 3c e5 8e 85 bb 85 61 c9 3c
       -0.087185465 0.014815367 -0.0040758722 0.024582634
000280 7f 33 b7 bd 2c a0 29 bd 3f 18 90 3d e9 1e 0a bd
       -0.08945369 -0.041412517 0.070358746 -0.033720884
000290 d2 0f a3 bd ff a8 c3 3b df 6c 55 3b 95 d0 42 3d
       -0.07962002 0.0059710736 0.0032566113 0.0475622
0002a0 9e ef a0 3d 94 0a bf bd 07 17 d0 3c 68 b2 b6 3c
       0.07858203 -0.093281895 0.025401605 0.022301868
0002b0 e7 52 f5 bb e5 32 cc 3d 9f 34 0d bd 77 6a b4 bd
       -0.0074866894 0.09970645 -0.03447401 -0.08809369
0002c0 1b e1 2c 3d b6 9f 40 bc fc cb 2a bd 08 67 9d 3d
       0.042206865 -0.011756828 -0.04169844 0.07685667
0002d0 9f 9d fd 3b 4f 2e 47 3d 1f a9 a3 bd 89 53 9a bd
       0.007739737 0.048628148 -0.07991242 -0.07535464
0002e0 82 a9 a5 bd cc 07 0d bb ae 46 59 3c 14 cc 26 bd
       -0.08088972 -0.002151954 0.01326148 -0.040721968
0002f0 3d 1e 15 bd ce 89 b8 bb 0a 4a a9 3d 87 90 86 bd
       -0.03640579 -0.005631662 0.08266075 -0.06570535
000300 c8 ff bf 3d 4a e1 68 bd 53 fe 6e 3d c4 1a 5c 3d
       0.09374958 -0.056855477 0.05834801 0.053736463
000310 07 ad c1 3c 78 fe 50 3c 3f ee b1 bc 73 c5 e6 3c
       0.023642076 0.012755983 -0.02172005 0.028170323
000320 e5 7a 27 bd c8 24 d2 3c 1d bb 9a 3d 58 17 7d bd
       -0.040888686 0.025652304 0.0755522 -0.06178984
000330 f3 90 8b bd 9f 21 3e bd fb a4 2e 3c a9 64 b6 bd
       -0.06814756 -0.046418782 0.010659452 -0.08905918
000340 68 a9 27 bc 7b ab 8e 3d e4 d3 87 3d a1 4a 9f 3d
       -0.010233261 0.06966301 0.06632212 0.07777906
000350 84 49 00 bd eb bd 36 3d 0c 4f b0 3d 59 c2 c2 bd
       -0.03132011 0.044614714 0.08608827 -0.09509725
000360 93 30 81 3d 42 a0 17 3d f4 8c aa bc f6 6e 81 3d
       0.06308093 0.037018068 -0.020819165 0.06319992
000370 6a 29 d0 bb b6 6d 94 bc 7a 27 b1 3d 50 a4 ea 3c
       -0.006352593 -0.01811872 0.08650108 0.028642803
000380 e5 66 57 3d 7b 83 97 3c 5a 2f 45 3c 9d 37 87 bd
       0.052588362 0.018495312 0.012035215 -0.06602404
000390 10 e2 64 3d 1c 48 a1 3d f1 81 b5 3c ab 0c d4 3c
       0.055879653 0.07875082 0.022156687 0.025884947
0003a0 d3 c4 1f 3d 29 5f 80 bd 0d 7d b8 3d 22 3d 89 3d
       0.039006066 -0.0626815 0.090082265 0.06701113
0003b0 ce e9 12 bb fd 5b 08 3d 16 00 9a 3d 3f 60 9f bd
       -0.002241719 0.03329085 0.07519548 -0.07782029
0003c0 c3 52 4e bd 33 fb cf b9 8a b4 eb 3c b0 7a 0f bd
       -0.050371896 -0.00039669275 0.028772611 -0.035029113
0003d0 73 9e 9d bd 77 8b 19 3c be e1 4c 3d e2 f5 59 3d
       -0.076962374 0.00937163 0.050019972 0.053213008
0003e0 d3 06 66 bd 8c 82 a7 3c e5 bb ec bc 1d 19 c8 3d
       -0.05615885 0.020447992 -0.028898189 0.09770415
0003f0 dd 72 67 3d 00 e7 c2 3d a4 0e 79 bd c1 0f 15 3d
       0.056506027 0.09516716 -0.060804978 0.036391977

4.bias f4 [7]
000000 89 3f 6a 3d 47 40 80 3d e7 c2 de 3c 19 29 2e 3d
       0.057189498 0.0626226 0.027192546 0.042519663
000010 f4 12 d0 3d cb d9 3f bd 41 6f 8e bd
       0.10159865 -0.046838563 -0.06954814
