models/date-06-19-2025-11-20p1-RLbotp2-RLbotself_play-Falseexp_dir-RLbotepochs-50p1_win_rate-0.03p2_win_rate-0.97is_test-False/model.pth (torch, 117053 bytes, 6 tensors)

0.weight f4 [150, 84]
-0.019807808 0.02032786 -0.015257887 0.09774738 -0.038656652 0.08317925 -0.044851623 0.09420299
-0.09333451 -0.09073377 0.085178636 -0.0955188 -0.007673458 0.076807454 0.03993998 0.1144574
-0.06311493 -0.092974946 0.0043386235 8.315769e-05 -0.0710215 -0.109766625 -0.110408835 -0.034437764
0.04848287 0.08412847 -0.013668971 0.06805647 0.10393051 -0.055993743 0.016953414 0.021477621
0.09736337 -0.083047464 0.11432893 -0.08324838 -0.034164883 0.1074072 -0.07809913 0.10465467
-0.12019192 0.09939933 -0.057518635 0.03104839 -0.05082856 -0.091263816 -0.033083707 -0.014929295
-0.008752689 0.034576867 -0.09179843 0.07287983 -0.032761555 -0.0022802793 0.011762712 -0.0104104895
0.08675996 -0.07764002 0.033122405 0.08238493 0.026041819 -0.12789547 -0.045985322 0.04028271
-0.054753944 0.07298082 -0.049887314 -0.03586711 0.017287849 -0.033302683 -0.02438242 -0.020867161
-0.0035421443 0.015903573 -0.0412551 0.038563978 -0.04950873 -0.040925726 0.08726141 0.05841862
-0.03546712 0.035191916 -0.094906 0.024180237 0.043021202 0.014722787 0.06424344 0.061591193
-0.048653297 0.10736589 -0.09061637 0.00055022666 0.057898935 0.040257122 -0.029968679 0.061827697
-0.035199154 0.034837518 0.011588561 -0.109104075 -0.11003151 0.0012974418 0.021666251 -0.004213752
0.08531471 0.053358816 -0.014236271 -0.09803845 0.059074983 -0.036026824 -0.021352686 0.08210163
0.021361927 0.07439219 -0.05030714 0.040608197 -0.02848303 0.0414833 -0.095777184 0.054799255
-0.038045328 -0.001339708 -0.08110216 -0.10240815 -0.09004167 0.044339072 0.085244365 -0.0067605833
0.0019403471 0.053475764 0.10595299 -0.11276988 -0.1045607 -0.021368267 -0.04105954 0.052098308
0.027134567 0.004910439 -0.03821325 0.02705716 -0.032952495 0.049452573 -0.12868497 0.041945636
0.07397005 0.086378865 -0.06490898 0.106903225 -0.02769871 -0.12187544 0.058624834 0.008881137
0.015667042 0.036463108 -0.023528546 0.06266876 -0.012710251 -0.049504843 0.039442904 -0.09983404
0.036286637 -0.016173173 -0.054844577 0.01111458 0.073879875 0.041591536 0.07469114 0.0016881677
0.09949187 0.07501022 0.07363561 -0.0054348004 -0.057777233 0.074807934 -0.082789764 0.058104083
-0.08146202 0.025003212 0.10149672 0.061712325 0.08493069 0.0859689 0.072683446 0.10045755
0.08671798 -0.0126819145 -0.012675552 0.018532414 0.0186388 -0.10534396 -0.05445771 -0.054994408
0.022373827 -0.10303837 0.053239927 -0.08373672 0.013600494 0.041578803 0.0006427174 0.014880963
-0.0642031 -0.04320935 -0.08998516 0.041238036 0.06637367 -0.013916102 0.08619704 0.045609444
0.08100761 -0.07416406 -0.020163001 -0.09000068 -0.08140213 -0.08948793 0.10437106 -0.06815201
0.075777516 -0.033241678 0.07113238 0.084216364 -0.107741505 0.004917166 -0.095791034 0.0019883376
-0.09816854 0.06918712 0.06024561 -0.094295405 -0.08705208 -0.05672263 0.08275716 0.046153516
0.07271498 -0.123491995 0.103105515 -0.09823319 -0.036575895 -0.022583583 0.10646939 0.015282535
-0.012834128 -0.022036359 0.018025685 -0.041770514 -0.051259615 0.008774018 -0.07593772 0.0034844738
0.09304517 -0.0050422708 0.030426307 0.013813255 0.019425591 0.025958933 -0.07261994 0.03445807
00000000: fc43 a2bc 9d86 a63c 37fc 79bc c72f c83d
00000010: 7056 1ebd e259 aa3d 56b6 37bd 7fed c03d
00000020: 2a26 bfbd a0d2 b9bd 2372 ae3d 5c9f c3bd
00000030: a271 fbbb 3a4d 9d3d 1b98 233d a468 ea3d
00000040: 6742 81bd a669 bebd 032b 8e3b f264 ae38
00000050: b873 91bd 53cd e0bd 071e e2bd 9d0e 0dbd
00000060: f995 463d 8c4b ac3d d2f3 5fbc 3161 8b3d
00000070: 85d9 d43d b259 65bd e3e1 8a3c d6f1 af3c
00000080: 7266 c73d ca14 aabd 4925 ea3d 207e aabd
00000090: 7af0 0bbd 4ef8 db3d 70f2 9fbd 3055 d63d
000000a0: 2e27 f6bd e091 cb3d a998 6bbd 3159 fe3c
000000b0: 9c31 50bd 86e8 babd c882 07bd 009a 74bc
000000c0: 7067 0fbc 79a0 0d3d d100 bcbd 0542 953d
000000d0: fb30 06bd bd70 15bb 64b8 403c c290 2abc
000000e0: 35af b13d bb01 9fbd 5cab 073d 6eb9 a83d
000000f0: a755 d53c 08f7 02be 1b5b 3cbd 7cff 243d
00000100: ac45 60bd f876 953d a456 4cbd 64e9 12bd
00000110: 3f9f 8d3c 6568 08bd a4bd c7bc 9cf1 aabc
00000120: 5223 68bb 3648 823c 1cfb 28bd 43f5 1d3d
00000130: abc9 4abd bca1 27bd 1cb6 b23d 5d48 6f3d
00000140: f945 11bd 6625 103d 145e c2bd a215 c63c
00000150: 0037 303d d837 713c 1192 833d 0c47 7c3d
00000160: ae48 47bd a6e2 db3d 1395 b9bd 163d 103a
00000170: 6f27 6d3d a7e4 243d e080 f5bc 0a3f 7d3d
00000180: fd2c 10bd c9b1 0e3d f3dd 3d3c f571 dfbd
00000190: 3358 e1bd ec0e aa3a 6c7d b13c 8413 8abb
000001a0: 7bb9 ae3d c68e 5a3d 403f 69bc 62c8 c8bd
000001b0: 9cf8 713d dd90 13bd d4eb aebc e624 a83d
000001c0: 35ff ae3c ef5a 983d dc0e 4ebd c854 263d
000001d0: 3e55 e9bc 65ea 293d d426 c4bd 2f75 603d
000001e0: 6bd5 1bbd 2499 afba e418 a6bd 5dbb d1bd
000001f0: c467 b8bd e39c 353d 9994 ae3d e287 ddbb
00000200: 3f53 fe3a 6709 5b3d e2fd d83d e5f3 e6bd
00000210: ec23 d6bd 810c afbc 0c2e 28bd 0965 553d
00000220: 5049 de3c bfe7 a03b 7f85 1cbd faa6 dd3c
00000230: 32f9 06bd c88e 4a3d fec5 03be 30cf 2b3d
00000240: 9c7d 973d 67e7 b03d 00ef 84bd 14f0 da3d
00000250: 68e8 e2bc d599 f9bd 9820 703d 3082 113c
00000260: 2b58 803c 575a 153d f0be c0bc 7b58 803d
00000270: a83e 50bc 97c5 4abd e28e 213d ca75 ccbd
00000280: 4ca1 143d 9a7d 84bc b5a4 60bd ed19 363c
00000290: 554e 973d e35b 2a3d abf7 983d 8245 dd3a
000002a0: 65c2 cb3d f59e 993d 44ce 963d 6916 b2bb
000002b0: d2a7 6cbd e734 993d ae8d a9bd 8cfe 6d3d
000002c0: 8fd5 a6bd 89d3 cc3c 83dd cf3d 10c6 7c3d
000002d0: 24f0 ad3d 7610 b03d 0fdb 943d b0bc cd3d
000002e0: 3299 b13d cec7 4fbc 1ead 4fbc 4ad1 973c
000002f0: 66b0 983c 93be d7bd 0c0f 5fbd d141 61bd
00000300: 5149 b73c c805 d3bd 1c12 5a3d 287e abbd
00000310: 9bd4 5e3c 894e 2a3d 097c 283a 48cf 733c
00000320: ea7c 83bd 4afc 30bd 244a b8bd 37e9 283d
00000330: ebee 873d 5d00 64bc 1388 b03d f8d0 3a3d
00000340: 51e7 a53d 54e3 97bd e12c a5bc 4752 b8bd
00000350: 29b6 a6bd 7345 b7bd 7fc0 d53d 4893 8bbd
00000360: 3e31 9b3d 6d28 08bd daad 913d a179 ac3d
00000370: 94a7 dcbd 2e20 a13b 172e c4bd c54e 023b
00000380: 960c c9bd fab1 8d3d 1ac4 763d f31d c1bd
00000390: 5c48 b2bd fd55 68bd 967c a93d 780b 3d3d
000003a0: 97eb 943d 5fe9 fcbd fc28 d33d 7c2e c9bd
000003b0: 9bd0 15bd 3501 b9bc a00c da3d 9963 7a3c
000003c0: 3c46 52bc 9885 b4bc 9aaa 933c 8f17 2bbd
000003d0: 9af5 51bd e6c0 0f3c 3c85 9bbd c55b 643b
000003e0: 778e be3d a239 a5bb 9740 f93c fe50 623c
000003f0: 6b22 9f3c d4a7 d43c c3b9 94bd e823 0d3d

0.bias f4 [150]
-0.040813033 -0.018606344 -0.011981817 0.04640332 -0.010063426 -0.09275206 0.005430923 -0.095597915
-0.06207081 0.03956333 -0.116012454 -0.08229077 0.110071436 -0.034690913 -0.03130389 -0.055236988
0.0896488 0.05407193 0.08921247 0.0598321 0.04058181 -0.023106098 -0.0005365645 0.04991782
-0.012616786 0.0050265756 0.049350448 0.07325499 -0.010933905 -0.0883257 0.0112744365 -0.05957983
-0.06212375 0.024375137 -0.069547914 0.003371831 -0.028033616 0.08583078 -0.04109762 0.05153825
-0.034016427 -0.055159334 0.064873695 -0.034532107 0.07919144 0.036708478 -0.09667189 0.07055932
-0.12165186 -0.046793643 0.053927653 0.08770481 -0.021805204 0.058243576 0.027021721 -0.035050355
-0.03866747 -0.020894166 -0.021095863 0.025702335 0.06494487 -0.040218584 0.005615529 0.034741443
-0.044067115 0.08174574 -0.07530775 0.12174053 0.09122068 0.021160038 -0.079041265 0.075412944
-0.023277523 -0.06462175 0.1020882 0.060580373 -0.0010037422 0.077607065 -0.058178127 0.09023481
-0.009469213 -0.017473767 0.10111755 0.033622995 -0.04508335 0.0061195586 0.07392094 0.08316936
0.08579807 0.023041952 -0.054417662 0.0025134985 -0.010007351 -0.033931877 0.054509636 0.110568404
-0.08564204 0.07544325 -0.06518828 -0.119540356 -0.051361848 0.08806836 -0.028332196 0.053437542
-0.038456235 0.09315042 -0.008152312 -0.019331116 0.0836234 -0.038735654 0.060423765 -0.04662494
-0.06443079 0.00500324 -0.005345712 0.03691705 0.043519083 -0.021757608 0.0329461 -0.050425567
0.015270018 -0.11195081 -0.064381994 -0.12057857 0.04458143 -0.015561741 0.07821834 0.12168873
-0.11713894 0.09719932 -0.077285856 -0.07911627 -0.06002273 -0.08892472 0.08999625 -0.09501309
-0.057212252 0.03791725 -0.09646895 -0.0524165 0.003429641 0.08410223 0.011232376 0.053207297
-0.09365564 0.05855824 0.063283056 -0.094870836 -0.033076163 -0.048713896
00000000: 912b 27bd 556c 98bc 624f 44bc 6811 3e3d
00000010: 11e1 24bc cbf4 bdbd e2f5 b13b d7c8 c3bd
00000020: f63d 7ebd 290d 223d f097 edbd 1088 a8bd
00000030: 226d e13d 0f18 0ebd 8238 00bd 2e40 62bd
00000040: ca99 b73d 877a 5d3d 07b5 b63d 8112 753d
00000050: 1d39 263d 0049 bdbc 3ca8 0cba a176 4c3d
00000060: a3b6 4ebc f9b5 a43b b223 4a3d b606 963d
00000070: 1f24 33bc 1be4 b4bd 6ab8 383c fb09 74bd
00000080: 7975 7ebd 5eae c73c 236f 8ebd f0f9 5c3b
00000090: c1a6 e5bc 0cc8 af3d fa55 28bd c619 533d
000000a0: cf54 0bbd c1ee 61bd 80dc 843d 8a71 0dbd
000000b0: 1f2f a23d a15b 163d e9fb c5bd 6881 903d
000000c0: 9c24 f9bd b1aa 3fbd 3ee3 5c3d 949e b33d
000000d0: d4a0 b2bc d190 6e3d a85c dd3c f690 0fbd
000000e0: c861 1ebd 3e2a abbc 3bd1 acbc b48d d23c
000000f0: d101 853d 3ebc 24bd 7902 b83b 0b4d 0e3d
00000100: b87f 34bd 4f6a a73d f33a 9abd 1953 f93d
00000110: e8d1 ba3d d157 ad3c 63e0 a1bd 1a72 9a3d
00000120: 81b0 bebc 6858 84bd 9e13 d13d 2023 783d
00000130: 0090 83ba 74f0 9e3d 304c 6ebd 07cd b83d
00000140: c224 1bbc 2525 8fbc b816 cf3d 44b8 093d
00000150: 52a9 38bd 9486 c83b dd63 973d b354 aa3d
00000160: e6b6 af3d 7ac2 bc3c 0ee5 5ebd 82b9 243b
00000170: dff5 23bc 27fc 0abd 7f45 5f3d b071 e23d
00000180: 1865 afbd fe81 9a3d 6f81 85bd 93d1 f4bd
00000190: cd60 52bd 2f5d b43d ec18 e8bc 53e1 5a3d
000001a0: 4984 1dbd a6c5 be3d 4691 05bc 4a5c 9ebc
000001b0: bf42 ab3d 47a9 1ebd e97e 773d cbf9 3ebd
000001c0: 4af4 83bd 38f2 a33b 152b afbb 5536 173d
000001d0: 1141 323d 033d b2bc 7df2 063d 0a8b 4ebd
000001e0: 192f 7a3c 7746 e5bd b5da 83bd e6f1 f6bd
000001f0: 049b 363d acf6 7ebc f030 a03d f137 f93d
00000200: 8ae6 efbd 7010 c73d 0c48 9ebd b607 a2bd
00000210: 65da 75bd 2a1e b6bd f44f b83d 3996 c2bd
00000220: 6557 6abd 1e4f 1b3d 8391 c5bd afb2 56bd
00000230: d4c3 603b ca3d ac3d 0008 383c e5ef 593d
00000240: 87ce bfbd c4da 6f3d 8c9a 813d a44b c2bd
00000250: df7a 07bd 3988 47bd

2.weight f4 [100, 150]
0.023817277 -0.06222285 0.06068198 0.06512446 0.031814255 0.044312965 -0.022692494 -0.011907262
0.07691017 -0.017516313 -0.022979185 -0.009287169 -0.05188825 -0.015923625 -0.083067596 -0.04884754
-0.0039928034 -0.016280182 0.060760964 0.0734644 -0.041553173 -0.008060729 -0.031666476 0.029763423
0.08689996 -0.016418053 0.083180204 0.055519372 0.07243941 0.0677775 -0.054174945 -0.073783785
-0.030624429 -0.04251374 -0.035879165 -0.009965533 -0.018021485 -0.09659321 0.07209046 0.015856868
-0.019870201 0.073322 -0.0013253427 -0.03389777 0.0783659 -0.01613974 -0.014837444 0.09408495
0.059299596 0.06042013 -0.037152436 -0.015487694 0.01604853 -0.06360634 -0.06752037 0.058794715
-0.07530213 -0.011747448 -0.008831177 0.0066506867 0.05438293 -0.018800583 0.043520004 0.021150084
-0.029680092 0.0075067747 -0.042414617 -0.060703386 0.06330681 -0.050552204 0.07187914 -0.023649387
-0.0037433794 -0.016315281 0.029100738 0.043216784 0.03998331 -0.02355045 0.041883986 0.015932927
0.07655431 -0.054735515 0.08765649 0.055220813 0.028676823 -0.04091169 0.008225 0.043774996
0.026754746 0.0072909333 0.07195755 -0.075850405 -0.06975736 -0.077734366 -0.027652716 0.09732564
0.059697576 -0.060789376 0.010019709 -0.054356724 0.035839096 -0.07548365 0.07170244 0.042853512
0.070679806 0.09736671 0.0070049996 0.010926829 0.07780936 -0.06641053 -0.09622501 0.017755292
0.052213885 0.00727814 -0.021852374 -0.058297187 0.04145704 0.037908103 0.061497685 -0.008905355
0.08832794 -0.010455835 0.042431414 0.036911506 -0.06122823 -0.039345372 0.01483335 0.07915288
0.03498451 0.067555845 0.08385817 0.031889737 -0.0011047812 -0.03721748 0.06113993 -0.06675084
-0.06435302 0.062415726 -0.00092999695 -0.05597537 -0.045273557 0.050521247 -0.007879412 0.013586295
-0.0024744414 0.021234212 0.02572478 -0.030980319 -0.036485355 0.02610661 0.06184648 -0.013502938
0.06462366 0.053573534 0.062661424 0.05507727 0.0107359355 0.05213387 -0.0074765924 0.062840365
-0.029278683 0.01693048 -0.024660407 0.03103375 0.03900253 -0.045346312 0.055496927 -0.070029385
-0.0081578605 -0.034616403 -0.0676389 0.008738026 0.07225357 0.02911052 -0.060469776 -0.017856946
0.07409421 0.018863892 0.08026396 0.005759344 -0.027108634 -0.013664913 0.009102281 0.019907014
0.06227684 0.005825978 -0.052510563 -0.024989989 0.02624094 -0.05653864 0.04573227 -0.021830114
0.016577262 -0.08318275 -0.021911107 0.040015608 0.009507933 -0.046535105 0.065702915 0.038653728
0.01934496 0.05075941 -0.02863094 0.03811111 0.0077397088 -0.082402796 0.008265105 0.02784555
-0.06272853 -0.045815274 0.063679084 0.043632597 -0.059927385 -0.05886718 0.009104815 0.01737255
0.012194477 0.0576102 -0.0762933 0.05734702 -0.011584856 0.059847243 0.058166448 0.040359125
-0.0019299076 -0.028220259 0.06675187 -0.034665093 0.017650709 -0.008739138 -0.06284938 -0.013867734
-0.061089728 -0.063352235 -0.08058132 0.03153692 0.034611885 -0.06575098 0.038937103 -0.059356578
-0.028781744 -0.0021270872 -0.0421966 -0.052295245 0.031402096 0.046715535 -0.0009192603 -0.03269867
-0.0332131 -0.0034183385 -0.012239584 -0.004412924 0.0553474 0.030988427 0.06880347 0.06998763
00000000: 731c c33c 63dd 7ebd ab8d 783d f95f 853d
00000010: aa4f 023d 8381 353d 9ce5 b9bc ad16 43bc
00000020: 1483 9d3d 5f7e 8fbc d83e bcbc 3629 18bc
00000030: c688 54bd 4372 82bc 581f aabd 5c14 48bd
00000040: 10d6 82bb 045e 85bc 7de0 783d 8174 963d
00000050: a933 2abd 2611 04bc b5b4 01bd 6cd2 f33c
00000060: 9bf8 b13d 277f 86bc 625a aa3d 4868 633d
00000070: 1d5b 943d eece 8a3d 8ce6 5dbd f41b 97bd
00000080: 15e0 fabc e322 2ebd 08f6 12bd 7a46 23bc
00000090: cba1 93bc a9d2 c5bd 2aa4 933d 43e6 813c
000000a0: d5c6 a2bc d829 963d 1fb7 adba 63d8 0abd
000000b0: 4d7e a03d 7d37 84bc c018 73bc 9caf c03d
000000c0: 22e4 723d 197b 773d 272d 18bd 19c0 7dbc
000000d0: 3578 833c 0a44 82bd 1f48 8abd bad2 703d
000000e0: 0138 9abd 5e78 40bc a4b0 10bc 01ee d93b
000000f0: a3c0 5e3d ae03 9abc 0842 323d f142 ad3c
00000100: aa23 f3bc 64fb f53b f3ba 2dbd 1da4 78bd
00000110: 00a7 813d d40f 4fbd 5f35 933d 5cbc c1bc
00000120: 7c53 75bb a0a7 85bc ac64 ee3c 1504 313d
00000130: 8ac5 233d e0ec c0bc 8b8e 2b3d c585 823c
00000140: 82c8 9c3d 5932 60bd 3f85 b33d 382f 623d
00000150: a8eb ea3c 0493 27bd 27c2 063c 694d 333d
00000160: c52c db3c c8e8 ee3b 7b5e 933d 7557 9bbd
00000170: f2dc 8ebd 3233 9fbd f387 e2bc aa52 c73d
00000180: 7285 743d 48fe 78bd b529 243c 28a5 5ebd
00000190: 04cc 123d 2c97 9abd bbd8 923d 2a87 2f3d
000001a0: 93c0 903d 3368 c73d 328a e53b 7106 333c
000001b0: 845a 9f3d 3e02 88bd 9e11 c5bd 8c73 913c
000001c0: 3ade 553d 777d ee3b c003 b3bc 08c9 6ebd
000001d0: dbce 293d 8745 1b3d ffe4 7b3d c4e7 11bc
000001e0: 47e5 b43d f34e 2bbc 90cc 2d3d 8530 173d
000001f0: 74ca 7abd 9d28 21bd 9407 733c e81a a23d
00000200: eb4b 0f3d b85a 8a3d d5bd ab3d d09e 023d
00000210: 4ece 90ba 5b71 18bd dd6d 7a3d aab4 88bd
00000220: 84cb 83bd a2a7 7f3d 0acb 73ba 6e46 65bd
00000230: c470 39bd 5eef 4e3d a618 01bc 0d99 5e3c
00000240: 3d2a 22bb 5ff3 ad3c c6bc d23c 70ca fdbc
00000250: ab71 15bd 88dd d53c bc52 7d3d 6d3b 5dbc
00000260: 6959 843d ec6f 5b3d a254 803d b498 613d
00000270: c7e5 2f3c 538a 553d 34fe f4bb 73b2 803d
00000280: d9d9 efbc cab1 8a3c 9f04 cabc 7e3a fe3c
00000290: 1ec1 1f3d 0ebd 39bd bf50 633d 916b 8fbd
000002a0: 8ca8 05bc eec9 0dbd 4386 8abd f029 0f3c
000002b0: aef9 933d 2f79 ee3c 28af 77bd bb48 92bc
000002c0: b5be 973d 7388 9a3c 6e61 a43d e1b8 bc3b
000002d0: ed12 debc cde2 5fbc bc21 153c 0914 a33c
000002e0: 0016 7f3d d8e7 be3b 5115 57bd ceb7 ccbc
000002f0: 3df7 d63c 1095 67bd c351 3b3d 11d5 b2bc
00000300: 0acd 873c b85b aabd ec7e b3bc 68e7 233d
00000310: 29c7 1b3c 989b 3ebd 408f 863d 5f53 1e3d
00000320: 5279 9e3c 19e9 4f3d 6f8b eabc 651a 1c3d
00000330: 629d fd3b ccc2 a8bd 5d6a 073c 5a1c e43c
00000340: d177 80bd cca8 3bbd 2e6a 823d 18b8 323d
00000350: 6b76 75bd b61e 71bd 5d2c 153c e150 8e3c
00000360: 58cb 473c acf8 6b3d a93f 9cbd b5e4 6a3d
00000370: 68ce 3dbc 6222 753d f13f 6e3d 9c4f 253d
00000380: f4f4 fcba 2c2e e7bc 34b5 883d fcfc 0dbd
00000390: 3898 903c 9a2e 0fbc 2db7 80bd 7e35 63bc
000003a0: 3939 7abd d1be 81bd d207 a5bd dc2c 013d
000003b0: 31c5 0d3d 73a8 86bd 837c 1f3d e21f 73bd
000003c0: b1c7 ebbc 9a66 0bbb 58d6 2cbd 8a33 56bd
000003d0: 7c9f 003d ca58 3f3d 84fa 70ba 0aef 05bd
000003e0: 760a 08bd 3406 60bb 8988 48bc 4a9a 90bb
000003f0: f5b3 623d 71db fd3c d5e8 8c3d ad55 8f3d

2.bias f4 [100]
-0.04545662 -0.05253341 -0.07390769 0.060371533 0.06314524 0.07716454 -0.048268512 0.0606782
0.023413751 -0.012716763 -0.026758514 0.03342472 0.036678456 0.0004189576 0.03934776 -0.07157756
-0.025621505 -0.01685524 0.014014228 0.04707569 -0.023126576 -0.0352083 0.023423223 -0.053563695
-0.05103522 -0.075499356 -0.030705158 -0.06107294 0.009751223 -0.034778763 -0.04157583 -0.062444326
0.008587138 -0.056915894 0.047444165 0.044482972 -0.033947248 0.0507064 0.0020380497 0.072749764
0.03302855 -0.09344057 -0.051334083 -0.046782613 0.026276715 -0.03279329 0.004839863 -0.055696923
0.09450026 0.049332373 -0.07280439 0.041663814 -0.046003606 -0.04336299 0.06206676 -0.032166637
-0.054417815 -0.06521896 -0.04436109 -0.073722355 0.02385356 0.06026071 0.0035238308 -0.057276282
-0.022099761 0.06038069 -0.014517998 -0.027228892 -0.02248548 -0.029084202 -0.018669922 -0.022578435
-0.06484443 -0.077292845 0.026328769 0.017121116 0.06804432 0.025294438 -0.022104885 -0.049206827
0.048203878 0.06446559 0.058825076 0.041544028 0.019729417 0.02335465 0.042191703 -0.06816649
0.07418947 0.02025204 0.024599798 -0.058399983 -0.043007404 0.009899518 -0.052055087 -0.05451077
-0.06319808 -0.009296912 -0.03713857 0.05247047
00000000: b930 3abd 462d 57bd ea5c 97bd 2448 773d
00000010: 4b52 813d 7108 9e3d 34b5 45bd b489 783d
00000020: 32ce bf3c f859 50bc ac34 dbbc 5ce8 083d
00000030: 263c 163d 8aa7 db39 1e2b 213d 4197 92bd
00000040: 31e4 d1bc 0014 8abc ef9b 653c 70d2 403d
00000050: f273 bdbc 9436 10bd 0fe2 bf3c 9b65 5bbd
00000060: 4f0a 51bd 689f 9abd 6289 fbbc 9e27 7abd
00000070: 98c3 1f3c 2d74 0ebd 6b4b 2abd 9fc5 7fbd
00000080: 11b1 0c3c a420 69bd d054 423d c733 363d
00000090: 450c 0bbd 84b1 4f3d cd90 053b d4fd 943d
000000a0: f248 073d c55d bfbd b043 52bd 209f 3fbd
000000b0: 4442 d73c 4252 06bd b797 9e3b 7522 64bd
000000c0: 5a89 c13d be10 4a3d 781a 95bd ada7 2a3d
000000d0: 476e 3cbd 649d 31bd b739 7e3d 2ac1 03bd
000000e0: 37e5 5ebd 8591 85bd f9b3 35bd bffb 96bd
000000f0: 8b68 c33c efd3 763d 12f0 663b 899a 6abd
00000100: 8f0a b5bc be51 773d e6dc 6dbc 200f dfbc
00000110: 7833 b8bc fe41 eebc aaf1 98bc 69f6 b8bc
00000120: 28cd 84bd b64b 9ebd 6eaf d73c 9541 8c3c
00000130: d25a 8b3d 4836 cf3c 4e15 b5bc 198d 49bd
00000140: 6e71 453d 8906 843d 90f2 703d 122a 2a3d
00000150: 969f a13c 4052 bf3c 35d1 2c3d df9a 8bbd
00000160: a6f0 973d 9be7 a53c 8485 c93c d234 6fbd
00000170: 8828 30bd 9731 223c b737 55bd af46 5fbd
00000180: ff6d 81bd 1352 18bc 9d1e 18bd 47eb 563d

4.weight f4 [7, 100]
-0.02685998 -0.07779569 0.09140383 -0.015354514 -0.000953779 -0.039688 -0.054256883 -0.06165295
-0.015077197 0.039793003 0.017203508 0.099080116 0.044912606 -0.007826114 0.045578633 0.010081754
0.03917274 0.085521474 -0.074753925 -0.06761989 -0.09408188 -0.059259694 -0.06514489 -0.020058075
0.07858993 -0.0043934705 0.021843243 -0.04961717 0.029987866 -0.045603205 0.042285867 0.0060192416
0.085698165 0.06882691 -0.029065112 -0.10743549 0.06070593 -0.026113128 -0.05701327 -0.016643833
0.056836285 -0.01335454 -0.009856068 0.05569738 0.009778301 0.07717501 -0.09480183 -0.079892
-0.024322182 0.065114394 -0.08284356 -0.08549901 0.0041625183 -0.08819933 0.08759889 -0.072582826
-0.098640285 0.042673122 -0.09421082 -0.021586383 -0.08420773 0.054815732 0.052683435 0.08407389
-0.020711875 -0.0727025 0.02153501 0.026531326 -0.016096136 0.07014139 -0.009633762 0.03350049
0.037352037 0.002215879 0.08901916 -0.07288748 0.07894794 -0.014369058 -0.019604983 -0.075061046
-0.030951701 0.06418985 -0.05899828 0.096087486 0.046047363 0.034264293 -0.081215955 0.057391282
0.03315118 -0.054799207 0.058433257 -0.03327132 0.08592146 0.072745636 -0.07433662 -0.028925689
0.061925482 -0.09930366 -0.0317637 0.040920164 0.05935012 -0.07951992 -0.049013715 0.07932538
-0.054779124 0.05339786 0.060406066 -0.07398864 0.019496405 -0.014923065 0.052097082 -0.044868458
0.09436341 -0.09717834 0.06139945 0.01420984 0.018610133 0.03591788 -0.07438657 0.053250957
0.01537005 -0.052808274 -0.048593245 -0.008200094 -0.018466616 0.06301898 0.02483201 0.06016258
0.040246654 0.04979087 -0.03962647 -0.017282907 -0.09372338 0.0385835 -0.0057673147 0.06868019
0.10662273 -0.013079455 -0.030270437 0.049532406 -0.06319912 -0.09263134 0.08456181 -0.08277281
-0.048409462 0.012358332 -0.08340596 -0.011249469 0.09449578 0.031782903 -0.025113499 -0.053119697
0.069867276 0.008687445 0.07458921 0.05389895 -0.08694787 -0.08868098 0.014587772 0.038149036
0.02443855 0.03652721 0.014377296 -0.027773608 0.067368485 -0.037445266 0.042357106 -0.083065316
0.052097715 -0.0029461847 0.08651403 -0.070825994 0.055292767 -0.041539013 0.04516188 -0.1300427
0.034955397 -0.019272733 0.019989489 -0.03839219 -0.08164869 -0.024290692 -0.04611817 0.05478146
0.04486138 0.097138755 -0.08273922 -0.04236212 0.060662948 -0.0072289677 0.0860178 -0.0987921
-0.030281866 -0.050828226 0.028161168 -0.014739064 0.051309858 -0.08479846 -0.03590141 0.039368715
-0.015361473 -0.059507705 0.020343821 0.09132919 -0.08765177 -0.05951088 0.050481442 0.085156836
-0.04317974 -0.09772446 0.007616204 0.06524163 0.06061629 0.058774546 0.07022619 -0.032576732
0.09350418 0.032719564 0.059593003 0.09110745 0.06068342 0.07117447 -0.07021609 -0.011412764
0.06163544 0.022795582 0.036157217 -0.040659178 -0.07264326 -0.060938623 0.09079687 -0.11581881
-0.016089063 0.020858081 -0.039422996 -0.034288388 -0.035577625 -0.049535573 0.018635526 0.016708126
-0.037209883 0.03275268 -0.078656174 0.020433223 -0.08179478 -0.085777655 -0.0845376 -0.0531138
0.0949899 -0.029709546 -0.053074796 0.009207897 0.031128716 -0.023675 0.071509115 -0.105057634
00000000: 7609 dcbc 5953 9fbd ee31 bb3d 8091 7bbc
00000010: 0607 7aba e28f 22bd 773c 5ebd ce87 7cbd
00000020: 5906 77bc fdfd 223d 5fee 8c3c 84ea ca3d
00000030: 48f6 373d 1a39 00bc a9b0 3a3d f12d 253c
00000040: 9873 203d e225 af3d 9618 99bd 4c7c 8abd
00000050: 00ae c0bd 4bba 72bd af6a 85bd d550 a4bc
00000060: c2f3 a03d 1af7 8fbb 9af0 b23c 603b 4bbd
00000070: 1da9 f53c 6dca 3abd f233 2d3d 0f3d c53b
00000080: 8582 af3d 1ff5 8c3d f519 eebc 2307 dcbd
00000090: c8a6 783d 33eb d5bc bf86 69bd a658 88bc
000000a0: 2acd 683d 00cd 5abc 587b 21bc f022 643d
000000b0: 2b35 203c ef0d 9e3d 7627 c2bd 6b9e a3bd
000000c0: 503f c7bc b25a 853d e2a9 a9bd 1b1a afbd
000000d0: bc65 883b daa1 b4bd 0c67 b33d 4ea6 94bd
000000e0: eb03 cabd 03ca 2e3d 9af1 c0bd edd5 b0bc
000000f0: 1a75 acbd 7686 603d 96ca 573d ee2e ac3d
00000100: f3ab a9bc 0ce5 94bd 306a b03c 3958 d93c
00000110: 0bdc 83bc 4aa6 8f3d edd6 1dbc cf37 093d
00000120: 73fe 183d 4838 113b ad4f b63d 0846 95bd
00000130: 75af a13d 336c 6bbc a19a a0bc 9bb9 99bd
00000140: 6c8e fdbc f875 833d 2ea8 71bd 84c9 c43d
00000150: 299c 3c3d b758 0c3d 8d54 a6bd 1f13 6b3d
00000160: 88c9 073d 2275 60bd b657 6f3d 8247 08bd
00000170: 97f7 af3d aafb 943d cc3d 98bd 91f5 ecbc
00000180: 93a5 7d3d b85f cbbd a71a 02bd e79b 273d
00000190: 1d19 733d 57db a2bd 9bc2 48bd 5875 a23d
000001a0: 1360 60bd b7b7 5a3d 5a6c 773d 5b87 97bd
000001b0: edb6 9f3c df7f 74bc c063 553d fdc7 37bd
000001c0: 9a41 c13d 7005 c7bd fd7d 7b3d 64d0 683c
000001d0: 4774 983c a01e 133d fc57 98bd ad1d 5a3d
000001e0: aad2 7b3c 7d4d 58bd b609 47bd b059 06bc
000001f0: 4d47 97bc 1810 813d 806c cb3c 0a6d 763d
00000200: add9 243d 83f1 4b3d 5e4f 22bd e294 8dbc
00000210: 0bf2 bfbd bb09 1e3d befb bcbb 33a8 8c3d
00000220: 055d da3d 364b 56bc b5f9 f7bc 7ee2 4a3d
00000230: 8a6e 81bd 80b5 bdbd be2e ad3d ca84 a9bd
00000240: 0049 46bd 9a7a 4a3c bed0 aabd b14f 38bc
00000250: 0187 c13d ca2e 023d d3ba cdbc 0a94 59bd
00000260: 9316 8f3d c955 0e3c 3ac2 983d 25c5 5c3d
00000270: ba11 b2bd 609e b5bd 8d01 6f3c 2a42 1c3d
00000280: 5b33 c83c 8e9d 153d c08e 6b3c 7a85 e3bc
00000290: 7df8 893d 3560 19bd a57e 2d3d 261e aabd
000002a0: 6a64 553d c714 41bb 452e b13d 380d 91bd
000002b0: ab7a 623d d024 2abd aafb 383d ea29 05be
000002c0: 642d 0f3d dae1 9dbc ffc0 a33c 2141 1dbd
000002d0: 6e37 a7bd 46fd c6bc 68e6 3cbd 8662 603d
000002e0: 91c0 373d aff0 c63d 2e73 a9bd e783 2dbd
000002f0: b679 783d fae0 ecbb 1a2a b03d 8353 cabd
00000300: ad11 f8bc 4231 50bd 40b2 e63c 1d7c 71bc
00000310: 492a 523d d1aa adbd 5b0d 13bd 1741 213d
00000320: b0ae 7bbc 5abe 73bd 16a8 a63c cc0a bb3d
00000330: c582 b3bd aec1 73bd a1c5 4e3d b566 ae3d
00000340: 3ddd 30bd c323 c8bd 5a91 f93b 679d 853d
00000350: c948 783d 94bd 703d c0d2 8f3d 2e6f 05bd
00000360: 1f7f bf3d f304 063d cb17 743d 8b96 ba3d
00000370: 2e8f 783d ecc3 913d 74cd 8fbd 9afc 3abc
00000380: 7175 7c3d cdbd ba3c 9719 143d 3d8a 26bd
00000390: fdc5 94bd c79a 79bd b6f3 b93d 6a32 edbd
000003a0: 36cd 83bc 91de aa3c 027a 21bd fb71 0cbd
000003b0: d8b9 11bd d0e5 4abd 88a9 983c 7bdf 883c
000003c0: 6469 18bd ad27 063d 7d16 a1bd 9363 a73c
000003d0: 0684 a7bd 32ac afbd 0d22 adbd db8d 59bd
000003e0: 118a c23d 6f61 f3bc f564 59bd b8dc 163c
000003f0: a601 ff3c 13f2 c1bc 5f73 923d 7528 d7bd

4.bias f4 [7]
0.0831238 0.00036445068 0.05433446 -0.038348142 -0.007119282 0.033246126 0.0736538
00000000: d03c aa3d be13 bf39 d08d 5e3d f112 1dbd
00000010: de48 e9bb 172d 083d ced7 963d
