models/date-06-19-2025-15-16p1-RLbotp2-RLbotself_play-Falseexp_dir-RLbotepochs-50p1_win_rate-0.03p2_win_rate-0.97is_test-False/model.pth (torch, 117053 bytes, 6 tensors)

0.weight f4 [150, 84]
00000000: b11c ad3d 5191 033d 921a 503c 2904 3fbd
00000010: c927 823d 4e3c 53bc 5dd2 b7bc da1f 293d
00000020: ec78 b6bb 19c7 213d ef6c ccbd 3122 76bd
00000030: 2e6d 85bd 29df f83d 500c 38bd 76b3 17bb
00000040: 41e2 f73c 5b74 9d3d 259f a23c f5f4 e03c
00000050: 6a98 8a3d 2fc1 ffbb 01f5 f9bd 0eff 673b
00000060: 7f58 e73d e948 983d db26 643d 8280 b53d
00000070: 8897 a7bd 804b bdbd 5017 88bd 8438 5fbd
00000080: 2a2c e73d 972f 04be b924 043d e1e4 f5bc
00000090: 5d5f bdbc a888 a6bd 5e23 f23d 2b62 933d
000000a0: 370b 513c d6d1 a1bd 47ba b93d d015 a6bd
000000b0: bbb0 333d 3373 8dbd 3ba6 9b3d d009 8bbd
000000c0: 9c6f 90bd 3210 533d 057c 0fbd 1432 1a3d
000000d0: 0807 933d a169 1d3d 4ae6 f9bb f3d8 8e3b
000000e0: 01ed 48bd 5e97 4f3c 52a1 be3d 8769 c33b
000000f0: 6906 423d a8a4 adbd 5485 773c 44ba cc3c
00000100: 20e8 fe3c aea6 653c e11b acbb 7bb6 e53c
00000110: 4d3f 653d c8ca 9fbc b182 043e 8499 21bd
00000120: f284 67bd 34da 9c3d 2322 2bbd c996 7abd
00000130: 5186 86bd 9f0d 8fbd a8ef ecbc a0af 6cbd
00000140: 93f0 fb3c dc2e 333d 8375 67bd c723 be3d
00000150: d66a 253c fd28 953d 26ad 05bd c029 8cbd
00000160: 3a20 4dbd 8ed5 aa3d a5ae 5f3c 5ce6 ad3c
00000170: 671f 933d 428e c33d 936d f8bc c4cb 7b3c
00000180: 383d 9f3d 91ec 7cbd 2cb7 63bd 934e bc3d
00000190: 544f 2dbd 239a e6bc 3d87 ddbd 00e8 e73c
000001a0: b385 8cbd 2f09 ad3d a903 18ba 98de 0d3d
000001b0: ca8c 0e3d db68 c53d df44 853d b3a8 c73a
000001c0: 37a6 073d 33dc d2bd 1c65 2f3c bb12 9fbd
000001d0: 218e b7bd a72c 853d ff8e c0bc 889c 8d3d
000001e0: b1f5 e1bd fbba c23d 971c d4bd 8ab6 8a3b
000001f0: fc3a 743d 6014 37bd b620 583b 92d6 09bd
00000200: 139a fabc 7109 c43c ee3c b9ba 2c12 a93d
00000210: 0f2d cf3d 2d47 d9bd 8edd b1bc 737b 0e3d
00000220: 26c5 e1bd 2a81 ebbd 5ee1 9b3d ee3b ff3c
00000230: 5802 e2bd dabd 013e 3530 aebd 43d6 03be
00000240: 270d a83c 1751 aebc 090f a1b9 38ab aa3d
00000250: d1b6 ed3c c25d 443c 1320 523d 69df 793d
00000260: 4b44 943c 8ac8 53bd 4355 f5bd df39 853d
00000270: d921 60bd 3099 debd 8f63 a7bc 62bd e63b
00000280: d65f f83c c5c6 183d 2be2 ca3d fefc 6b3d
00000290: 35ed af3d b9e1 c7bd 7122 4d39 f252 b7bd
000002a0: d16c 5f3c aff2 7bbd 2190 d9bd ff20 e3bb
000002b0: 628d 613c 3409 5b3d 9fa1 e5bc 7f96 86bd
000002c0: ec5d eb3d 8846 9c3d 76d7 873d 07c6 b03d
000002d0: fada a3b9 2930 af3d 432f 1d3d 5055 c83c
000002e0: c563 3b3d 5334 483c 3218 dfbd 1c46 113d
000002f0: 738a 04bd 25ad 0fbd 6c91 ef3c 8808 6fbd
00000300: dd61 763d cc76 40bd 6738 fbbb 457f d93d
00000310: 010b b73d be51 80bc 1c91 d43c 0126 ca3c
00000320: cdbd 583d ddcc 103c e138 483a 50cb 9f3c
00000330: fcc9 e8bd 7d40 853d 8beb bbbd bf13 f53d
00000340: 3a31 dbbc 9395 243d 8687 8a3d d1a7 e7bc
00000350: 44de 78bd 5847 7abd 3253 b7bc d412 16bb
00000360: 5818 82bd a9f9 0ebd a018 93bc 5c51 6d3d
00000370: 47ed a53d 6aab 543d a789 7e3b 7d41 f6bc
00000380: df96 4a3c ed31 d23d c629 db3d d76f f7bd
00000390: 7509 beba a2cd 09bd eb8a 2b3d 69c6 4dbc
000003a0: 7c09 083d f284 c9bd 9ac4 4f3d 5c35 3a3d
000003b0: a0e7 223c d0ae 3b3d 232f e73d 4072 61bc
000003c0: 6b1c 353d 6cb2 cd3c b536 863d 91ff 8dbd
000003d0: 4722 97bd d2ba f6bb 2713 d9bb 1b55 2abd
000003e0: 4117 ac3d d0cf 9dbd 8c66 8fbd d901 b23d
000003f0: 3735 563d b6e3 41bd 6b70 11bd 3a88 eabc
0.08452738 0.032121006 0.012701647 -0.046634827 0.06355245 -0.012892796 -0.022439176 0.04129014
-0.005568614 0.039496515 -0.09981715 -0.0600912 -0.06514965 0.121519394 -0.044933617 -0.0023147739
0.030259253 0.07688209 0.019851277 0.027460555 0.06767352 -0.0078050117 -0.12204934 0.0035399827
0.11296176 0.074357815 0.055701118 0.088624015 -0.08183199 -0.09242916 -0.066450715 -0.054497257
0.112877205 -0.12908779 0.032261584 -0.030016365 -0.023116762 -0.08131534 0.11823152 0.071964584
0.0127590215 -0.07901351 0.09068733 -0.08109629 0.043869715 -0.06906738 0.07600065 -0.06788981
-0.07052538 0.051529117 -0.035030384 0.037645414 0.071790755 0.038430814 -0.0076263295 0.0043593585
-0.04905415 0.012670366 0.09308113 0.0059635076 0.047369394 -0.08478671 0.0151074715 0.024991162
0.031116545 0.01401679 -0.005252347 0.028041115 0.05596857 -0.019505873 0.1294048 -0.039453045
-0.05652327 0.076588064 -0.041780602 -0.061178956 -0.065685876 -0.0698502 -0.02892287 -0.057784677
0.030754363 0.04374586 -0.056508552 0.09284168 0.010096272 0.072832085 -0.03263583 -0.06843901
-0.05007956 0.083415136 0.013652478 0.021228008 0.07183724 0.09548618 -0.030325687 0.015368406
0.077753484 -0.061749045 -0.05559461 0.09194674 -0.04231198 -0.02814967 -0.1081681 0.028308868
-0.068614386 0.08449017 -0.0005798885 0.03463611 0.034802236 0.0963914 0.06507277 0.0015232771
0.0331175 -0.10295906 0.010705259 -0.077672444 -0.08962656 0.065026574 -0.023505686 0.069146216
-0.1103319 0.0950832 -0.103570156 0.004233186 0.059626564 -0.044697165 0.0032978482 -0.033651896
-0.030591046 0.023930283 -0.0014132538 0.08255419 0.10116016 -0.10609279 -0.02171209 0.0347857
-0.11023931 -0.114992455 0.07611345 0.031156506 -0.11035603 0.12670079 -0.085052885 -0.12874703
0.020514084 -0.021278901 -0.00030719515 0.08333439 0.029017838 0.011985244 0.05130012 0.061004076
0.01809897 -0.05170492 -0.11979153 0.06505179 -0.05471978 -0.10869062 -0.020433215 0.007041619
0.030319136 0.037298936 0.09906419 0.05761432 0.085901655 -0.0975985 0.00019563154 -0.089513674
0.013636784 -0.061510738 -0.106231935 -0.0069314237 0.013766618 0.053475574 -0.028031169 -0.065716736
0.114925236 0.0763064 0.06632893 0.08631521 -0.00031252933 0.08554108 0.03837515 0.024454743
0.045749445 0.012219506 -0.10893287 0.035467252 -0.032358598 -0.035077233 0.029244147 -0.058357745
0.060151923 -0.046988294 -0.007666636 0.10619978 0.08937646 -0.015663978 0.0259481 0.024676325
0.052915383 0.008837906 0.000763787 0.019506127 -0.113666505 0.06506441 -0.09175786 0.11966657
-0.026756871 0.040181708 0.0676413 -0.028278263 -0.060758844 -0.061103195 -0.022378538 -0.0022899406
-0.063522995 -0.034906063 -0.017956078 0.05793892 0.08101898 0.051921286 0.0038839371 -0.030060524
0.012365072 0.10263429 0.10701327 -0.12081879 -0.0014498668 -0.033643372 0.04188053 -0.012559512
0.03321217 -0.098398104 0.050724603 0.045461044 0.009942919 0.04582101 0.112882875 -0.0137601495
0.044216555 0.025109492 0.06553403 -0.06933511 -0.07379585 -0.007529595 -0.0066245976 -0.04158507
0.08402873 -0.07705653 -0.07001981 0.08691759 0.052296843 -0.047336303 -0.0355076 -0.028629411

0.bias f4 [150]
00000000: 789c 203d 78a8 16bd 4939 333c bb79 b43b
00000010: bd72 e73d d94d 0b3d 18e1 863d 154e 243d
00000020: a174 89bc 256c f5bd 5524 2dbd decd 3bbd
00000030: 74f4 f0bc 6b98 85bd 8988 593d c3f1 21bb
00000040: 6595 5fbd cf88 693d 996b d3bc f44d 4b3d
00000050: 8770 a43d a0a2 37bc 2429 b4bd c1ea 21bd
00000060: c300 2dbd 0483 ddbd 4f1b 923d 9589 03bd
00000070: d96f d83d 5043 3cbd 8282 c93d 4929 eabc
00000080: 2f0b c7bd 59b4 cc3d 86b9 98bd 4f01 2b3d
00000090: 6784 e4bc 9320 413d 16d0 3c3b e34d 653c
000000a0: 30ee e4bd a3e3 9a3d 8f26 e0bd 2e9c 18bd
000000b0: 5cc4 c93c 25c2 bdbc 3042 153d 1e84 c13c
000000c0: 671a dcbd 9776 cebd 0478 283d 159a 273d
000000d0: 3217 943c 8371 3b3d 2853 783d f2a6 c53c
000000e0: 0ef6 e5bd 7456 adbd 860e d9bd 0c08 3e3d
000000f0: 1b64 113d 6a0d b8bd 89c9 373d 852c c83d
00000100: 2b5e de3c bc8e e0bc ff82 673d 7180 953d
00000110: cce6 b43d 8948 6e3c 88ea 4fbd 4d79 d83c
00000120: 9112 713d 5b83 92bc a181 753d 3f92 8fbc
00000130: 9925 b73d 3c77 b63d 3dac 13bd b2f3 e4bd
00000140: c5b1 97bd e73c 9bbd 335b 09bd 3bb3 e6bd
00000150: c4d9 b53c e5fe 07bd f3a8 e9bd 62ac 943d
00000160: f8b8 a73d c343 b3bd e2bd ac3d 5674 10bd
00000170: 7831 cf3d 4355 e4bd 6a17 c43c 86e2 bbbd
00000180: 87fc 99bd 8dea a6bd 34dc 163e ed1c 9cbd
00000190: e6cf 59bd 444c 8c3d 0fa6 88bc d43f bc3b
000001a0: 1427 a93d 8e4a d83a 0a79 013d d1d2 86bd
000001b0: c8a2 d3bd 8ac4 bdbc 0084 b1bd 46de b3bc
000001c0: bf59 3b3d 705b c73d 467d 58bd 57aa 243c
000001d0: 2a3e 1e3d 5b39 283c 7477 fdbd 08d5 4a3c
000001e0: db77 98bb 58cd 023e 0f83 73bd fab4 c1bd
000001f0: 9c8b cc3d 25fe c3bd 905c afbc 75af debd
00000200: 6064 25bd 61f4 923d 92df 45bc cd7f 3fbd
00000210: dbe7 02bd af05 9c3d 2705 81bd 58b8 703d
00000220: acef 28bd 72d0 0abd 6351 753d 56ff c1bc
00000230: 6ea1 473d d517 b03d e9ff 3abb aada 83bd
00000240: 7cc5 c2bb 549d 73bd cf6f 7c3d fbaf 8bbd
00000250: 55a1 e63d c19d 813d
0.03921172 -0.036781758 0.010938951 0.0055076755 0.113011815 0.03400979 0.06585902 0.040113527
-0.016779246 -0.119835176 -0.042270977 -0.045850627 -0.02941344 -0.06523212 0.053108726 -0.0024710752
-0.054585833 0.057015236 -0.025808142 0.04963489 0.080292754 -0.011208206 -0.087969095 -0.03953052
-0.042237055 -0.10816005 0.07134115 -0.03211363 0.10568208 -0.04596263 0.098393455 -0.02858414
-0.0971893 0.09995336 -0.07457261 0.041749295 -0.027895166 0.047150206 0.0028810552 0.01399562
-0.11178243 0.075629495 -0.109448545 -0.03725832 0.024629764 -0.023163864 0.036440074 0.023622569
-0.10747223 -0.10081213 0.04113008 0.04091843 0.018077467 0.04576255 0.06062618 0.024127457
-0.11228572 -0.08463755 -0.10598473 0.046394393 0.03549586 -0.089869335 0.044869933 0.097741164
0.027144512 -0.027411811 0.056521412 0.07299889 0.088330835 0.014543661 -0.050760776 0.026425028
0.058855597 -0.0178849 0.059938077 -0.01752579 0.08942718 0.08909461 -0.03605293 -0.11179294
-0.07406954 -0.075799756 -0.03353424 -0.11264654 0.022198565 -0.03320207 -0.11409178 0.07259442
0.08189577 -0.08753159 0.08434655 -0.035267197 0.10116857 -0.11149075 0.023936946 -0.09174065
-0.07518869 -0.08150206 0.14732438 -0.07622705 -0.053176783 0.06850484 -0.016680745 0.0057449136
0.08259407 0.0016501711 0.031609572 -0.06583179 -0.103337824 -0.023165006 -0.08667755 -0.021956574
0.045739885 0.09734237 -0.052853845 0.010050378 0.038633503 0.010267581 -0.123762995 0.012379892
-0.0046529598 0.12773645 -0.05945116 -0.09458347 0.09987566 -0.095699586 -0.021406442 -0.108733095
-0.04037893 0.07175518 -0.012077229 -0.04675274 -0.031959396 0.076182716 -0.06299811 0.058769554
-0.041244194 -0.033890195 0.05989207 -0.023681324 0.048737936 0.085982956 -0.0028533882 -0.06438191
-0.005943952 -0.05947621 0.061630066 -0.06820675 0.112612404 0.06328917

2.weight f4 [100, 150]
00000000: 5e12 233d 3d8b e43c 4ac0 ffbc 8274 da3c
00000010: dfce 9dbd 6ee2 863d f061 66bc 6cf2 82bd
00000020: 7837 c0bc a2c3 56bc 1cb1 3d3b f41b a6bd
00000030: 9617 713d 3d9b 833d 0a51 5d3d 1c7b 17bb
00000040: bc7c 6c3d db9a 8f3c a08e 8fbd c65d b2bd
00000050: cac7 6bbd af7e 2e3d 462d a8bd b3cf 9bbd
00000060: 8699 eabb 490e 8abd 9e69 6c3d 2e12 50bd
00000070: 9211 68ba 8fa6 b2bd 343e 34bd 81d2 373b
00000080: 6bb6 f53c 3874 6abc d923 5abd c33c 193d
00000090: 840f 02bd fbdb 29ba 8536 a1bc b367 093c
000000a0: e5ff 07bd 9c99 24bd 5598 44bd c42e 313d
000000b0: 29fd 803c 7fab 993d c9a1 b1bc 502a 78bb
000000c0: fe8d 9e3c ec62 92bc 3a5d 92bc 8e7a 1cbc
000000d0: 13b8 303d ccaf b23c 2bea 22bc a139 0fbd
000000e0: d3c7 1e3d 37ef 00bd 9833 443d 62bf 4a3d
000000f0: e756 15bd ab49 523d c328 5cbd d208 a43c
00000100: 2d82 26bb 5b13 01bc 021e 843d 9968 07bd
00000110: a64e 4bbd 455a 5fbd bfe1 5d3d 1d0f b83d
00000120: ab6a d5bc b0c6 6dbd 27ce 9dbc 97be 54bd
00000130: fc65 04bd db39 8f3c 47ea f03c f636 94bd
00000140: e65f 8fbd 9c31 383d 5172 afbc 92e2 86bd
00000150: 6cf9 b43d cd30 193d b8a6 673d a717 0a3d
00000160: 4b4e b93d 85f0 a23d 16c5 883c b539 aabc
00000170: 1653 193c 1d5d 5f3d b037 ca3a 73b7 51bd
00000180: 7d49 9b3d 6f12 10bd 346b 7bbd fdef fcbc
00000190: 989f 623d 8035 c93c a92a 393d f7d6 80bc
000001a0: 9cd1 213d c176 79bc d71f 9dbc 851a 19bc
000001b0: 5ec5 78bd 0c4a 203d dda2 983c 069e 363d
000001c0: 09f1 073d 3fae bfbd 80b0 c33c bfb1 8abd
000001d0: db26 7c3d 00ad 833d d70c 1c3d 1294 5f3d
000001e0: 5883 77bd 8668 7b3d a649 7ebd 28c9 0bbc
000001f0: 4d88 563d ea91 65bd 4f5a 233d 7bdc 65bd
00000200: f266 08bd 1e5b a2bc 0796 ecbc a668 f03b
00000210: e24d b63d 397d aabc ffa8 b83d d930 873d
00000220: b342 b1bc f5d3 ae3d 070f d63c c6b6 803b
00000230: 0d0b 74bd eea6 9fbd ba4f 84bd ac64 263d
00000240: 6d44 823d 8fbb 68bd e8b4 62bc 3e65 b1bc
00000250: c717 503d 6f29 b73c 97ec 753c 4c5e a43d
00000260: 54bf ed3b 2292 113c 1863 8f3b 643d 7b3d
00000270: 34c5 16bd 1716 e83c d5fc 2abc d2b5 163d
00000280: 5239 683c d155 9a3d 80d6 3c3d 6361 95bc
00000290: a96e 16bc 9013 953d cba2 ad3c 02db a2bd
000002a0: 40dc f2bc 08e3 e03d d8fe 073c d03f 66bd
000002b0: ca12 99bb 7702 8a3d ce36 863d 96d7 acbd
000002c0: 58de 5438 f29c e43d 130c 42bd 94b1 3e3d
000002d0: ba95 52bd 311b 50bd bb2f 7bbb f3f7 e0bc
000002e0: b457 473d 0acb 533d 8402 283c c99e a63d
000002f0: 37cc 4abd 3e3c 023d 15ce c3bc f8c2 753c
00000300: e3d7 943c 6697 87bd 2bfb 58bc 3066 023d
00000310: bf72 043d c77f 133d f4ac c53d 9493 1a3d
00000320: eb74 24bd eddb cb3d b1e6 5cbd 344c 853d
00000330: 368d cebc b2cf 9a3b 0125 24bc 2a2e 2a3d
00000340: 047b bb3d e7ae ae3d 0170 3dbd 6543 3c3c
00000350: 2fa4 4a3d 229e 9f3d 14df a53d 3921 6dbd
00000360: b2cd 353d 793b e23c e4ea cc3c 5ee6 dbbc
00000370: f11a 7abd 943d 40bb 5806 673d 8c99 1e3d
00000380: 7b40 97bc f1a6 763d e24a 873c b380 22bd
00000390: e9e0 ac3b fa64 7dbd f550 973c e33a 03bd
000003a0: 08cc 223d fb6a 633d 631a b63d b1a4 ddbb
000003b0: 90c3 4abd a0b0 263d 1e2b 44bd e215 07bd
000003c0: 3f99 58bd e638 27bd 95db 54bd 0404 43bc
000003d0: 410e 803d 508f c13d 6bc2 3f3c bc32 d0bb
000003e0: 7bc3 903d 0931 523d 3c6c 25bd e55d 613d
000003f0: ee51 2fbd 5a5f 1abd d1cd febc 3f8c 7abd
0.03981244 0.027898425 -0.03121962 0.026666883 -0.07705473 0.06586157 -0.014061436 -0.063938946
-0.02346395 -0.013108166 0.0028944677 -0.081108004 0.058860384 0.06426094 0.054032363 -0.002311415
0.057736143 0.017529896 -0.070096254 -0.08709292 -0.05756358 0.042601284 -0.0821176 -0.07607975
-0.0071594147 -0.06741006 0.057717912 -0.050798588 -0.0008852716 -0.08723175 -0.044004634 0.0028049054
0.02999421 -0.014309935 -0.053256843 0.037411463 -0.031753078 -0.0006479618 -0.019679317 0.00838654
-0.033203024 -0.040185556 -0.047996838 0.04325749 0.015745716 0.075034134 -0.02168359 -0.0037867017
0.019354817 -0.017869435 -0.01786672 -0.009550704 0.043144297 0.021812342 -0.009943525 -0.03496707
0.038764786 -0.031478133 0.047900766 0.049498923 -0.03645983 0.051339786 -0.05374981 0.020023737
-0.002540718 -0.00787815 0.06451036 -0.033058736 -0.049635552 -0.054529447 0.054170366 0.08987258
-0.02605184 -0.05805081 -0.01926334 -0.051939573 -0.032323822 0.017483642 0.029408587 -0.072370455
-0.07000713 0.044969186 -0.021416815 -0.065861836 0.08836636 0.037400056 0.05655548 0.033713963
0.09048136 0.07956032 0.01669554 -0.02077947 0.009358188 0.05453216 0.0015427973 -0.05120034
0.07582376 -0.03517383 -0.061381534 -0.030876154 0.05532798 0.024561644 0.0452067 -0.015727503
0.03950654 -0.015226067 -0.019180221 -0.009344702 -0.0607351 0.039133117 0.018632347 0.044584297
0.033188853 -0.09359407 0.023887873 -0.067721836 0.061560493 0.064294815 0.038098183 0.05458457
-0.060427994 0.06137898 -0.062081955 -0.008531846 0.05237608 -0.056047358 0.039881047 -0.05611847
-0.0333013 -0.019818839 -0.028880132 0.007336694 0.08901574 -0.020811664 0.090166084 0.06601114
-0.02163825 0.08536521 0.026130212 0.0039280383 -0.05958085 -0.07795511 -0.06460519 0.040623352
0.063607074 -0.056819495 -0.013837077 -0.021654721 0.050803926 0.022358624 0.015010021 0.08025798
0.007255474 0.008884938 0.0043758266 0.061337844 -0.03680916 0.028330846 -0.010436256 0.03679449
0.0141738225 0.075358994 0.046103 -0.018234914 -0.009181657 0.07279122 0.02119579 -0.07951929
-0.029646039 0.10980803 0.008300506 -0.0562132 -0.0046714293 0.067387514 0.06553422 -0.08439557
5.0751813e-05 0.111627474 -0.047374796 0.04655607 -0.05141232 -0.05080718 -0.003832801 -0.027461981
0.048667625 0.051707305 0.010254506 0.081357546 -0.04951116 0.031795733 -0.023901979 0.015000097
0.018169349 -0.06620674 -0.013243477 0.031835735 0.032335993 0.03601053 0.09652129 0.037738398
-0.040150564 0.09954057 -0.053930942 0.06508675 -0.025213819 0.0047244662 -0.010018588 0.04154793
0.09154323 0.08529454 -0.046249393 0.0114906775 0.049472984 0.07793833 0.080991894 -0.05789301
0.04438562 0.02761625 0.025014348 -0.026843246 -0.06106085 -0.0029333578 0.056402534 0.038720652
-0.018463364 0.0602178 0.0165152 -0.03967352 0.005275835 -0.061863877 0.01847122 -0.03203858
0.03974536 0.055521946 0.088917516 -0.0067640175 -0.04950291 0.040695786 -0.047892682 -0.032979853
-0.052880522 -0.040825747 -0.051967222 -0.011902813 0.06252719 0.09451163 0.011704068 -0.0063537043
0.07068535 0.051316295 -0.040386423 0.055021185 -0.042802744 -0.03768859 -0.031104 -0.061168905

2.bias f4 [100]
00000000: cfc8 44bd 85f1 60bd 7cf0 04bd 22e2 073d
00000010: dd3f b5bc c868 4e3d ec70 6f3d 8c43 13bd
00000020: 4594 353d f36d 233d bd0b 3d3d ca21 2c3d
00000030: 48ee 6bbd d2a2 bcbd 45ed 473d 9e17 adbd
00000040: 41c6 243d 3a6e 8abc f945 38bd fd39 753d
00000050: 38d3 7abd 9ad8 873c e3be 433c 947e fd3c
00000060: 1189 553d 80ff 973d c250 8e3d e2de ebbc
00000070: 7638 3abc 85f5 71bd b092 3dbd b84a 36bd
00000080: 6dc2 69bd 6304 b23d d3f7 a13a 2b5d a8bc
00000090: ca02 e53c 2635 07bd 4e56 163d a87a a43c
000000a0: daaf 263c de94 11bc 3fdf 663d 3055 883c
000000b0: 0a62 2b3d ced4 143c 6850 c93c e5bf 94bc
000000c0: 9db8 4bbd 18e2 7dbd e257 a2bc 9bca 52bd
000000d0: a679 3ebc 75bc 523d 12b0 2a3d 7688 3d3d
000000e0: 2021 8c3d 2986 bc3c 9e7b ae3c abd2 91bd
000000f0: 1138 823d abe6 afbc 62a0 33bc b3e2 95bd
00000100: 2bdb 9bbd ec00 033d e07c b1bc 4170 44bd
00000110: 887c f4bb 10b6 3f3c c69a 94bd 9231 7ebd
00000120: 8678 9ebd 0c98 3bbb e57b 2d3d e459 3fbd
00000130: afee 923b 921a f33c cd88 9b3d 8ee5 54bc
00000140: d527 11bd 77b3 92bd 5412 5a3c 2750 8bbb
00000150: f22c d4bc 0bb5 013d d896 2abd ade4 563d
00000160: 9943 fc3b c832 153d 5e85 1cbd bc0d 523d
00000170: 4acd a23b f768 77bd 68b1 23bd f052 6c3c
00000180: 7b36 48bd 46dd c13c 14e5 5bbd 9765 8a3d
-0.04804307 -0.05491783 -0.032455906 0.03317464 -0.022125179 0.050392896 0.0584573 -0.03595309
0.044330854 0.039899778 0.046153773 0.04202441 -0.05760029 -0.09210743 0.048810262 -0.0845177
0.040228132 -0.016898263 -0.044988606 0.059869755 -0.06123659 0.016582776 0.011947366 0.030944146
0.05213267 0.0742178 0.06948997 -0.028792802 -0.011366 -0.059072036 -0.04628247 -0.04450485
-0.057070184 0.08692243 0.0012357183 -0.020552238 0.027955431 -0.03300967 0.0367034 0.020078018
0.010173762 -0.00888559 0.056365248 0.016642183 0.041841544 0.00908394 0.024574474 -0.018157909
-0.049736608 -0.061983198 -0.019817296 -0.05146275 -0.011625683 0.051449258 0.04167182 0.046272717
0.068422556 0.023013191 0.02129918 -0.0712026 0.0635835 -0.021472296 -0.010963531 -0.0731863
-0.07610162 0.0319833 -0.02166599 -0.047958616 -0.0074611343 0.011701122 -0.07256083 -0.062058993
-0.07737832 -0.0028624563 0.042354483 -0.046716586 0.0044840197 0.029675756 0.07594452 -0.012994183
-0.035438377 -0.071631365 0.013310034 -0.0042514983 -0.025900338 0.031666797 -0.041647762 0.052464176
0.007698488 0.036425382 -0.038213126 0.05128263 0.00496832 -0.060402837 -0.03996411 0.014424071
-0.04888008 0.023665082 -0.053685263 0.06757658

4.weight f4 [7, 100]
00000000: c5de c83d 48f9 96bc d0aa 4e3d b60b db3c
00000010: 52df 74bd 5491 573d 6255 34bd 6a0d 303d
00000020: 468c aa3c a264 8f3d 6f62 87bd ad03 8d3d
00000030: 6012 563d d225 88bd aa57 723d 60eb 2cbd
00000040: af21 f6bc 85ba 8abd 298b 053d 8571 55bd
00000050: eb44 28bd 73dd 09bc 4f0c a2bc 188d 54bd
00000060: 1cde a9bd e8c4 32bc 181d 41bd fc6f 8fbd
00000070: d616 7ebd 739f c13c a7dc 99bc b516 ad3d
00000080: 2d8f dfbc b130 f6bc 3343 bdbd 48cf 2d3d
00000090: 1181 bd3c 9d60 1abc 3a87 66bd 7403 743d
000000a0: 510c aebd eb84 973d 1bcd 97bd bd0d d33c
000000b0: cef3 563d c57b c0bd c5ab 87bc 95fc 91bd
000000c0: 5305 ac3d a220 ae3d 93a3 d6bd 088f 28bd
000000d0: 6079 a1bc 63e3 4f3d 8ae3 8d3d 6c8e ad3d
000000e0: 31b4 f8bc 0483 3c3d f986 283d 6f97 80bd
000000f0: 09f9 743c 88ff 893d fad3 37bd 564b 6bbd
00000100: 3d18 49bc 821a 253d 5f93 bfbd 65c5 8ebd
00000110: 3f95 4b3d e8fd 9bbd c327 b93d 4563 85bd
00000120: 2d3d 6e3d 841c 953a 0394 51bc 0f75 06bb
00000130: 005e d4bb 9f91 153d 7769 943c ca17 853d
00000140: 081f 183c 306e c3bd f5f8 1bbd 977a 1abd
00000150: c9d3 4e3d 3419 953d b3b5 babd e8b5 3abd
00000160: 8180 3dbd b4c3 bb3c 3016 a4bd 0e16 623d
00000170: 2afb 86bb 5664 783d 879d 473d 65bc 9c3d
00000180: 1850 bbbc b43e ae3d 002d 113b d014 c5bd
00000190: 93e2 843b 1aa5 363c 1cc8 8c3d 2b05 a13d
000001a0: b442 7f3c c07e 47bd 2e8f a83c b3ba 4c3d
000001b0: 25e3 373c 3a1d ca3c fe54 84bd 67b8 9dbd
000001c0: 6787 a43d 7ed0 9c3d 9aa9 b53d 9a20 a63c
000001d0: c950 413d 7a61 53bc 1e95 773c e606 c8bc
000001e0: 1b89 843d 264e b83c 2136 a13d e55f 93bd
000001f0: 9bed 8dbc 9302 97bd cf8a 343d 0d98 083d
00000200: 2461 c33d 0d2f 8a3d 0923 9d3d 8513 11bb
00000210: 26dd a9bd 928c dfbb 1c4f c5bc 43d2 6ebc
00000220: d4b5 e13b 42d4 b13b 5c87 55bd 0a2b 7f3d
00000230: b740 0d3d 231e 1abd 4768 1abd e3f2 a83d
00000240: 6940 203a 9b56 993d 357e b3bb 489c a4bd
00000250: 0101 aa3d 6348 413d a669 3b3c a090 ddbd
00000260: 51f6 00bd 1896 a3bd 05ae 913d 306f a6bd
00000270: 4c5b 193d 5962 183d 0dcb a1bd 4434 9bbd
00000280: 487b 3cbc 09ce c03b f1c7 a73d 0dd0 c23b
00000290: 3505 a5bd b566 9a3c 7f5e 4d3d e962 c1bd
000002a0: 18b0 d3bc 34ab 31bd e201 893d 8c23 663d
000002b0: 42cb b93d ea04 aabd 2a5a 633d 5dea 843d
000002c0: 9db0 a63d 7711 40bd 00c2 01bd a5c8 b5bd
000002d0: 4938 eabc eac0 f9bc 90b2 2abc 946e eaba
000002e0: 687e f9ba 75d7 5cbc 930b 833c f991 8dbc
000002f0: ee68 a33c f504 73bd ba7a cd3c c208 1d3d
00000300: 8d34 32bc 4233 47bd ef02 af3d 4610 5c3d
00000310: a70f b1bb db2a 3ebd e74e d5b8 62f3 ae3d
00000320: 7027 4d3d 7c35 dabd 1b05 ab3d 8573 96bd
00000330: 51e2 4bbd db31 bdba e130 9d3d b014 2abd
00000340: e3dc 34bd 41ea 3fbc 0642 243d 78de a43d
00000350: 94e3 903d 8b3b aabd 2802 f9bc efaf d5bd
00000360: ed53 c33d 68e0 c1bd 5c39 bdbc 424b 383d
00000370: 2ba1 8e3d 3374 c73c dd89 083d 4d09 5a3d
00000380: 0a29 cfbb d990 6a3d 626f 96bc e2a5 ad3d
00000390: ecdc b9bd 3342 b4bb 3ad9 d1bc 77d1 c03d
000003a0: 1aca 993c 5e2f 7d3d 6709 ae3c 2c66 8d3d
000003b0: 9a89 79bd 00a6 a5ba 3ade 0bbd 2e3a a9bd
000003c0: 038f 1bbd 9a34 b0bc e515 a23b c0b5 833c
000003d0: 757d 813d ad66 3dbc 3319 3bbc ed5a ef3c
000003e0: 1396 44bd f5e0 44bd a8be 72bd 9d74 9cbd
000003f0: 621c 133d 21a9 343d bdbb a13c 16e9 1c3d
0.09808115 -0.018429413 0.05045587 0.026738983 -0.059783287 0.05262883 -0.04402674 0.042981543
0.02081884 0.07001616 -0.066105716 0.06885467 0.052263618 -0.06647839 0.059165634 -0.04221666
-0.030045358 -0.06773857 0.032603417 -0.052110214 -0.04108135 -0.008414614 -0.01978126 -0.05189237
-0.08294317 -0.010911204 -0.047146887 -0.07003781 -0.062033497 0.023635602 -0.018781973 0.08451597
-0.027289951 -0.030052515 -0.09241333 0.042434007 0.023132833 -0.009422448 -0.056281306 0.059573606
-0.08498443 0.07398399 -0.07412168 0.025763387 0.052478604 -0.09398607 -0.016561398 -0.07128254
0.08399453 0.08502318 -0.10480418 -0.04115203 -0.019711196 0.050753962 0.06928165 0.084744304
-0.03035936 0.046023384 0.041144345 -0.06278884 0.014951953 0.06738192 -0.04487989 -0.057444893
-0.012273845 0.040308483 -0.09354281 -0.06971244 0.04970288 -0.07616788 0.09040787 -0.06513075
0.05816381 0.0011376296 -0.012791636 -0.002051655 -0.0064809322 0.03651583 0.018116696 0.06498678
0.009284742 -0.09542501 -0.03807922 -0.037714567 0.050494943 0.07280198 -0.091166876 -0.045583636
-0.04626513 0.022920467 -0.080120444 0.055196814 -0.0041192966 0.060642563 0.048734214 0.07653121
-0.02286534 0.085080534 0.0022152066 -0.0962311 0.00405533 0.011147762 0.06874105 0.07862314
0.015579868 -0.048704863 0.020576086 0.049982738 0.011223589 0.02467214 -0.064615235 -0.077011876
0.080336384 0.07656954 0.088702396 0.020279218 0.047196183 -0.012901658 0.015111236 -0.024417352
0.06471463 0.022498202 0.078716524 -0.07196025 -0.017325213 -0.07373538 0.04407769 0.033348132
0.095400125 0.067472555 0.07672698 -0.0022136879 -0.08294134 -0.006822177 -0.024085574 -0.0145764975
0.0068881307 0.0054269144 -0.052131042 0.062296905 0.034485545 -0.037626397 -0.037697103 0.08249452
0.00061131135 0.07487222 -0.0054776915 -0.08037621 0.08300973 0.047188174 0.011438763 -0.10818601
-0.031484906 -0.079876125 0.0711327 -0.08126676 0.037440583 0.037203167 -0.07900057 -0.07578328
-0.011504002 0.0058839363 0.08192433 0.0059452117 -0.08057634 0.018847803 0.050138947 -0.09442694
-0.025840804 -0.043376163 0.06689812 0.056186244 0.090719715 -0.083017185 0.05550591 0.06490014
0.08139155 -0.046891656 -0.031679153 -0.088761605 -0.028591292 -0.030487496 -0.010418549 -0.0017885738
-0.0019034864 -0.013479103 0.01599673 -0.01728152 0.019947495 -0.0593309 0.025082935 0.03833843
-0.010876787 -0.048632868 0.085454814 0.053726457 -0.0054034772 -0.04642759 -0.00010171328 0.08542515
0.05008644 -0.106547326 0.08350583 -0.07346252 -0.04977638 -0.0014434414 0.076753385 -0.041523635
-0.044155966 -0.011713565 0.040102027 0.08050245 0.07074657 -0.08312138 -0.030396536 -0.10433947
0.09537492 -0.0946663 -0.02309864 0.044993646 0.06964334 0.0243474 0.0333346 0.053231526
-0.006322031 0.057267044 -0.018363658 0.08478905 -0.09075341 -0.0055010556 -0.025616277 0.09414952
0.018773127 0.06181275 0.021244718 0.06904253 -0.060922243 -0.0012637973 -0.03414748 -0.0826305
-0.037978183 -0.021509457 0.0049464577 0.016077876 0.06322757 -0.011560124 -0.011419582 0.029218161
-0.047994684 -0.0480661 -0.059263855 -0.0763943 0.03591574 0.044106606 0.01974284 0.038308226

4.bias f4 [7]
00000000: 4471 ec3c 702c e53c 6c03 92bd f8dd 313d
00000010: a54f 8abc 1d2a 183d f1b1 ab3c
0.028862603 0.027975291 -0.07129559 0.043424577 -0.01688368 0.037149537 0.020958873
