models/date-06-19-2025-20-08p1-RLbotp2-RLbotDDQNself_play-Trueexp_dir-RLbotepochs-50p1_win_rate-0.38p2_win_rate-0.62is_test-False/model.pth (torch, 117053 bytes, 6 tensors)

0.weight f4 [150, 84]
000000 0b e5 f7 3c 89 df df 3d 11 65 ff bb 31 2c 13 bd
       0.030260583 0.10931308 -0.0077940305 -0.035930816
000010 82 21 99 bd 47 74 d4 bb 57 69 25 3d f6 d9 c0 3d
       -0.07477094 -0.006483588 0.040383663 0.09416573
000020 ac 4e f2 bc b2 80 b8 3c 12 c0 95 3c 7c 39 cb 3d
       -0.02957853 0.022522304 0.018280063 0.09923074
000030 10 21 e5 bb b5 b8 b8 3d ab 7f ab 3d b2 c3 c2 bc
       -0.0069924667 0.09019605 0.0837396 -0.023774955
000040 bb 1f 01 3e 8b d8 28 3e 8b ea 18 3e 79 6e b4 bd
       0.1260976 0.16488855 0.14933221 -0.088101335
000050 24 ba ff 3b 0c ec 67 3d 03 2c 77 3d a9 de 31 bd
       0.007804172 0.056621596 0.060344707 -0.043425236
000060 82 c7 22 3d c7 0e f2 3d 8c e9 9a 3d a1 42 03 3e
       0.039741047 0.11819225 0.07564077 0.12818386
000070 f3 34 c3 3c c0 64 f6 bd 1e 39 aa 3d d1 5f fe 3d
       0.02382896 -0.12030935 0.083116755 0.12420619
000080 41 1d cb 3d 96 c6 9c bd 27 83 1f bd 28 95 c7 bd
       0.09917689 -0.07655065 -0.038943436 -0.09745246
000090 50 20 db bd a1 15 f7 bd ec ad f0 3d b1 4f bf bd
       -0.106995225 -0.12064672 0.11751923 -0.09341372
0000a0 bc 59 a4 bd d3 63 90 3d 59 5c 69 3d 0b 28 7a bd
       -0.08024928 0.0705029 0.056972835 -0.061073344
0000b0 c2 02 31 3d 87 99 68 bd 19 2b d8 3c d4 06 8b 3d
       0.04321552 -0.05678704 0.026387738 0.06788412
0000c0 ed d0 bf bd 6a 7d 4e 3c bd f7 19 3d de ca f0 3d
       -0.09366021 0.012603143 0.037589777 0.11757444
0000d0 98 e8 aa 3d 3e 21 be bd 0d 29 96 bc 7c 4a 83 3d
       0.08345145 -0.09283684 -0.018330121 0.06410691
0000e0 a2 3e f7 bd f2 b6 b4 3d ed 11 85 bd 6a 35 fc 3c
       -0.12072493 0.088239565 -0.0649756 0.030787189
0000f0 74 07 7c bd cd 9c c9 bd e5 e7 68 3c d3 a9 6e bc
       -0.061530545 -0.098443605 0.014215444 -0.014566856
000100 7f c5 bf bd 6d f0 b5 3c b7 e6 d1 3b 3a 46 ad 3c
       -0.09363841 0.02220937 0.006405677 0.02115165
000110 6c 2d 16 bc 0e a8 15 3d 65 a4 b2 bd e6 ae b1 3d
       -0.009166103 0.036537223 -0.08722762 0.08675937
000120 b3 1f 1c 3b 3b 99 12 bd 5b 96 96 3d 14 9e 27 bd
       0.0023822605 -0.035790663 0.07352897 -0.04092224
000130 1f 93 81 bc 72 8d ec bc 70 4c 01 be b4 3d 43 bd
       -0.015817223 -0.02887604 -0.12626815 -0.047666267
000140 5e c1 dd bc dd db 63 3d 41 e6 6a bd 7c b1 61 3d
       -0.027069744 0.0556296 -0.057348493 0.055100903
000150 43 de a2 3d d4 4e a1 bc 47 67 0a 3e 4b d3 6c 3d
       0.07952549 -0.019690908 0.1351596 0.057818692
000160 7e 63 6f bb 77 03 ae bd 04 02 36 3c a2 d8 04 be
       -0.0036527808 -0.084967546 0.011108879 -0.12973264
000170 c7 6c ba bd b8 14 98 bb 2e cc 1f bd 3a 0f 5c 3b
       -0.09102779 -0.0046411417 -0.03901308 0.0033578412
000180 1a e8 4d bc 64 9e 2a bb a5 4d 99 3d 0b 35 b2 bd
       -0.012567544 -0.002603435 0.07485513 -0.087015234
000190 59 6c 9f 3d a4 73 4f bd 73 b7 97 bd a4 c9 2c b9
       0.077843376 -0.050647393 -0.07408037 -0.00016478315
0001a0 7c 5e cc 3d fd 6a d0 3d 3f de 5b 3d 6d 0c 68 bc
       0.09978959 0.101766564 0.053678747 -0.014163119
0001b0 d4 3d 34 3c 91 ed 7d 3d c2 a5 24 3d 5c 64 3f bd
       0.011001069 0.06199414 0.04019714 -0.04672657
0001c0 71 80 b0 bd b9 af cb 3d a0 98 fb 3d 40 14 de 3d
       -0.08618248 0.09945626 0.1228497 0.10843706
0001d0 49 bd 96 3d 36 1b 9e 3d 09 15 59 bd 1f d6 6d bd
       0.07360322 0.07720034 -0.052998576 -0.05806553
0001e0 1d 06 34 bd a2 4c aa bd fb 9c 7a 3c c5 55 cf 3d
       -0.043951143 -0.08315398 0.015296216 0.10123781
0001f0 df 2f e4 3d 11 d3 74 3d 32 5d c3 bc 34 09 ec 3d
       0.11141943 0.0597716 -0.02384815 0.11525193
000200 58 3c c0 3d 2e 84 1d 3d e6 f6 40 3d 7d f6 6d bc
       0.0938651 0.038456134 0.04711046 -0.014524099
000210 7f 59 16 bc 4a a8 3a bd ad a5 cd 3d 68 5d c3 bd
       -0.009176611 -0.04557065 0.10041366 -0.095393
000220 77 dc 47 3e fd a8 7b 3d d3 1e bb bd c4 0c be bd
       0.19517694 0.061440457 -0.09136739 -0.092797786
000230 34 4d 0f bd eb 95 56 bc 98 52 40 bc ef 90 ca 3b
       -0.034985736 -0.013097267 -0.011738442 0.006181828
000240 ff fc d8 3d 27 2c d8 bd b7 4f 42 3d 95 bc c9 bc
       0.1059513 -0.105552964 0.047439303 -0.024626056
000250 d1 7e 87 bd 1a 22 28 bd f2 0e cf 3b 52 f2 55 bd
       -0.06615985 -0.041048147 0.0063189203 -0.052233048
000260 ee 97 a0 bd e1 1a af bd 7a f7 89 bc a9 f3 99 3c
       -0.07841478 -0.085500486 -0.016841639 0.018792944
000270 27 39 9b bd be f5 4c bc fa 94 2f 3c 9a 04 4e 3d
       -0.0757926 -0.012509761 0.010716671 0.050297357
000280 81 f9 9f 3c 4a 2d 61 3d 8d bf 9d bd 45 6f 03 bc
       0.019528152 0.05497483 -0.07702551 -0.008022134
000290 29 8f f1 bd 10 0b fb 3d 2e 6c 59 bd 47 d2 36 bd
       -0.11794884 0.122579694 -0.053081684 -0.04463413
0002a0 63 5b 53 bd c4 b9 1a 3d 83 c3 66 3c e9 4c 58 bd
       -0.051600825 0.037774816 0.0140847 -0.052807722
0002b0 76 32 8b 3d 75 2b 7c 3d 35 d6 82 bd 9a 00 a2 3d
       0.06796734 0.06156488 -0.06388513 0.07910271
0002c0 e7 6a fb 3c 32 10 17 be e3 0a 1f 3e 06 29 63 bd
       0.030690623 -0.14752272 0.15531497 -0.055459045
0002d0 58 5a 87 3c 87 24 40 bd 13 6d 70 bc 68 bb 39 bd
       0.016522571 -0.046909835 -0.014674443 -0.04534474
0002e0 78 dc 1b 3d 69 b7 d8 bc 9e b6 ae bd f7 ed 91 3c
       0.038052052 -0.026454644 -0.08530925 0.017813666
0002f0 65 ae b1 bd 66 66 05 3d f1 f8 3e 3d 98 db 49 3d
       -0.08675841 0.032568358 0.046624128 0.049281687
000300 f1 f9 98 3d 15 63 2e 3d 1a b5 1e 3c 43 cd 6f 3d
       0.074695475 0.04257496 0.009686733 0.058545362
000310 4f 17 0f 3d 68 a7 62 bd 31 ff 11 3e 31 ab 2a be
       0.03493434 -0.055335432 0.14257504 -0.16666867
000320 7a 77 16 bc 7b 1c 56 3d 41 0d 2a 3d 99 b6 e9 3d
       -0.009183759 0.052273255 0.041516546 0.11411781
000330 fa d0 03 3e 4d 4a 06 bc f6 ee 8b 3d ab da 57 bd
       0.12872687 -0.008196426 0.068326876 -0.052698772
000340 2b f0 25 3b a7 b5 88 bd b6 23 8b 3d 54 09 15 bd
       0.0025320153 -0.066752724 0.06793921 -0.03638585
000350 90 dc 8a bd 41 bf bb bd 00 ed 23 bc 6b b8 72 bd
       -0.0678035 -0.09167338 -0.010005236 -0.059257906
000360 29 0b 55 bd ae d2 09 bd 53 e2 88 3d a8 c6 3a be
       -0.052012596 -0.033648185 0.06683793 -0.18239844
000370 ea 3e e2 bd 51 25 fe bd 42 f3 a4 bd cf 73 54 3d
       -0.11047156 -0.12409461 -0.0805421 0.051868256
000380 8f 37 7e bd 44 00 22 3e c9 87 0b 3d 14 92 90 3c
       -0.062064704 0.15820414 0.03406504 0.01764778
000390 e3 21 31 3d e2 ae 0b 3d 9a f7 bd 3d e5 84 86 3c
       0.043245208 0.034102328 0.09275742 0.01642079
0003a0 85 5c b3 3d f0 5f 6a 3d 4a bf ec bd ce 42 3b bd
       0.08757881 0.0572204 -0.11559923 -0.045718007
0003b0 f2 be 62 bc 9b 96 b1 3d d7 6d b2 bd c8 cb 75 3d
       -0.01383947 0.08671304 -0.087123565 0.060008794
0003c0 01 2a bc 3d e0 1b e5 bc fd a5 82 bd 27 a1 8b 3d
       0.09187699 -0.027967393 -0.06379316 0.06817847
0003d0 c6 06 7a 3d 58 96 24 3d 3c e2 82 3d 39 0a 95 3d
       0.061041616 0.04018244 0.06390807 0.072773404
0003e0 a4 e4 d5 bc 04 ad c7 3c c3 6d a0 bd ba e5 0c 3d
       -0.02611 0.024374492 -0.078334354 0.03439877
0003f0 6c 22 b4 3d 8b 6c 0c 3d 93 b3 45 bd 32 2c b3 3d
       0.08795628 0.034283202 -0.04826696 0.08748664

0.bias f4 [150]
000000 03 5a a0 bd 51 6a a4 3d ba 7c 36 3d 56 9c cc bd
       -0.078296684 0.08028091 0.044552542 -0.09990756
000010 ec 76 05 bd db 99 14 3c cb 89 fe bc 1c 43 e4 3d
       -0.032584116 0.009069885 -0.031071564 0.111456126
000020 5b 69 35 bd f1 f4 8d bd a3 78 d6 bd 6a 23 0c 3c
       -0.044289928 -0.069314845 -0.104722284 0.008553365
000030 4d 01 25 3d ca 1d a6 bd 8d 07 03 be 0d b3 d9 3d
       0.040284444 -0.081111506 -0.12795849 0.10629854
000040 c4 98 80 bd de 6d 09 3d cf d3 aa 3b d1 89 38 bd
       -0.06279138 0.033552043 0.005213238 -0.045053307
000050 e2 34 04 be a2 61 7c 3d b0 90 95 3c 47 60 4a 3d
       -0.12910798 0.061616547 0.018257469 0.049408223
000060 69 cd e3 bd c6 a1 b6 bd 90 18 0f 3d 1b 3b be bd
       -0.11123163 -0.089175746 0.034935534 -0.09288617
000070 e8 36 0e be 30 7e e2 bc 50 78 ca bd a3 c5 6c 3d
       -0.13888133 -0.027648062 -0.09886229 0.05780567
000080 ac b6 a5 bd 1c b0 03 bc 57 3e a2 3d 80 78 e5 3b
       -0.080914825 -0.008037593 0.07922047 0.00700289
000090 4b e8 81 bc b2 29 39 3d e9 f7 8b bd f8 b9 98 3d
       -0.015857836 0.04520578 -0.068343945 0.07457346
0000a0 f0 d0 d0 bd dd 17 0f 3e b3 91 8b bd 14 ab d2 3b
       -0.10196102 0.13973947 -0.06814899 0.0064290855
0000b0 8e f5 1c 3d 75 55 ef 3d 26 5d 11 bd 9a aa 38 3c
       0.038320117 0.116862215 -0.035489224 0.011271143
0000c0 f9 18 92 3c ee 9b 45 bd 78 f7 de bd 31 93 7f bd
       0.017834174 -0.04824441 -0.10887045 -0.062396232
0000d0 48 cd 08 3d e3 35 91 3d da 23 fd bd 8c 49 ac 3d
       0.033398896 0.07090356 -0.12360354 0.084124655
0000e0 c8 28 f1 bc a6 cc db bc dc 79 42 bd 35 04 6a 3c
       -0.029438391 -0.026830982 -0.047479495 0.01428323
0000f0 12 33 cf 3c b5 f0 b1 bd db fe 9b bd 0b 80 9d 3d
       0.025292907 -0.08688489 -0.07616969 0.07690438
000100 e2 90 ea bc 67 f2 96 bc 1f e2 3c bd 30 c8 a2 bc
       -0.028633539 -0.018426133 -0.046114083 -0.019870847
000110 af fa e3 3b 0e a6 40 bd c6 48 0a 3d f9 04 a6 3c
       0.006957374 -0.047033362 0.03376081 0.020266043
000120 f7 9f 84 3d c4 e8 c0 bd da 74 2c bc 41 47 db 3d
       0.064758234 -0.094193965 -0.010525906 0.1070695
000130 9f 50 f7 3d fb 0d 5e bc 65 52 9f 3d 04 a5 9b bd
       0.12075924 -0.013553138 0.077793874 -0.075998336
000140 f8 71 16 3e db ae 0b 3e 6e c5 dc bd 11 6f 85 bd
       0.14691913 0.13640921 -0.10779844 -0.06515325
000150 ee 32 04 3d 3b 2f 94 3c 50 89 26 3d d6 3b 9b 3b
       0.032275133 0.018088927 0.040658295 0.0047373576
000160 bb ac 95 bc 43 e6 a3 bd b2 ad b1 3c 22 e6 27 3d
       -0.01827084 -0.08002903 0.02168927 0.040990956
000170 ea 0d 55 3d a1 6e c5 bd 30 02 72 3d f3 3c 47 bc
       0.052015223 -0.096402414 0.059084117 -0.0121605275
000180 fe cd 9d bd 67 e9 36 ba 11 e4 92 3d c2 a2 55 3d
       -0.077053055 -0.00069775287 0.071724065 0.05215717
000190 41 8f 8c bd 39 2d 5c 3d fd 15 17 3d c4 6b a3 3d
       -0.06863261 0.053754065 0.036886204 0.07979539
0001a0 7d 29 fe 3c 73 83 40 bd db d7 68 bd 15 47 93 3d
       0.031025643 -0.04700036 -0.05684648 0.07191292
0001b0 09 b7 90 3c 47 6d ab 3d 46 c4 14 3e 64 9c 1f bd
       0.017665403 0.083704524 0.14527997 -0.038967505
0001c0 a6 7d 90 3c 5f 55 60 3d c4 94 94 bd f6 3c a9 3d
       0.017638039 0.054768916 -0.07254937 0.082635805
0001d0 a7 32 7e 3c bc 3a b9 3d e6 f2 86 bc 0d fc 3c bd
       0.015515006 0.09044406 -0.016473245 -0.04613881
0001e0 2c 92 0c 3d c9 8c 95 bd 8d e9 ae 3c 12 ae 4c 3d
       0.034319088 -0.07302243 0.0213516 0.049970694
0001f0 95 f5 90 bd 0c 16 cd bd 4c e4 ce 3c 96 7d 15 3d
       -0.07078091 -0.10013971 0.025255345 0.03649672
000200 d9 07 49 3d 1d 86 91 3d 68 23 ad bd 0c d0 72 3c
       0.04907975 0.07105658 -0.08454019 0.01482011
000210 61 f0 84 3d 5e d8 3d 3d fa 2d db bc 69 2d ae bc
       0.06491161 0.046348922 -0.026755322 -0.021261888
000220 c3 83 e9 3b 36 27 35 3c fd 27 b6 3d 92 dc 28 3d
       0.007126303 0.011056712 0.08894346 0.041225977
000230 2d e5 ef 3d e3 55 a9 3d 05 26 a2 bd c2 29 6e 3c
       0.11713634 0.08268335 -0.07917408 0.014536323
000240 0a fc 61 bd 19 ba 9a 3d 55 57 98 3d f7 1a eb 3d
       -0.055172004 0.075550266 0.07438532 0.114797525
000250 68 61 d0 3b d1 67 90 3c
       0.006359268 0.017627629

2.weight f4 [100, 150]
000000 fa 12 4c 3c d8 b3 8c bb cf e8 73 bc 93 2f 9a 3d
       0.012455696 -0.0042939 -0.014887049 0.07528605
000010 62 71 96 3d 31 4b 12 3d 63 60 c5 bd 6e c4 ab 3c
       0.07345845 0.03571624 -0.09637525 0.020967688
000020 5e af 1d 3b 27 71 1e bc 14 27 2f bd d8 22 23 3e
       0.0024060826 -0.009670532 -0.042761877 0.1593126
000030 d3 22 c2 bd 43 17 80 3d 0b 82 32 bd 09 70 65 bd
       -0.094792984 0.06254437 -0.04358105 -0.05601505
000040 8e 55 7b 3c 38 ea db 3d fa 5f c7 bd 33 c1 ae 3c
       0.015340222 0.10738033 -0.09735103 0.021332359
000050 b5 d4 20 bb 36 3b 02 bd 79 c5 a2 bd 89 98 a1 bb
       -0.0024540846 -0.03179475 -0.07947821 -0.0049315137
000060 27 40 35 bd aa 91 17 bd f3 79 12 3d 2e 95 58 bc
       -0.044250634 -0.03700415 0.03576083 -0.013219161
000070 88 a2 bc 3c 1d 73 d8 3d cf 6d 84 bc d9 a4 55 be
       0.02302672 0.10568831 -0.016165642 -0.20863666
000080 af 30 fa 3d 94 4e ce bd 59 0f 40 bd 5a ba 76 3d
       0.12216317 -0.10073581 -0.046889637 0.060236312
000090 da 0b 87 bc 50 03 5b 3c 52 68 e4 3d 00 3c 5c bd
       -0.016485143 0.013367489 0.1115271 -0.053768158
0000a0 3c 64 8b 3d a4 ae 8e bd 9a 82 3a bd 33 7d 96 3d
       0.068062276 -0.06966904 -0.045534708 0.073480986
0000b0 b0 e9 8d 3c 47 69 c6 3d 47 a7 16 bd f8 f3 80 3d
       0.017323345 0.09688049 -0.03678062 0.06296533
0000c0 30 ea 9b 3d 3b 49 a6 3d ac b0 08 bd 85 d9 1b bd
       0.07613027 0.08119436 -0.033371612 -0.03804924
0000d0 13 4e 8e 3d 24 50 b6 bd 31 9f ce 3d 28 e7 50 3d
       0.06948485 -0.08902004 0.10088957 0.051001698
0000e0 c6 14 c9 3d 28 5d 05 be 13 74 94 bc bc 3a 66 bd
       0.09818415 -0.13023818 -0.018121755 -0.056208357
0000f0 76 d7 33 bd 35 ac fb 3c 3d fb 90 3d a0 fd 37 3d
       -0.04390665 0.030721763 0.0707917 0.04491961
000100 c4 61 d3 3c ed ee 8a 3c 45 5f 18 3c c1 f1 14 3e
       0.025803454 0.016959632 0.009300058 0.14545347
000110 a8 38 e1 bc d0 90 bb 3d 0e 4d 20 bd e4 88 4f 3d
       -0.027492836 0.0915848 -0.039135985 0.05066766
000120 29 89 ec bc 08 cc 96 3d ae ca b3 bd 48 31 22 3d
       -0.028873997 0.073631346 -0.087788925 0.03959778
000130 1e ba 67 bb 93 6b 0a 3d a9 20 6e bd 60 20 49 bb
       -0.0035358737 0.033793997 -0.058136616 -0.0030689463
000140 94 2c 83 bd 4f 4e 0a be 6a 22 db 3d a5 92 82 3d
       -0.06404987 -0.13506435 0.10699923 0.063756265
000150 53 8c 26 3c 46 d8 31 bc 34 5d ab 3d 2c cf 01 be
       0.010165292 -0.010854786 0.083673865 -0.12676686
000160 c6 81 0b 3e 62 ce 83 3d 53 28 2b 3d a7 44 96 ba
       0.13623723 0.06435849 0.041786503 -0.0011464552
000170 f8 51 55 3d f4 96 19 bd ec 87 8e 3c 3b d9 e3 3d
       0.052080125 -0.037497476 0.017398797 0.11125418
000180 ed e3 ac bd d3 e0 9a bc 44 5a 83 bd 77 99 0e 3d
       -0.08441911 -0.018906033 -0.06413701 0.034814324
000190 04 e8 f5 bc e7 95 fb bb c1 ec 61 3b 0f e1 a2 3c
       -0.03001786 -0.007677782 0.0034473392 0.019882707
0001a0 10 68 8f bc 15 54 84 bd 86 95 07 bd 06 23 a0 bd
       -0.017505676 -0.0646135 -0.03310158 -0.0781918
0001b0 f1 d2 fa bc 52 5c 27 bd 36 7d 36 3c 46 19 23 be
       -0.030618163 -0.040859528 0.011138251 -0.1592761
0001c0 c2 23 3c bd cf 4d 69 bd 0d fa 16 bd c6 57 b8 3d
       -0.04593254 -0.05695897 -0.03685956 0.090011165
0001d0 d3 59 80 3d 81 74 1f be f4 48 09 bd 35 0f 8b 3c
       0.062671326 -0.15571786 -0.03351684 0.016975025
0001e0 02 7b a7 bc 9a c2 a4 3c 4b a7 92 3d 74 38 17 bc
       -0.020444397 0.020112325 0.07160815 -0.009229768
0001f0 68 d1 cd 3d f4 e2 a7 3c 1f 1b 8f 3c 34 3c 2d 3d
       0.10049707 0.020493962 0.017468987 0.042293742
000200 18 71 03 3e 32 94 26 3c de 9c 2d 3d 81 56 e8 bc
       0.1283611 0.010167168 0.04238593 -0.02836156
000210 d9 ff 5f 3c 4d 05 cb bc 2d 4f 9e 3d 1c f5 87 3b
       0.013671839 -0.024782801 0.07729945 0.0041490924
000220 f5 d5 0e be 61 65 9a 3d 77 f1 16 be a6 ed d8 bd
       -0.13948806 0.07538868 -0.14740549 -0.10592203
000230 86 50 a3 bd 68 38 22 bd e3 5b 99 bd c8 0a 2c be
       -0.07974343 -0.039604574 -0.07488229 -0.16800988
000240 96 18 87 3d 3d de cc 3d 48 a1 95 3c fb 2f c8 3d
       0.06596486 0.10003326 0.018265381 0.097747765
000250 fd 9b ab 3c 5c 0b 94 3b dc 9c b2 bc 61 d5 ad ba
       0.020948404 0.0045179557 -0.021803312 -0.0013262444
000260 6f 4c 17 bd cf c9 8f bd b3 e4 fc bc 65 aa 18 3d
       -0.036938127 -0.07020914 -0.030870771 0.037271876
000270 f2 76 8b bd 52 0b 55 3d 6f 18 5b bd 69 cb a9 bc
       -0.068097964 0.05201275 -0.0534901 -0.020726876
000280 fc 90 e9 bc 4d 7e dd 3d 30 4d 27 39 48 cc 54 3d
       -0.028511517 0.108151056 0.00015955116 0.05195263
000290 11 b0 d7 38 c3 db a7 bd 0a a0 89 3d e4 82 fd bc
       0.00010284794 -0.08196213 0.06719978 -0.030946203
0002a0 ca 60 ed 3c 81 b3 b4 bd 10 37 a4 ba 2b 12 2c 3c
       0.028976817 -0.088233 -0.0012528617 0.010502378
0002b0 90 25 4e 3d 62 07 9b bd 32 f2 b4 bd bd e6 40 3d
       0.05032879 -0.075697675 -0.088352576 0.04709505
0002c0 bc 6e a2 bd 06 a0 39 bb 0b 0b c3 bd 82 d1 b6 bb
       -0.07931277 -0.0028324141 -0.09523591 -0.0055791745
0002d0 fd bf 4a bd a3 f6 d1 3d ab 6b 80 bd f2 66 91 bd
       -0.0494995 0.1025212 -0.06270536 -0.070997134
0002e0 c7 55 d6 bd 6c f4 5f 3d 5e cf 7d bd bb bd 93 3d
       -0.104655795 0.05467646 -0.06196534 0.072139226
0002f0 14 73 07 3d ff 65 b2 bd 05 fc 2e 3d 4b 07 a7 bd
       0.03306873 -0.087108605 0.042720813 -0.08155688
000300 96 9d 2b 3d c5 0a 08 3d bb 2d 8e bd 0f 81 90 bc
       0.041898333 0.033213396 -0.06942316 -0.017639665
000310 cd eb 8a bd 13 d8 20 3d ac 02 89 bd 0f 41 82 bd
       -0.06783257 0.039268564 -0.06689963 -0.06360065
000320 57 c5 55 3d a8 34 b3 bd 74 ca 9f bd 0e 44 40 bd
       0.05219015 -0.08750278 -0.07802287 -0.046939902
000330 83 f6 5d 3d cd bd 24 3d 2e 6b b8 bd 4e 3b ab bd
       0.05419017 0.04022007 -0.09004818 -0.08360921
000340 c1 81 11 bd 25 1e a1 bd ef a1 e8 bc 5e 72 9c bc
       -0.035524134 -0.07867078 -0.028397528 -0.019097503
000350 c2 09 64 bd 2f 88 03 3c f5 66 a1 3c 0a 60 06 3c
       -0.05567337 0.008028074 0.019702414 0.008201608
000360 57 e2 b4 bd 7c 2c d8 3c 6e 45 d3 3c dd 5d 96 bd
       -0.088322334 0.0263884 0.025789943 -0.07342122
000370 84 70 14 3c d1 8e bd bd c6 c5 06 3c ec ff c7 bd
       0.009060029 -0.09255756 0.008225864 -0.0976561
000380 94 df 11 3d a8 6b 1b 3d 73 c0 95 bc 3d 1b cb 3b
       0.03561361 0.037944466 -0.018280244 0.0061983154
000390 e3 c4 92 bd c1 c9 86 bc df 56 06 bd b6 09 d6 bc
       -0.071664594 -0.016453626 -0.03279769 -0.026127677
0003a0 2d 47 80 bc 30 17 2b 3d 75 48 7b bc 75 0a 82 3c
       -0.01565894 0.04177016 -0.015337099 0.015874127
0003b0 74 7d 95 bc da d6 a2 3c 3f 42 b2 bd 8c e5 ca bc
       -0.018248297 0.01987784 -0.08704042 -0.02476766
0003c0 d0 ad 90 bd 5d 70 7d 3d 9b 73 b6 3c 56 5a 9c bd
       -0.07064402 0.061874736 0.022271922 -0.07634418
0003d0 89 dd f7 bc 30 de 73 3d ae 78 23 3d 6e 11 04 bc
       -0.030257003 0.059538066 0.03991001 -0.008060796
0003e0 b0 33 5e bc 46 f9 87 bd ff b0 e9 3d 34 2e 16 3d
       -0.013562128 -0.06639342 0.114107125 0.036665156
0003f0 69 3b a5 3d 1a 9b 5d 3d 60 9a c7 3b 9b 1c 1f bb
       0.08067972 0.054102995 0.006091401 -0.0024278525

2.bias f4 [100]
000000 bc 85 94 bb 26 1a 52 3d f4 d9 72 3d 25 e5 07 bb
       -0.004532544 0.05129447 0.059289888 -0.0020735946
000010 b5 59 a3 bd 94 be a3 bd 4a 08 57 3d 07 c8 7a 3d
       -0.07976095 -0.07995334 0.05249814 0.061225917
000020 4a a7 94 bd 35 c8 4e 3d db b1 b3 bd a5 90 9e 3b
       -0.0725847 0.0504839 -0.087741576 0.0048390203
000030 2c f4 91 bc dd 2e 21 bd ea 79 6d bc 93 fa a2 3d
       -0.017816626 -0.039351333 -0.014494399 0.079579495
000040 44 ca 8b bc 09 65 3a 3d 01 02 2b 3c 51 93 a7 3c
       -0.017064221 0.04550651 0.0104374895 0.020455988
000050 0b c0 d2 bc 3b dd 46 bc 05 26 b2 bd 12 2c 41 bd
       -0.025726339 -0.012137706 -0.08698658 -0.04716117
000060 4f 6f dd bc 2a c1 89 3d df 50 32 3d ea 12 a2 bd
       -0.027030615 0.06726296 0.043534156 -0.07913764
000070 99 a0 a6 bd 04 3b e0 3c d4 9e 8c 3d 8e a5 97 3d
       -0.081361 0.02737189 0.068662316 0.07404624
000080 bd 9c 2b 3d bf e9 97 3d 93 e9 aa bc ce fe dd 3d
       0.041897524 0.074176304 -0.02086333 0.10839616
000090 1d d4 39 3d c5 a4 6a bd 72 05 54 bd 53 4d 07 bc
       0.045368303 -0.057286043 -0.051763006 -0.008258182
0000a0 7e 48 b7 bd 7d 41 9d bb 68 ac 40 3d cd df 78 bd
       -0.08949374 -0.0047990666 0.04703942 -0.060760308
0000b0 43 6b 49 bd b4 01 a9 3a ca 31 75 bd e8 e4 06 bc
       -0.04917456 0.0012894184 -0.059861936 -0.008233286
0000c0 82 39 7c bd 10 1b 4a 3d 21 73 3b bd b2 a9 83 bc
       -0.06157828 0.049342215 -0.045764092 -0.016072128
0000d0 d1 33 ad 3d ed ae 5c 3c 6d 6e 7e 3d e2 39 f5 3b
       0.08457149 0.01346944 0.06211703 0.007483707
0000e0 7b b2 81 3d ba e2 3e bc 62 27 b7 bd 57 85 c9 bc
       0.063328706 -0.0116507355 -0.089430586 -0.024599714
0000f0 3e 42 86 bd f3 01 4f bd 1f 32 25 bd 77 6d a5 3c
       -0.065556034 -0.05053897 -0.040331002 0.020193798
000100 d4 c8 a6 bd d3 b5 09 bd d5 6d 83 bd 60 34 0e bd
       -0.08143774 -0.033620667 -0.06417433 -0.034717917
000110 4d c0 97 bd 25 2b cc 3c 87 68 af bd c6 be b0 bd
       -0.07409725 0.024922917 -0.08564859 -0.08630137
000120 6c d6 0c bd 02 e0 b7 bd 79 f4 dd bb 69 d7 96 bd
       -0.034384176 -0.08978273 -0.006773528 -0.07365305
000130 e2 ba 55 3c 6c d8 33 3d 3b ba cb bd f7 18 84 bc
       0.013045045 0.043907568 -0.0994763 -0.016125185
000140 7e 08 71 39 58 0d 88 3d 8e 45 94 3d 98 ce 42 bd
       0.00022986715 0.0664317 0.07239829 -0.047560304
000150 a8 3c 2e bd ab ca c3 3c c9 e1 39 3c e7 a5 92 3d
       -0.042538315 0.02390035 0.011345335 0.071605496
000160 93 e1 89 3d aa c6 81 bc 90 3e 53 bd bb d9 5d 3d
       0.06732478 -0.0158418 -0.051573336 0.054162722
000170 6b 0c 8b bd 21 38 4b bd 1a 49 28 bd 0e 04 42 bc
       -0.06789478 -0.049614076 -0.04108534 -0.011841787
000180 c2 5f 11 3d 93 b7 42 3d f8 ac 64 bd e4 f1 a5 bd
       0.035491712 0.04753835 -0.05582902 -0.081027776

4.weight f4 [7, 100]
000000 f2 a2 e2 3b 44 a7 c1 bd 35 c3 b6 bd c9 d7 00 bc
       0.0069163973 -0.094557315 -0.089239515 -0.007863947
000010 e3 62 6d 3d 90 47 7c bb a4 bd 4d bd 65 b3 f6 3d
       0.057955634 -0.0038494803 -0.050229684 0.120459355
000020 16 3e 94 bd 30 44 a2 3d 2f 68 9c 3b 50 ad 95 bd
       -0.072384045 0.07923162 0.004773162 -0.07308447
000030 0c fa 56 bc ed 93 66 3d 50 88 c5 38 04 08 06 bd
       -0.013121139 0.056293417 9.419082e-05 -0.032722488
000040 ac 85 ef bc 59 29 6e 3d e8 3f 7f 3d c0 ff d6 3c
       -0.029238544 0.0581449 0.062316805 0.026244998
000050 fb ce 99 bd 25 d1 bb bb 30 e0 91 bd 7e 37 19 3d
       -0.075101815 -0.005731719 -0.071228385 0.037406437
000060 1a e4 b3 3d 4a df 9c bc 0c 00 08 3e 43 f6 95 3d
       0.08783741 -0.019149441 0.13281268 0.07322361
000070 82 be 8c bd b6 e0 7a 3d 87 0e 56 bc 95 26 84 bc
       -0.06872274 0.061249457 -0.013064987 -0.016131679
000080 71 b6 85 3c 67 a7 9f bd 02 d5 91 bd be d7 87 3c
       0.016322346 -0.07795601 -0.07120706 0.016582366
000090 a5 34 84 bc 7c bc 87 bd e3 0e 0f bd 86 74 a1 3d
       -0.016138384 -0.066277474 -0.034926306 0.07883553
0000a0 57 a8 9a bd 43 1d 1f bc fe b6 d8 3d d2 2b 99 3d
       -0.075516395 -0.009711566 0.10581778 0.07479061
0000b0 7f 34 73 3d fb 27 fd bd ca 2c d1 3d 39 eb 1c 3d
       0.059376236 -0.12361141 0.10213621 0.038310263
0000c0 62 bb b2 3d 99 83 7e 3d 90 26 96 3d a6 84 4e bd
       0.08727147 0.06213722 0.07331574 -0.050419472
0000d0 f0 73 7b bd ad 7c 9d 3d d2 f7 48 bd 68 a2 65 bd
       -0.061389863 0.07689796 -0.049064465 -0.056063086
0000e0 c6 0b 8e bd 23 bf d7 bd cf bb 1b 3e 4e 2e 1d 3d
       -0.06935839 -0.10534503 0.15208362 0.038374238
0000f0 ab 2c 21 3d b8 f8 1f 3d e3 c5 b6 3d cc 29 36 3c
       0.03934924 0.039055556 0.08924463 0.011118364
000100 16 76 bc 3d d9 ba c9 3c 45 00 73 bd 6f 17 a5 3d
       0.092022106 0.024625229 -0.05932643 0.0806111
000110 b1 ec 41 bd 28 73 df bd a4 72 67 3d a7 28 aa bc
       -0.047344867 -0.10910636 0.056505814 -0.020771338
000120 74 75 4a 3b 57 51 18 3d 1e 30 86 bd 15 6f 9f bd
       0.0030892761 0.037186947 -0.065521464 -0.07784859
000130 d8 85 8b bd 07 e8 22 3d aa 81 6c 3d 79 3f aa 3d
       -0.06812638 0.03977206 0.057740845 0.08312888
000140 4b 08 8a 3d 7c 81 2e 3d 71 ce e6 bd 78 dc e2 bd
       0.06739863 0.042603955 -0.11269844 -0.11077207
000150 d3 08 63 3d 79 f1 4d 3d 3e a7 4e 3d 2e 59 ec 3c
       0.055428337 0.050279114 0.050452463 0.028851118
000160 e6 c2 9c bd 14 51 ff bc e3 fb 96 bd 5f b4 b4 bb
       -0.076543614 -0.03116659 -0.07372262 -0.005514666
000170 28 45 dd 3c 16 bf a5 3d 05 35 aa bd a1 73 b0 3c
       0.027010515 0.080930874 -0.08310894 0.021539511
000180 6f cc a9 3d a9 9e ce 3d 92 83 a5 bd 14 58 a0 bd
       0.08290946 0.10088856 -0.08081736 -0.078292996
000190 dc 67 8c 3c 01 23 d9 3c dc 73 ec bc 9e 39 aa 3c
       0.017139368 0.026505949 -0.02886384 0.020779427
0001a0 cb 23 dc 3c 9e 8f 53 bd c1 23 2d 3d 1c af fa 3b
       0.026872536 -0.051650636 0.042270426 0.007650269
0001b0 19 29 3d 3c 03 6f 0f bd cd 59 f3 3c d1 4a 69 3d
       0.011545443 -0.03501798 0.029705906 0.056956116
0001c0 63 0a 3d bd 9c 72 2a bd 65 34 1a 3d 6f f3 49 3d
       -0.046152484 -0.041613206 0.037647624 0.049304422
0001d0 8f 5b 1d bd da ae c1 3c dc 15 31 3d e7 7a 93 bd
       -0.038417395 0.023642946 0.043233737 -0.07201176
0001e0 26 98 c5 3d d7 5b 95 bd ea e2 fd 3c 10 a9 a3 3d
       0.09648161 -0.07292908 0.03099199 0.079912305
0001f0 fb 2f a9 bd 11 bc 07 3d 58 1a 20 3d bf 2e 5c bd
       -0.08261105 0.03313834 0.039087623 -0.053755518
000200 15 48 66 bd d8 c2 3d bd 82 f5 01 3d a7 12 71 bc
       -0.056221087 -0.046328396 0.031728275 -0.01471392
000210 25 95 bb bc 20 df 9f 3c 80 03 d1 3b 0f 15 09 3d
       -0.022898266 0.019515574 0.006378591 0.03346735
000220 7c 7e 04 3d ed ff 34 3d 63 3e 5e 3d 8b 51 57 bd
       0.032347187 0.044189382 0.054258715 -0.052568
000230 26 fb 01 bc 04 60 2a bd c1 b7 93 bc 0e f3 be 3c
       -0.007933414 -0.041595474 -0.018031957 0.023309257
000240 4a 58 19 3c 89 cc fc bb 85 0f ab 3d ee 96 c7 39
       0.009359429 -0.007714812 0.083525695 0.0003806869
000250 19 15 c8 bd 48 3a d8 3d d3 32 b7 3d c1 ab c6 bc
       -0.09769649 0.10557991 0.08945241 -0.02425182
000260 eb eb 3a 3d 89 aa d4 3c 6c 26 c3 3d ec 62 01 bd
       0.045635145 0.025960224 0.09528813 -0.03158848
000270 84 87 8e 3b d9 1a ca 3d 49 4b d9 3c 28 7d c2 bb
       0.004349651 0.09868402 0.026525157 -0.00593533
000280 8d e1 cd bd c3 d0 75 bd 17 a4 d5 3c 7a 90 7d bd
       -0.10052786 -0.060013544 0.02607922 -0.06190536
000290 33 e4 63 bb 47 1a 4d bd d5 b0 c3 bd 52 91 70 3d
       -0.0034773469 -0.05007389 -0.095552124 0.05873234
0002a0 00 92 9a 3c fd ea 1c 3c e4 e8 de bd 00 aa 5d bb
       0.018868446 0.00957751 -0.10884264 -0.0033823252
0002b0 09 28 a8 bd 84 7d 64 bd 9e 5a d6 3d 45 1a 2b bc
       -0.08210761 -0.055783764 0.104665026 -0.010443275
0002c0 01 c9 17 bd b2 d7 a6 bd 60 9d 28 3d f5 2a dc 3d
       -0.037056927 -0.08146609 0.04116571 0.10750381
0002d0 0a 01 24 3d e4 89 ec 3c 86 bf 31 bb de 59 a4 3d
       0.040040053 0.028874345 -0.0027122214 0.08024953
0002e0 4e 35 c6 3d 04 20 6e 3d a2 99 a3 3d 76 a9 5c bc
       0.09678136 0.058136 0.079882875 -0.013468137
0002f0 27 47 84 bd 4a ff 03 3d e7 1b 3b 3d 06 8c 93 3c
       -0.06458884 0.032225884 0.045680907 0.018011104
000300 3e 21 3c 3c a8 f3 e9 3b 3a ab 60 bd 83 4f c4 3d
       0.011482535 0.007139642 -0.054850794 0.09585478
000310 f5 cc 93 bc 06 34 dd bc fb ba ba 3d e9 a1 8e 3d
       -0.018042067 -0.027002346 0.09117695 0.06964476
000320 ab 5d 78 bd 6d 0f 1e 3d 74 7f 21 3e de 28 e8 3d
       -0.060636204 0.03858893 0.15771276 0.1133592
000330 58 16 20 3e c3 87 d0 3d 5b 5a 13 bd 1b 04 70 3d
       0.15633523 0.101821445 -0.03597484 0.058597665
000340 e2 b6 8f bd 2a 20 a0 3b 3f df cd 3d 35 5f 08 be
       -0.07017304 0.0048866468 0.100523464 -0.13317569
000350 2c 86 36 bd b8 8d 0d be ff 7d e1 3d 7c 34 3c 3e
       -0.04456155 -0.13823593 0.1101036 0.18379396
000360 6a 24 26 3d cc 3f b2 3a 86 00 86 bd c3 01 26 3d
       0.04056207 0.0013599335 -0.065430686 0.040529024
000370 67 8f 0e be 93 6e 15 3e 08 4f 05 be c0 a4 c6 bd
       -0.13921891 0.14592962 -0.1301843 -0.09699392
000380 e0 11 ac bd 64 a7 df 3d bc 22 a5 bd 02 ce 6c 3d
       -0.08401847 0.10920599 -0.08063266 0.05781365
000390 45 e6 e5 3d 4d 90 dc bd 9e 7f 5d 3c cd f1 29 bd
       0.11225561 -0.10769711 0.013519196 -0.041490365
0003a0 e1 16 0a 3e d4 f1 10 bc e1 50 1f bd 51 71 4a 3e
       0.1348529 -0.008846719 -0.03889549 0.1976979
0003b0 9a 21 18 3d b4 12 52 bd 67 fb 48 bb 49 81 a9 bd
       0.03714142 -0.051287368 -0.0030667426 -0.08276612
0003c0 5e ab 1b 3e 85 9b a1 bc 91 3b f5 bc c9 0a 26 3e
       0.1520209 -0.019727478 -0.02993563 0.16215052
0003d0 70 f4 26 3e 41 5e 5b bd 05 1c 2a bd e8 49 04 3e
       0.16304183 -0.053556684 -0.041530628 0.12918818
0003e0 d8 da f8 3d 92 38 b1 bd 89 b6 de 3b 82 68 c1 bd
       0.12151116 -0.08653368 0.006796662 -0.094437614
0003f0 76 bc 06 3e 95 cc 10 3e 4d 41 db bc b7 c7 dd bd
       0.1315783 0.14140542 -0.026764536 -0.10829108

4.bias f4 [7]
000000 46 02 da 3d 95 1e 81 3d ab 33 8b 3d 25 46 8c bd
       0.10644965 0.06304661 0.06796964 -0.068493165
000010 ca 11 66 3d af 60 b8 3b 5c a1 03 3c
       0.05616931 0.00562676 0.008034077
