models/date-06-19-2025-15-32p1-RLbotp2-RLbotDDQNself_play-Falseexp_dir-RLbotepochs-50p1_win_rate-0.04p2_win_rate-0.96is_test-False/model.pth (torch, 117053 bytes, 6 tensors)

0.weight f4 [150, 84]
00000000: 6911 723c d430 82bd 55b7 0abe a2cb e8bc
00000010: a135 3b3d 1185 92bd 6af7 bdbc 126c 97bd
00000020: c8c1 cdbd 6798 c5bb f5c4 98bc 403b c03d
00000030: c44c 273d 009e 3cbc 4217 8ebc f433 b3bd
00000040: f25f af3d 5757 a93c f4ce 9fbd 2c55 a13d
00000050: 6dc6 ec3c 9a05 d5bd 0b05 02be 7379 d53b
00000060: 12a3 d6bd cde8 873c 8f1c 7bbd 6a8b 80bd
00000070: 9913 bcbc 6166 383d da22 9a3c 41eb ea3c
00000080: 4e6d afbd 0dbc 95bd 1b89 803d 2b2c 983d
00000090: 46b8 673d 9e4a cabc 4eb6 ed3d c395 ee3c
000000a0: 1c71 cd3d 09d9 08bd a750 8d3c 8406 7e3c
000000b0: 5fcf 793c da4f 5f3d 0873 1bbd 8ac2 18bc
000000c0: 9bc4 383d 76ae eabc c17a 9c3d 1137 7abd
000000d0: 589b eebd 476f efbd 4d2e 48bb c629 85bd
000000e0: 9480 3fbd 97cb 75bd 4769 373d 51f9 a23d
000000f0: 2277 903d 8b15 6ebd 99af b23d 9140 3e3d
00000100: 8cb6 6e3d 8f93 9e3d 745d ad3c 3abd 6d3d
00000110: a687 91bd f058 bebd 59e3 ea3d be2c 9b3c
00000120: aa22 273d 80ac fa3d 6c7d e6bc 689b 95bc
00000130: 7fdb 32bd a467 653c 2f1b d4bb fb46 babd
00000140: 218f dbbd ddd1 91bc 3237 a43a 460f b43d
00000150: 29ef 23bd 2abc 83bd c31c 2bbe 5a05 cdbd
00000160: 0568 8ebd 2a0c 6cbd f7b0 66bd 13ec 86bc
00000170: ff88 893d db13 093e a56f 893d bf83 c1bc
00000180: a616 acbc 3e27 86bc 3ff9 443d b047 c2bd
00000190: 6d1f 89bc 1a37 44bd 1294 573c 6494 503b
000001a0: 1ee1 1dbd 5306 d93d 9336 cf3c 7e3d 7abd
000001b0: 74d5 d33d 764d bdbd b40c c4bc 8f69 fe3c
000001c0: 0e33 023e 1364 60bb 4a93 923d dd78 a03d
000001d0: c074 d9bd 732c e33d c2fd 023d 9a52 02be
000001e0: e19f 45bc d88d 2cbd 37f3 a6bd 07b7 54bc
000001f0: 4580 edbd ba13 d7bd 40fe c4bd 5b09 48bc
00000200: f30e ac3d 624a 36bd e12a 5e3d 1aa5 39bd
00000210: 10c1 53bd de1a afbd 3999 6dbd 2b5c b8bb
00000220: fe9e febd 0348 27bd 7462 6cbd 8a49 d8bd
00000230: 1ed4 2e3c f882 86bd e901 59bd 563c 523b
00000240: f831 963d 7f37 e9bb 6fa6 98bd b65e 67bc
00000250: 474f 49bd 9ac6 6cbc ec36 fa3d c87c 413d
00000260: e838 dfbd 820c 623d c09f c4bd a44d 203d
00000270: ce31 57bd 2e8b da3d 6776 e1bd 9026 50bd
00000280: a749 403d 0800 0bbe e56d 1abd 584f acbd
00000290: 3776 c43d 54e0 0b3d 5606 bd3d 8dce 103c
000002a0: e9af 5abc 1045 c13d 8b0c a03d af8a 963d
000002b0: 2313 253d dc80 ce3d a9d1 e93c 8b6c a5bd
000002c0: 8429 5bbc d491 233e ce96 ca3d d6cd 82bc
000002d0: 8e52 41ba 0595 4dbd e3be c2bc b5cd 9d3c
000002e0: 358f 903c 77ad b03d 143a 243d 6083 27bd
000002f0: bb98 a1bc c413 e7bd 6245 8abd 7a48 a33d
00000300: 8ae2 8dbd d2ba b03c 1f69 fdbd 4eec 9d3d
00000310: 0a35 d5bd ff1a 8c3b 5b2e 90bb acb9 dfbd
00000320: 3491 01be d830 90bd ea98 e1bb 5cc7 ca3c
00000330: 5d0d 02be fcf7 e63d dbd5 34bd 073b 4dbd
00000340: d95e cc3c cc66 9abc 4d73 1ebd ac2b cbbd
00000350: 4330 763d 0e62 86bd 5de5 95bd 72dd 04be
00000360: 2e10 1fbd ca9b 2f3d 3acf a7bd e856 6b3b
00000370: 96a3 8bbc 48d7 c1bd 3705 ffbd 8e5d d7bd
00000380: 6114 ca3d d001 a8bd 170e 2e3d d04d 6dbd
00000390: 01cf 853d a8d5 593d 1ef8 94bd cf49 a1bc
000003a0: ccc2 9c3d 9bc9 3bbd 0d81 383d d389 e9bd
000003b0: 474c 123d 3e19 76bd d858 cc3d b2a6 eb3d
000003c0: 7368 d03c 0bb8 39bb ece3 98bd 326d fdbb
000003d0: a651 293d 8c17 053e d913 113e c5d9 04be
000003e0: 5c05 2d3e 48c8 d03c 7fe9 213d 38fd 9c3a
000003f0: fb51 81bd 4e9a 1dbb efbb f53d 6a52 80bd
0.014774659 -0.063569695 -0.13546498 -0.028417412 0.04570544 -0.07154287 -0.023189265 -0.0739366
-0.100467265 -0.0060301307 -0.018648604 0.09386301 0.040844694 -0.0115122795 -0.017345075 -0.08750144
0.08563222 0.02067153 -0.07803145 0.07877573 0.02890321 -0.10401459 -0.12697236 0.006514722
-0.10480322 0.0165905 -0.061306532 -0.06276591 -0.022958564 0.04501951 0.018815447 0.02867663
-0.0856577 -0.073112585 0.06276151 0.07430299 0.05657222 -0.024693783 0.116070375 0.029124146
0.100313395 -0.033410106 0.017250372 0.015504483 0.015247195 0.05451951 -0.0379515 -0.0093237255
0.045109373 -0.028647643 0.07640601 -0.06108767 -0.11650723 -0.11691146 -0.0030545176 -0.06502108
-0.04675348 -0.06000861 0.044778135 0.079577096 0.07053973 -0.058126014 0.08724899 0.046448294
0.05827956 0.07742988 0.021162726 0.05804179 -0.07105951 -0.09294307 0.114691444 0.018942233
0.040804543 0.12239933 -0.028135978 -0.01826258 -0.04366636 0.014001761 -0.006472967 -0.0909557
-0.10720659 -0.017800266 0.0012528657 0.08791976 -0.040023003 -0.06432374 -0.1671019 -0.10010786
-0.06953434 -0.057628788 -0.05632111 -0.01646999 0.06715583 0.1338648 0.06710748 -0.023622392
-0.021006893 -0.016376134 0.048089262 -0.094863296 -0.016738618 -0.04790411 0.013157861 0.003182673
-0.038544767 0.105969094 0.025294578 -0.0610938 0.10343447 -0.0924329 -0.023931839 0.031056194
0.12714788 -0.0034239336 0.071569994 0.07835553 -0.106179714 0.110924624 0.031980284 -0.12726822
-0.012062044 -0.04212746 -0.08151858 -0.01298309 -0.11596731 -0.105018094 -0.09618807 -0.012209262
0.08401289 -0.04450453 0.05424011 -0.04532347 -0.05169779 -0.085500464 -0.058007453 -0.0056262217
-0.12432669 -0.04084016 -0.05771108 -0.105609015 0.01067069 -0.06567949 -0.052980337 0.003207942
0.073337495 -0.0071172114 -0.0745362 -0.014121702 -0.04914787 -0.014451647 0.12217507 0.04723814
-0.10899526 0.05518771 -0.096007824 0.039136544 -0.05253773 0.10671078 -0.110089116 -0.050818026
0.04694524 -0.1357423 -0.03770246 -0.08413571 0.0959286 0.034149483 0.09229724 0.008838308
-0.013347604 0.09437001 0.078148924 0.073506705 0.040301453 0.10083172 0.028542357 -0.080773436
-0.013376597 0.15973598 0.09892045 -0.01596729 -0.00073746673 -0.050190944 -0.023772663 0.019263128
0.017646411 0.08626836 0.04009445 -0.040896773 -0.019726148 -0.11283067 -0.06751515 0.07972808
-0.069279745 0.021573458 -0.12373566 0.07711087 -0.10410507 0.004275679 -0.0044000573 -0.10924086
-0.12653047 -0.07040566 -0.006884684 0.024753265 -0.1270041 0.11277768 -0.04414926 -0.05010512
0.02494757 -0.018847845 -0.03868418 -0.09920439 0.06010462 -0.06561671 -0.07319138 -0.129751
-0.03883379 0.04287318 -0.08193822 0.0035909954 -0.017045777 -0.0946489 -0.124521665 -0.10515891
0.09867168 -0.08203471 0.042493906 -0.057935536 0.065336235 0.053182274 -0.07273887 -0.019688515
0.07654342 -0.045846563 0.045044947 -0.11403241 0.035717275 -0.060082667 0.09977883 0.11506404
0.02544043 -0.0028338458 -0.07465348 -0.0077339644 0.04133763 0.12997264 0.14167728 -0.12973697
0.16896576 0.025486127 0.03952932 0.001197732 -0.06314465 -0.0024048272 0.11998736 -0.06265719

0.bias f4 [150]
00000000: 97ed c23d f5d7 8cbd 0d36 aa3d da26 bfbc
00000010: 2ed3 003e 8bf5 093c 74dd d13d 89d6 76bd
00000020: c9e8 a8bd 0295 9bbd 7612 193d d316 7e3d
00000030: fe55 1cbd ccfd 8bbd 9256 a83d 4563 063d
00000040: 5d86 ac3d e09f 53bd a0af 013e 8e4f 553d
00000050: f445 a2bd f5cd d03b 88b7 07bd 7043 4ebd
00000060: 1234 e93d 0d68 60bd 88ff 01be abb2 a43d
00000070: 3957 8a3d 0df6 8ebc 5709 203b fec2 8e3c
00000080: e4d4 f83d 9a68 c2bc 417f 783d 453e dbbc
00000090: 00c2 f83b 8fb4 f7bd cb7c 30bd dead b13c
000000a0: 548c bd3c 4bde e6bd 9bc3 a0bc d432 79bd
000000b0: fc68 5a3d 66ff 81bd 4bc5 733c a142 35bd
000000c0: dece babc 2506 0dbd e6ac 923c 219a 2ebc
000000d0: 36cd 2dbd 7ec5 48bd 4a73 d7bc 3010 9e3d
000000e0: 9035 cd3d d02e e83c 1c43 fb3c 1fd9 9e3d
000000f0: 44e6 8e3c 948a 9dbd f545 813d b456 1abd
00000100: 212e a33d 1f17 3a3d 3101 03bd 4e5b 34bd
00000110: 4672 92bd f078 833d 0f38 483d c124 8cbd
00000120: f1df b1bd 8b00 2c3d e0fb 173d 30a8 a4bd
00000130: df80 923d 2ccb 54bd efa2 2d3d f620 973c
00000140: 8ffd 74bd a1e5 423d 46c0 0b3e 911e 2dbc
00000150: 35df cfbd 6f8d f43c 1851 493d f8ad a9bc
00000160: 8e02 463d 6649 c43c 7e4d ae3a 8833 813d
00000170: cddd df3d cdd1 8b3d 1a1f 2e3d 5569 c2bd
00000180: c321 b4bc 19a3 363d 32af d03d 8112 dc3d
00000190: 0030 ff3a aa66 ed3d 46da 83bc f1ff 25bc
000001a0: cd43 9bbc 7de9 f3bd 2256 19bd 840b 303d
000001b0: ce52 1ebd cdad f23d c672 91bc 736d ddbc
000001c0: 2549 3bbd 3407 54bd 9bb1 f53d ec06 573c
000001d0: 0f9a 083d b0ec a5bd 5ddc 493c 370f 1ebb
000001e0: 29dd db3d 06ce 6fbd 71b7 fa3d dba9 6ebc
000001f0: 5fb1 76bd 6d7e 023b fd60 49bd 678c f1bc
00000200: bc7f 9d3d dee7 0d3e 02e1 a93d a8bb 58bd
00000210: 16f9 08be b2b2 b43d 0b11 aabc 49f1 7bbd
00000220: b4c3 8d3d 3a1b 853c dd90 de3d cf6a c3bd
00000230: f1ab 60bd 5d9f 583d a6f1 7c3d a533 89bd
00000240: 16e1 54bd 7358 9dbd 0b53 2d3d 5ed6 89bc
00000250: 3690 2a3c b4e7 8c3d
0.09517973 -0.06877128 0.083110906 -0.023333956 0.12580559 0.008420358 0.10247317 -0.06026319
-0.08247525 -0.0759678 0.03737112 0.062033486 -0.038167946 -0.06835517 0.08219637 0.032809515
0.08424065 -0.05166614 0.12664652 0.052077822 -0.07923499 0.0063722082 -0.033134013 -0.050357282
0.11386885 -0.05478673 -0.12695134 0.08041891 0.06754918 -0.01745131 0.002441963 0.017426964
0.12149981 -0.023731519 0.060668234 -0.02676309 0.007591486 -0.12094986 -0.04308776 0.021689352
0.023138203 -0.11272868 -0.019624522 -0.06083949 0.053322777 -0.063475415 0.014878581 -0.044252995
-0.02280372 -0.034429688 0.01790471 -0.010656864 -0.042432033 -0.04901647 -0.026300091 0.07717931
0.10019982 0.028342634 0.030671649 0.07756256 0.017443784 -0.07692447 0.06312171 -0.037680343
0.07967783 0.045432206 -0.031983558 -0.044032387 -0.07150702 0.06419551 0.048881587 -0.06842948
-0.086852916 0.041992705 0.03710544 -0.08039892 0.071534865 -0.051951572 0.042391714 0.018448334
-0.059812125 0.047582272 0.13647565 -0.01056637 -0.10149995 0.029852597 0.049149603 -0.020712838
0.04834228 0.02396078 0.0013298241 0.06308657 0.10930977 0.06827126 0.04251013 -0.09492747
-0.021988755 0.044589136 0.10189666 0.10745717 0.0019469261 0.11591847 -0.016095292 -0.010131822
-0.018953228 -0.11909769 -0.03743566 0.042979732 -0.038653187 0.11849556 -0.017754924 -0.027029729
-0.045724053 -0.051764682 0.11996766 0.013124209 0.033350047 -0.08101785 0.012320605 -0.0024117955
0.10735542 -0.05854609 0.1224202 -0.014566864 -0.060227748 0.0019911781 -0.04916476 -0.029485894
0.07690379 0.13857982 0.0829487 -0.052913338 -0.13376269 0.08823146 -0.02076008 -0.061509404
0.06922093 0.016248334 0.10867474 -0.095418565 -0.054851476 0.052886356 0.06175389 -0.066993035
-0.05197247 -0.07682886 0.042315524 -0.016825851 0.010410359 0.06880131

2.weight f4 [100, 150]
00000000: 6193 ac3d 3109 e43d 28ee 4d3d 0815 f3bd
00000010: b770 80bd cc42 40bd b2ca b6bc 2d9a e03d
00000020: c727 45bd 7509 c1bd 0e5a 47bd 4c31 acbc
00000030: 73a2 35bb 9800 053d 15de 4abd 281d e23d
00000040: e1c0 98bd 372c e93d 8541 56bb ad24 083d
00000050: 29e7 c8bc 5786 cf3c 9ba2 57bd 5dee 893d
00000060: 5e71 d3bd 871a 0ab9 edd6 09bd b67c b4bd
00000070: 044b 113d 5ed4 09bc cf03 4d3c 549a a13d
00000080: a0df 8d3d fd74 363d a42e 113d b9dd 12bc
00000090: 9294 cabc a4e7 f43c d4b2 ccbd 0dd3 3f3d
000000a0: 3ca1 663d d063 67bd 1bc9 cd3c 23e6 1e3d
000000b0: 49fd e3bb 3aec 85bd 8738 ed3c 9c74 b93d
000000c0: d4fc e63c e076 17bd 85d4 f938 515d f2bc
000000d0: 931e 053e 4c64 a1bb 6a92 453d 34b6 823d
000000e0: e5b6 843d be97 623d d412 273d e250 f9bc
000000f0: 96bb 40bc 870e 6ebd c5de e3bc b7b6 da3c
00000100: 414f 0d3d 620e c63d 0a3b 9abd 406f 363d
00000110: 59a6 493c 7681 b53c cc86 ad3c 6c8d cd3d
00000120: 347d 8e3d bf75 7fbd 723e 3f3d 29f8 6abd
00000130: 53e2 ebbc 7c24 343c 68ce c7bd b066 1b3d
00000140: 4cc1 903d ee67 a03d 8cf7 103e 691e cabc
00000150: b335 3dbd 3762 b83d 75ec 46bd deab 2abc
00000160: 1277 793d f0ab 2fbd a34a 253d 0b70 7bbc
00000170: 8b4a dcbc bf8f 97bb 52c1 b5bc 1006 3abd
00000180: d41d 40bd 3f8c 883c 9da2 2e3c 4bfd f1bc
00000190: 5ddc 1cbd 314f 91bd ab36 2c3d 5c40 bcbc
000001a0: d7f5 873a 03c7 803c 8626 12bd e011 dbbc
000001b0: 41fe cfbb d0fb 29bc 90fd 4d3d cd07 cbbd
000001c0: a1f7 8bbd eb12 b4bd 2b60 61bc 1974 54bd
000001d0: 25e7 42bd 393f 8e3d 6955 773d b1ee 04bd
000001e0: a9e0 7c3d 81cb a33d 591e 53bd ebb2 873d
000001f0: cfce 80bd 1723 5e3d f25e 7b3d a670 60bd
00000200: bb81 863d c2de 15bd 4338 753b 4f36 6bbd
00000210: 7507 0abd f768 ba3d 1f29 13bd 464c 993c
00000220: e450 b03d 7285 9d3d b685 84bd 7a8d ad3b
00000230: 086d 243d 2d77 44bd bf6f 6f3c a3b3 c63c
00000240: 9cac fbbc 3972 9fbc b32e 2bbd 1105 85bd
00000250: 22ad 8f3d 71c2 4ebd 364a 5e3c 7829 793c
00000260: 14b1 a03d 0bce b9bc 9eca 983d d76a 28bd
00000270: 5903 1f3d ac94 083e 25a0 37bd 8f4e 24bd
00000280: 0e96 2b3d 3d9c db3c 44ed 3b3b ada3 9c3d
00000290: 9025 1fbd b399 373c cee8 e0bb 82ff 0d3c
000002a0: ed7a 88bc 403a 2b3d a83f 52bc 7ea8 58bd
000002b0: d313 933c 83a6 553d e19f aa3c deed 543d
000002c0: 5be7 243c 23fc aebd 6e4f 3cbd cc75 ac3b
000002d0: 21c1 183d 5d6b f0bc 83f6 723c 5bf6 cabd
000002e0: ff53 713c 876e 89bd b952 8bbd 90a1 09bc
000002f0: 2097 79bd 870c ddbc 12a2 37bc a7b4 ad3d
00000300: aeb6 44b8 6aad 5e3d f8ce 8ebd eaf4 7b3d
00000310: d986 933d 8b55 123e f1fd bd3d 8709 b53d
00000320: 21a3 67bd ca41 0ebd b2ab 053e 9d09 b0bd
00000330: 8e21 5cbd 539d 49bd 94f3 953d 7dd5 ad3d
00000340: 74e0 173e 2482 7b3d 6046 80bd 2b4e 313d
00000350: 9544 9d3d eebe 073e 60c6 a33d f5f8 b93c
00000360: e983 0dbc ec63 c9bd 10dd bebc 1553 81bd
00000370: f070 983c 9f1c 753d e2ee 643d 5f12 ed3b
00000380: cf5e ecbc 6bc1 a3bd 1ff1 67bd bb23 57bd
00000390: 1ab4 d5bc 9cdc e2bb d0ab bc3d 39f2 a5bd
000003a0: b59b d23d abe1 933d 9bc4 cbbd e510 9b3a
000003b0: 11c8 8bbd 4283 07bd 23a5 243d 6588 933d
000003c0: 2417 77ba 8bee 61bd 737d 743d 6935 34bd
000003d0: a173 853d 6ca6 5e3c 5d47 6f3c 9704 a73d
000003e0: f12e 7b3c 7626 f6bc 4f50 6d3d 8496 9d3d
000003f0: 31b7 1bbd a4d6 2c3d 90e9 f4bd 21f0 9cbd
0.08426548 0.111345656 0.05027595 -0.11869246 -0.06271499 -0.046938702 -0.02231345 0.10966907
-0.048133638 -0.09425632 -0.048669867 -0.0210196 -0.0027715235 0.03247127 -0.0495282 0.11040717
-0.07458664 0.113853864 -0.0032692861 0.0332381 -0.024524288 0.025332613 -0.052645307 0.06734917
-0.103243575 -0.00013170588 -0.033652235 -0.08812849 0.03547193 -0.008412449 0.012513115 0.07890764
0.06927419 0.044545162 0.03544487 -0.008963996 -0.024729047 0.029895611 -0.09995046 0.046832133
0.05630611 -0.056491673 0.025120309 0.038793694 -0.006957684 -0.06539197 0.028957618 0.090554446
0.02819673 -0.036978602 0.0001191283 -0.029585512 0.12999944 -0.0049252864 0.048235334 0.06382409
0.06480197 0.055320494 0.04078944 -0.030434076 -0.011763474 -0.058119323 -0.027816186 0.026698453
0.03449941 0.09670712 -0.07530792 0.04453969 0.012307727 0.022156458 0.02118244 0.1003674
0.06957474 -0.06236815 0.046690412 -0.05736557 -0.028794443 0.010995027 -0.09756166 0.037939727
0.070681185 0.07832323 0.14156932 -0.024672704 -0.04619379 0.09003108 -0.048565347 -0.010416953
0.06090457 -0.04288858 0.040354382 -0.015346537 -0.026891014 -0.00462529 -0.022186909 -0.045415938
-0.046903446 0.016668437 0.010658887 -0.029539725 -0.038296092 -0.07095183 0.042044323 -0.022979908
0.0010372949 0.015719896 -0.03568127 -0.026741922 -0.006347448 -0.010374978 0.050290644 -0.09913597
-0.06834341 -0.08792671 -0.013755838 -0.05186853 -0.047583718 0.069456525 0.060384188 -0.032454196
0.06173769 0.079978 -0.051542614 0.06625923 -0.062894456 0.054232683 0.061369844 -0.05479493
0.06567713 -0.03658939 0.0037417568 -0.05742484 -0.033698518 0.09102052 -0.035927888 0.018713128
0.08609179 0.07691468 -0.06470816 0.0052964063 0.040143043 -0.047965217 0.014614045 0.02425558
-0.030721955 -0.019463645 -0.041792583 -0.06495107 0.07015444 -0.050478403 0.013567498 0.015207641
0.07846275 -0.022681257 0.07460521 -0.041117515 0.038821552 0.13337964 -0.04483046 -0.04011398
0.04189115 0.026807899 0.0028675357 0.07648406 -0.03885418 0.011206078 -0.00686369 0.008666875
-0.016660178 0.0418036 -0.01283256 -0.05289506 0.017953789 0.05216075 0.02082819 0.05198466
0.010064925 -0.08544185 -0.045974188 0.005263066 0.037293557 -0.02934807 0.014829281 -0.0991027
0.014729499 -0.067105345 -0.068028875 -0.008400336 -0.06093514 -0.026983513 -0.011208074 0.08481722
-4.6900175e-05 0.0543646 -0.0697307 0.061512865 0.072034545 0.14290445 0.09276951 0.08839708
-0.056552056 -0.03473071 0.13053778 -0.085955836 -0.053742938 -0.0492223 0.073218495 0.08487985
0.14831716 0.06140341 -0.06263423 0.043287437 0.076790966 0.13256428 0.079968214 0.02270172
-0.008637407 -0.09833512 -0.02329877 -0.06314675 0.01860854 0.05984175 0.05589188 0.007234856
-0.028853802 -0.07995876 -0.056626435 -0.05252431 -0.026086856 -0.0069232713 0.09212458 -0.08102841
0.10283605 0.07220777 -0.09949609 0.0011830596 -0.06825269 -0.03308416 0.04019655 0.072037496
-0.00094257505 -0.055159133 0.05968995 -0.04399625 0.06516195 0.013589483 0.014604417 0.08155172
0.015331016 -0.030047636 0.057937916 0.07694724 -0.0380165 0.042196885 -0.11958611 -0.076629885

2.bias f4 [100]
00000000: 5803 943d ff53 1d3d 098d 5c3c 51a2 99bd
00000010: dbd3 61bd e3bf 0bbd 5792 9b3d f22d e43c
00000020: 5781 eabb 0376 333c da50 953d eeba 81bd
00000030: b560 0bbd d29d 893d 464c fa3c eb98 a13b
00000040: a524 7d3d 85b2 113d 5381 9bbc 3b5f 90bd
00000050: cba5 9e3d 0b66 39bd f2bf 9ebd 2a5c 11bd
00000060: f8d1 1b3a 0fe2 983d aae1 50bc c974 01bd
00000070: f76a 083e b442 123d ff30 56bd 4531 1ebd
00000080: 47e1 d0bd 737b dcbc 7544 413d 5735 87bd
00000090: d7f5 b83d b61c f93a 6344 97bd a508 a5bd
000000a0: f93e fc3d 866c babd 9248 ba3c 3164 ba3d
000000b0: 081a a13d 317d 35bd 1849 be3d be21 103d
000000c0: 525f c1bd df30 3ebb ebb6 16bd 386a b6bd
000000d0: bb5b 9a3d 7351 6e3d a588 793d 73bf 25bd
000000e0: f0cb bfbd 2cdf 7fbd c215 803d 3430 b9bc
000000f0: f925 94bc 919f 353d cd33 473d e107 a9bd
00000100: e97a 9ebd dbae 90bd d0b1 00bd 6f54 853d
00000110: df3b a73d 91d8 a13d 657a f83c e313 973d
00000120: 82cb 92bd 3c18 1dbd 2e43 99bb c30b 28bb
00000130: a8a5 86bd 8401 3e3d 458e 833c 6270 123d
00000140: 6815 07bd d625 ecbc ad63 fb3c 42db 0d3d
00000150: 2f19 77bd dc2b 893c fce1 843d e939 0dbd
00000160: a503 83bd 58bb 2cbd 726a 483d 832c 6abd
00000170: fe60 83bd 7eb4 fabc 5c4e 4fbd e05f a63d
00000180: 25a5 ce3d 98c6 6abd 9aa1 afbd 3d18 833d
0.072272 0.038410183 0.01346136 -0.075016625 -0.05513368 -0.034118544 0.075962715 0.02785394
-0.007156532 0.010953429 0.07290812 -0.06334482 -0.034027774 0.06719555 0.030553948 0.0049315593
0.061802525 0.03557064 -0.018982565 -0.07049414 0.07746466 -0.04526333 -0.077514544 -0.035488285
0.00059440685 0.07464992 -0.012749115 -0.031605516 0.13322054 0.035708144 -0.05229282 -0.038621206
-0.10199218 -0.026914334 0.047184426 -0.06601971 0.09031265 0.0019005749 -0.073860906 -0.080582894
0.123166986 -0.091027305 0.022739682 0.09101141 0.07866293 -0.044308845 0.09291285 0.03518843
-0.09442009 -0.0029020829 -0.036795538 -0.08906978 0.075370274 0.058183145 0.06092133 -0.040465783
-0.0936507 -0.062468693 0.0625415 -0.022605993 -0.018084513 0.044341628 0.048633385 -0.08253456
-0.07738287 -0.07064601 -0.031419575 0.06510245 0.081657164 0.07902635 0.0303318 0.0737684
-0.07167722 -0.03835319 -0.004677198 -0.0025641776 -0.06574565 0.046388164 0.01605905 0.035751708
-0.0329794 -0.028826635 0.030687178 0.03463293 -0.06032675 0.016744547 0.064884156 -0.034479056
-0.063971795 -0.042170852 0.04892964 -0.057171356 -0.06414984 -0.030603644 -0.05061184 0.081237555
0.100900926 -0.0573183 -0.08575745 0.064011075

4.weight f4 [7, 100]
00000000: 4a84 853d 6fa2 ac3d ea5b 03bc 0a24 6a3d
00000010: e590 bbbd b297 ed3c 2fca 7f3d 37aa 8fbd
00000020: 063f 55bd ddf9 50bd a1b5 943b 16a1 8c39
00000030: 5307 ddbc f0d4 4cbd 4ea0 84bd ad3c b3bd
00000040: ef41 23bd 0076 8bbc d319 6e3d 56de 7a3d
00000050: a6dd c23c caf0 0d3d b50c 313d 9b23 b9bd
00000060: efdf 383d c6b5 183c 4faf 62bd 6d82 d73c
00000070: 9934 a43d 40bd c2bc 4766 17bc 5988 bebd
00000080: a1ce 5c3d b8d2 1cbd 3a49 1ebd bee6 ffbd
00000090: f3e5 963c dccb 673c d776 a0bc 464b 7e3d
000000a0: 5f19 85bc 3e2a 583d 98ad aebd c63c bd3d
000000b0: 8503 7f3d 7ee8 e43d 3ded 6ebd 8a9e b63d
000000c0: 8858 48bd 5818 7d3d 521a d5bc 0008 f9ba
000000d0: 010a 773d bb2f 0f3d 6219 adbd f3f7 5abd
000000e0: 654a 2b3c da34 933d deb8 cf3b 8e53 8fbb
000000f0: 1189 44bd 740f a03d 3607 3cbc a57c 8e3c
00000100: b024 c1bd bb77 e7bd d688 19bb a939 85bd
00000110: 55a1 e73c 8412 66bd 9815 5f3d b339 10bd
00000120: c72e a63c 95c7 8d3c b300 babd 3431 993d
00000130: 3a8f b53c 4454 be3c 7618 c93d 445e 3d3d
00000140: 4a91 2d3d 337f 51bc 13c1 3d3c 8886 59bd
00000150: c945 29bd 0781 8d3d 7f7c 033c 60ce d13c
00000160: 5ddf b0bd 6293 8f3d 8ccb bb3d 0613 603c
00000170: 5a33 d9bc 81e1 123d 6d85 dbbc e351 673d
00000180: 5b51 9f3d 84c5 843d 0968 c33c ddd8 02bd
00000190: 8231 05bc ba01 c93c 60d9 09bd 2d5d 46bc
000001a0: e0d9 d8bd d257 773d d46e a73b b0ab e43c
000001b0: d88b a4bd cc38 7bbd 0e31 0cbc 296f 64bd
000001c0: 7708 b03d bf32 c23c 1c92 f63b 5bf1 953d
000001d0: 91ce 02bd 28df 683d eb0b 673d aa7a c4bd
000001e0: a298 d03c 2c7b ed3d ef7c edbc e547 2d3d
000001f0: 1597 18bd 8d92 a03c 4b2c 083d 2a52 713b
00000200: fc52 9abd b32d 6bbc d5f7 e1bd 97ba 33bd
00000210: 56de 3f3d cb87 093d ae43 f8bc c2fb 58bd
00000220: 5ed5 aabd 8e2c a63d 952d 9d3d 30ea 023d
00000230: 7d76 9f3c 9864 90bc 2271 223d 9cf8 593c
00000240: dfa0 f63d d175 18bd a12c 173d 5859 413c
00000250: 76de 393d eebe 1d3b 357e f0bc 3548 9a3d
00000260: 30c7 833c 4b2c 033e 656a 64bd fa59 cfbc
00000270: 86dd c2bc 93d6 4dbd 0061 b3bd 36e8 d0bc
00000280: 41fd 9b3d e56b 4f3d e0bd 98bc 8d07 33bd
00000290: e7b9 87bd 40c2 0d3d b1eb 993d 25e0 53bc
000002a0: efce c43d 3c8a 06bd 47a5 653d 97c5 65bd
000002b0: c25f 843d d684 db3d 2731 b6bb 90e0 3f3d
000002c0: 2652 b1bc 8195 173d c108 b43d 906b 3abc
000002d0: dbfa bfbd 6a93 41bd 0cb3 03bd ecef ca3d
000002e0: 5320 b5bc 7525 8c3c a377 0dbc c466 abbd
000002f0: 7869 c93c af27 693d 2758 9abd a998 c8bd
00000300: 2dee ab3c f7e0 f3bd 0937 263d 3838 b2bc
00000310: ab4b 92bd c784 b9bd 3045 c6bd aa53 803b
00000320: c38c a13d db64 263e f3c7 fb3d bfd0 1cbe
00000330: 35d8 00be 3ebc b33d 7d8e e5bd 9bef 223e
00000340: 55e8 9b3d 9998 e5bd 540d d9bd fd65 dd3d
00000350: 0a2d af3c 9d73 adbd 4f80 b7bd 76b8 6abd
00000360: 4beb 903d 4a44 153e 2635 d93d 3289 21be
00000370: 19d2 9dbd 7cea 11be c2a2 d93d 3e1f 90bd
00000380: 91b8 c43c b5ac 8a3d 9b16 00be 68ba dabd
00000390: 949b a9bd 9ff0 a7bd df7f e33d 583c b53d
000003a0: 2150 f2bd 7fb9 143e cd11 3abe 749c cd3d
000003b0: b3a1 a5bc 79b1 033e cb59 2cbe fb6a 0f3e
000003c0: 670f 20be 6472 3e3e c0ab 1bbe 9126 903d
000003d0: 75d7 073e 12ae 6fbd 4e57 eebd 8e32 00be
000003e0: a877 483d 1da3 983c 26cd 28be b185 89bd
000003f0: 5e7e 553d 69c2 093e c719 923d 0042 bcbd
0.06519373 0.08429419 -0.0080175195 0.057163276 -0.09158496 0.029002998 0.062448677 -0.07014888
-0.052062057 -0.05101954 0.0045382534 0.000268229 -0.026981032 -0.05000776 -0.06475888 -0.08751807
-0.0398578 -0.01702404 0.058130097 0.061247192 0.02378733 0.034653462 0.04322501 -0.09039994
0.045135435 0.009320682 -0.05534297 0.026307309 0.08017845 -0.023771882 -0.009240693 -0.0930335
0.053907994 -0.038286895 -0.038644053 -0.124951825 0.018420195 0.014147725 -0.019587917 0.062083505
-0.01624745 0.05277466 -0.08529204 0.09240107 0.062259216 0.11177157 -0.058331717 0.08916958
-0.048912555 0.061790794 -0.026013527 -0.0018999577 0.060312275 0.03495763 -0.08452107 -0.05345912
0.010454749 0.07187815 0.0063391766 -0.004373974 -0.04798228 0.078154474 -0.011476329 0.01739342
-0.09430826 -0.11302134 -0.0023427508 -0.065051384 0.028275171 -0.05617 0.054463953 -0.035211276
0.020285977 0.017307082 -0.090821646 0.07480088 0.022163022 0.02323354 0.09819119 0.046232477
0.042374887 -0.012786674 0.011581677 -0.053106815 -0.041326318 0.06909376 0.008025288 0.025611103
-0.08636353 0.07010533 0.09169683 0.013676411 -0.026513744 0.03585959 -0.02679702 0.056474578
0.07779189 0.064829856 0.023853319 -0.0319451 -0.008129479 0.024536956 -0.03365457 -0.012107176
-0.10588431 0.060386486 0.0051096473 0.027913898 -0.080344856 -0.061333463 -0.008556617 -0.055770073
0.085953645 0.023705838 0.007524742 0.073214255 -0.03193528 0.056853443 0.05640785 -0.09593709
0.025463406 0.11595759 -0.028990237 0.042304892 -0.037253458 0.01960113 0.033245366 0.0036822655
-0.07535359 -0.014354157 -0.11033598 -0.043879118 0.046842895 0.033576768 -0.03030571 -0.05297447
-0.08341478 0.08113967 0.0767471 0.03196162 0.01946568 -0.017626092 0.039658673 0.013303902
0.120424025 -0.037221733 0.036907796 0.011801086 0.04537817 0.0024070102 -0.029357055 0.07533304
0.016086191 0.12809865 -0.05576553 -0.025311459 -0.023787271 -0.050253462 -0.08758736 -0.025501352
0.07616664 0.050640006 -0.018645227 -0.043708373 -0.06627255 0.03460908 0.07515658 -0.012931858
0.09609782 -0.032846674 0.056065824 -0.05609664 0.06463577 0.10718696 -0.0055600586 0.04684502
-0.021645617 0.037007812 0.08790732 -0.011378184 -0.09374019 -0.047259726 -0.032153174 0.09909043
-0.02211014 0.017107705 -0.008634481 -0.0836921 0.024586424 0.05692261 -0.07536345 -0.097947426
0.020987595 -0.11908143 0.04057983 -0.021755323 -0.07143339 -0.090585284 -0.09681165 0.0039162235
0.07888176 0.16249411 0.12293997 -0.15314005 -0.12582476 0.08776139 -0.11208818 0.15911715
0.07612673 -0.11210746 -0.10598245 0.10810468 0.021383781 -0.08469317 -0.0896002 -0.057304822
0.070761286 0.14576831 0.106058404 -0.15774992 -0.077060886 -0.14249605 0.10626747 -0.07037209
0.02401379 0.067712225 -0.12508623 -0.106800854 -0.08281627 -0.08200192 0.11108374 0.088494
-0.118316896 0.14523886 -0.18170853 0.10039607 -0.020218706 0.12860669 -0.16831128 0.14005654
-0.15630876 0.18598324 -0.15202236 0.07038606 0.13265784 -0.058515616 -0.11637746 -0.12519285
0.048942238 0.018632466 -0.16484508 -0.06714953 0.052122466 0.13453068 0.07133823 -0.09192276

4.bias f4 [7]
00000000: 3463 47bc ffcf c9bc 7e4a 1fbc 4336 7ebd
00000010: 95f0 29bd 8639 85bd 02ee 933c
-0.012169648 -0.024635313 -0.00972235 -0.062063467 -0.041489203 -0.06505112 0.018057827
