models/date-06-19-2025-17-07p1-RLbotp2-RLbotDDQNself_play-Trueexp_dir-RLbotepochs-50p1_win_rate-0.03p2_win_rate-0.97is_test-False/model.pth (torch, 117053 bytes, 6 tensors)

0.weight f4 [150, 84]
0	0x3d5ab052	0.05339081
1	0x3c38d0b2	0.011280226
2	0x3c052edb	0.008128847
3	0xbd85a143	-0.06524899
4	0x3ca6bd14	0.020353831
5	0xbd1dca5b	-0.03852306
6	0xbcd85f96	-0.026412766
7	0xbd8a48d7	-0.06752174
8	0x3def73f7	0.116920404
9	0x3d12d342	0.035846002
10	0x3dbe67ca	0.0929714
11	0x3bbffa7c	0.0058587175
12	0xbd9ccb94	-0.07656017
13	0x3af59e9d	0.0018739287
14	0xbda2c203	-0.07947161
15	0x3d182268	0.037142187
16	0x3e0007a7	0.12502919
17	0xbc67d03f	-0.014148771
18	0xbdab3610	-0.08359921
19	0xbd83757d	-0.064188935
20	0x3c9314c3	0.017954236
21	0xbdce79ae	-0.10081802
22	0x3e06d057	0.13165413
23	0x3d0e50f3	0.034745168
24	0x3cab7508	0.020929828
25	0x3bdb8692	0.0066993916
26	0x3d985b2f	0.07439267
27	0xbd8d25a7	-0.06891947
28	0x3dcd15bf	0.10013913
29	0x3d991a2c	0.07475695
30	0xbd2699b2	-0.04067392
31	0x3deb2352	0.11481346
32	0xba9f19d2	-0.0012138432
33	0x3d6aeb56	0.05735334
34	0xbcd6461c	-0.026156478
35	0xbdbbbefd	-0.091672875
36	0xbc555151	-0.013019876
37	0xbc7c9758	-0.015416943
38	0xbc721c71	-0.014777289
39	0xbb953930	-0.0045539364
40	0x3d8e6dff	0.06954574
41	0x3cd7be34	0.026335813
42	0xbd6a9320	-0.057269216
43	0xbd815243	-0.06314518
44	0xbd6d65c4	-0.05795838
45	0x3dc4e4da	0.096139625
46	0xbd93caf7	-0.07216447
47	0xbdf515f8	-0.11967081
48	0x3ce76bda	0.02824967
49	0x3cad0fd1	0.021125706
50	0x3dbe0162	0.092776075
51	0xbd8096ed	-0.06278787
52	0x3ccd4e8a	0.025061864
53	0x3d941618	0.072307765
54	0x3d0f7331	0.035021964
55	0x3d85e8b3	0.065385245
56	0x3b037061	0.0020055997
57	0x3d673cb1	0.056454364
58	0xbdd0cf3f	-0.10195779
59	0x3c55852c	0.013032239
60	0x3d4a74eb	0.049427908
61	0xbdf1e373	-0.118109606
62	0xbd4bafae	-0.049728088
63	0x3d40ca96	0.0470682
64	0x3dc19938	0.09453052
65	0xbd171634	-0.03688641
66	0x3db96856	0.090531036
67	0x3db94f98	0.090483844
68	0xbddaa33d	-0.106756665
69	0xbdc85adf	-0.09782957
70	0x3d612038	0.054962367
71	0x3dd93893	0.10606494
72	0xbd82017d	-0.0634794
73	0xbde1ac50	-0.11019194
74	0x3c996e15	0.018729249
75	0xbcdba9b3	-0.026814317
76	0xbba87a6f	-0.0051415483
77	0xbd4286fb	-0.04749201
78	0xbcb7a58c	-0.022417806
79	0x3d87c673	0.06629648
80	0x3bc14918	0.005898606
81	0x3d35a98c	0.044351146
82	0x3e073f4f	0.13207744
83	0xbda1984c	-0.078903764
84	0xbd23c547	-0.03998306
85	0x3d2609fe	0.040536873
86	0xbd88d8c5	-0.066819705
87	0x3dd0cf41	0.101957805
88	0xbb0ffbd4	-0.002197017
89	0xbd30489f	-0.043038007
90	0xbdc3d120	-0.09561372
91	0xbd8fd0be	-0.07022236
92	0x3d444349	0.04791573
93	0xbda762f8	-0.08173174
94	0xbcd1d184	-0.0256126
95	0x3dbc4786	0.091933295
96	0x3c2797e9	0.010229089
97	0x3dd930c7	0.10605007
98	0xbcc96e25	-0.024588654
99	0x3defc922	0.11708285
100	0xbb6b268c	-0.003588113
101	0x3d35ffe5	0.044433493
102	0x3b919226	0.004442471
103	0xbc9dd089	-0.019264476
104	0x3aaee0b6	0.0013342116
105	0xbdc0f5e0	-0.09421897
106	0x3d1c01ac	0.038087532
107	0xbd93847c	-0.07203004
108	0xbdd4aeb4	-0.103848845
109	0x3dcd5c20	0.10027337
110	0x3cfb75b5	0.030695776
111	0xbd5675a2	-0.052358277
112	0xbd07bbce	-0.03313809
113	0x3da39bab	0.07988676
114	0xbd45d5be	-0.048299544
115	0xbd0bf175	-0.03416582
116	0xbd5ccb90	-0.05390507
117	0x3daea2c5	0.085271396
118	0x3d3beb05	0.04587843
119	0xbd9f8e27	-0.07790785
120	0x3d1fd714	0.039023474
121	0x3d5f7c0b	0.054561656
122	0x3c0d320b	0.008617888
123	0x3cb9b73a	0.022670377
124	0xbd7e2b76	-0.062053166
125	0x3cfa114e	0.03052583
126	0x3cc3dea7	0.02390988
127	0xbdbc33dd	-0.0918958
128	0xbdd097c2	-0.101851955
129	0xbdd39a8b	-0.10332211
130	0x3dde2175	0.10846225
131	0x3d270d81	0.040784363
132	0xbd1fd793	-0.039023947
133	0xbda62da0	-0.08114171
134	0xbd8c0e47	-0.06838661
135	0xbd83ff01	-0.064451225
136	0x3cecce53	0.028906977
137	0x3db5e3c8	0.088813365
138	0x3cdf2cb1	0.02724299
139	0x3d81ef7e	0.06344508
140	0x3d35a970	0.04435104
141	0x3d1d0597	0.03833541
142	0x3cc493db	0.023996284
143	0xbc7929bc	-0.015207704
144	0xbdb9bb99	-0.090689845
145	0xbd8a5071	-0.06753624
146	0xbdb5c60d	-0.08875666
147	0x3c02b8d6	0.007978639
148	0x39c21757	0.00037019953
149	0xbde259f5	-0.11052314
150	0xbdb41ab3	-0.08794155
151	0xbc8696fa	-0.016429413
152	0xbda7ba6a	-0.081898525
153	0xbd54ac30	-0.051922023
154	0x3d98ae6e	0.07455145
155	0xbd1bf7e0	-0.03807819
156	0xbd1a1d91	-0.037625853
157	0xbdb375f0	-0.08762729
158	0x3ab644e7	0.0013906033
159	0x3d73c185	0.059510726
160	0x3dab6dd6	0.08370559
161	0x3e07535f	0.13215397
162	0xbb85580b	-0.0040693334
163	0xbd28be75	-0.04119726
164	0xbd149c37	-0.03628179
165	0x3b93d0fa	0.004510996
166	0xbde5481c	-0.111953944
167	0x3dd534d3	0.10410466
168	0xbdcc4e59	-0.09975881
169	0xbcad39bc	-0.021145694
170	0xbd979b73	-0.074026965
171	0x3dcc5046	0.099762484
172	0xbc851bbd	-0.016248578
173	0x3db67be2	0.089103475
174	0xba7e05ce	-0.0009690196
175	0x3d87c659	0.06629629
176	0x3d324468	0.04352227
177	0x3c14a745	0.009073083
178	0x3d480f5c	0.048842773
179	0xbc931e04	-0.017958649
180	0xbc4afff1	-0.012390123
181	0xbd535b5a	-0.05160079
182	0x3ce373ca	0.027765173
183	0x3d226a22	0.039651997
184	0xbd78b49f	-0.06071913
185	0x3c869011	0.016426118
186	0x3d9a2b40	0.075277805
187	0x3d90fad7	0.07079094
188	0x3cb1034b	0.021608016
189	0xbd75a632	-0.05997295
190	0x3df84390	0.121222615
191	0xbca78869	-0.020450788
192	0x3cf81bf7	0.030286772
193	0x3d8d9953	0.0691401
194	0x3d30b92a	0.043145336
195	0x3dbd2824	0.09236172
196	0xbdbc426c	-0.091923565
197	0xba55bea7	-0.00081537146
198	0x3dd39174	0.10330477
199	0x3d502c0a	0.05082325
200	0xbd903621	-0.07041574
201	0x3d2aa14e	0.04165774
202	0x3d30339c	0.04301797
203	0xbd85fcdd	-0.065423705
204	0x3dbc65fd	0.0919914
205	0xbdc924d8	-0.098214805
206	0x3d5ae801	0.053443912
207	0x3d8440c9	0.06457669
208	0x3dc535ae	0.09629379
209	0xbd9b2a98	-0.075764835
210	0x3d9a20a3	0.07525756
211	0x3d258d0a	0.04041771
212	0x3daae51b	0.0834448
213	0x3ce8d2e9	0.028420882
214	0xbd83731f	-0.06418442
215	0xbd31b7fe	-0.04338836
216	0x3c93cfbc	0.018043391
217	0x3cc17706	0.023616325
218	0x3db7bc72	0.0897149
219	0xbdd81fc4	-0.10552934
220	0xbd8c9a42	-0.0686536
221	0xbd9e2f54	-0.07723871
222	0xbd45329b	-0.048143964
223	0x3bb2dc2a	0.0054583745
224	0x3d82a280	0.06378651
225	0x3cdb7108	0.026787296
226	0xbdfd2a9b	-0.12361642
227	0xbd1799c6	-0.037011884
228	0x3c4a8d35	0.012362768
229	0xbbbc273a	-0.005741981
230	0xbca2e136	-0.01988278
231	0xbbd65640	-0.0065410435
232	0xbda37c39	-0.07982678
233	0x3db8d17d	0.09024332
234	0x3dbb1d12	0.09136404
235	0x3dc0927b	0.09402939
236	0x3a93720a	0.0011249196
237	0xbc6a7281	-0.014309526
238	0x3d0f3de4	0.034971133
239	0xbd65d2b9	-0.056109164
240	0x3ca466d8	0.020068571
241	0xbc198a1c	-0.009371307
242	0x3ca9e28e	0.020737913
243	0x3ca0eaa7	0.019643141
244	0xbdb2ead0	-0.08736193
245	0x3de3f795	0.11131207
246	0x3d150915	0.036385614
247	0x3e037578	0.1283778
248	0x3de862a6	0.11346941
249	0x3dd1ebfb	0.10250088
250	0x3da3477d	0.0797262
251	0xbd553390	-0.052051127
252	0x3d818681	0.06324483
253	0x3da57e25	0.08080701
254	0xbd931bb2	-0.07183017
255	0xbcef4641	-0.029208304

0.bias f4 [150]
0	0xbd26e506	-0.040745758
1	0x3d64e6f8	0.05588433
2	0x3e05e16b	0.13074271
3	0xbde2b3f8	-0.110694826
4	0x3d205b20	0.039149404
5	0x3d32f8d7	0.043694343
6	0xbcec89c6	-0.02887429
7	0xbd057bbd	-0.03258871
8	0xbd9d9ff7	-0.076965265
9	0xbd3a3ee4	-0.045470133
10	0xbda982d1	-0.082769044
11	0xbd8c1721	-0.06840349
12	0x3d71456a	0.05890409
13	0x3d85db8f	0.06536018
14	0xbdacb250	-0.08432448
15	0x3dc64286	0.09680657
16	0xbd61e270	-0.05514759
17	0x3c82fd05	0.01598979
18	0xbcaf785d	-0.021419698
19	0xbd8d42c5	-0.06897501
20	0x3dee6d2d	0.116419174
21	0x3daf83ba	0.08570047
22	0xbce603d2	-0.028077994
23	0x3d1a815a	0.037721016
24	0x3db16317	0.08661478
25	0xbda966b6	-0.08271544
26	0x3d5a181a	0.05324564
27	0xbcd10ef3	-0.025519824
28	0x3d3eccbc	0.04658197
29	0xbd6da02c	-0.05801408
30	0xbdb291f9	-0.08719248
31	0xbc589226	-0.013218438
32	0xbb9bd4cc	-0.004755592
33	0x3d9f6d48	0.077845156
34	0x3dc93d69	0.09826166
35	0x3b70291b	0.0036645595
36	0x3d941f81	0.072325714
37	0xbd38f17c	-0.045152172
38	0x3d7ed87b	0.06221817
39	0xbdae172f	-0.08500516
40	0xbc9889cd	-0.018620396
41	0x3d1a9b6d	0.03774588
42	0x3b42c932	0.0029721973
43	0xbc2cf7ff	-0.010557174
44	0x3d308321	0.043093804
45	0xbd616453	-0.055027317
46	0x3df38773	0.11891069
47	0x3df67441	0.120338924
48	0x3cecc0eb	0.028900584
49	0x3ca1200b	0.0196686
50	0xbda399b5	-0.07988302
51	0x3d2fe89e	0.04294645
52	0xbc779086	-0.015110141
53	0x3d5cb9f9	0.053888295
54	0x3d2cf088	0.042221576
55	0xbd913986	-0.0709105
56	0x3e0940f2	0.13403681
57	0x3cd5f611	0.02611831
58	0xbd9be9b2	-0.07612933
59	0xbced91a8	-0.029000118
60	0xbd81bce7	-0.063348584
61	0xbddce9b8	-0.10786766
62	0x3dc3b32c	0.09555659
63	0x3d4d5695	0.0501314
64	0xbd139c4d	-0.036037732
65	0x3d6c115f	0.057633754
66	0x3db9ab71	0.09065903
67	0xbdfdcc2f	-0.123924606
68	0x3dc1c862	0.09462048
69	0x3b57e24c	0.003294128
70	0x3c14bcd9	0.009078228
71	0x3dc8fd8b	0.098139845
72	0x3cb0f6fe	0.02160215
73	0xbcce3187	-0.0251701
74	0x3ddf4c77	0.109032564
75	0x3d7209bc	0.059091315
76	0x3dbcf82f	0.09227025
77	0xbd857835	-0.06517068
78	0x3dcb08a0	0.099137545
79	0x3d8056d9	0.06266565
80	0xbaa44eb7	-0.0012535666
81	0xbd49045c	-0.049076423
82	0x3ce1c0f6	0.027557831
83	0x3d92d2cc	0.071691126
84	0x3e009840	0.12558079
85	0xbd683646	-0.056692384
86	0xbdb13645	-0.08652929
87	0x3dfd64d4	0.12372747
88	0xbd01465f	-0.03156125
89	0xbc6d3a04	-0.014479164
90	0x3d536297	0.051607694
91	0xbd82f288	-0.063939154
92	0x3d282fbe	0.041061155
93	0x3d444ae8	0.047923
94	0x3dda50ab	0.106599174
95	0x3de2d868	0.110764325
96	0xbd4e868d	-0.050421286
97	0xbd0eb165	-0.034837145
98	0x3c9781cc	0.01849451
99	0x3e013346	0.12617216
100	0x3da41158	0.080111206
101	0xbdc70728	-0.09718162
102	0x3d72af91	0.059249464
103	0x3ca1a692	0.019732747
104	0x3bf99934	0.00761714
105	0x3d5428e8	0.051796824
106	0x3cddf1c4	0.027092822
107	0xbd890dc4	-0.06692079
108	0x3dee64c2	0.11640312
109	0xbcbee97e	-0.023304697
110	0x3da09e80	0.078427315
111	0x3d6763af	0.05649155
112	0x3d58bdcf	0.05291539
113	0xbcbfdb92	-0.023420129
114	0xbd928bda	-0.07155581
115	0xbd0b59d9	-0.034021232
116	0x3d754fdc	0.059890613
117	0xbda0cf7d	-0.07852075
118	0xbc8073dd	-0.015680248
119	0x3d5361b8	0.051606864
120	0x3e0543cc	0.13014144
121	0xbd30c422	-0.043155797
122	0x3dc0053d	0.09375999
123	0x3da96a09	0.08272178
124	0xbdbd561e	-0.09244941
125	0xbd9f70db	-0.07785197
126	0x3df3c4d4	0.11902776
127	0xbd8849fc	-0.066547364
128	0x3d9e3e7d	0.077267624
129	0xbdb3f6f5	-0.08787338
130	0x3dce9813	0.100875996
131	0xbd82554b	-0.063639246
132	0xbdb588ee	-0.08864008
133	0x3ce8c339	0.028413402
134	0x3dd97b4b	0.106192194
135	0x3dd761f3	0.10516729
136	0xbd144e84	-0.03620769
137	0xbcaa7a1a	-0.020810176
138	0x3dc8b6c9	0.098004885
139	0x3d7aef58	0.061263412
140	0xbd647b26	-0.055781506
141	0x3df01380	0.11722469
142	0x3c09054a	0.008363077
143	0x3d765ff0	0.060150087
144	0xbcf3de65	-0.029769132
145	0x3d34301a	0.043991186
146	0x3e066242	0.1312342
147	0x3d951aca	0.072805
148	0x3dff4ae4	0.12465456
149	0xbd869f81	-0.06573392

2.weight f4 [100, 150]
0	0x3c4efb18	0.012633108
1	0xbd99bcf4	-0.07506743
2	0x3c4613c2	0.012089672
3	0x3c96417f	0.018341778
4	0xbdbae386	-0.09125428
5	0xbd5629bd	-0.0522859
6	0x3ccbe0ea	0.02488752
7	0x3d2c31af	0.04203957
8	0x3c38e9f6	0.011286249
9	0x3d2e8dd4	0.042615727
10	0xbd6aca37	-0.057321753
11	0xbccc6b6a	-0.024953563
12	0x3d7409f8	0.05957982
13	0xbccef38d	-0.025262618
14	0xbda3b3dd	-0.079932906
15	0xbd5bd809	-0.053672824
16	0xbdab10dc	-0.08352825
17	0xbc654d48	-0.013995476
18	0x3a44a065	0.0007500707
19	0xbd0684b2	-0.03284139
20	0x3d21b1cc	0.0394762
21	0xbbcbd2c7	-0.006220195
22	0xbd685a1b	-0.056726556
23	0xbc69865a	-0.014253223
24	0x3d15d298	0.03657779
25	0xbcadf348	-0.02123417
26	0x3d54a25b	0.051912647
27	0xbd808fbd	-0.06277416
28	0x3d6cf6db	0.057852607
29	0x3acf7592	0.0015827885
30	0x3d8f10b8	0.06985611
31	0xbc33d623	-0.010976347
32	0xbcd30624	-0.025759764
33	0x3c15b3ae	0.009137077
34	0x3cd48d39	0.025946246
35	0x3d2d48b3	0.04230566
36	0x3cb96f99	0.022636222
37	0x3d6794cc	0.056538388
38	0x3c2f61e3	0.01070449
39	0xbcb12b9a	-0.021627236
40	0xbc2b17e8	-0.010442711
41	0x3d2cf615	0.04222687
42	0xbd8f33c3	-0.06992295
43	0xbd59f064	-0.05320777
44	0xbc847369	-0.016168313
45	0xbdb39cbb	-0.08770128
46	0xbd9a9a70	-0.07548988
47	0x3d41e342	0.04733587
48	0xbd942be4	-0.07234934
49	0xbcf2ca24	-0.029637404
50	0xbd835175	-0.06412021
51	0xbdbc10c6	-0.09182887
52	0x3bf6829b	0.0075228936
53	0xbc54c799	-0.012987041
54	0xbcf88c61	-0.030340375
55	0xbdb3b541	-0.08774806
56	0x3d117ff4	0.035522416
57	0x3c66d6ac	0.014089268
58	0xbcfb2eee	-0.030662026
59	0xbd7e3ddd	-0.062070716
60	0x3bba58f0	0.0056868717
61	0x3ca761da	0.020432401
62	0xbda08bf0	-0.07839191
63	0xbd48345c	-0.04887806
64	0x3d562443	0.052280676
65	0xbd6de042	-0.058075197
66	0xbd43b3f6	-0.047779046
67	0x3d6a17a7	0.057151463
68	0xbd81fe36	-0.06347315
69	0xbd0002cc	-0.031252667
70	0x3b8acde6	0.004235971
71	0x3c9491a3	0.018135851
72	0xbdbaa572	-0.091135874
73	0x3c71fd0a	0.014769802
74	0x3d4006fe	0.04688167
75	0x3d4ace93	0.04951341
76	0xbc55fc93	-0.013060707
77	0xbd4ec085	-0.05047657
78	0xbcc197ef	-0.023632018
79	0xbdae563d	-0.085125424
80	0x3d022be4	0.03178014
81	0x3d2bca8b	0.041941207
82	0x3ce12227	0.027482105
83	0x3d8646a1	0.0655644
84	0xbcfb927f	-0.030709503
85	0xbd9c9748	-0.07646042
86	0x3b00cf50	0.0019654818
87	0x3d032eff	0.03202724
88	0x3c8fe422	0.017564837
89	0xbda7ae35	-0.08187524
90	0x3cf9cf2f	0.0304943
91	0x3d8ff7bc	0.070296735
92	0xbd2440c2	-0.04010082
93	0x3ce4b069	0.02791615
94	0x3d388a6d	0.045053888
95	0xbc0d6e40	-0.008632243
96	0xbca4c7dd	-0.020114833
97	0xbd179a33	-0.03701229
98	0xbd9c3a51	-0.076283105
99	0xbd40a0d6	-0.047028385
100	0xbd6ee60c	-0.05832486
101	0x3d309143	0.043107282
102	0x3d2fd41a	0.042926885
103	0xbdb21ede	-0.08697294
104	0xbb7eb2a6	-0.0038863807
105	0xbd466c08	-0.04844287
106	0x3c67eacf	0.014155104
107	0x3d3a6a7b	0.045511704
108	0xbd33b6f2	-0.043875642
109	0xbc953313	-0.01821283
110	0xbc5ca6d4	-0.013467509
111	0xbd1bc34a	-0.03802804
112	0xbd9ffac2	-0.078115
113	0xbccdbde8	-0.025114968
114	0x3d6c5265	0.057695765
115	0xbd53b625	-0.05168738
116	0xbd87390e	-0.06602679
117	0xbdc53d2d	-0.09630809
118	0xbd496a64	-0.049173728
119	0x3d145803	0.036216747
120	0xbd9a8457	-0.07544773
121	0xbdb828a9	-0.0899213
122	0xbd9aa10f	-0.07550251
123	0x3d1e5c9e	0.038662545
124	0xbd974566	-0.073862836
125	0x3bdee3b9	0.006802049
126	0x3d68994e	0.056786828
127	0x3d6f5c0b	0.05843739
128	0xbadddcc0	-0.001692675
129	0x3cd33251	0.025780829
130	0x3d873a52	0.066029206
131	0xbd38cc7f	-0.045116898
132	0x3c2deeb1	0.0106159905
133	0xbcafd379	-0.021463143
134	0xbcbeb98b	-0.023281833
135	0x3d259c0e	0.04043203
136	0xbd40aeb2	-0.047041602
137	0x3d5e1e72	0.054228254
138	0xbd086bd5	-0.03330596
139	0xbda4a9c5	-0.080401935
140	0x3bd6281f	0.0065355445
141	0x3d8844f8	0.0665378
142	0xbd17aa24	-0.037027493
143	0xbd6aef6c	-0.057357237
144	0x3d357b8b	0.044307273
145	0xbd06e500	-0.032933235
146	0xbd0caff1	-0.03434748
147	0xbdb1fb6a	-0.086905316
148	0x3d6eaa13	0.058267664
149	0xbcb113af	-0.021615831
150	0x3d9e97b2	0.07743777
151	0xbc7a7b50	-0.015288189
152	0xbd04faf8	-0.032465905
153	0x3ca8fb02	0.020627502
154	0xbc878d31	-0.016546817
155	0x3d42203b	0.04739402
156	0x3cc9cf5c	0.02463501
157	0xbd2d9ba3	-0.042384755
158	0xbd095b73	-0.03353448
159	0xbd5bbb0b	-0.053645175
160	0x3d4f476f	0.050605234
161	0x3d8e8d79	0.069605775
162	0x3c40e0c6	0.01177234
163	0x3d24dc75	0.040249307
164	0xbaca1344	-0.0015417119
165	0xbcf3c803	-0.029758459
166	0xbb1f7a62	-0.002433442
167	0x3db585ad	0.08863387
168	0x3cd517fb	0.026012411
169	0x3cc9ad5b	0.024618795
170	0x3ba5de04	0.0050618667
171	0x3cb3ed96	0.021963876
172	0xbc9f74fb	-0.01946496
173	0xbda59db2	-0.080867186
174	0xbda2a127	-0.079408936
175	0x3d2b8443	0.04187418
176	0xbd364bab	-0.044505756
177	0x3d6fd273	0.05855031
178	0xbd535600	-0.051595688
179	0x3cf58160	0.029968917
180	0xbd40e9ff	-0.047098156
181	0x3d2868f4	0.041115716
182	0xbcf5e1e3	-0.030014938
183	0x3d07b44c	0.03313093
184	0xbd8b4014	-0.06799331
185	0x3d5ea7f4	0.05435939
186	0xbdafad6e	-0.08578001
187	0x3c4da5f3	0.012551772
188	0xbd495fd0	-0.04916364
189	0xba29303d	-0.00064540264
190	0x3d76130c	0.06007676
191	0xbcbf9891	-0.023388179
192	0xbc998cf5	-0.018743971
193	0xbd8796f5	-0.0662059
194	0xbd84161e	-0.06449531
195	0xbd290916	-0.04126843
196	0x3c4de0ff	0.01256585
197	0xbd351f29	-0.04421917
198	0xbd265f95	-0.040618498
199	0xbbe9034b	-0.0071109883
200	0x3ac17d5d	0.0014762093
201	0xbbbd41d9	-0.005775672
202	0x3d184342	0.037173517
203	0xbcd2a4d9	-0.025713371
204	0xbc6a383c	-0.014295634
205	0x3d8f8c3c	0.070091695
206	0xbd159219	-0.036516283
207	0xbc5cd794	-0.013479132
208	0x3da44181	0.080203064
209	0xbd16fa55	-0.03685983
210	0xbcd090dc	-0.0254597
211	0xbd6814fc	-0.056660637
212	0xbcf12f1b	-0.029441407
213	0x3c92491c	0.017857127
214	0xbd77263f	-0.06033921
215	0xbcd32ff6	-0.025779705
216	0xbd83d4e7	-0.06437092
217	0x3d4b6e77	0.049665894
218	0x3d8546ac	0.0650762
219	0x3d9138d3	0.070909165
220	0xbc0e7476	-0.008694759
221	0xbcfcddaf	-0.030867426
222	0xbd788a1f	-0.060678598
223	0x3d7e63c6	0.06210687
224	0xbd002ac8	-0.0312908
225	0xbd19d9dd	-0.037561286
226	0x3d6847bc	0.056709036
227	0xba23e7ba	-0.00062524865
228	0xbd8dc043	-0.06921437
229	0x3d2d4366	0.042300604
230	0xbd6fa290	-0.05850464
231	0xbd72b06d	-0.059250284
232	0x3c7e7b31	0.015532301
233	0x3d77011a	0.060303785
234	0x3d4e7b35	0.050410468
235	0x3cc571e4	0.024102159
236	0xbd3932ab	-0.045214336
237	0x3d54490b	0.05182747
238	0x3bb6bc04	0.0055766124
239	0xbd415c74	-0.04720731
240	0x3c4b9662	0.012425991
241	0xbd849cad	-0.06475196
242	0x3da4be0e	0.080440626
243	0x3cb8ed8a	0.022574205
244	0xbc8cf1b1	-0.017205091
245	0xbdaae761	-0.08344913
246	0xbd272fd2	-0.04081709
247	0xbd5792db	-0.052630287
248	0xbb320778	-0.0027165096
249	0x3d701d6e	0.058621816
250	0x3d8d1882	0.0688944
251	0x3cea36e9	0.028590636
252	0x3cf51166	0.029915523
253	0xbba7f196	-0.005125235
254	0xbdb74f4f	-0.08950674
255	0x3d69bc9f	0.05706465

2.bias f4 [100]
0	0x3c859fa7	0.01631148
1	0xbd815fa3	-0.063170694
2	0x3cda0fd2	0.026618872
3	0x3bf5772a	0.007491012
4	0xbd21fe40	-0.039549112
5	0x3da1a8e8	0.078935444
6	0x3d3bcd01	0.045849804
7	0xbd4083bd	-0.047000635
8	0x3da694a0	0.08133817
9	0x3d60c9ef	0.05488008
10	0x3d86a364	0.06574133
11	0xbab3f01f	-0.0013728178
12	0x3da04fe8	0.07827741
13	0xbd99bdbc	-0.07506892
14	0xbd671460	-0.056415915
15	0x3d0c768d	0.034292746
16	0x3d24143e	0.040058367
17	0x3d23ca00	0.039987564
18	0xbd572028	-0.0525209
19	0x3bd636e1	0.006537304
20	0x3dda5940	0.10661554
21	0xbd2581d7	-0.040407028
22	0x3d4801f5	0.04882999
23	0x3db59543	0.0886636
24	0xbd14ec0e	-0.03635793
25	0xbd6bf9ec	-0.05761139
26	0xbd347ec9	-0.044066224
27	0x3d69d09d	0.057083715
28	0x3da3098d	0.07960806
29	0x3d03f094	0.032211855
30	0xbc33d0e0	-0.010975093
31	0x3d1d4de3	0.038404357
32	0x3dbe59a7	0.092944436
33	0x3c856b3d	0.016286487
34	0xbccfe2b7	-0.02537666
35	0x3d640669	0.055670176
36	0x3d822b07	0.06355863
37	0x3cf81933	0.030285453
38	0x3c36e5a0	0.011163145
39	0x3c4a61c4	0.012352411
40	0xbdb07603	-0.08616259
41	0xbd0e02d1	-0.034670655
42	0x3d75f596	0.060048662
43	0x3cdef759	0.027217554
44	0xbd1f396f	-0.038873132
45	0x3c363743	0.011121574
46	0x3ca98351	0.0206925
47	0x3d9d0318	0.07666606
48	0x3c23b455	0.009991725
49	0x3dd0d612	0.10197081
50	0xbd131a15	-0.035913546
51	0x3d7f2544	0.0622914
52	0xbd93e06d	-0.0722054
53	0x3cc3a709	0.02388336
54	0x3dc0b3f7	0.094093256
55	0x3cb40a2f	0.021977512
56	0x3c4151b7	0.0117992675
57	0xbdabf951	-0.08397163
58	0xbd141e46	-0.036161683
59	0xbdb06549	-0.086130686
60	0x3d5b09b0	0.053476036
61	0xbd2bbf75	-0.041930635
62	0xbcfd7416	-0.030939143
63	0xbc20a7eb	-0.00980566
64	0xbda336a5	-0.07969407
65	0xbd33c29d	-0.04388677
66	0x3c98ed23	0.018667763
67	0x3cd63545	0.026148448
68	0xbd43d0bf	-0.047806498
69	0xbba6370c	-0.00507248
70	0xbd95dea7	-0.07317858
71	0xbd32c061	-0.043640498
72	0xbc9211f0	-0.017830819
73	0x3d587bb7	0.05285236
74	0x3dd13a5c	0.10216209
75	0x3d2bba8a	0.041925944
76	0x38e8e48b	0.000111051915
77	0x3d3a7286	0.045519374
78	0x3db553a1	0.088538416
79	0xbd9c05ba	-0.0761828
80	0x3c62551f	0.01381424
81	0xbcd4746b	-0.025934419
82	0x3d74cfca	0.059768476
83	0xbd560709	-0.052252803
84	0x3d0f9cb2	0.035061546
85	0xbdba63e1	-0.09101082
86	0xbda785f8	-0.081798494
87	0x3bc8901c	0.006120695
88	0xbd4faf35	-0.0507042
89	0xbc204222	-0.009781392
90	0x3d94d4a1	0.07267118
91	0xbd8c681f	-0.06855797
92	0xbbe36484	-0.0069394726
93	0xbcfe4e05	-0.031043062
94	0xbd7af3f8	-0.061267823
95	0x3da803f3	0.08203878
96	0x3c8a93fe	0.016916271
97	0x3d7c09fb	0.061532956
98	0xbd2f86d1	-0.04285318
99	0x3d7656b9	0.0601413

4.weight f4 [7, 100]
0	0xbcd44589	-0.025912063
1	0x3c945840	0.018108487
2	0x3d4474ea	0.04796306
3	0xbca23694	-0.019801416
4	0x3a33e80e	0.0006862887
5	0xbd11f753	-0.035636257
6	0x3d508ada	0.05091367
7	0x3db12f64	0.08651617
8	0x3debdc20	0.11516595
9	0x3dddf88d	0.10838423
10	0x3d0f670d	0.035010386
11	0xbda1c1f7	-0.07898324
12	0x3c50b23c	0.012737807
13	0xbd59c0a7	-0.053162243
14	0xbcab3fe0	-0.020904481
15	0x3d5ebaa0	0.0543772
16	0xbd0f885a	-0.035042144
17	0x3cd4140e	0.02588847
18	0xbd129048	-0.03578213
19	0xbc8ebaac	-0.017422996
20	0xbd711d87	-0.05886605
21	0xbcf6eae1	-0.030141296
22	0x3cc4a51f	0.024004517
23	0x3d0a4d19	0.033764932
24	0xbd6bfbdc	-0.05761324
25	0x3d370b17	0.04468831
26	0x3d34c3b1	0.04413194
27	0xbd846518	-0.064645946
28	0xbce90e11	-0.02844909
29	0x3da6ab07	0.081380896
30	0x3dc5103b	0.09622236
31	0x3ddfb5a5	0.10923318
32	0x3cdfa5a6	0.027300667
33	0xbdb253b5	-0.08707372
34	0xbd2b3298	-0.041796297
35	0x3cd23ad8	0.025662825
36	0xbd824726	-0.06361227
37	0x3daf60b7	0.08563369
38	0xbc793f0f	-0.015212788
39	0xbd94e580	-0.07270336
40	0xbc257b9a	-0.01010027
41	0xbd726939	-0.05918238
42	0x3dd19cce	0.10234986
43	0x3d0577d6	0.032584988
44	0xbc95ee3c	-0.018302076
45	0xbd6562f0	-0.056002557
46	0xbcdfe09e	-0.027328786
47	0xbd01ab80	-0.031657696
48	0xbd42b1b6	-0.04753276
49	0xbd134f31	-0.035964195
50	0x3d818380	0.0632391
51	0x3dacfd2a	0.08446725
52	0x3ce425e7	0.027850104
53	0x3cfc3d38	0.03079091
54	0x3ca5fd7c	0.020262472
55	0x3cce9d8b	0.025221607
56	0xba3466f0	-0.0006881794
57	0x3d23af7a	0.03996227
58	0x3d8aeac0	0.06783056
59	0x3d044f73	0.03230233
60	0x3c82b125	0.01595361
61	0x3cb6f41a	0.022333194
62	0xbd32a087	-0.043610122
63	0x3d3f7655	0.04674371
64	0xbca28b5b	-0.01984184
65	0xbd914c82	-0.07094671
66	0x3da4ad10	0.080408216
67	0xbc84e34d	-0.016221667
68	0x3d60d034	0.054886058
69	0xbd12c28c	-0.035830066
70	0xbc7499a4	-0.014929209
71	0xbdaf5a32	-0.08562125
72	0xbd4b1f98	-0.049590677
73	0x3d8539b7	0.06505149
74	0xbca49294	-0.020089425
75	0xbc4f3b63	-0.012648436
76	0xbb19c423	-0.0023462854
77	0x3d911f0e	0.07086001
78	0x3d8a953c	0.067667454
79	0xbd8108c0	-0.06300497
80	0x3d49d0c3	0.049271356
81	0xbd8578d6	-0.06517188
82	0xbd87d816	-0.06633012
83	0x3a9fbf33	0.0012187719
84	0xbd00da1c	-0.031458005
85	0x3d0ddb47	0.034632947
86	0xbc5d3d0d	-0.013503325
87	0xbdab87f9	-0.08375544
88	0xbd112b8b	-0.035441916
89	0xbd605499	-0.05476818
90	0xbc6cb72a	-0.014447967
91	0xbca23dd0	-0.019804865
92	0xbd7a1acf	-0.061060723
93	0x3da13d16	0.07872979
94	0xbd343513	-0.043995928
95	0xbcfa568d	-0.030558849
96	0x3ca6e48b	0.02037265
97	0x3d58c789	0.052924667
98	0xbd58603c	-0.05282615
99	0xbbac69a2	-0.005261616
100	0xbcaab2b1	-0.02083716
101	0x3d266511	0.04062373
102	0xbd3b9b82	-0.0458026
103	0x3d1625bb	0.036657076
104	0xbd9db9b3	-0.07701435
105	0x3d4eda4c	0.050501153
106	0x3d281db0	0.041043937
107	0xbdf25d14	-0.118341595
108	0x3db69a48	0.089161456
109	0xbb89bf6e	-0.0042037284
110	0xbc1484f2	-0.0090649
111	0x3c90ea79	0.01768993
112	0xbe0a6eba	-0.13518801
113	0xbd95a03f	-0.07305955
114	0xbcdebf7a	-0.027190913
115	0xbdcb8c0c	-0.09938821
116	0x3df68894	0.12037769
117	0x3d984ba4	0.07436302
118	0x3dc0b27a	0.09409042
119	0x3d7cb9a5	0.061700482
120	0xbd5a3d53	-0.05328114
121	0x3d41a070	0.047272146
122	0xbde6bfb6	-0.11267035
123	0xbdd5953a	-0.10428853
124	0xbdda826c	-0.10669407
125	0x3d87bff5	0.0662841
126	0x3df1afa0	0.11801076
127	0x3d9aa909	0.07551772
128	0x3d34af59	0.044112537
129	0x3d6e19a1	0.05812991
130	0xbd6585e3	-0.056035887
131	0x3bca379c	0.00617118
132	0xbe006e0f	-0.12541984
133	0xbdad8f36	-0.08474581
134	0x3a479a93	0.0007614281
135	0x3d7641da	0.060121395
136	0xbdb0067d	-0.085949875
137	0x3df99e90	0.121884465
138	0xbcd8458d	-0.026400352
139	0xbcefb1c1	-0.029259564
140	0xbd12ef50	-0.035872757
141	0x3cb78c3a	0.022405732
142	0x3d4e9db4	0.050443366
143	0xbc33e6c9	-0.010980316
144	0xbd57ecc7	-0.052716043
145	0x3d8a587b	0.067551576
146	0x3cf3bd63	0.029753393
147	0xbbf1397d	-0.0073615895
148	0xbd98de59	-0.074642844
149	0xbdde7349	-0.10861833
150	0x3d874ab9	0.06606049
151	0xbcd5a3bb	-0.02607905
152	0x3cca1c5a	0.024671722
153	0x3d621876	0.05519911
154	0xbd56d4e0	-0.052449107
155	0x3d7d81f7	0.061891522
156	0xbe056254	-0.1302579
157	0x3b9db921	0.004813329
158	0x3df33d04	0.11876872
159	0x3d04805f	0.032348987
160	0x39b4b334	0.00034465792
161	0xbdab849f	-0.08374905
162	0x3d17e643	0.03708483
163	0x3d6ac798	0.057319254
164	0xbd870f5e	-0.06594728
165	0x3bc943f4	0.006142134
166	0xbde0d874	-0.10978785
167	0xbdd95214	-0.10611358
168	0x3e06c5e5	0.13161428
169	0xbdd41e69	-0.10357363
170	0xbd972f02	-0.07382013
171	0x3d8b3ef8	0.0679912
172	0xbe060871	-0.13089158
173	0x3e041253	0.12897615
174	0xbd443862	-0.047905333
175	0xbc22ad7a	-0.009929055
176	0x3d390743	0.04517294
177	0xbd58dfe0	-0.05294788
178	0xbe01ab75	-0.12663062
179	0x3dae80e8	0.08520681
180	0xbd2d7e09	-0.042356525
181	0xbd1eb5f0	-0.038747728
182	0x3db65e99	0.08904762
183	0x3d841ac8	0.064504206
184	0xbdb101cd	-0.086429216
185	0xbd9a9716	-0.075483486
186	0xbc8cdad4	-0.01719419
187	0x3c49e312	0.012322204
188	0x3dcb75eb	0.099346004
189	0x3bfc2af1	0.0076955487
190	0x3dd82d82	0.10555555
191	0x3dfb266c	0.12263188
192	0x3c8c8f25	0.0171581
193	0xbd2641e5	-0.040590186
194	0x3cad9a7e	0.021191832
195	0xbd99d626	-0.07511549
196	0x3d7972ad	0.06090038
197	0xbd1c724e	-0.038194947
198	0x3d6cfa26	0.057855748
199	0x3d314693	0.043280195
200	0xbd279763	-0.040915858
201	0x3d8661af	0.065616004
202	0xbcaa6ba2	-0.020803276
203	0xba92cc67	-0.0011199833
204	0x3c1110ec	0.008854132
205	0x3cbf0beb	0.023321113
206	0x3d7f44f7	0.06232163
207	0x3cb116ed	0.021617377
208	0x3da78563	0.081797384
209	0x3da892ee	0.082311496
210	0x3dbd46fc	0.09242055
211	0xbc7ff9ed	-0.015623552
212	0x3db0db13	0.08635535
213	0xbdafcf3a	-0.08584447
214	0x3c223c9a	0.009902144
215	0x3c8442d6	0.016145151
216	0x3baa78c0	0.005202383
217	0xbd45f541	-0.048329595
218	0xbdb4af8a	-0.08822544
219	0xbcae7fd8	-0.021301195
220	0xbd4b2a78	-0.04960105
221	0x3d884cf9	0.06655306
222	0x3bb017ab	0.005373915
223	0x3db3bb3f	0.08775949
224	0xbd050d55	-0.032483418
225	0xbc7c3fcd	-0.015396071
226	0x3d9b4e94	0.07583347
227	0x3c9874a4	0.018610306
228	0x3da205b9	0.07911248
229	0xbc350f8c	-0.01105107
230	0xbcc1b4a3	-0.023645705
231	0x3d49d319	0.049273584
232	0x3d3a15c2	0.045430906
233	0xbb4ad7ff	-0.0030951498
234	0xbc5d404f	-0.013504102
235	0x3ccc736a	0.024957377
236	0xbdc0de11	-0.09417356
237	0x3d7e992c	0.062157795
238	0xbd33a307	-0.043856647
239	0x3d893109	0.06698806
240	0x3ce5a7df	0.028034149
241	0xbc38f6a2	-0.011289271
242	0x3ce3ec44	0.027822621
243	0xbd2f64a4	-0.042820588
244	0xbbaabbb2	-0.0052103633
245	0x3dbb8321	0.0915587
246	0xbc84f368	-0.016229346
247	0x3d6a07b8	0.057136267
248	0xbd978b18	-0.07399577
249	0xbd62ac4b	-0.055340093
250	0xbd91467f	-0.07093524
251	0x3d879a8e	0.06621276
252	0x3c27de8a	0.010245929
253	0x3daa140f	0.08304607
254	0xbd9ae899	-0.07563896
255	0x3da8b20b	0.08237084

4.bias f4 [7]
0	0xbca06670	-0.019580096
1	0x3d6240b3	0.055237483
2	0xbcc3db50	-0.023908287
3	0xbd19f82f	-0.037590202
4	0xbbabe285	-0.005245509
5	0xbd018b09	-0.031626735
6	0xbd6fd893	-0.05855615
