models/date-06-19-2025-20-16p1-RLbotp2-RLbotDDQNself_play-Trueexp_dir-RLbotepochs-50p1_win_rate-0.54p2_win_rate-0.46is_test-False/model.pth (torch, 117053 bytes, 6 tensors)

0.weight f4 [150, 84]
0	0xbd145e73	-0.036222886
1	0x3d3e6c4f	0.04649001
2	0x3da009a2	0.07814337
3	0xbde2ac17	-0.1106798
4	0xbd676e10	-0.05650145
5	0x3b05b322	0.002040096
6	0x3e024bfe	0.12724301
7	0x3ca6d51e	0.020365294
8	0x3ce192e2	0.02753586
9	0xbcf4b2e6	-0.029870462
10	0xbd8936c6	-0.066999
11	0xbc7bbe90	-0.015365258
12	0x3db79798	0.08964461
13	0xbcf85e18	-0.030318305
14	0xbdd4b4ab	-0.10386022
15	0x3dcba334	0.09943238
16	0xbdf9aafc	-0.12190816
17	0xbd5ce98a	-0.053933658
18	0x3d784782	0.06061507
19	0xbcbec5a3	-0.0232876
20	0xba883754	-0.0010392466
21	0xbd8cf1bc	-0.06882045
22	0xbd6f24f3	-0.058384847
23	0xbd0d5ec4	-0.034514204
24	0x3c89b77c	0.016811125
25	0xbdc03d52	-0.09386696
26	0x3d0da348	0.034579545
27	0xbdbbd7e5	-0.09172038
28	0xbdc0eb14	-0.094198376
29	0xbb9024dd	-0.0043989257
30	0x3c9efc92	0.019407544
31	0xbd756c64	-0.059917822
32	0xbe0026ea	-0.12514845
33	0xbc837c72	-0.016050551
34	0x3d5f6649	0.054540906
35	0xbc6b2a7f	-0.014353394
36	0xbd0a17f9	-0.03371427
37	0x3d359331	0.044329826
38	0x3c97e841	0.018543364
39	0xbcbb2d8d	-0.022848869
40	0xbdbdd1ab	-0.092685066
41	0xbdd92c70	-0.10604179
42	0x3cac2457	0.021013422
43	0x3d893ff0	0.06701648
44	0xbdb696e1	-0.089154966
45	0x3d8e19cd	0.06938515
46	0xb90a8626	-0.0001321068
47	0xbddb81bf	-0.107181065
48	0xbdc1e4d6	-0.09467475
49	0x3c352244	0.011055533
50	0xbd575378	-0.052569836
51	0xbdb5911b	-0.08865567
52	0xbdc8b47d	-0.098000504
53	0x394e9b94	0.00019703648
54	0xbc1f20fa	-0.009712452
55	0xbd8884e0	-0.06665969
56	0x3d7ea0d9	0.062165115
57	0xbd2456d8	-0.040121883
58	0xbd61adb1	-0.055097286
59	0x3db46973	0.08809175
60	0x3c9569dc	0.018238954
61	0xbd573142	-0.05253721
62	0xbdcc73b2	-0.09983005
63	0x3d3c6da3	0.046002995
64	0x3dc88110	0.09790242
65	0xbd958334	-0.07300416
66	0xbd0aafe3	-0.033859145
67	0xbd54ab05	-0.05192091
68	0x3d20832a	0.039187588
69	0xbdc755ec	-0.09733185
70	0xbd89c0a5	-0.06726197
71	0x3d0f0aa8	0.034922272
72	0x3d4ad2e1	0.049517516
73	0xbd625e03	-0.055265438
74	0xbdd5c1f8	-0.10437387
75	0xbdac4f37	-0.084135465
76	0xbc6c4da9	-0.0144228125
77	0x3db0cfa6	0.08633356
78	0x3dc20041	0.09472705
79	0x3dc0172c	0.0937942
80	0xbd5c7c35	-0.05382939
81	0x3ceb765e	0.028742965
82	0xbe12c721	-0.14333774
83	0x3c927ce1	0.017881813
84	0xbded218d	-0.11578665
85	0x3b031407	0.002000095
86	0x3cc8d7e7	0.024517013
87	0xbddefd40	-0.10888147
88	0xbd0e4afb	-0.034739476
89	0x3e06128c	0.13093013
90	0x3d64cd5f	0.05585992
91	0x3d1226ab	0.035681408
92	0xbe00858a	-0.12550941
93	0x3de6b66a	0.112652615
94	0xbcf4086f	-0.029789178
95	0x3d511d02	0.051053055
96	0x3dbf1397	0.09329908
97	0x3dc125da	0.09431048
98	0x3d40b940	0.04705167
99	0xbde475a3	-0.1115525
100	0x3d9c55c2	0.076335445
101	0xbd80e030	-0.0629276
102	0x3d060c3b	0.032726508
103	0x3cfb6f83	0.030692821
104	0x3c3aa794	0.011392493
105	0x3cddbb1d	0.027066762
106	0xbd93d282	-0.072178856
107	0x3dcfdd67	0.10149651
108	0xbcdb2092	-0.02674893
109	0x3c15d5db	0.009145225
110	0xbdf6f3e9	-0.12058241
111	0x3dac1df3	0.0840415
112	0xbd6ec727	-0.058295395
113	0x3d905a8c	0.070485204
114	0xbd45dabb	-0.0483043
115	0xbd8f92e4	-0.07010439
116	0x3dda2ec4	0.10653451
117	0x3bd1351f	0.0063845064
118	0xbda5fe0a	-0.08105095
119	0x3d247a91	0.04015595
120	0x3dfbf131	0.12301863
121	0xbc07f635	-0.008298446
122	0x3d2e58fa	0.042565323
123	0x3df9fec7	0.12206798
124	0xbdc93b51	-0.09825767
125	0x3d15ee2a	0.036604084
126	0xbd8a5d9c	-0.06756136
127	0xbd4134f6	-0.047169648
128	0xbdac5fef	-0.084167354
129	0x3c2010bc	0.009769615
130	0xbde542ff	-0.11194419
131	0x3dbe2208	0.09283835
132	0xbd9e37e8	-0.07725507
133	0xba432760	-0.0007444527
134	0x3cc3bef3	0.023894763
135	0xbd85d68d	-0.06535063
136	0x3c19aa68	0.009379007
137	0x3c7ce719	0.015435957
138	0x3cd4f51a	0.02599578
139	0xbdf5db5f	-0.12004732
140	0xbd1372be	-0.0359981
141	0x3d5fb52e	0.054616146
142	0xbd92179d	-0.0713341
143	0x3c2c70f8	0.010524981
144	0xbd56c3fd	-0.052433003
145	0x3db2a43c	0.087227315
146	0xbc662720	-0.014047414
147	0xbce7a109	-0.02827503
148	0xbdb876bc	-0.09007022
149	0x3d94b9ab	0.07261976
150	0xbdea5cf5	-0.114435114
151	0x3e0e78c3	0.13913254
152	0x3df3a1f8	0.118961275
153	0xbdbe7c1e	-0.09301017
154	0xbd8cd1db	-0.06875964
155	0x3d56c811	0.052436892
156	0xbdc6685d	-0.096878745
157	0x3d4ee3ec	0.050510332
158	0xbc9a64d0	-0.0188469
159	0x3ce00be0	0.027349412
160	0x3de4b258	0.11166829
161	0xbe07ba33	-0.13254623
162	0xbd3843f3	-0.044986676
163	0xbd9180bb	-0.071046315
164	0x3d332f36	0.043746196
165	0xbda06a7b	-0.078328095
166	0xbc952f17	-0.01821093
167	0x3d6e457b	0.05817173
168	0x3d2f3586	0.042775653
169	0xbd03ff0f	-0.032225665
170	0xbdc7eece	-0.09762345
171	0xbd1a8338	-0.037722796
172	0x3dca04e2	0.098642126
173	0xbcb3f82a	-0.02196892
174	0x3e06a4a2	0.1314874
175	0xbd6e5852	-0.058189698
176	0x39ee32c8	0.00045432732
177	0xbdcb71d2	-0.09933819
178	0xbd21262e	-0.03934305
179	0xbd0d560e	-0.034505896
180	0xbd22c5c3	-0.03973938
181	0xbddde076	-0.10833828
182	0xbd75235b	-0.05984817
183	0xbd1ea35c	-0.03873001
184	0xbda8c2e3	-0.08240297
185	0xbe0016db	-0.12508719
186	0xbdc77028	-0.09738189
187	0x3dc5a7c4	0.096511394
188	0x3a788acf	0.00094811333
189	0xbd383f8b	-0.044982474
190	0xbd87e4d0	-0.066354394
191	0x3d7107c0	0.05884528
192	0xbd59af64	-0.05314578
193	0xbc2742fd	-0.010208842
194	0xbc1a7403	-0.009427073
195	0x3c8a9adf	0.016919551
196	0x3d1cca69	0.03827897
197	0xbd0f6373	-0.03500695
198	0xb937b477	-0.00017519468
199	0x3d256ad0	0.040385067
200	0xbd9f1308	-0.07767302
201	0x3ddd150b	0.10795029
202	0xbcaf4262	-0.021393958
203	0x3df99e12	0.12188353
204	0xbbbd0b23	-0.00576915
205	0xbd8069a0	-0.06270146
206	0x3def3b30	0.11681211
207	0xbccf9eb9	-0.02534424
208	0x3dff5595	0.12467495
209	0x3e0f97f3	0.14022808
210	0x3dc57e86	0.09643273
211	0xbd4f0796	-0.050544344
212	0x39cf39a8	0.00039525074
213	0xbcb2b04c	-0.02181258
214	0x3dac97da	0.08427401
215	0xbdce5453	-0.10074677
216	0x3c609c06	0.013709074
217	0xbe17fb8f	-0.14842056
218	0x3da173b4	0.07883397
219	0xbcfae95a	-0.030628849
220	0xbe1198c5	-0.14218433
221	0x3dd84888	0.10560709
222	0xbda51610	-0.08060849
223	0xbd6eff4b	-0.058348935
224	0x3dbde323	0.092718385
225	0x3db853e2	0.090003744
226	0xbdd610d8	-0.104524314
227	0x3d974039	0.073852964
228	0x3e0331ae	0.1281192
229	0xbdc239bd	-0.09483669
230	0x3d4172fb	0.047228795
231	0x393365c0	0.00017108675
232	0x3c972f4b	0.018455168
233	0xbe040e10	-0.1289599
234	0xbdcfed95	-0.10152737
235	0x3dce2529	0.100656815
236	0xbd50c52e	-0.050969295
237	0x3bbe3108	0.005804185
238	0xbdbd621b	-0.09247228
239	0x3dbdd034	0.09268227
240	0x3dbf2d8a	0.09334858
241	0xbcf5b454	-0.029993214
242	0x3d8b5add	0.0680444
243	0xbd5754d5	-0.052571137
244	0xbde05065	-0.10952834
245	0xbd14735d	-0.03624283
246	0x3e0d75ca	0.13814464
247	0x3d36a79b	0.044593435
248	0xbd7440ad	-0.059631992
249	0xbdb2dd9d	-0.08733676
250	0x3d77b3c0	0.060474157
251	0x3d8e5f6c	0.06951794
252	0xbd8b0537	-0.06788104
253	0x3c7416dc	0.014898028
254	0x3d3ae360	0.045626998
255	0xbdbf50dd	-0.09341595

0.bias f4 [150]
0	0x3da7cbad	0.08193145
1	0x3d26e8f8	0.04074952
2	0xbd8f48d9	-0.069963165
3	0xbd558868	-0.05213204
4	0x3c3c663f	0.011498987
5	0x3dbeb212	0.09311308
6	0xbe133885	-0.14377029
7	0xbdb6734d	-0.08908711
8	0x3dc1bc10	0.09459698
9	0xbda0ef6c	-0.07858166
10	0xbe116ef4	-0.14202482
11	0x3d8b49b6	0.068011686
12	0xbdc04df3	-0.09389868
13	0x3bcba325	0.0062145167
14	0xbdc78fbc	-0.09744212
15	0x3d90f241	0.07077456
16	0xbd899681	-0.067181595
17	0xbd0791b5	-0.03309794
18	0xbdc61b39	-0.09673161
19	0x3d2b99c4	0.04189469
20	0xbca80e04	-0.020514496
21	0xbce3e6af	-0.02781996
22	0xbb379665	-0.0028013226
23	0xbd0ea31e	-0.03482353
24	0x3d9dd161	0.077059515
25	0x3c83db3c	0.01609575
26	0xbd011413	-0.031513285
27	0xbdb3bd12	-0.08776297
28	0xbdc02b2f	-0.093832366
29	0x3e0aa4bd	0.13539405
30	0xbd64776a	-0.055777945
31	0xbdb8acf7	-0.090173654
32	0xbdac9b1c	-0.08428022
33	0xbd9b94d6	-0.075967476
34	0xbd822b6b	-0.063559376
35	0x3ce0a130	0.02742061
36	0x3dbd0686	0.0922976
37	0xbcee1268	-0.029061511
38	0x3def1c1b	0.116752826
39	0x3d9c7dd4	0.07641187
40	0xbdd2ce31	-0.10293234
41	0xbd34f6ae	-0.044180565
42	0x3db8f34d	0.09030781
43	0xbd352832	-0.044227786
44	0xbdd76ab9	-0.105184026
45	0x3d2ed36a	0.04268209
46	0xbdbe5392	-0.092932835
47	0xbddc890f	-0.10768329
48	0x3dac2fba	0.084075406
49	0xbca1c0e2	-0.019745294
50	0xbd38dd7a	-0.04513309
51	0xbcda9fe5	-0.026687572
52	0x3d9ffd2b	0.0781196
53	0x3cc9a440	0.024614453
54	0x3d0f9133	0.035050582
55	0xbd4433a6	-0.04790082
56	0x3c9f4b7e	0.019445177
57	0x3da2222a	0.079166725
58	0x3cc9f05c	0.024650745
59	0xbdc81230	-0.09769094
60	0xbd8e3206	-0.06943135
61	0x3dc453db	0.09586307
62	0x3ce0ccdd	0.027441436
63	0xbd824506	-0.063608214
64	0xbd23734c	-0.039904878
65	0xbda7ef10	-0.081998944
66	0x3e1cd699	0.15316238
67	0xbc7d3570	-0.015454635
68	0xbcf20168	-0.029541686
69	0xbd5f216d	-0.054475237
70	0xbdbadec8	-0.091245234
71	0xbd25ccf2	-0.040478654
72	0x3d2e0fed	0.042495657
73	0xbd4920bb	-0.04910348
74	0xbca5c4cb	-0.02023544
75	0x3de505b1	0.11182726
76	0x3dda4816	0.106582806
77	0xbd26839d	-0.04065286
78	0x3d21e500	0.039525032
79	0xbd1f4735	-0.038886268
80	0x3dcb4155	0.099245705
81	0x3d1ae834	0.037819102
82	0x3deb1c43	0.1148
83	0xbdce7479	-0.10080809
84	0xbcf10b1c	-0.029424243
85	0x3d0ef009	0.034896884
86	0xbca43ec5	-0.020049462
87	0x3dbd9a9a	0.092580035
88	0x3ce25092	0.02762631
89	0x3ca2d319	0.01987605
90	0xbab3d7eb	-0.0013720965
91	0x3c648cc7	0.01394958
92	0xbd35d144	-0.044389024
93	0x3d76e631	0.06027812
94	0x3d9b795e	0.07591508
95	0xbd00b8fc	-0.031426415
96	0x3d68f69a	0.056875803
97	0xbd4624c0	-0.04837489
98	0xbd5a8b27	-0.053355362
99	0xbdb807d6	-0.089858696
100	0xbcd853a1	-0.026407065
101	0xbd9a3424	-0.07529476
102	0xbd485da2	-0.04891742
103	0x3d2bd532	0.041951366
104	0x3d180016	0.037109457
105	0x3d873f8c	0.066039175
106	0xbbc640de	-0.0060502132
107	0xbcd339e3	-0.025784438
108	0x3d53db4c	0.05172281
109	0x3c308d3f	0.010775863
110	0xbd55e4b9	-0.05222008
111	0xbdaf98bc	-0.08574054
112	0xbd76d415	-0.06026085
113	0x3d0f4d5b	0.03498588
114	0x3d8396b4	0.06425229
115	0xbdb2895e	-0.08717607
116	0xbd45c5dc	-0.048284397
117	0xbcf40b76	-0.029790621
118	0x3bd7857b	0.0065771914
119	0xbbd45ed5	-0.0064810314
120	0x3e0a524f	0.1350796
121	0x3c8f85f5	0.01751993
122	0xbcd327e5	-0.02577586
123	0xbdddee68	-0.10836488
124	0x3d606c4c	0.05479078
125	0x3dd19a6b	0.10234531
126	0x3dab9758	0.08378476
127	0x3d918c0c	0.0710679
128	0x3cc29643	0.023753291
129	0xbd267343	-0.040637266
130	0x3dd09fc2	0.101867214
131	0xbd6dab3f	-0.05802464
132	0x3e0b1e73	0.13585834
133	0x3d56054d	0.05225115
134	0xbd097a82	-0.0335641
135	0x3dc972f8	0.09836382
136	0xbd5faf13	-0.054610323
137	0x3dbdb6c5	0.09263376
138	0xbd8fa297	-0.070134334
139	0xbda71d79	-0.08159918
140	0xbd354229	-0.04425255
141	0xbdc099d9	-0.09404344
142	0x3d6b8902	0.057503708
143	0xbda8e72a	-0.08247216
144	0xbce7fff0	-0.028320283
145	0xbd1764e2	-0.036961444
146	0xbdb72b11	-0.08943761
147	0xbc83bbd0	-0.016080767
148	0x3d16cee9	0.03681842
149	0x3d264a85	0.04059841

2.weight f4 [100, 150]
0	0x3d489a31	0.048975173
1	0xbdaf456f	-0.08558165
2	0xbd5db679	-0.054129098
3	0xbc1728c9	-0.0092260325
4	0xbcec86a4	-0.028872795
5	0xbcc44c0f	-0.023962049
6	0xbd584ff0	-0.05281061
7	0x3d955d41	0.072931774
8	0xbd555eb6	-0.052092277
9	0xbd4a763c	-0.049429163
10	0x3cb8e2cc	0.022569083
11	0x3d61ccc2	0.055126913
12	0x3cd03abb	0.02541863
13	0x3ccfba6e	0.025357451
14	0x3c9abd19	0.018888997
15	0xbda98658	-0.08277577
16	0x3d2a51dd	0.041581977
17	0x3c1fb007	0.009746558
18	0x3c5c34f1	0.013440357
19	0xbb5e071b	-0.0033878747
20	0xbd79dc65	-0.0610012
21	0xbd41f905	-0.047356624
22	0xbd575e0a	-0.052579917
23	0xbd082b8c	-0.033244655
24	0x3cafe698	0.02147226
25	0xb9ce11b4	-0.00039304572
26	0x3d96e9e8	0.07368833
27	0xbd830835	-0.0639805
28	0x3b853c9e	0.004066064
29	0x3d8be935	0.0683159
30	0xbcc0c734	-0.023532487
31	0x3ce702b3	0.02819953
32	0x3ca0469e	0.019564923
33	0xbd3e6dac	-0.04649131
34	0x3d89193d	0.06694267
35	0x3d422da7	0.04740682
36	0x3bb78a1e	0.0056011816
37	0x3ac1b553	0.001477877
38	0x3d1c0faa	0.038100876
39	0xbd034031	-0.03204364
40	0x3d4164e7	0.04721537
41	0x3cd9b0c4	0.026573546
42	0x3d0b188f	0.033958968
43	0x3d6a6f61	0.057235125
44	0x3d856a9a	0.06514473
45	0xbd876aa9	-0.06612141
46	0x3cca053a	0.024660695
47	0xbbbe398c	-0.0058052
48	0xbd632984	-0.055459514
49	0x3d227dfc	0.03967093
50	0x3a8ba46a	0.0010653858
51	0xbda7004a	-0.08154352
52	0x3ce45af8	0.027875409
53	0xbb858b6c	-0.0040754583
54	0x3c719728	0.014745511
55	0xbc973d16	-0.018461745
56	0x3caa2cdf	0.02077335
57	0xbcdd67dc	-0.027027063
58	0xbd7752de	-0.060381763
59	0x3d81c2b3	0.06335964
60	0x3d673c2a	0.05645386
61	0x3b138612	0.0022510332
62	0x3d2eee40	0.04270768
63	0xbb73c749	-0.003719764
64	0xbcb4b727	-0.02205999
65	0xbc463fcf	-0.012100174
66	0xbd4ccce4	-0.050000086
67	0xbce91d78	-0.028456435
68	0x3cfe9684	0.03107763
69	0x3c862a4f	0.016377596
70	0xba390a6e	-0.0007058744
71	0x3d8d7a45	0.06908087
72	0xbd83a82c	-0.064285606
73	0xbc8ee021	-0.017440857
74	0x3d2c3560	0.04204309
75	0xbc2c9b79	-0.010535114
76	0xbd2e3407	-0.042530086
77	0x3c8a1c6c	0.016859256
78	0xbd38ed1d	-0.045148004
79	0xbd5b3652	-0.0535186
80	0xbd9f51f5	-0.07779304
81	0xbcee6122	-0.02909905
82	0xbd1db073	-0.038498353
83	0x3d2699eb	0.04067413
84	0xbbfc6f99	-0.007703733
85	0x3d140c59	0.03614459
86	0xbd655bab	-0.055995625
87	0x3c17d6dc	0.009267535
88	0xbd86084c	-0.06544551
89	0xbc708c7a	-0.01468193
90	0xbc954b53	-0.018224394
91	0xbdae2b01	-0.08504296
92	0x3cdd3f64	0.027007766
93	0xbd983456	-0.07431857
94	0xbc75d646	-0.0150047
95	0xbce69422	-0.028146807
96	0xbd209cb5	-0.039211947
97	0x3bf3e5be	0.007443159
98	0xbd0f72e2	-0.03502167
99	0x3d8cbf2d	0.068724014
100	0xbc9fbc84	-0.019499071
101	0x3ce1445e	0.02749842
102	0x3d888413	0.06665816
103	0xbcf98b55	-0.030461947
104	0x3c39db1e	0.0113437455
105	0xbcdd69b2	-0.027027939
106	0x3cf17a1e	0.029477175
107	0x3d4ac959	0.049508426
108	0xbd954408	-0.072883666
109	0xbcd83276	-0.02639125
110	0x3b8a4d5a	0.004220647
111	0xb99a56f9	-0.0002943797
112	0x3d85a7f3	0.065261744
113	0x3ca2d583	0.019877201
114	0xbcc11a01	-0.02357197
115	0xbd259a8a	-0.040430583
116	0xbc7b9791	-0.0153559605
117	0x3cb26345	0.021775851
118	0x3d295076	0.0413365
119	0x3d81ccab	0.063378654
120	0x3d65190f	0.0559321
121	0x3d266fee	0.04063409
122	0xbbaac201	-0.0052111153
123	0x3caa47d0	0.020786196
124	0x3cd18f48	0.025581017
125	0xbd45eeb4	-0.04832335
126	0xbd6d34d3	-0.057911705
127	0xbda6b0e9	-0.08139212
128	0x3d8a17c8	0.06742817
129	0xbd864ec2	-0.065579906
130	0x3d0f1ada	0.034937717
131	0x3c145b5a	0.009054983
132	0x3d6c9d05	0.057766933
133	0xbdc3f41a	-0.09568043
134	0xbd0d0497	-0.034428205
135	0x3ccf3fba	0.025298942
136	0x3d2e724e	0.04258948
137	0xbc913d47	-0.017729415
138	0xbd76a196	-0.060212694
139	0xbd9e5e71	-0.07732857
140	0xbb94ceee	-0.0045412695
141	0xbd9bbd4a	-0.076044634
142	0xbd20c684	-0.03925182
143	0xbd0d631e	-0.034518354
144	0xbcaffbd4	-0.021482386
145	0xbd19c07f	-0.037537094
146	0x3da3d915	0.080003895
147	0x3d5b003f	0.05346703
148	0xbc639042	-0.013889374
149	0xbd63f868	-0.05565682
150	0xbe124699	-0.14284743
151	0x3de92194	0.11383358
152	0x3d7796f3	0.06044669
153	0x3db90ee7	0.090360455
154	0xbcec17d1	-0.02881995
155	0x3d180257	0.037111606
156	0x3d5f2445	0.05447795
157	0x3c516ff5	0.01278304
158	0x3bfcb7bf	0.007712334
159	0xbd312170	-0.04324478
160	0x3ce41f54	0.02784697
161	0x3d3a3d97	0.045468893
162	0x3d78efed	0.060775686
163	0x3d8a2851	0.06745971
164	0xbdc1b358	-0.09458035
165	0xbd307313	-0.043078493
166	0x3d6fee82	0.05857707
167	0xbdc5ffad	-0.09667907
168	0x3ccb201c	0.024795584
169	0xbd44231b	-0.04788504
170	0xbcb2a0cd	-0.021805191
171	0x3ce3fc4b	0.027830264
172	0x3d4a267a	0.0493531
173	0xbbc18a28	-0.005906362
174	0x3da72b58	0.08162564
175	0x3d3350b9	0.043778155
176	0x3d74ea4d	0.05979376
177	0x3deae2dc	0.11469051
178	0xbc7423aa	-0.014901081
179	0xbcfc558e	-0.030802514
180	0x3d782303	0.060580265
181	0xbda0528a	-0.07828243
182	0x3bfc3c99	0.0076976535
183	0xbd7919a2	-0.06081546
184	0x3dac3f43	0.08410504
185	0x3d67314c	0.056443498
186	0xbdcef683	-0.10105612
187	0xbd5715be	-0.05251097
188	0x3da9f8b0	0.082993865
189	0x3c86e586	0.016466867
190	0x3d3b71c6	0.0457628
191	0x3dc060e9	0.09393484
192	0xba3253dc	-0.0006802657
193	0x3d0e534c	0.034747407
194	0x3d9745fa	0.07386394
195	0x3cae9d7b	0.021315327
196	0x3d8d2774	0.06892291
197	0xbd263a55	-0.040582974
198	0xbcda8864	-0.026676364
199	0xbbaa0ef4	-0.005189771
200	0x3dca6b80	0.09883785
201	0x3cae6fc8	0.021293536
202	0x3c9a4cf8	0.01883553
203	0x3cd5f8e5	0.026119659
204	0xbbfea294	-0.0077708457
205	0x3cdbb902	0.026821617
206	0xbb86e6e2	-0.004116879
207	0x3dcbfe49	0.099606104
208	0xbd255e6b	-0.040373247
209	0xbdcf3d26	-0.10119085
210	0xbc814763	-0.01578111
211	0x3d9b9de0	0.07598472
212	0xbd202c1a	-0.03910456
213	0x3d3eaa79	0.046549294
214	0x3e078bc8	0.13236916
215	0xbd9813fa	-0.07425685
216	0xbe06a246	-0.1314784
217	0xbddd6770	-0.10810745
218	0xbd40337e	-0.046924107
219	0x3ba27b2f	0.0049585323
220	0x3c3d09fe	0.011538027
221	0x3de7c505	0.11316875
222	0x3bb108aa	0.005402644
223	0x3d10b9b6	0.035333358
224	0x3d53ffb4	0.05175753
225	0x3db8aa1b	0.0901682
226	0x3e187c6b	0.14891212
227	0x3d8d438e	0.06897651
228	0x3d87eb86	0.066367194
229	0x3d5e09f8	0.054208726
230	0xbd4a7dff	-0.049436565
231	0x3d1163ed	0.035495687
232	0x3d1bd81a	0.038047887
233	0xbd275fd9	-0.04086289
234	0x3d91a65c	0.07111809
235	0x3db0f513	0.08640494
236	0x3cefc48f	0.029268531
237	0xbd86bb60	-0.06578708
238	0xbd81498c	-0.06312856
239	0xbcbf41bd	-0.023346776
240	0x3c2e5915	0.010641356
241	0xbd97756b	-0.073954426
242	0x3d23fd7b	0.04003666
243	0x3d015e1a	0.031583883
244	0x3dc82843	0.09773304
245	0x3ca39a5c	0.019971065
246	0x3d03c274	0.032167867
247	0x3d19a953	0.037514996
248	0xbd7878f8	-0.06066224
249	0x3d189037	0.03724691
250	0xbd653f1e	-0.055968396
251	0x3d439ddf	0.04775798
252	0xb9f5c89f	-0.00046879516
253	0x3db08da2	0.08620764
254	0x3d3e3a72	0.046442457
255	0x3d2f4a54	0.042795494

2.bias f4 [100]
0	0xbda33233	-0.07968559
1	0x3ae14ce4	0.0017189053
2	0xbc3f9294	-0.011692662
3	0xbdb75cba	-0.08953233
4	0x3d5ceaba	0.05393479
5	0x3d3f9331	0.046771232
6	0x3d8a7dd3	0.0676228
7	0x3cec763a	0.028864969
8	0xbd0c7772	-0.0342936
9	0x3da0f678	0.0785951
10	0x3d03ef8a	0.032210864
11	0x3a846810	0.0010101814
12	0xbd8ab834	-0.06773415
13	0x3d99cede	0.0751016
14	0xbc690833	-0.014223146
15	0x3c16a350	0.00919421
16	0x3c03e8c7	0.008051104
17	0xbcbd841b	-0.023134282
18	0x3b03d3d5	0.0020115275
19	0xbd9b0bb4	-0.075705916
20	0x3d539abf	0.05166125
21	0xbd595d7a	-0.05306766
22	0xbb5e5c93	-0.003392969
23	0xbdb450be	-0.08804463
24	0xbd78618c	-0.060639903
25	0x3d77514a	0.060380258
26	0xbcb6243a	-0.022234071
27	0x3d5e0f58	0.05421385
28	0x3dba4a30	0.090961814
29	0xbc8a02d2	-0.016847048
30	0x3c9097b8	0.01765047
31	0xbd35401d	-0.044250596
32	0xbd82cb7f	-0.0638647
33	0x3c4fb9d5	0.012678583
34	0x3d9888d3	0.07447972
35	0xbdb985fc	-0.090587586
36	0xbd512e94	-0.05106981
37	0x3d6376a0	0.05553305
38	0xbda0b071	-0.078461535
39	0xbc9b5522	-0.018961493
40	0xbc7c6de4	-0.015407059
41	0x3d638ee5	0.055556197
42	0xbc2adf72	-0.01042925
43	0xbcf8312c	-0.030296884
44	0x3db51bdd	0.08843205
45	0xbd91a38d	-0.07111273
46	0xbc310518	-0.010804437
47	0xbd809d77	-0.06280034
48	0x3c9aabe8	0.0188808
49	0xbd01614e	-0.031586938
50	0x3ce6c7e5	0.028171489
51	0xbc6935b7	-0.014233998
52	0xbd07f08d	-0.03318839
53	0xbd800ecc	-0.06252822
54	0xbd078e73	-0.033094835
55	0x3da672cb	0.08127364
56	0x3cfba0e4	0.030716367
57	0xbca9796a	-0.020687778
58	0x3bace6fa	0.005276558
59	0xbd7036d1	-0.058646027
60	0xbcd7db08	-0.02634956
61	0x3d269fcf	0.04067975
62	0x3da3a749	0.079908915
63	0x3a5dec15	0.000846566
64	0x3d722f93	0.0591274
65	0x3c4ef176	0.012630811
66	0x3d8dd920	0.06926179
67	0xbd1037f5	-0.035209615
68	0xbb62e25f	-0.003461979
69	0x3bee9145	0.007280501
70	0xbd1c2da0	-0.03812945
71	0x3c2e3b11	0.0106342
72	0xbc8bb03b	-0.017051807
73	0x3d923e40	0.071407795
74	0xbd60b44d	-0.05485945
75	0xbc8e0a8f	-0.01733902
76	0xbacd68a4	-0.0015671444
77	0x3c28e381	0.010308147
78	0xbd2a7745	-0.04161765
79	0xbd9394be	-0.07206105
80	0xbd290d7c	-0.041272625
81	0x3d2b1a70	0.04177326
82	0xbd9ebe1f	-0.077511065
83	0x3cd9bced	0.026579345
84	0xbdb2eb24	-0.08736256
85	0x3d3b32cb	0.045702737
86	0x3cc3a52d	0.023882473
87	0xbd24fff2	-0.04028315
88	0x3d521a7e	0.051294796
89	0x3c407392	0.011746304
90	0x3ceb30cb	0.02870979
91	0x3d2ab6e3	0.04167832
92	0xbcb987bd	-0.022647733
93	0xbc8cdc26	-0.017194819
94	0x3d1eb6d4	0.038748577
95	0x3d1b8767	0.037970927
96	0xbd839e57	-0.06426685
97	0xbd8152d3	-0.063146256
98	0x3d966f30	0.07345426
99	0x3d042364	0.032260314

4.weight f4 [7, 100]
0	0xbb8890ad	-0.0041676373
1	0xbdaec8e5	-0.08534411
2	0x3cbac500	0.022799015
3	0x3c9f42a5	0.019440958
4	0x3d8695bb	0.065715276
5	0x3d989632	0.074505225
6	0x3d947800	0.07249451
7	0x3b08d3b8	0.0020878147
8	0xbdcb8af3	-0.09938612
9	0x3d8a72f3	0.06760206
10	0xbe029ee3	-0.12755923
11	0xbd8a594e	-0.06755315
12	0x3e0cf1e1	0.13764144
13	0x3cac1074	0.02100394
14	0x3d18634a	0.037204064
15	0xbd9c51f5	-0.076328196
16	0x3d70f5e8	0.058828264
17	0xbd2324fa	-0.039830185
18	0xbb6ce9dc	-0.0036150133
19	0x3e2a4efc	0.16631693
20	0x3d8e8b9d	0.06960223
21	0xbde280f3	-0.11059751
22	0x3dd71d3a	0.105036214
23	0x3d743b95	0.059627134
24	0xbdbc57e6	-0.09196453
25	0x3c91f8a8	0.017818764
26	0xbe007bf5	-0.12547286
27	0x3d2fc950	0.042916596
28	0x3d8a1cdb	0.06743785
29	0x3ccec825	0.02524192
30	0xbd9a6b67	-0.075400166
31	0x3d3dfc84	0.046383396
32	0x3dbf7fbb	0.093505345
33	0x3d3d9358	0.046283096
34	0xbd0eeae5	-0.03489198
35	0x3e1f62a0	0.15564966
36	0xbd180c06	-0.03712084
37	0xbdcd8781	-0.10035611
38	0x3ce7e212	0.02830604
39	0x3d45cc16	0.048290335
40	0x3db89c8e	0.090142354
41	0x3d47a07f	0.048737045
42	0x3da9790a	0.082750395
43	0xbc930f1e	-0.017951544
44	0xbd979415	-0.07401291
45	0x3c03cc32	0.008044289
46	0x3df3fd65	0.119135655
47	0x3e231ce4	0.1592899
48	0xbd6ab5c4	-0.05730225
49	0xbdadb96c	-0.08482632
50	0xbde250df	-0.11050581
51	0x3e00c614	0.12575561
52	0x3b4ea2ea	0.003153021
53	0x3c9886f0	0.01861903
54	0xbe074fb6	-0.13214001
55	0x3e000b42	0.12504295
56	0x3d060241	0.032716993
57	0x3e346a67	0.17618714
58	0x3d903644	0.070416
59	0xbd77997b	-0.060449105
60	0x3e31239e	0.17298743
61	0xbd995d4b	-0.07488497
62	0x3da4a614	0.080394894
63	0xbd228711	-0.03967959
64	0xbdc44009	-0.09582526
65	0xbdc79130	-0.09744489
66	0xbe16d0f0	-0.14728141
67	0xbd16f8d2	-0.036858387
68	0x3e147c3c	0.14500517
69	0x39c7ddc5	0.0003812147
70	0xbde0afc9	-0.10971028
71	0x3c18d04a	0.009327004
72	0xbe090bfd	-0.1338348
73	0x3cb2b527	0.021814896
74	0xbd1266da	-0.03574262
75	0xbc9bd94e	-0.019024517
76	0xbd2927b8	-0.041297644
77	0x3d230d0f	0.039807376
78	0xbd2a6779	-0.041602585
79	0xbd8ddae0	-0.06926513
80	0x3dc69227	0.09695845
81	0x3d49b92b	0.049248856
82	0x3cc5c54d	0.024141932
83	0xbce02fed	-0.027366603
84	0xbdb7801d	-0.089599825
85	0x3d746235	0.05966397
86	0x3d243620	0.04009068
87	0xbd5efe17	-0.054441538
88	0xbe1257f4	-0.14291364
89	0x3e00550a	0.1253244
90	0x3cfebadb	0.031094959
91	0xbd8e97bd	-0.069625355
92	0x3df45872	0.11930932
93	0x3d9a2a68	0.075276196
94	0xbe140299	-0.14454116
95	0xbd1ce006	-0.038299583
96	0xbd91d5b8	-0.07120842
97	0xbe1a035a	-0.15040341
98	0xbe0e0036	-0.13867268
99	0x3e183dc6	0.14867315
100	0x3db198d3	0.08671727
101	0xbe024724	-0.1272245
102	0x3d7a9d77	0.061185326
103	0x3b00ad14	0.0019634413
104	0x3db89584	0.09012893
105	0x3dd5e5ed	0.104442455
106	0xbd94801e	-0.07250999
107	0xbe2f2c8b	-0.17106836
108	0xbd5c9170	-0.053849638
109	0x3d8235a8	0.0635789
110	0x3df016e1	0.11723114
111	0xbd36f38c	-0.04466586
112	0x3c67a277	0.014137856
113	0x3d934c73	0.07192316
114	0xbd7d2ed0	-0.061812222
115	0x3ca084c2	0.019594554
116	0x3dcf4830	0.101211905
117	0xbd87cb08	-0.06630522
118	0x3d8a1edd	0.06744168
119	0x3d6c100e	0.0576325
120	0xbda1467b	-0.07874771
121	0x3df7b54b	0.12095126
122	0x3df33203	0.11874773
123	0x3d9d2208	0.076725066
124	0x3c104742	0.008806052
125	0x3c0b1703	0.008489373
126	0x3d9215ed	0.07133088
127	0xbcd7896d	-0.026310647
128	0x3d94ed04	0.0727177
129	0xbc84c9fb	-0.016209593
130	0xbc0ccd55	-0.008593877
131	0xbda463f2	-0.080268756
132	0x3cfdd900	0.030987263
133	0x3dedfdc2	0.11620666
134	0x3e27aa2b	0.16373508
135	0x3c558132	0.013031291
136	0xbd83e1b9	-0.064395376
137	0x3debb88b	0.11509808
138	0x3ca735e5	0.020411441
139	0x3da1922c	0.07889208
140	0x3d6334ea	0.055470385
141	0xbd99266b	-0.07478031
142	0x3d3b4327	0.04571834
143	0xbd210605	-0.03931238
144	0x3d3b4b39	0.045726035
145	0x3dbc4007	0.091919
146	0xbd4a3fdd	-0.04937731
147	0x3ddea554	0.108713776
148	0x3bdfe2a1	0.006832436
149	0x3d0372be	0.03209185
150	0x3dc4ab72	0.09603013
151	0xbdba87d3	-0.09107938
152	0x3d43a17a	0.047761418
153	0xbd660085	-0.05615284
154	0x3e1f2573	0.1554163
155	0x3b915639	0.0044353274
156	0xbd30ab9e	-0.043132417
157	0xbda583b9	-0.08081765
158	0x3b97d19f	0.004633143
159	0x3dfc27f4	0.12312308
160	0x3ce338f6	0.027737122
161	0xbc28e3a3	-0.010308179
162	0x3de0f892	0.10984911
163	0x3d7a9c63	0.0611843
164	0x3d50d507	0.05098441
165	0x3dd9c45b	0.10633155
166	0x3d117268	0.035509497
167	0x3dc6393f	0.096788876
168	0xbdc8908a	-0.09793194
169	0xbe12afe3	-0.14324908
170	0x3dbed911	0.09318746
171	0x3d99655a	0.074900344
172	0xbdfa94e4	-0.1223543
173	0xbe0427e6	-0.12905845
174	0x39f0199a	0.00045795442
175	0xbcd2922e	-0.02570447
176	0xbdb1adf4	-0.08675757
177	0xbdc9fe90	-0.09863007
178	0xbd4d82fc	-0.050173745
179	0x3dc91e92	0.09820284
180	0xbd0a7aad	-0.0338084
181	0xbd2ed6c5	-0.04268529
182	0x3de00b38	0.1093964
183	0x3c06348c	0.008191239
184	0x3d92918c	0.07156667
185	0x3d4392f0	0.047747552
186	0xbe0d1f12	-0.13781384
187	0x3e1cec06	0.15324411
188	0x3c768288	0.0150457695
189	0xbdc7d65c	-0.09757683
190	0xbd4d84d2	-0.050175495
191	0xbdaf5fa0	-0.08563161
192	0x3d857073	0.065155886
193	0x3df34035	0.11877481
194	0xbaf692fa	-0.0018812113
195	0xbd69e87e	-0.057106487
196	0x3e11e563	0.1424766
197	0x3c923028	0.017845228
198	0x3c764ccb	0.015032957
199	0x3d3ee45e	0.046604507
200	0x3c043b8a	0.008070836
201	0x3d2decdc	0.042462215
202	0x3d50ee23	0.051008355
203	0xbd35ecc7	-0.04441526
204	0x3caa448e	0.020784643
205	0x3d91d532	0.07120742
206	0xbd0f419f	-0.03497469
207	0xbd0da773	-0.03458352
208	0x3d0cc09d	0.034363378
209	0xbd14f576	-0.036366902
210	0xbd003fcb	-0.031310838
211	0x3dfc8ab3	0.12331142
212	0x3d93944d	0.072060205
213	0x3e0d6bea	0.13810697
214	0x3dd1909c	0.1023266
215	0xbd204d8c	-0.039136454
216	0x3c0e5b74	0.008688796
217	0x3c948135	0.018128017
218	0xbda8d76f	-0.08244216
219	0x3e07cb29	0.13261093
220	0x3d35c61e	0.044378392
221	0x3cd6dee4	0.02622933
222	0x3d7721d3	0.06033499
223	0x3da7bf06	0.08190732
224	0xbd99da25	-0.07512311
225	0x3c886368	0.016648963
226	0xbb3d316a	-0.0028868564
227	0x3dbf4f70	0.093413234
228	0x3dad8438	0.08472484
229	0xbcb178a5	-0.021663973
230	0x3dc0f5cb	0.09421881
231	0xbdb39ab4	-0.08769742
232	0x3d8c5553	0.06852212
233	0x3bb94c32	0.005654835
234	0x3dafc29d	0.085820414
235	0xbc1dba0c	-0.009626877
236	0x3d86bc34	0.06578866
237	0xbd04f2a4	-0.032457963
238	0x3c9658c9	0.018352883
239	0xbd01ac0c	-0.031658217
240	0x3cf85c31	0.030317398
241	0x3ce12240	0.027482152
242	0x3d170907	0.036873844
243	0x3d9bf55a	0.076151565
244	0xbd990e79	-0.074734636
245	0xbd858a99	-0.06520576
246	0x3d87660e	0.06611262
247	0x3c50027b	0.012695904
248	0x3c3d2cba	0.011546308
249	0x3deb4662	0.11488034
250	0xbda9f8a0	-0.082993746
251	0x3dd331e7	0.103122525
252	0xbd8ae11c	-0.067812175
253	0x3c8386ef	0.016055552
254	0x3dcc61f4	0.099796206
255	0xbbebbd46	-0.007194194

4.bias f4 [7]
0	0x3dfeec66	0.12447433
1	0xbd7f6847	-0.062355306
2	0x3d9e3ef6	0.077268526
3	0x3dac6dd8	0.084193885
4	0x3d8e24c7	0.069406085
5	0xbd8b29ce	-0.06795083
6	0xbd3c3cf4	-0.045956567
