models/date-06-19-2025-17-00p1-RLbotp2-RLbotDDQNself_play-Trueexp_dir-RLbotepochs-50p1_win_rate-0.17p2_win_rate-0.83is_test-False/model.pth (torch, 117053 bytes, 6 tensors)

0.weight f4 [150, 84]
0	0x3e2099f6	0.15683731
1	0x3db604be	0.08887623
2	0x3c1e73a0	0.009671122
3	0x3daa09c5	0.08302645
4	0xbdc36884	-0.09541419
5	0x3d82618c	0.06366262
6	0x3dacab77	0.08431142
7	0x3d0df33f	0.034655806
8	0x3ddc5904	0.10759166
9	0x3c87c895	0.016575137
10	0x3d0cc42d	0.034366775
11	0xbd89e578	-0.06733221
12	0xbc5f3d08	-0.013625391
13	0xbd18e1d9	-0.03732476
14	0x3b4549d3	0.0030103817
15	0xbde0108a	-0.109406546
16	0xbdecc7c6	-0.11561541
17	0x3da009d8	0.078143775
18	0xbdf09669	-0.117474385
19	0x3bf501d3	0.007477024
20	0xbda45044	-0.08023122
21	0xbd80250e	-0.062570676
22	0xbdff5a5c	-0.124684066
23	0x3dc1b4ea	0.09458335
24	0x3d9261d7	0.07147568
25	0xbd860d1c	-0.06545469
26	0x3d8724b9	0.06598801
27	0xbd06a897	-0.032875624
28	0x3df162e1	0.11786438
29	0xbb8eee46	-0.0043619005
30	0xbdb23929	-0.08702309
31	0xbd9562bd	-0.072942235
32	0xbdb75d11	-0.08953298
33	0x3c1ccea3	0.00957075
34	0xbdeeda03	-0.11662676
35	0xbdd84ae0	-0.10561156
36	0x3d9f9550	0.07792151
37	0x3dbe814d	0.09302006
38	0x3dfa9193	0.12234797
39	0x3d8c796c	0.06859097
40	0xbd952592	-0.072825566
41	0xbdf8d5b5	-0.121501364
42	0x3e05c1cd	0.1306221
43	0xbdc1411a	-0.09436245
44	0xbd45393b	-0.048150282
45	0xbd866ffd	-0.06564329
46	0x3d471bfe	0.04861068
47	0xbd712dcf	-0.058881577
48	0xb92ac715	-0.00016286627
49	0x3d675d23	0.056485306
50	0x3d8bcde5	0.06826381
51	0xbcf74ee8	-0.030188993
52	0x3db2f613	0.08738341
53	0x3d4a9b88	0.049464732
54	0x3cbde8d2	0.023182306
55	0xbce28bd4	-0.027654566
56	0x3ddc773c	0.1076493
57	0x3dd380b3	0.10327282
58	0xbdab8c35	-0.08376352
59	0xbd858d02	-0.06521036
60	0x3d5bbff9	0.053649876
61	0xbd0d59d2	-0.034509487
62	0x3d2129dc	0.03934656
63	0xbcd3e4eb	-0.025865993
64	0x3d7bd5c1	0.06148315
65	0x3de20b41	0.11037303
66	0xbd75a3f5	-0.059970815
67	0x3ca11600	0.01966381
68	0xbd997602	-0.07493211
69	0x3d348466	0.044071577
70	0xbcf4c499	-0.029878901
71	0x3bdb815c	0.0066987704
72	0xbd43cd71	-0.047803346
73	0x3d0bebe1	0.0341605
74	0x3d72872e	0.05921095
75	0xbd9cc430	-0.07654607
76	0xbd87794a	-0.06614931
77	0x3d982855	0.07429568
78	0x3de358f3	0.1110095
79	0x3d69afd0	0.057052433
80	0xbe38e97e	-0.1805782
81	0x3cb7c46c	0.022432528
82	0xbd97d5e7	-0.074138455
83	0x3de65a3a	0.11247678
84	0xbe2939ab	-0.16525905
85	0x3d0187f8	0.03162381
86	0xbd2bc2fd	-0.041934002
87	0x3bfd9221	0.007738367
88	0x3dacc28e	0.08435546
89	0x3d9514f6	0.072793886
90	0x3d6b3e35	0.057432372
91	0xbc217ed5	-0.009856899
92	0x3cf989fa	0.0304613
93	0x3dadc50d	0.0848485
94	0x3dceb328	0.10092765
95	0x3cc780db	0.024353435
96	0xbbbeb06f	-0.0058193724
97	0xbcde184a	-0.027111191
98	0x3ddaac92	0.106774464
99	0xbd82d43d	-0.063881375
100	0xbd006199	-0.031343076
101	0x3db55f81	0.088561065
102	0x3b07e877	0.0020737925
103	0xbd8aad35	-0.06771318
104	0x3d81f64c	0.063458055
105	0xbda289d0	-0.07936442
106	0xb91f7371	-0.00015206427
107	0xbd20e0f5	-0.039277036
108	0x3ddc29ac	0.10750136
109	0xbd8b4580	-0.068003654
110	0x3dcd0fa1	0.100127466
111	0x3ca24e43	0.019812709
112	0xbc8f968b	-0.01752784
113	0xbdcd2792	-0.10017313
114	0xbd87e111	-0.06634725
115	0xbd45601b	-0.048187356
116	0x3ca0579f	0.019573031
117	0xbdbaf5bd	-0.09128902
118	0xbb88b313	-0.004171738
119	0x3d72f850	0.05931884
120	0xbd8a84c3	-0.067636035
121	0xbccccadb	-0.024999073
122	0xbd02dbd3	-0.031947922
123	0x3ced6f34	0.02898369
124	0x3cb7029d	0.022340113
125	0x3ddf4acf	0.109029405
126	0x3d0e8acc	0.034800336
127	0xbd242106	-0.040070556
128	0xbdd33458	-0.10312718
129	0x3d75604d	0.059906293
130	0x3bb041e5	0.005378949
131	0x3d385902	0.04500676
132	0xbe0ab50f	-0.13545631
133	0x3d699d98	0.05703506
134	0xbd9bc8d1	-0.07606662
135	0x3d635c02	0.055507667
136	0xbd0d49bd	-0.03449415
137	0xbcf8f71e	-0.030391272
138	0xbde017d5	-0.109420456
139	0xbdc07dd1	-0.093989976
140	0xbdcb098a	-0.09913929
141	0x3d67917e	0.056535237
142	0x3d3b7c22	0.04577268
143	0xbdd60735	-0.104505934
144	0xbd0afbc9	-0.033931527
145	0x3cec2cc3	0.028829938
146	0xbc4f1407	-0.012639052
147	0xbd2709bd	-0.04078077
148	0x3da5d599	0.08097381
149	0xbd43232b	-0.04764096
150	0x3d0abb0e	0.033869796
151	0x3dcbc3e6	0.09949474
152	0xbdb4c11e	-0.08825897
153	0x3ce2602a	0.027633745
154	0xbdb9b2da	-0.09067316
155	0x3d579086	0.052628063
156	0x3cbfd310	0.023416072
157	0x3dbafbba	0.09130044
158	0xbdcbf60a	-0.099590376
159	0xbd869cc9	-0.06572873
160	0xbcd483d7	-0.025941772
161	0xbe0482ea	-0.12940565
162	0x3dea1664	0.11430052
163	0x3e0dab08	0.13834774
164	0x3e3b92e3	0.18317752
165	0x3da50d32	0.080591574
166	0xbc3b6ce8	-0.0114395395
167	0xbb2fa251	-0.002679963
168	0xbc8ad95b	-0.016949346
169	0xbdb6d8cc	-0.089280695
170	0x3c80e901	0.015736105
171	0xbce1f783	-0.027583843
172	0x3d8eea5a	0.06978293
173	0xbda79628	-0.08182937
174	0x3cb9402d	0.02261361
175	0xbc29b4a0	-0.010358006
176	0x3df14e32	0.11782493
177	0xbd1769d2	-0.036966152
178	0x3c39e28b	0.011345516
179	0x3d13f01a	0.03611765
180	0x3db19953	0.086718224
181	0x3dcfe5fc	0.10151288
182	0xbdb9b785	-0.09068207
183	0x3c5e9d7f	0.013587355
184	0x3dcf1a52	0.10112442
185	0x3cc5fb45	0.024167666
186	0x3d19b88b	0.03752951
187	0x3dc0292b	0.09382852
188	0xbdddbaa6	-0.10826616
189	0xbd8f87b5	-0.07008306
190	0x3cad3e10	0.021147758
191	0xbe062cdf	-0.13103054
192	0xbcc107ca	-0.023563284
193	0x3d3344c3	0.04376675
194	0xbd08aa7e	-0.03336572
195	0x3e115791	0.1419356
196	0x3db34447	0.08753257
197	0x3c99cad6	0.018773478
198	0xbdbf2e19	-0.09334964
199	0x3d1bea1b	0.038065057
200	0xbd98b6c2	-0.07456733
201	0x3e1b4ed7	0.15166794
202	0x3c936146	0.01799072
203	0x3dd06176	0.10174839
204	0xbd0f9530	-0.035054386
205	0xbca4b558	-0.020106003
206	0xbd076595	-0.03305586
207	0x3d7d97cc	0.061912343
208	0x3d916b29	0.07100517
209	0x3d5339c0	0.051568747
210	0xbce9433f	-0.028474448
211	0x3de4913b	0.11160513
212	0x3e19c36e	0.15015957
213	0xbdc42a3a	-0.095783666
214	0x3d55baef	0.052180227
215	0xbdbb8e24	-0.091579705
216	0x3dd5b728	0.10435325
217	0x3d1c18d5	0.03810962
218	0xbdfff12c	-0.12497172
219	0x3e29de96	0.16588816
220	0xbcac9ea3	-0.021071738
221	0xbdde5a85	-0.10857109
222	0x3dc5ed8c	0.09664449
223	0x3d25a660	0.04044187
224	0x3d7edac3	0.062220346
225	0xbd286e1b	-0.04112063
226	0x3c98087b	0.018558731
227	0xbd8a1a9f	-0.06743359
228	0x3ce84b75	0.028356293
229	0xbd62342a	-0.05522553
230	0xbd12aa6b	-0.035807054
231	0xbd8a1e9f	-0.06744122
232	0xbd521bc1	-0.051296
233	0x3d277fe3	0.040893447
234	0xbda04ea0	-0.078274965
235	0xbdd13ed7	-0.10217064
236	0x3d4e3ffd	0.050353993
237	0xbde7c7dc	-0.11317417
238	0xbda4fa51	-0.080555566
239	0xbe2e0ff3	-0.16998272
240	0x3e013da0	0.12621164
241	0xbd6f04f3	-0.05835433
242	0x3dafbf25	0.0858138
243	0x3b41ad3b	0.0029552716
244	0x3da66729	0.08125145
245	0xbe19a685	-0.15004928
246	0xbd9df756	-0.07713191
247	0x3c8b40c9	0.016998665
248	0x3d7e092f	0.062020477
249	0x3b47bd79	0.0030477925
250	0xbd1da395	-0.038486082
251	0xbd98b6be	-0.0745673
252	0x3c208cc2	0.009799184
253	0xbcb1c60e	-0.021700885
254	0xbdbe1edf	-0.09283232
255	0x3d49e978	0.04929492

0.bias f4 [150]
0	0xbdb98d61	-0.09060169
1	0x3dd07e1a	0.10180302
2	0x3c143517	0.009045861
3	0xbb7a07de	-0.0038151662
4	0x3b1103ec	0.0022127582
5	0xbbff3c45	-0.007789167
6	0x3cf4c7a9	0.029880362
7	0xbddcab9e	-0.10774921
8	0xbc9299ef	-0.017895667
9	0xbde9a2ff	-0.11408042
10	0x3d4a300a	0.04936222
11	0xbd32094f	-0.04346591
12	0xbda2e195	-0.079531826
13	0xbdd89c9c	-0.10576746
14	0xbde6df28	-0.112730324
15	0xbc880fb1	-0.016609045
16	0x3d1316e8	0.035910517
17	0xbb89d186	-0.0042058853
18	0x3d546d59	0.051862095
19	0xbd339385	-0.043841857
20	0x3d130c6a	0.03590051
21	0xbd28474a	-0.04108361
22	0x3ccc71b4	0.024956562
23	0x3d7fd6bd	0.06246065
24	0x3d9b5868	0.075852215
25	0xbd541d65	-0.051785845
26	0xbdd47156	-0.103731796
27	0x3dc4855a	0.09595747
28	0x3d91ca06	0.07118611
29	0x3dab4259	0.08362264
30	0xbd28ba17	-0.041193094
31	0x3dbdfec5	0.09277109
32	0x3c441b9e	0.011969475
33	0x3ce6c113	0.028168237
34	0x3d590ca1	0.05299056
35	0xbbcb06ab	-0.0061958632
36	0xbc8dc3b8	-0.01730524
37	0xbd3c080b	-0.045906108
38	0x3d8b0bed	0.06789384
39	0xbceb10a1	-0.028694453
40	0x3cc33e6a	0.023833472
41	0xbc2c3f4c	-0.010513138
42	0x3b9dff0b	0.0048216633
43	0x3d3ef04d	0.046615887
44	0xbda79366	-0.08182411
45	0x3d4e534b	0.050372403
46	0x3db02262	0.08600308
47	0xbc16ebbe	-0.009211479
48	0xbd54a089	-0.05191091
49	0x3d48a3b7	0.048984256
50	0xbc13d2be	-0.009022413
51	0xbdb2defe	-0.08733939
52	0xbde09767	-0.10966378
53	0xbd43975f	-0.04775178
54	0xbcc63cef	-0.024198977
55	0x3ce055cb	0.02738466
56	0xbca2654e	-0.019823696
57	0x3dd389bf	0.10329007
58	0x3dde481b	0.10853597
59	0x3db3f27d	0.08786485
60	0x3d82a9f4	0.06380072
61	0x3cb076ed	0.021541083
62	0x3dbd5175	0.09244052
63	0x3db3de36	0.08782618
64	0xbd423601	-0.047414783
65	0x3cd4504d	0.025917197
66	0xbd02c209	-0.031923328
67	0xbd38d98f	-0.045129355
68	0xbd371084	-0.044693485
69	0xbdccc398	-0.09998244
70	0x3dbd9fd0	0.092589974
71	0xba675a69	-0.0008825423
72	0x3c29ef92	0.010372059
73	0x3db95b52	0.09050621
74	0xbda56a7c	-0.08076951
75	0xbc92f546	-0.017939221
76	0x3cadd625	0.021220276
77	0x3c830784	0.015994795
78	0xbdf7a744	-0.1209245
79	0x3bb04a2e	0.0053799367
80	0x3d766f13	0.060164522
81	0xbd37cfd8	-0.04487595
82	0x3d4788be	0.048714392
83	0x3c9ab7de	0.018886503
84	0x3c85ca8c	0.016331933
85	0x3d4453ac	0.04793136
86	0x3a245f18	0.00062702736
87	0x3db7fc04	0.08983615
88	0x3dbcd488	0.092202246
89	0x3d3d920e	0.046281867
90	0x3d85d8d1	0.06535495
91	0x3bccb824	0.006247537
92	0xbc1cd741	-0.009572805
93	0xbdafcd48	-0.08584076
94	0xbce45491	-0.027872356
95	0xbd885825	-0.06657437
96	0xbcd44f4a	-0.025916714
97	0xbd8aeb9e	-0.06783222
98	0xbd10a23a	-0.03531096
99	0xbd365d2e	-0.044522457
100	0xbda05318	-0.07828349
101	0x3e024809	0.12722792
102	0xbcb698fd	-0.022289747
103	0xbcebecf5	-0.028799513
104	0x3d7aa2c1	0.06119037
105	0xbc96bdb4	-0.018401004
106	0x3d2b20c3	0.04177929
107	0x3d61c702	0.05512143
108	0xbdac326e	-0.08408056
109	0x3dfe5b02	0.12419702
110	0x3db8f488	0.09031016
111	0x3d8b567f	0.06803607
112	0x3d9ba0b7	0.07599013
113	0x3d7e3ea4	0.062071458
114	0x3c4bd119	0.0124399895
115	0xbd8f48fb	-0.06996342
116	0xbb8527d7	-0.004063587
117	0x3d992586	0.0747786
118	0xbe049c7a	-0.12950316
119	0xbd59b669	-0.053152476
120	0x3dbfa4e7	0.093576245
121	0x3d91f573	0.07126894
122	0xbd8b9060	-0.06814647
123	0x3df73b07	0.120718054
124	0x3d9314b5	0.07181684
125	0xbd86067e	-0.06544207
126	0x3d3bcfea	0.04585258
127	0x3d28638c	0.04111056
128	0xbd949f19	-0.07256908
129	0x3d6d73a3	0.057971608
130	0xbccb3da5	-0.024809668
131	0x3d712b8e	0.058879428
132	0x3c7dbe55	0.015487273
133	0x3da6078c	0.08106908
134	0x3d6ca464	0.057773963
135	0xbcd77d5b	-0.026304891
136	0x3d817685	0.06321434
137	0x3a9b36a4	0.0011841846
138	0x3d6db713	0.05803592
139	0x3db197cf	0.08671533
140	0x3d383a9f	0.04497778
141	0x3d8b4efb	0.06802174
142	0x3dbc49a8	0.09193736
143	0x3c37aba3	0.011210355
144	0xbd506ce1	-0.050885085
145	0xbd74ef54	-0.059798554
146	0x3d6b0a62	0.05738295
147	0x3dd6eff0	0.10494983
148	0xbcdacc8c	-0.026708864
149	0x3cbfde86	0.023421537

2.weight f4 [100, 150]
0	0x3d318d39	0.04334757
1	0xbce1ca31	-0.027562233
2	0x3da42f58	0.080168426
3	0x3d324d8a	0.04353098
4	0xbc993596	-0.01870231
5	0x3d92b3dc	0.07163212
6	0x3ce15e79	0.027510868
7	0xbd343d15	-0.044003565
8	0xbcbbaa64	-0.022908397
9	0xbd29d887	-0.041466262
10	0x3c1475cf	0.009061291
11	0xbb6c7b78	-0.0036084335
12	0x3d86ad32	0.06576003
13	0x3bf94748	0.0076073743
14	0x3da6e4bf	0.081490986
15	0xbd9bce99	-0.07607765
16	0xbbf5053d	-0.007477431
17	0x3d503c4b	0.05083875
18	0x3af657be	0.001879446
19	0xbd906705	-0.070508994
20	0x3c4e51ce	0.012592746
21	0xbbb2a0b6	-0.005451287
22	0x3d69d5a5	0.057088513
23	0xbce2ef01	-0.027701857
24	0xbd15bade	-0.036555164
25	0x3b691f65	0.003557169
26	0xbd4206a4	-0.047369614
27	0x3d5425be	0.051793806
28	0x3d908153	0.07055917
29	0x3d77ab1a	0.06046591
30	0x3d3fe7c2	0.04685188
31	0x3d5eaf60	0.05436647
32	0x3d2e8a27	0.04261222
33	0xbc5630d3	-0.013073164
34	0xbd8c0243	-0.06836369
35	0xbbebb5b0	-0.0071932897
36	0xbcc839b8	-0.024441585
37	0xbbf4f55c	-0.007475538
38	0x3d716e9f	0.058943387
39	0x3c2fd59d	0.010732082
40	0xbcf89762	-0.030345622
41	0xbbea3a2c	-0.007148048
42	0x3d849b35	0.06474916
43	0x394e3439	0.00019665145
44	0xbc17ccc1	-0.009265126
45	0xbdb1658b	-0.08661946
46	0xbd050590	-0.032476008
47	0x3cc491b6	0.023995262
48	0xbd8714bd	-0.065957524
49	0x3c2990f8	0.010349505
50	0xbdb453d2	-0.0880505
51	0xbd8b5495	-0.06803242
52	0xbce8c5da	-0.028414655
53	0xbd4c1541	-0.049824957
54	0xbcb093d9	-0.021554874
55	0xbb808529	-0.003922124
56	0xbd39a78b	-0.045325797
57	0xbd9623c3	-0.0733104
58	0xbd30e15d	-0.043183673
59	0x3d624811	0.05524451
60	0xbd6d69e1	-0.057962302
61	0x3d7cd9c8	0.06173113
62	0xbda0ca8d	-0.078511335
63	0xbca492d1	-0.020089539
64	0x3d6aefcf	0.057357606
65	0xbd927ae0	-0.07152343
66	0x3d5e8bc0	0.054332495
67	0xbd9823b1	-0.074286826
68	0xbda79a6d	-0.08183751
69	0x3d320d0c	0.043469474
70	0x3d1efb97	0.038814154
71	0x3d671921	0.05642045
72	0x3c106f03	0.00881553
73	0xbc9a58a0	-0.018841088
74	0x3cfc8a32	0.030827615
75	0xbac6b643	-0.0015160519
76	0xbc9d1b47	-0.019178046
77	0xbd19db8b	-0.037562888
78	0x3d837dcf	0.064204805
79	0x3cd428f5	0.025898436
80	0x3d8bcb83	0.06825926
81	0xbcc1298a	-0.023579378
82	0x3d1957f0	0.03743738
83	0x3d103194	0.03520353
84	0xbd6db633	-0.058035087
85	0xbcec4796	-0.028842729
86	0x3d56efa0	0.052474618
87	0xbd1a48b5	-0.037666995
88	0xbc90d987	-0.01768185
89	0xbcb1419a	-0.021637727
90	0xbd08ae3e	-0.033369295
91	0xbcb0511a	-0.021523047
92	0xbc205197	-0.009785078
93	0xbdb49f6f	-0.08819472
94	0x3d0429ca	0.032266416
95	0x3a80e00b	0.0009832395
96	0x3c9fa054	0.01948563
97	0x3ce5fa4d	0.028073454
98	0xbbbaaa41	-0.0056965654
99	0x3d8228bb	0.06355425
100	0x3d9d10d9	0.07669229
101	0x3cb662f3	0.02226398
102	0x3d8512e5	0.064977445
103	0xbc56b3f8	-0.013104431
104	0x3d735a25	0.05941214
105	0xbd1ca7d0	-0.038245976
106	0xbd2c4a10	-0.04206282
107	0xbce918aa	-0.028454144
108	0xbd3ddcd5	-0.04635318
109	0xbdae1c22	-0.0850146
110	0xbda7ac2b	-0.08187135
111	0x3ccb3d99	0.024809645
112	0x3d84eaf1	0.06490124
113	0xbce3e183	-0.027817493
114	0xbdbd4762	-0.09242131
115	0xbc8857d3	-0.01664344
116	0x3d966581	0.07343579
117	0x3c911780	0.017711401
118	0x3bcede4e	0.006313122
119	0xbd6ead1e	-0.058270566
120	0xbd936740	-0.07197428
121	0xbdb98c4b	-0.09059962
122	0xbd6110e0	-0.054947734
123	0x3d85277f	0.06501674
124	0xbdbdbea8	-0.092648804
125	0x3cb24462	0.021761123
126	0xbd6baded	-0.057538915
127	0xbdbe05d5	-0.09278456
128	0x3d35d147	0.044389036
129	0x3ba8a18d	0.0051462115
130	0xbd82f98a	-0.06395252
131	0xbd987dee	-0.07445894
132	0xbd836f70	-0.064177394
133	0xbce25811	-0.027629884
134	0xbb9d4038	-0.0047989152
135	0xbca49149	-0.020088809
136	0xbda25ba4	-0.07927635
137	0x3c1473b8	0.009060793
138	0xbcf3f6d3	-0.02978078
139	0x3d6fde3a	0.05856154
140	0x3cd2b342	0.025720242
141	0x3d419e04	0.047269836
142	0x3d688203	0.056764614
143	0xbbad8fdc	-0.0052966904
144	0x3d18024f	0.037111577
145	0xbd9c51d9	-0.07632799
146	0xbc5dcb56	-0.013537249
147	0xbc27a490	-0.010232106
148	0xbd1da815	-0.038490374
149	0x3c3c2e7c	0.011485692
150	0xbda256b4	-0.079266936
151	0x3d96d0f2	0.07364072
152	0x3c8edf9c	0.01744061
153	0x3ddf6c2c	0.10909304
154	0xbdca87a3	-0.09889152
155	0x3e1ecbb8	0.155074
156	0xbc6b8d7b	-0.014376993
157	0x3d9123a6	0.070868775
158	0x3cee934b	0.02912297
159	0x3b3af964	0.0028529996
160	0x3dc6ecfb	0.09713169
161	0x3e165de7	0.14684258
162	0x3d6cd42a	0.057819523
163	0xbb90e83a	-0.004422215
164	0xbdd00b38	-0.1015839
165	0x3dd39390	0.1033088
166	0xbc3a7168	-0.011379577
167	0x3da2b526	0.079447076
168	0x3db31c87	0.087456755
169	0x3dc0dfa5	0.09417657
170	0x3db28473	0.08716669
171	0xbdceeb22	-0.10103442
172	0xbbc52cf2	-0.006017321
173	0xbd0a8b65	-0.033824343
174	0x3d6155f4	0.055013612
175	0xbcdcf1f3	-0.02697084
176	0x3dbf3421	0.09336115
177	0x3d9fb9fd	0.07799146
178	0xbd65250e	-0.05594354
179	0x3db13838	0.08653301
180	0xbd373154	-0.044724777
181	0xbcb41eff	-0.021987436
182	0x3d9a029c	0.07520029
183	0xbdd098a3	-0.10185363
184	0xbd6912b8	-0.056902617
185	0x3d460aec	0.04835026
186	0xbd289202	-0.04115487
187	0xbdbd8240	-0.09253359
188	0x3d336fbb	0.043807726
189	0x3d7be0e2	0.06149376
190	0x3c57c6bc	0.013169941
191	0xbd966900	-0.07344246
192	0x3d1a6fa7	0.037704136
193	0x3d958fc6	0.07302813
194	0xbd8df7d7	-0.06932037
195	0x3d95e8b1	0.07319773
196	0xba8b3aaf	-0.0010622347
197	0xbd6842ff	-0.056704517
198	0x3d50cfc5	0.050979394
199	0xbc8727a9	-0.016498404
200	0x3d11972f	0.03554457
201	0xbe102859	-0.14077891
202	0xbcd29eb9	-0.02571045
203	0x3d8b6518	0.068063915
204	0x3cf067c7	0.02934636
205	0xbcf10994	-0.029423513
206	0xbbaf772e	-0.0053547835
207	0x3d3b3502	0.04570485
208	0xbdc6cbed	-0.097068645
209	0x3d4a9d1c	0.049466237
210	0x3dde0e62	0.10842587
211	0x39830780	0.00024991855
212	0x3d8b1ec8	0.067929804
213	0xbd9e72b7	-0.07736724
214	0xbca9b9c6	-0.020718466
215	0x3c2233e2	0.009900065
216	0x3d81380d	0.06309519
217	0x3d442730	0.047888935
218	0xbe1afc42	-0.15135291
219	0xbdb8c7e8	-0.09022504
220	0xbdd25dd6	-0.10271804
221	0xbe072670	-0.13198256
222	0x3d107f92	0.03527791
223	0xbcc50ce7	-0.024054004
224	0xbc4187f3	-0.011812198
225	0x374c27a0	1.2168573e-05
226	0x3d893503	0.06699564
227	0x3d350bb8	0.04420063
228	0xbd85c4e1	-0.06531692
229	0x3d9a8d0c	0.07546434
230	0xbd96b90f	-0.07359516
231	0xbe15cffb	-0.1463012
232	0xbe01474b	-0.12624852
233	0x3d16ce28	0.0368177
234	0xbce78337	-0.02826081
235	0xba547a87	-0.0008105416
236	0xbdca6d83	-0.09884169
237	0x3db5f447	0.08884483
238	0xbe1fd801	-0.15609743
239	0x3d95ff91	0.07324136
240	0xbccd0044	-0.02502454
241	0xbdaf743f	-0.08567094
242	0xbe065260	-0.13117361
243	0x3d43042d	0.047611404
244	0xbd6c56da	-0.057700016
245	0xbaeab8b7	-0.0017907833
246	0xbd3becce	-0.04588013
247	0x3d39ceb8	0.045363158
248	0x3db3eddf	0.08785605
249	0x3dfb54d4	0.12272039
250	0xbc07cd30	-0.008288667
251	0x3da93ab8	0.08263153
252	0xbe0aa3f6	-0.13539109
253	0xbc3151e0	-0.010822743
254	0x3d272af1	0.040812436
255	0xbc8a8bb4	-0.016912319

2.bias f4 [100]
0	0xbdb2cb0d	-0.08730135
1	0xbc8ca549	-0.017168658
2	0x3d3225ce	0.043493085
3	0xbc75ab1c	-0.014994409
4	0x3d9d4b89	0.07680423
5	0xbcfe863a	-0.031069864
6	0x3d472ce7	0.048626807
7	0xbdb6aed4	-0.089200646
8	0x3dce47cd	0.10072289
9	0x3c7fca63	0.015612218
10	0x3dc2f397	0.09519117
11	0x3b42590a	0.0029655122
12	0x3cd5c24b	0.026093623
13	0xbd34f336	-0.044177257
14	0x3da12c38	0.07869762
15	0xbcda5f29	-0.026656704
16	0x3db17ae8	0.08666021
17	0x3d83c5f4	0.06434241
18	0x3ceeb36f	0.029138295
19	0xbd38b5ef	-0.04509538
20	0x3d8d8a90	0.06911194
21	0xbd780851	-0.060554806
22	0x3cfb5fad	0.03068527
23	0xbcb34874	-0.021885134
24	0x3ccdcff2	0.02512357
25	0x3d807037	0.06271403
26	0x3db635f6	0.08897011
27	0xbd98545c	-0.07437965
28	0x3e093992	0.13400868
29	0xbd6a1029	-0.057144318
30	0xbd761775	-0.060080964
31	0x3d07ff50	0.03320247
32	0x3daf30f1	0.08554257
33	0xbd0f9ac8	-0.03505972
34	0x3d8b111a	0.06790371
35	0x3c9f3f8e	0.019439485
36	0x3cc217db	0.023693016
37	0x3b9886f8	0.0046547614
38	0xbd10ce14	-0.03535278
39	0x3d918d20	0.071069956
40	0x3d7cc4e7	0.06171122
41	0x3d26713a	0.040635325
42	0x3d159645	0.03652026
43	0xbd411168	-0.04713574
44	0x3c3a53be	0.011372505
45	0x3c29d4c8	0.010365672
46	0x3de1a9a3	0.11018684
47	0x3cc537b0	0.024074405
48	0x3d381538	0.04494211
49	0x3d7f9811	0.06240088
50	0x3d9556df	0.0729196
51	0xbd2b0589	-0.041753326
52	0x3cde6d86	0.027151834
53	0xbd82d869	-0.06388933
54	0xbaf89ad0	-0.0018967036
55	0x3d307ddb	0.043088775
56	0x3d44383a	0.047905184
57	0x3d99a2ff	0.07501792
58	0xbdb25b45	-0.087088145
59	0x3a6c9b2b	0.00090258074
60	0x3d36b14d	0.04460268
61	0xbdb2520f	-0.08707058
62	0x3ce4feba	0.027953494
63	0xbd5c6344	-0.053805605
64	0xbd11e4b7	-0.03561851
65	0x3c883edd	0.016631538
66	0x3d3c7e7c	0.046019062
67	0x3d4c9347	0.049945142
68	0xbd5ae11e	-0.053437345
69	0xbd1a409c	-0.037659273
70	0x3dbdcb55	0.09267298
71	0xbbc29dbb	-0.005939213
72	0xbd5a6ab6	-0.053324424
73	0x3bd52648	0.0065048076
74	0xbd8d5b15	-0.06902138
75	0x3a8d55a6	0.0010782972
76	0x3db888e4	0.09010485
77	0xbc55ad1f	-0.013041764
78	0x3d0fa13a	0.035065867
79	0xbd38874a	-0.045050897
80	0x3beaf0b6	0.0071698083
81	0xbbedb1a8	-0.0072538443
82	0x3cfd4ae1	0.030919494
83	0x3d3f893f	0.046761747
84	0x37a879ed	2.0083937e-05
85	0x3ce1c669	0.02756043
86	0xbc153b1b	-0.00910833
87	0xbd9bc17c	-0.076052636
88	0x3d397df7	0.045286145
89	0xbd991f47	-0.07476669
90	0x3c5ce6ef	0.013482793
91	0xbc09b3a2	-0.008404644
92	0xbd117dfc	-0.03552054
93	0x3d99274a	0.07478197
94	0xbbf59a19	-0.0074951765
95	0x3b2b195a	0.002610764
96	0x3d3593d4	0.044330433
97	0x3cfaf7f5	0.030635813
98	0xbd1ea774	-0.038733914
99	0x3d83ba0c	0.0643197

4.weight f4 [7, 100]
0	0x3d018af0	0.03162664
1	0x3d9444cf	0.07239687
2	0xbe103888	-0.14084065
3	0xbde596b5	-0.11210386
4	0x3d4ae630	0.04953593
5	0xbe316f57	-0.17327629
6	0xbc98fbc5	-0.01867474
7	0xbc68ab73	-0.014201033
8	0xbe104a35	-0.14090808
9	0x3da72f77	0.0816335
10	0x3d59d2e1	0.053179625
11	0xbe1e61d4	-0.15467006
12	0xbc8dd882	-0.017315153
13	0xbd378d13	-0.044812273
14	0xbddaedc6	-0.10689883
15	0xbe42078c	-0.18948191
16	0x3ced8e13	0.02899841
17	0x3dfb2a10	0.12263882
18	0x3df56147	0.11981445
19	0xbe328991	-0.1743529
20	0x3def6918	0.11689967
21	0xbc9991d8	-0.018746302
22	0xbda50255	-0.080570854
23	0x3dac867d	0.08424089
24	0xbe3a2481	-0.18177988
25	0x3e1edb0f	0.15513252
26	0xbc8d3194	-0.017235555
27	0x3d546ff3	0.051864576
28	0xbdb35d86	-0.087580726
29	0xbe2259fd	-0.1585464
30	0x3e164cd3	0.14677744
31	0xbe0821c6	-0.13294134
32	0x3dd3ba6b	0.10338291
33	0x3dcdc40b	0.10047158
34	0xbe072671	-0.13198258
35	0xbd40eb13	-0.047099184
36	0xbb36e72c	-0.0027908785
37	0x3e0d2b4c	0.13786048
38	0x3d55cfa6	0.052199982
39	0x3dc68f79	0.09695334
40	0x3dc5ae96	0.0965244
41	0xbe1ab1b2	-0.15106848
42	0xbe265ecb	-0.16247098
43	0x3e0d54ce	0.13801882
44	0x3e0001cd	0.12500687
45	0xbc91f0d5	-0.017815033
46	0x3dae24e0	0.08503127
47	0x3ddb374e	0.10703908
48	0xbe02adc6	-0.12761602
49	0x3dae4f7f	0.085112564
50	0x3dcd4de8	0.10024625
51	0xbde7da51	-0.113209374
52	0xbe1e0b65	-0.15434034
53	0x3e15b6e4	0.14620548
54	0x3cbe88a1	0.02325851
55	0x3e0375ae	0.1283786
56	0x3da595dd	0.08085225
57	0x3e1bb721	0.15206577
58	0xbda65d0d	-0.08123217
59	0xbcff8d0b	-0.031195184
60	0x3d6616d0	0.0561741
61	0xbcb9ce14	-0.022681274
62	0x3cc03935	0.023464778
63	0x3db49515	0.08817498
64	0xbe01be86	-0.12670335
65	0x3e38c4ee	0.18043873
66	0x3dd967f3	0.1061553
67	0x3db880b0	0.0900892
68	0x3c4344f4	0.011918295
69	0xbde1b161	-0.110201605
70	0xbe26778d	-0.16256543
71	0x3e1164dd	0.14198633
72	0xbc90f777	-0.017696125
73	0xbdea5d7c	-0.11443612
74	0xbe4a2866	-0.19741973
75	0x3e182878	0.14859188
76	0xbe1cc86e	-0.15310833
77	0x3d552be8	0.052043825
78	0x3c344fce	0.011005355
79	0x3dea65d1	0.11445201
80	0xbd982ed5	-0.074308075
81	0xbdf9672f	-0.12177884
82	0xbe1c1f42	-0.15246299
83	0xbdec8033	-0.115478896
84	0xbaaae72b	-0.0013038864
85	0xbe25a5d8	-0.16176546
86	0xbe1f65a1	-0.15566112
87	0x3ae380b1	0.0017357079
88	0x3df1f224	0.11813763
89	0xbc6bfa0b	-0.014402877
90	0x3d9f7bb6	0.07787268
91	0xbe12f59b	-0.14351504
92	0x3c01f012	0.007930772
93	0x3e085ec7	0.13317405
94	0xbe079708	-0.13241208
95	0x3d1bec06	0.038066886
96	0xbc9f9771	-0.019481393
97	0xbdbfcfe3	-0.09365823
98	0x3dd23f35	0.10265962
99	0x3ca47c82	0.020078901
100	0xbcb9bafa	-0.022672165
101	0xbd696d80	-0.056989193
102	0xbdb87352	-0.090063706
103	0xbd3c501c	-0.045974836
104	0x3d95e131	0.073183425
105	0xbd472ada	-0.04862485
106	0x3bf445a9	0.007454593
107	0xbd62429a	-0.055239297
108	0x3d0137c6	0.03154733
109	0x3d8412a6	0.064488694
110	0x3cdac440	0.026704907
111	0x3beb85df	0.0071875895
112	0x3db14559	0.08655805
113	0xbd3540e7	-0.04425135
114	0xbd20b989	-0.03923944
115	0x3b152f7b	0.0022763896
116	0x3db956e5	0.09049777
117	0xbd0fcb51	-0.035106007
118	0xbcfb7d04	-0.03069926
119	0xbd5c9627	-0.053854134
120	0x3d21edf5	0.039533574
121	0xbd59f8b2	-0.05321569
122	0xbd2343e7	-0.03985968
123	0xbcaa8120	-0.020813525
124	0x3b054746	0.0020336672
125	0x3d2a49c0	0.04157424
126	0xbc1cad6a	-0.0095628295
127	0xbd55013d	-0.052003134
128	0xbd7b4f46	-0.061354898
129	0xbd9bfa4a	-0.07616098
130	0xbd49cc29	-0.049266968
131	0xbd9368d6	-0.0719773
132	0xbc4cef15	-0.0125081735
133	0x3a8aeb8d	0.0010598764
134	0x3cbb0b3a	0.022832502
135	0x398c7f98	0.00026797946
136	0xbd48e261	-0.049044017
137	0x3cb8af6b	0.022544583
138	0xbb441933	-0.0029922246
139	0xbd9f4a8f	-0.07777893
140	0x3ba9df14	0.0051840637
141	0x3c74531b	0.014912392
142	0x3da58c18	0.080833614
143	0xbdab58f2	-0.08366574
144	0xbbae52df	-0.0053199376
145	0x3d5a63da	0.053317882
146	0x3cfd3217	0.030907674
147	0x3d90a01c	0.070617884
148	0x3cd86e2b	0.02641972
149	0x3e3569f3	0.17716198
150	0x3d8ac84b	0.06776484
151	0x3dcb38f2	0.09922971
152	0x3d1b90f6	0.037980042
153	0x3d120659	0.035650585
154	0xbd6678b5	-0.05626746
155	0x3cdab1a2	0.02669603
156	0xbd163db6	-0.036679946
157	0xbd3f8347	-0.046756055
158	0xbca910a1	-0.020637812
159	0xbd4559ef	-0.04818147
160	0xbb93e323	-0.004513161
161	0xbc50f667	-0.012754059
162	0x3ddda6b0	0.10822809
163	0x3cf5da87	0.030011429
164	0x3c498dcd	0.012301874
165	0xbc98b9e4	-0.018643327
166	0x3b5c86e5	0.003364974
167	0xbbf8e84f	-0.0075960527
168	0xbda247d0	-0.079238534
169	0x3dd27044	0.10275319
170	0x3d18658b	0.037206214
171	0x3d2ca87b	0.042152863
172	0x3d069a43	0.03286196
173	0xbc8420cb	-0.016128918
174	0x3dcc203e	0.09967087
175	0xbd779473	-0.060444307
176	0xbd4866c8	-0.048926145
177	0x3d2a4290	0.041567385
178	0x3d100f50	0.035170853
179	0x3c82e6d7	0.015979214
180	0x3b441e84	0.0029925415
181	0x3d073b70	0.03301567
182	0x3cf60a6a	0.030034263
183	0xbd399173	-0.045304727
184	0x3d927d77	0.07152837
185	0x3c0c31b8	0.008556776
186	0x3d9056b9	0.07047791
187	0x3d1af98e	0.03783565
188	0x3da0e409	0.07855994
189	0x3d863585	0.06553177
190	0x3d85f9a2	0.06541754
191	0xbb33300d	-0.0027341873
192	0xbc5b2242	-0.013374867
193	0xbd867974	-0.06566134
194	0x3ca18cc2	0.019720439
195	0x3d8cea2e	0.06880604
196	0xbcef48f3	-0.02920959
197	0xbcaa54a2	-0.02079231
198	0xbd2c2e33	-0.042036247
199	0xbd981b36	-0.07427065
200	0xbd814e0b	-0.06313714
201	0xbe3f989c	-0.1871056
202	0x3d5d3e62	0.05401457
203	0x3c118961	0.008882851
204	0xbe208cc9	-0.15678705
205	0xbdedbaae	-0.11607872
206	0x3c1f2ca5	0.009715234
207	0x3da1d7ea	0.079025105
208	0xbdec282d	-0.115311004
209	0xbe247690	-0.16060853
210	0x3e40dbd0	0.18833852
211	0xbdd561a5	-0.10419015
212	0xbe0d9a4e	-0.13828394
213	0x3c9afd7a	0.018919695
214	0x3e4a874d	0.19778176
215	0x3d89e5a4	0.067332536
216	0x3e08d05b	0.13360731
217	0xbe219153	-0.15778093
218	0x3e3484e5	0.1762882
219	0x3e012f8c	0.12615794
220	0x3d369e7e	0.044584744
221	0xbe28f7e7	-0.16500817
222	0x3dce5f93	0.10076823
223	0x3ac75c00	0.0015209913
224	0x3e020656	0.1269773
225	0xbd3e6d85	-0.046491165
226	0xbe1e0d02	-0.1543465
227	0xbd69cb65	-0.057078738
228	0x3e147138	0.14496315
229	0xbdc438ba	-0.09581132
230	0xbdf0c48e	-0.1175624
231	0xbd6edd3d	-0.058316458
232	0xbdafe3f6	-0.08588402
233	0xbd32f72b	-0.04369275
234	0xbe0ab146	-0.13544187
235	0xbe3035e7	-0.17208062
236	0xbe2e49a5	-0.1702028
237	0x3e29c7be	0.16580102
238	0xbd846725	-0.06464986
239	0x3e4abc28	0.19798338
240	0xbe1b9288	-0.15192616
241	0xbe3cf3e5	-0.18452413
242	0x3dafba1e	0.08580421
243	0x3e332918	0.17496145
244	0x3e47794d	0.19479866
245	0xbcc67c3e	-0.024229165
246	0x3e38c0f6	0.18042359
247	0x3e43f3a0	0.19135904
248	0xbe125e0b	-0.14293687
249	0x3d449521	0.047993783
250	0x3cdde17f	0.027085064
251	0xbd8dd703	-0.06925776
252	0x3e25847c	0.1616382
253	0xbc8fe3c2	-0.017564658
254	0xbd0881e9	-0.033327017
255	0xbbe1d5b5	-0.006891931

4.bias f4 [7]
0	0xbc881569	-0.016611772
1	0x3bc1674b	0.005902206
2	0x3c2dceb0	0.01060836
3	0x3ca36acf	0.019948391
4	0xbc863f8a	-0.01638772
5	0xbd1ad459	-0.037800167
6	0xbaf608ab	-0.0018770894
