models/date-06-19-2025-15-26p1-RLbotp2-RLbotDDQNself_play-Falseexp_dir-RLbotepochs-50p1_win_rate-0.0p2_win_rate-1.0is_test-False/model.pth (torch, 117053 bytes, 6 tensors)

0.weight f4 [150, 84]
-0.095454365 -0.08224352 -0.008912221 -0.084271334 0.036231767 -0.0012459344 -0.02881096 -0.07814086
-0.06198276 -0.09876309 0.08950887 -0.088948555 0.09155666 0.07777686 -0.10186455 0.086653784
-0.11988792 -0.050917514 0.05289829 -0.052344758 0.006050469 0.047195315 -0.110934675 -0.077898376
0.106558025 -0.07533423 0.107932806 -0.006058003 0.069432355 -0.0348256 -0.04308033 0.0699121
0.032614514 -0.042301167 0.003469338 -0.0051203948 -0.10320517 -0.012354691 0.03165155 -0.053771544
-0.11131202 -0.041442305 0.03552793 0.047292493 0.050656777 -0.011425147 -0.08303179 0.028278815
0.01122738 -0.044514146 0.1055261 -0.07946737 -0.11069876 0.105053626 0.05375754 0.025107447
0.09808152 0.10625672 -0.05950262 0.013699477 -0.019074926 -0.07907961 -0.055401865 -0.09660017
0.0047988268 -0.09082382 0.0022096273 0.10683403 0.020967461 0.06643823 -0.07858501 -0.022100255
0.03701589 -0.05441029 0.04093331 0.036027346 -0.053861115 -0.11640481 -0.049225952 0.0155583015
0.07556535 0.06598794 -0.11987515 0.07101234 -0.054106805 0.09251934 0.1000458 0.002354296
-0.03604394 -0.07480714 -0.02748065 0.07240788 -0.049473666 0.042149134 0.0615091 0.108151026
0.089896835 -0.030060789 0.0973421 -0.011413701 -0.0650391 -0.09999884 0.010249996 -0.06789642
0.0071639717 -0.08833631 -0.019710062 -0.07167 0.08540213 0.040261857 0.0024933303 -0.033839937
-0.027221443 0.06330299 -0.095280215 0.09302059 0.0351833 0.04355343 0.022552853 -0.109551944
-0.12222441 -0.09855366 -0.0105216345 -0.0336274 -0.013117271 -0.08051407 -0.06671029 0.027182665
-0.10826818 -0.062436543 0.048140816 0.04222371 0.09604493 -0.06307218 0.03881676 0.07388945
-0.10641192 0.08214322 -0.055858035 0.033325683 -0.06589047 0.0076409867 0.109266244 0.06968283
-0.07310834 0.09058903 0.055201203 -0.068922736 -0.10033256 0.0059799002 -0.05221911 0.077063285
-0.034994714 0.018966759 -0.00045446333 -0.100028485 -0.03850362 -0.038655117 0.087825656 0.016307216
0.09144779 0.07921551 -0.049638215 0.027085824 -0.066603296 0.07430099 -0.04965007 0.056548495
0.016776418 -0.032152798 0.0024308502 0.042082928 -0.104196034 0.017982213 0.09735744 -0.12297385
0.037439767 0.08917373 -0.030271975 0.018276488 -0.11092534 -0.05463773 -0.026301565 0.022815293
-0.010183136 -0.079202086 -0.020257661 0.1060908 -0.019542342 0.0870274 -0.10656578 0.061990567
-0.008049947 0.025919951 -0.07553784 -0.067933775 -0.009974723 -0.10702789 -0.07104467 -0.0009217419
0.05895305 0.09764645 -0.100554496 -0.04165211 -0.04260054 -0.058413424 -0.0443718 0.09639795
-0.11127226 -0.074427396 0.0612386 0.104753315 -0.10084816 -0.0402875 -0.10166034 -0.053500496
-0.023059458 0.00086085504 0.058006756 0.071828544 0.04573412 -0.091542184 -0.04995334 0.046741147
-0.09888818 0.057802603 -0.0040949252 -0.09037372 0.014036393 0.034655362 0.04552634 0.029318003
0.050178055 -0.029288687 -0.056977212 -0.05394805 0.072850764 0.0927142 -0.025807403 0.030165395
0.09848191 -0.040883973 -0.0046888473 0.0504827 -0.0811157 0.057665154 -0.015229269 -0.025540577
-0.07640233 -0.050429765 -0.08725888 0.07242428 0.008045174 0.10194514 -0.07008967 0.045590863
00000000: 947d c3bd 4a6f a8bd 9004 12bc 7396 acbd
00000010: c367 143d 9f4e a3ba f604 ecbc 5108 a0bd
00000020: a2e1 7dbd 4e44 cabd 6d50 b73d a92a b6bd
00000030: 0f82 bb3d 7949 9f3d 5c9e d0bd 8a77 b13d
00000040: cc87 f5bd e28e 50bd e1ab 583d 7567 56bd
00000050: 0343 c63b e04f 413d b831 e3bd 2f89 9fbd
00000060: 183b da3d d548 9abd e00b dd3d 3682 c6bb
00000070: 8d32 8e3d 4aa5 0ebd 0075 30bd 132e 8f3d
00000080: cc96 053d fd43 2dbd d55d 633b fcc8 a7bb
00000090: 3b5d d3bd 546b 4abc 0ea5 013d 8d3f 5cbd
000000a0: 8ef7 e3bd 68bf 29bd bc85 113d c6b5 413d
000000b0: 7b7d 4f3d 8a30 3bbc 920c aabd f9a8 e73c
000000c0: 0bf3 373c 7754 36bd 111e d83d cabf a2bd
000000d0: 08b6 e2bd 5b26 d73d de30 5c3d 22ae cd3c
000000e0: f7de c83d 209d d93d 05b9 73bd c573 603c
000000f0: 0543 9cbc 7ef4 a1bd 11ed 62bd 4fd6 c5bd
00000100: 7a3f 9d3b d701 babd 65cf 103b cdcb da3d
00000110: f4c3 ab3c c410 883d 2df1 a0bd 980b b5bc
00000120: f99d 173d 53dd 5ebd b0a9 273d 6991 133d
00000130: 799d 5cbd a565 eebd 27a1 49bd 3fe8 7e3c
00000140: 02c2 9a3d af24 873d 1a81 f5bd eb6e 913d
00000150: 199f 5dbd c87a bd3d d0e4 cc3d 884a 1a3b
00000160: cfa2 13bd 7c34 99bd 1a1f e1bc 954a 943d
00000170: e6a4 4abd 92a4 2c3d f7f0 7b3d 497e dd3d
00000180: d51b b83d 0b42 f6bc 4c5b c73d 8800 3bbc
00000190: 3833 85bd 31cc ccbd 99ef 273c 470d 8bbd
000001a0: c0bf ea3b abe9 b4bd ff76 a1bc b9c7 92bd
000001b0: 50e7 ae3d 9ee9 243d 2467 233b bf9b 0abd
000001c0: 81ff debc ffa4 813d 4622 c3bd 9481 be3d
000001d0: 5d1c 103d 1565 323d c3c0 b83c c55c e0bd
000001e0: cb50 fabd 80d6 c9bd ef62 2cbc e2bc 09bd
000001f0: d2e9 56bc 90e4 a4bd 689f 88bd 2eae de3c
00000200: b5bb ddbd 76bd 7fbd 4e2f 453d c5f2 2c3d
00000210: 34b3 c43d fd2b 81bd 53fe 1e3d 5a53 973d
00000220: 7eee d9bd b43a a83d 65cb 64bd 8380 083d
00000230: 95f1 86bd 3e61 fa3b fbc6 df3d dfb5 8e3d
00000240: d3b9 95bd be86 b93d a81a 623d 5d27 8dbd
00000250: 287b cdbd 0af3 c33b b5e3 55bd 5bd3 9d3d
00000260: 9e56 0fbd 2d60 9b3c 0945 eeb9 bcdb ccbd
00000270: f9b5 1dbd d454 1ebd f0dd b33d b696 853c
00000280: fb48 bb3d be3b a23d 7151 4bbd 17e3 dd3c
00000290: 4f67 88bd 1e2b 983d df5d 4bbd 659f 673d
000002a0: b36e 893c a7b2 03bd e64e 1f3b 265f 2c3d
000002b0: bb64 d5bd 6f4f 933c 5663 c73d b7d9 fbbd
000002c0: 715a 193d b7a0 b63d effc f7bc 93b8 953c
000002d0: d32c e3bd d0cb 5fbd 6176 d7bc 23e7 ba3c
000002e0: 2bd7 26bc b434 a2bd 65f3 a5bc 2246 d93d
000002f0: 4317 a0bc 6c3b b23d 293f dabd d2e9 7d3d
00000300: ede3 03bc 1456 d43c 95b3 9abd dd20 8bbd
00000310: 056d 23bc 7031 dbbd de7f 91bd 0da1 71ba
00000320: c178 713d ddfa c73d 84ef cdbd 679b 2abd
00000330: e77d 2ebd ea42 6fbd 34bf 35bd 4a6c c53d
00000340: b6e2 e3bd 646d 98bd 54d5 7a3d e888 d63d
00000350: 7b89 cebd 8104 25bd 4c33 d0bd 5623 5bbd
00000360: 30e7 bcbc 01ab 613a 7e98 6d3d d81a 933d
00000370: b353 3b3d 787a bbbd e09b 4cbd a573 3f3d
00000380: e385 cabd 6cc2 6c3d b92e 86bb db15 b9bd
00000390: e6f8 653c c8f2 0d3d d479 3a3d 4f2c f03c
000003a0: 8187 4d3d d4ee efbc f060 69bd a1f8 5cbd
000003b0: c832 953d f1e0 bd3d 0c6a d3bc 6b1d f73c
000003c0: e2b0 c93d f475 27bd e7a4 99bb f3c6 4e3d
000003d0: fd1f a6bd 4c32 6c3d 2f84 79bc 793a d1bc
000003e0: d378 9cbd 718f 4ebd c9b4 b2bd 2e53 943d
000003f0: e8cf 033c 9dc8 d03d 2c8b 8fbd 7cbd 3a3d

0.bias f4 [150]
0.039963216 0.110062934 -0.03745896 0.07283675 0.056815144 -0.021655677 -0.06647994 -0.1043134
-0.034179553 0.0037417756 0.13884272 0.037300076 0.10453002 0.014208461 -0.10089235 0.103886575
0.0040569757 -0.10926907 0.04851155 0.089222275 0.08240879 -0.07117619 -0.031851802 -0.03409863
0.08447888 -0.07892632 -0.08488961 0.04236284 0.0068820156 -0.08323607 0.09250439 -0.101524204
0.08515347 -0.079715274 -0.007815056 0.074765086 0.060419876 0.05028759 0.01922455 0.04360975
0.006277891 -0.080970995 -0.014222712 0.036588967 0.0751351 -0.037022434 -0.033927467 -0.07582245
0.048822947 0.102769636 0.007468622 0.11592384 0.048662256 0.012784758 0.032471206 -0.10403208
-0.04872089 0.08298378 -0.071494 -0.01391999 -0.059717894 0.0684203 -0.014724944 -0.119225085
-0.06862215 -0.086115114 0.096913904 -0.052596092 -0.10182478 0.12053895 0.02727633 0.12376616
-0.115976416 -0.07076391 -0.013388889 -0.07915012 0.042449325 0.051893882 -0.08450364 0.025450252
0.10225673 -0.07371329 0.07736615 0.038037047 0.0022444266 0.057040937 -0.037577745 -0.067929976
0.056068745 0.01894069 0.06464116 -0.060728677 -0.09293668 -0.08777569 -0.087839946 -0.010308344
-0.01203333 0.050697852 0.117964365 0.09376359 -0.06316199 0.06608237 0.08173437 -0.027055813
-0.020423451 -0.09959717 -0.035484187 0.08006963 -0.009397695 0.055064786 -0.042250708 0.04333556
-0.038422916 0.035478678 0.057932507 -0.019899089 0.013236661 0.09275079 -0.09165763 0.075590625
-0.02880655 0.09483895 0.0788412 0.07344799 0.042207815 -0.013535605 -0.05521385 0.09363621
-0.032954223 -0.07042274 0.011621278 0.094284795 0.013554005 0.00020706472 0.0023512677 -0.12479121
0.08167976 -0.10901006 0.061928567 0.07924086 -0.06537246 0.02949582 0.03574849 0.018892622
-0.097265646 -0.05823039 -0.08907585 0.08895476 -0.015456511 0.015180355
00000000: 78b0 233d ad68 e13d 916e 19bd 6f2b 953d
00000010: ffb6 683d 3f67 b1bc a326 88bd 44a2 d5bd
00000020: dcff 0bbd 9438 753b c92c 0e3e f7c7 183d
00000030: d613 d63d 9bca 683c a6a0 cebd 7cc2 d43d
00000040: 61f0 843b 76c8 dfbd 0cb4 463d 2bba b63d
00000050: f1c5 a83d d3c4 91bd 0977 02bd 01ab 0bbd
00000060: 4303 ad3d 1fa4 a1bd 9bda adbd a884 2d3d
00000070: 8882 e13b ac77 aabd f172 bd3d eceb cfbd
00000080: f164 ae3d c341 a3bd b80a 00bc 701e 993d
00000090: d57a 773d 5cfa 4d3d ce7c 9d3c 23a0 323d
000000a0: c4b6 cd3b 1fd4 a5bd 6106 69bc 50de 153d
000000b0: 6ee0 993d d6a4 17bd 87f7 0abd cd48 9bbd
000000c0: 92fa 473d e378 d23d 58bb f43b 7a69 ed3d
000000d0: 1352 473d 2977 513c 8700 053d c50e d5bd
000000e0: 8e8f 47bd 66f3 a93d 726b 92bd ab10 64bc
000000f0: c09a 74bd f11f 8c3d e440 71bc 482c f4bd
00000100: c589 8cbd 1f5d b0bd cc7a c63d 006f 57bd
00000110: 8389 d0bd 20dd f63d 9c72 df3c 1d79 fd3d
00000120: 0b85 edbd abec 90bd 125d 5bbc 7519 a2bd
00000130: 58df 2d3d ae8e 543d 3f10 adbd 0c7d d03c
00000140: fa6b d13d fef6 96bd 2572 9e3d bccc 1b3d
00000150: 3b17 133b c2a3 693d 1feb 19bd df1e 8bbd
00000160: 57a8 653d 8229 9b3c 9662 843d a2be 78bd
00000170: 9655 bebd bec3 b3bd 6ee5 b3bd 54e4 28bc
00000180: 7227 45bc 8da8 4f3d 4d97 f13d 2007 c03d
00000190: 135b 81bd 3256 873d 5964 a73d 27a4 ddbc
000001a0: 154f a7bc 9af9 cbbd de57 11bd 8cfb a33d
000001b0: caf8 19bc 9d8b 613d 140f 2dbd a180 313d
000001c0: 5961 1dbd 1752 113d a34a 6d3d 6a03 a3bc
000001d0: 95de 583c 20f4 bd3d ffb6 bbbd 42cf 9a3d
000001e0: b7fb ebbc ec3a c23d 7f77 a13d e66b 963d
000001f0: 1ae2 2c3d 71c4 5dbc eb27 62bd 57c4 bf3d
00000200: 02fb 06bd cc39 90bd 2c67 3e3c 6318 c13d
00000210: 9e11 5e3c 831f 5939 ba17 1a3b 8992 ffbd
00000220: b847 a73d ab40 dfbd cfa8 7d3d 0849 a23d
00000230: ffe1 85bd 38a1 f13c 026d 123d b3c4 9a3c
00000240: 3633 c7bd fd82 6ebd 666d b6bd ea2d b63d
00000250: 4e3d 7dbc 06b7 783c

2.weight f4 [100, 150]
-0.074430645 -0.010268659 -0.08191776 -0.029731836 0.0102344155 -0.07522182 -0.014292054 -0.047342062
-0.052489184 0.0048798393 -0.004646584 -0.031554747 0.022085613 0.0022915932 -0.07519089 -0.06895591
0.01278017 0.02608666 -0.07289057 0.060544405 -0.011133282 -0.0779693 -0.019866636 -0.07059107
-0.046022978 0.051374566 -0.02027684 -0.05869207 -0.07213137 0.03468545 0.03375005 -0.09058849
0.07670572 0.03242785 -0.04403753 -0.023646235 -0.0336139 -0.008506004 -0.066913106 -0.07643278
-0.023811331 0.07932515 0.04314245 0.043950014 0.06327615 -0.07926478 0.026028086 0.006423985
0.027498323 0.066394836 -0.07789876 0.052594446 0.04097787 0.06863625 0.012306315 0.046504173
-0.024932146 0.07492763 0.07202587 0.024368964 0.06886074 -0.05506872 -0.012028897 -0.053787068
0.056357276 0.017422797 0.044966362 0.07524647 0.088149704 0.08812911 0.02823074 -0.05215091
-0.07103792 0.022251716 -0.024666129 -0.01829014 0.012839572 -0.033481468 -0.07224246 0.030442556
-0.013338333 -0.027280545 -0.07461784 0.028569626 0.04259065 -0.036363848 0.0019025884 0.048924305
-0.06509413 -0.060863495 0.06111223 0.025113929 -0.060124215 -0.08930983 0.0632618 0.03387769
0.041978262 0.0198099 0.063478544 0.057581384 0.05342377 -0.04455182 -0.025212847 -0.05550388
0.052139573 -0.06635165 0.053831924 0.04477234 -0.0026707433 0.029424198 -0.055465393 -0.06543177
-0.059346285 0.01006556 -0.071703464 0.056384742 -0.06599128 -0.07909445 0.04948136 0.032733157
0.055695657 0.039179996 0.07654754 -0.07996388 0.06171098 -0.004725016 -0.04861576 0.01270352
0.00094411196 -0.013985131 0.060192976 0.02294878 0.0034143808 -0.05821579 -0.04764475 -0.006512091
0.006916155 0.0627685 -0.03577562 0.037356313 -0.079330854 -0.0496755 -0.034369126 -0.03609472
0.06894621 0.075201035 0.023146834 -0.028686557 -0.05490552 -0.029334458 -0.0629476 0.03706364
-0.058404293 -0.033655394 0.0008244057 -0.034955326 -0.033303 0.007916437 0.012629696 0.023463959
0.025217209 0.019105146 -0.03208731 -0.051314276 0.048186127 -0.0656462 0.047024228 0.042538967
-0.038705796 0.04700459 -0.03614237 0.009731251 0.0706731 -0.04016802 -0.021861548 0.06979706
0.061773706 -0.089979924 -0.016845059 -0.037672542 0.049888045 -0.01711034 0.018787604 0.067373246
-0.059860636 -0.0402386 -0.0005818355 -0.010812014 -0.060453232 0.06384539 0.053513397 -0.04352676
0.014079345 -0.0420129 -0.01914007 -0.073718406 -0.06991322 0.024720011 0.0036317974 -0.06314212
-0.060977027 -0.07784125 0.0050732438 0.031578306 -0.08963427 -0.02327434 0.039866656 0.02062404
-0.09201977 -0.056732595 -0.0026466444 -0.031646907 -0.05816375 -0.071175165 -0.068132594 -0.027447835
-0.0112640895 -0.071248785 0.042815 -0.1091047 0.017686296 -0.04585075 -0.032069173 0.06834858
-0.067929104 0.07165846 -0.028568923 0.014106715 -0.028098471 0.054929916 -0.036396034 -0.0513205
-0.009724498 -0.0064616115 -0.007191924 0.038248748 0.017506761 -0.08482488 0.013033417 -0.052483816
-0.045440592 -0.027336307 -0.06668976 0.0052580293 0.062284485 0.041408308 0.00254915 0.06539285
-0.018881919 -0.06230237 0.041563485 -0.020486705 0.054159515 0.039410766 0.044768605 0.0049832948
00000000: 186f 98bd e13d 28bc 80c4 a7bd 2e90 f3bc
00000010: 40ae 273c e60d 9abd 3829 6abc c0e9 41bd
00000020: e6fe 56bd 0fe7 9f3b 5f42 98bb 8d3f 01bd
00000030: e3ec b43c 8e2e 163b aefd 99bd c238 8dbd
00000040: eb63 513c b1b3 d53c a747 95bd 69fd 773d
00000050: 5f68 36bc 5eae 9fbd 5bbf a2bc 0d92 90bd
00000060: 9782 3cbd 236e 523d 9e1b a6bc 1967 70bd
00000070: 9db9 93bd 5512 0e3d 7e3d 0a3d 7586 b9bd
00000080: e317 9d3d 11d3 043d b260 34bd c0b5 c1bc
00000090: bbae 09bd c45c 0bbc bd09 89bd ca88 9cbd
000000a0: fb0f c3bc 3975 a23d 23b6 303d ee04 343d
000000b0: ed96 813d 9355 a2bd da38 d53c 4b80 d23b
000000c0: 2a44 e13c 04fa 873d 6389 9fbd 466d 573d
000000d0: 69d8 273d 2a91 8c3d 6da0 493c 297b 3e3d
000000e0: 803e ccbc a873 993d 4d82 933d 6ca1 c73c
000000f0: dc06 8d3d bd8f 61bd da14 45bc d44f 5cbd
00000100: e3d6 663d 41ba 8e3c a62e 383d d21a 9a3d
00000110: d587 b43d 097d b43d 2744 e73c 319c 55bd
00000120: 547c 91bd 3b49 b63c 9f10 cabc 34d5 95bc
00000130: 115d 523c dd23 09bd dbf3 93bd ab62 f93c
00000140: 0689 5abc 737b dfbc 3dd1 98bd d90a ea3c
00000150: 8973 2e3d 42f2 14bd 4660 f93a da64 483d
00000160: 1250 85bd 004c 79bd d150 7a3d babb cd3c
00000170: cf44 76bd 12e8 b6bd 678f 813d 55c3 0a3d
00000180: 66f1 2b3d 5f48 a23c 0a01 823d 75da 6b3d
00000190: e2d2 5a3d f87b 36bd 2c8b cebc 0958 63bd
000001a0: 4e90 553d 60e3 87bd dd7e 5c3d 3463 373d
000001b0: a307 2fbb 040b f13c ae2f 63bd 1801 86bd
000001c0: 1715 73bd 05ea 243c 44d9 92bd b0f3 663d
000001d0: 7026 87bd 45fc a1bd f7ac 4a3d 3413 063d
000001e0: 2121 643d 347b 203d f5c4 9c3d 1ac4 a3bd
000001f0: a7c4 7c3d 4fd4 9abb 5221 47bd 6d22 503c
00000200: 487e 773a e421 65bc e98c 763d 14ff bb3c
00000210: cec3 5f3b ae73 6ebd 2427 43bd 6163 d5bb
00000220: eaa0 e23b c58c 803d 7589 12bd ef02 193d
00000230: 3778 a2bd 8978 4bbd a4c6 0cbd 0fd8 13bd
00000240: ac33 8d3d 0003 9a3d 6e9e bd3c 1200 ebbc
00000250: 9ce4 60bd d14e f0bc acea 80bd 0bd0 173d
00000260: 5739 6fbd 3dda 09bd ee1c 583a 512d 0fbd
00000270: ba68 08bd f2b3 013c c9ec 4e3c 7d37 c03c
00000280: 5294 ce3c 6582 9c3c fc6d 03bd eb2e 52bd
00000290: d15e 453d 8471 86bd 7a9c 403d 573d 2e3d
000002a0: f889 1ebd e387 403d 060a 14bd d36f 1f3c
000002b0: 0fbd 903d 3987 24bd fd16 b3bc c3f1 8e3d
000002c0: 6d06 7d3d 6547 b8bd a6fe 89bc 864e 1abd
000002d0: 6857 4c3d fc2a 8cbc 76e8 993c fcfa 893d
000002e0: 6d30 75bd 3bd1 24bd 5286 18ba e024 31bc
000002f0: cf9d 77bd 5fc1 823d dd30 5b3d 1e49 32bd
00000300: 0ead 663c b815 2cbd a3cb 9cbc adf9 96bd
00000310: aa2e 8fbd 9f81 ca3c 7303 6e3b a850 81bd
00000320: 0cc3 79bd 3c6b 9fbd 743d a63b 4158 013d
00000330: 2c92 b7bd d4a9 bebc 384b 233d bff3 a83c
00000340: dc74 bcbd 7060 68bd 5373 2dbb 30a0 01bd
00000350: 1d3d 6ebd 49c4 91bd 1a89 8bbd 48da e0bc
00000360: 048d 38bc e2ea 91bd c85e 2f3d 4972 dfbd
00000370: dae2 903c ffcd 3bbd f75a 03bd 57fa 8b3d
00000380: 6a1e 8bbd acc1 923d 6009 eabc da1f 673c
00000390: c42e e6bc 31fe 603d 0214 15bd 7235 52bd
000003a0: 8053 1fbc edbb d3bb 3baa ebbb b8aa 1c3d
000003b0: 576a 8f3c abb8 adbd 1d8a 553c 45f9 56bd
000003c0: ea1f 3abd 64f0 dfbc a494 88bd 8c4b ac3b
000003d0: 041e 7f3d c29b 293d a40f 273b b0ec 853d
000003e0: 41ae 9abc c530 7fbd 793e 2a3d bcd3 a7bc
000003f0: 5ed6 5d3d 2f6d 213d 495f 373d e84a a33b

2.bias f4 [100]
-0.02847718 0.04941309 -0.01497699 0.06891796 -0.028143808 0.060587607 0.056436557 -0.019218454
0.004813038 -0.04651005 -0.035355445 0.0532088 -0.055022407 -0.016069485 -0.035780594 -0.091477685
0.036939837 0.030799033 -0.02968344 -0.06289053 0.009333317 0.0035969743 -0.07570598 -0.032610625
0.0021186625 -0.04661919 -0.08243882 0.017616387 -0.01802239 -0.055218115 -0.047707886 0.010419042
-0.0045449836 0.019995717 -0.06753249 -0.04792137 -0.07837212 0.0015810386 0.06276096 -0.051853683
0.09118347 0.030033823 0.08579906 0.019601274 0.034549303 -0.0073618577 -0.075521134 -0.055749148
-0.074743524 -0.032091256 -0.015771657 -0.027070722 -0.031971443 0.005821124 -0.060524493 0.086460374
-0.06730523 -0.056881275 0.035454676 -0.0449922 0.05952807 0.00027062654 -0.00084960944 -0.053934176
0.05580032 -0.063678965 0.06051935 0.036253355 -0.00061416393 0.053514745 0.08117358 -0.0839438
0.0003512946 0.05885713 -0.020165976 0.022049312 -0.018668555 -0.04222126 -0.025025805 -0.03278668
0.029094437 0.051314577 0.058058064 0.021058029 0.06965725 -0.023249941 0.0022908389 0.069113456
0.035174996 -0.00851027 -0.033134438 0.04855163 0.08039037 0.04153971 0.002203277 -0.026598083
0.06623378 -0.0551891 -0.04578989 -0.063218094
00000000: fa48 e9bc 6165 4a3d 0d62 75bc dc24 8d3d
00000010: d88d e6bc b62a 783d 052a 673d 0570 9dbc
00000020: b0b6 9d3b 5281 3ebd dfd0 10bd 78f1 593d
00000030: 2d5f 61bd 27a4 83bc ac8e 12bd a758 bbbd
00000040: 3a4e 173d 414e fc3c b02a f3bc c0cc 80bd
00000050: c5ea 183c 37bb 6b3b bd0b 9bbd b892 05bd
00000060: 42d9 0a3b c4f3 3ebd afd5 a8bd 3e50 903c
00000070: b1a3 93bc 642c 62bd 5869 43bd a1b4 2a3c
00000080: 16ee 94bb 0fce a33c 794e 8abd 3349 44bd
00000090: 9081 a0bd da3a cf3a d188 803d 8764 54bd
000000a0: 66be ba3d 7e09 f63c 6bb7 af3d da92 a03c
000000b0: 9283 0d3d bd3b f1bb d3aa 9abd 3859 64bd
000000c0: 2213 99bd 1f72 03bd 9033 81bc 6bc3 ddbc
000000d0: 7df4 02bd 21bf be3b 88e8 77bd 2312 b13d
000000e0: 53d7 89bd 57fc 68bd ec38 113d be49 38bd
000000f0: b5d3 733d e1e2 8d39 53b8 5eba 15ea 5cbd
00000100: e08e 643d 1e6a 82bd 23e3 773d 667e 143d
00000110: d8ff 20ba 4732 5b3d 553e a63d baea abbd
00000120: f72d b839 2d14 713d 1e33 a5bc c2a0 b43c
00000130: ccee 98bc 33f0 2cbd eb02 cdbc 534b 06bd
00000140: 7557 ee3c 3c2f 523d 4bce 6d3d e381 ac3c
00000150: 76a8 8e3d a976 bebc e621 163b 5b8b 8d3d
00000160: a813 103d a96e 0bbc fab7 07bd 13de 463d
00000170: b5a3 a43d 8b25 2a3d db64 103b 39e4 d9bc
00000180: 93a5 873d f70d 62bd 2e8e 3bbd 7d78 81bd

4.weight f4 [7, 100]
-0.032613948 -0.09131572 0.06987505 -0.08730112 -0.0446559 -0.07193635 -0.05486833 0.01911766
0.09323802 -0.06523019 0.01520325 0.048960537 -0.084095135 -0.0008989159 -0.019261971 -0.072984815
0.017930636 -0.067185126 0.012707372 0.042874105 0.059703838 0.008315407 -0.024415258 0.0031144798
-0.05044804 0.06296354 0.043465428 0.06936413 -0.0014928704 -0.073206306 0.019871997 -0.08598368
-0.011884862 -0.062696375 0.034758464 0.048857715 -0.013625081 -0.024801673 -0.07243926 -0.00033598824
-0.085527614 0.04430994 -0.027859494 -0.031125478 -0.00748354 -0.0070544244 -0.08685251 -0.036304742
0.06887173 0.07512616 0.019989247 -0.08566509 -0.01991761 0.07481735 0.008496669 0.09141386
0.060018327 0.07272261 -0.04979357 0.0580163 0.086026266 -0.093175456 -0.024273852 -0.053218443
-0.083365574 -0.048801817 -0.0005082385 -0.04897942 0.012654672 -0.038955096 0.016963223 0.038374126
0.008397127 0.05435753 -0.069707066 0.011708104 -0.05263046 0.058185276 0.0073591424 -0.041024324
0.08422306 0.0649951 -0.0690067 0.061301537 -0.012640758 0.08485958 -0.06977291 -0.014636799
-0.06454382 -0.00987516 -0.026700417 0.039231967 -0.044855688 0.07942622 -0.080609135 -0.08256569
0.090814434 -0.09646626 0.09734592 -0.041994203 0.042404443 -0.0061145527 0.09881619 0.053964924
0.010565087 -0.022192957 -0.07851253 0.007148507 -0.048260096 0.046531633 0.023941604 0.020340955
-0.04443401 -0.02910597 -0.06095009 -0.090930015 0.08273349 -0.04038309 -0.046193082 0.01885796
0.042662244 0.064838305 -0.019409178 0.064190686 -0.078220055 0.051273525 0.06561434 0.051586777
0.049448416 -0.06200179 0.010329483 0.081143044 0.07776315 -0.05837094 0.07982963 -0.07223783
0.070472896 -0.053496886 0.05812128 -0.011875104 -0.058928143 0.065028526 0.055287547 0.068058334
0.07238164 0.057974372 -0.09056968 0.049951185 0.058092695 0.08249121 -0.022462899 -0.03363465
-0.05963577 -0.06112348 -0.08208738 0.022872213 0.036602445 -0.06539878 -0.072300605 -0.043478973
-0.059959203 0.042598575 -0.08044794 0.022666635 -0.053629626 -0.008314178 0.034920845 -0.015066405
0.041429095 0.09211195 0.025621299 0.05272168 -0.059877176 0.026867442 -0.029222472 0.041851927
0.06720886 0.037747063 -0.07887355 -0.0487703 -0.08286209 0.044427022 0.09164106 -0.031641383
-0.044165976 -0.066523485 0.04530495 0.041034482 0.004213203 -0.052755382 0.09857082 0.020617552
0.10400267 -0.101101816 -0.0091597205 -0.039410427 -0.0489255 -0.011021912 -0.042632062 0.016677957
-0.05408184 0.033379138 -0.06704179 0.061444398 -0.05329633 -0.028762108 0.0030486076 0.07604662
0.03752696 0.01633355 0.06732676 0.0035739276 0.012172586 0.066725984 0.07190514 -0.063535236
0.0052607898 -0.09664048 -0.116739936 -0.07931576 -0.016215881 -0.05144924 -0.07954257 0.06768168
0.024492448 -0.035583984 0.07011177 -0.019054413 -0.010588727 -0.09421112 -0.039225552 -0.03587557
-0.048533767 -0.040831745 0.06490288 0.058141075 0.022702793 -0.01832268 0.07188085 -0.028929142
0.07427126 0.0741467 -0.04875269 0.053695522 0.07999269 0.039898414 -0.06263957 0.042612467
0.06942611 0.028518058 -0.06397193 0.045836717 0.044454407 -0.070952475 0.038635496 0.038811233
00000000: 3496 05bd bc03 bbbd a61a 8f3d eeca b2bd
00000010: 1be9 36bd 5d53 93bd 9dbd 60bd a49c 9c3c
00000020: 93f3 be3d 6897 85bd 0d17 793c d88a 483d
00000030: 123a acbd 3aa5 6bba 48cb 9dbc 1079 95bd
00000040: 45e3 923c 5b98 89bd 9532 503c c29c 2f3d
00000050: 038c 743d 583d 083c 8202 c8bc 4d1c 4c3b
00000060: 9ba2 4ebd 07f3 803d ce08 323d c80e 8e3d
00000070: 6bac c3ba 30ed 95bd 99ca a23c 3618 b0bd
00000080: b9b8 42bc f566 80bd e45e 0e3d 071f 483d
00000090: bb3b 5fbc e12c cbbc 095b 94bd 9427 b0b9
000000a0: 1a29 afbd 577e 353d 9839 e4bc dcfa febc
000000b0: 7c38 f5bb cd28 e7bb bbdf b1bd 48b4 14bd
000000c0: 9f0c 8d3d bfdb 993d 7dc0 a33c 2e71 afbd
000000d0: 412a a3bc d739 993d 9d35 0b3c 3137 bb3d
000000e0: c7d5 753d 97ef 943d 58f4 4bbd 80a2 6d3d
000000f0: 8a2e b03d c6d2 bebd f5d9 c6bc 95fb 59bd
00000100: 92bb aabd 6ae4 47bd 4f3b 05ba a59e 48bd
00000110: 8b55 4f3c 618f 1fbd 75f6 8a3c 302e 1d3d
00000120: 1a94 093c 00a6 5e3d 94c2 8ebd 59d3 3f3c
00000130: 0a93 57bd af53 6e3d f624 f13b 1f09 28bd
00000140: 247d ac3d 271c 853d 6253 8dbd 5217 7b3d
00000150: 2f1b 4fbc dcca ad3d 19e5 8ebd 2fcf 6fbc
00000160: 8d2f 84bd 6ccb 21bc d5ba dabc b3b1 203d
00000170: 99ba 37bd 37aa a23d 6716 a5bd 3318 a9bd
00000180: ebfc b93d 1a90 c5bd 4c5d c73d 1d02 2cbd
00000190: 48b0 2d3d 965c c8bb 2560 ca3d 530a 5d3d
000001a0: 3019 2d3c 01ce b5bc 2dcb a0bd 063e ea3b
000001b0: 61ac 45bd f497 3e3d 2f21 c43c 13a2 a63c
000001c0: 7000 36bd a56f eebc cda6 79bd 8439 babd
000001d0: 2d70 a93d bd68 25bd f534 3dbd 027c 9a3c
000001e0: 9bbe 2e3d f2c9 843d ffff 9ebc 6876 833d
000001f0: d631 a0bd 3004 523d d060 863d a84c 533d
00000200: 6c8a 4a3d 97f5 7dbd fe3c 293c 532e a63d
00000210: 4942 9f3d 5e16 6fbd b87d a33d 6df1 93bd
00000220: 1854 903d 8d1f 5bbd 9410 6e3d cc8f 42bc
00000230: a35e 71bd ad2d 853d 3275 623d 2b62 8b3d
00000240: d33c 943d 8976 6d3d 997c b9bd 9d99 4c3d
00000250: 9bf2 6d3d 27f1 a83d 1d04 b8bc 7dc4 09bd
00000260: a344 74bd 9d5c 7abd 6e1d a8bd 825e bb3c
00000270: 72ec 153d ccef 85bd 5712 94bd 0217 32bd
00000280: c897 75bd d87b 2e3d e4c1 a4bd 61af b93c
00000290: bdaa 5bbd 3138 08bc 2909 0f3d 15d9 76bc
000002a0: 8eb1 293d 31a5 bc3d c2e3 d13c b0f2 573d
000002b0: c541 75bd 1c19 dc3c f763 efbc ed6c 2b3d
000002c0: cca4 893d aa9c 1a3d 7588 a1bd 5ec3 47bd
000002d0: 99b3 a9bd 1cf9 353d 4fae bb3d 659a 01bd
000002e0: 62e7 34bd 773d 88bd af91 393d c613 283d
000002f0: e90e 8a3b 0716 58bd 80df c93d 24e6 a83c
00000300: 5aff d43d 780e cfbd a712 16bc d46c 21bd
00000310: 1b66 48bd 4095 34bc f59e 2ebd 36a0 883c
00000320: eb84 5dbd 90b8 083d 354d 89bd 1fad 7b3d
00000330: 414d 5abd 839e ebbc 26cb 473b 55be 9b3d
00000340: dfb5 193d f0cd 853c 9de2 893d 8e38 6a3b
00000350: 876f 473c a2a7 883d 0143 933d c31e 82bd
00000360: b462 ac3b 72eb c5bd 5915 efbd 4d70 a2bd
00000370: 2bd7 84bc 70bc 52bd 37e7 a2bd b19c 8a3d
00000380: 63a4 c83c 83c0 11bd c296 8f3d 0018 9cbc
00000390: 577c 2dbc c2f1 c0bd f9aa 20bd 43f2 12bd
000003a0: 58cb 46bd 303f 27bd cdeb 843d 5625 6e3d
000003b0: 35fb b93c 7219 96bc 4436 933d cffc ecbc
000003c0: 881b 983d 3ada 973d e7b0 47bd d6ef 5b3d
000003d0: 35d3 a33d 856c 233d 2d49 80bd 698a 2e3d
000003e0: 472f 8e3d b49e e93c b703 83bd 48bf 3b3d
000003f0: d315 363d 884f 91bd 4140 1e3d 87f8 1e3d

4.bias f4 [7]
0.088564545 0.0047621336 0.038461994 -0.03814353 -0.020589978 -0.079409175 0.028536743
00000000: 5461 b53d ac0b 9c3b 538a 1d3d 643c 1cbd
00000010: 50ac a8bc 47a1 a2bd e3c5 e93c
